trys/best_model_1.ckpt (torch, 118114 bytes, 11 tensors)

encoder.conv1.weight f4 [64, 1, 8]
00000000: 7ac6 19bd e106 17bd 6926 cf3d b4c3 f9bd
00000010: e562 b5be 6bd8 793e a1a9 32be 26a2 c7b8
00000020: aade 073e 9fd5 723d 05bf a4be a098 df3d
00000030: d6b0 64be 8a58 6abe 6026 963d c531 2abe
00000040: fe49 2cbe 34af 14be f468 40be 23b0 4fbe
00000050: 6632 17be 1622 363d 25a4 98be d6ee 5cbe
00000060: 0abe 6b3b 4801 503d 698f 483e df6d 5dbe
00000070: bd57 103e 1582 5b3e 642b 573e 4996 9fbe
00000080: 7e39 2fbe bcc1 b6be 2f2a 9fbe 811d e83d
00000090: 505b 00be f9a6 b73d 4f96 51be 91b2 9f3d
000000a0: 06ad 47be 1638 233e 3bad 51be dbc4 fdbd
000000b0: d026 a1be a2ae 0c3d f770 be3e 0ea4 6f3e
000000c0: cba1 57be da08 11bd 7b1e d3bd 77fc bbbe
000000d0: 3268 553e 3fbb 87bc 0062 6d3d 4993 0fbe
000000e0: 63d5 9ebe 7859 0ebd 2f89 3b3e 7aad 6f3e
000000f0: 9732 e4bc 2056 ae3e eb6c 05be dce0 afbe
00000100: 3ffd 23be 77b5 c63e dc74 923d f9aa 06bd
00000110: b34d 1bbe 163b 06be 6199 96be 1936 8dbe
00000120: eee8 683e 2dd0 a73e 2621 bd3e 235e 5bbe
00000130: b630 683e 003a 44be 4285 663e 44a3 8a3e
00000140: 3e04 973e 687c 8e3e 53ea 703e c304 5d3d
00000150: 4da0 483e f8fc 01be 20ee 263e 6084 cebd
00000160: a98d 0fbc 6bdf a1be 3279 f8bd 6156 81be
00000170: fff1 2cbe 6873 76be 9d71 a6be 93ff c33c
00000180: 016a 853e ef9b b83e 441c 723e 9bb1 0fbe
00000190: 064b a4be 6c4b 0a3e c8ab 573e 8812 90be
000001a0: 3394 1b3e 2fc2 a53e d05f 413d 269c 25be
000001b0: 2bda a93e 479c 2f3e 6a2f 863e 06dd 52be
000001c0: e9e0 0d3e 6c17 94be 3535 a13e a494 ffbd
000001d0: ee93 633e e233 4c3d 3b5a ab3d 783c 4dbd
000001e0: b110 6b3e 90dd 71bd 1c19 8fbe 6f22 ebbd
000001f0: 88aa 813e ad9c 0abe 82a9 b43d f0b7 10be
00000200: c7d4 a53e a253 843e c2cf 0e3e cb85 2ebe
00000210: f1c1 92be 0543 6dbb 08b1 4abe f854 a33e
00000220: 1e1d a7be ab47 2f3e ac3e bb3e c715 643e
00000230: 4618 283e c86e a4be 3491 b53e dd1c 18bd
00000240: 00c7 9abe 1a56 b93e 6297 1ebe 1ceb 5cbd
00000250: 76c8 903e 899b 92be 7711 89be bd59 3e3d
00000260: ef79 d03c 7e11 1b3e cb42 92be 949e edbc
00000270: f801 42be dd90 24be 7ba1 91be 8517 763e
00000280: 23f2 d43d 8a44 8fbe f925 8e3e 3a4d 143e
00000290: f297 ed3d 7294 25be 3aac c63d 606f c63e
000002a0: 337c 803e c667 84be 7d77 ac3e 02c6 a23d
000002b0: 7e05 523e 5efe 8c3e 74f0 9d3e 4232 85be
000002c0: d9ca a73e c2a2 5abe 91c4 b73c 91b7 77be
000002d0: 6085 85bd 002a debb f3bc 85bc 9fe1 92bc
000002e0: a0b6 5c3d f58a c03e 2b15 6f3e ea83 813e
000002f0: 645b 3e3e 9386 923e 5b79 a53b 6697 693d
00000300: d767 b03d 2e6d acbe b10d c1be 589f 8bbd
00000310: c1d8 81be d7dd bdbd 0583 8bbd 3b68 003e
00000320: 54fd db3e 7c19 a53d 41cf ca3e c909 833e
00000330: b659 b2be 40c8 bcbe ddf0 a0be 2e09 4fbe
00000340: b50e 0bbe 8c27 7fbd 7140 3bbe 61f3 99be
00000350: 2847 42be 1b95 ecbd 4a63 d53e b8c6 f2bb
00000360: f23b 69be 8a48 273e 2c54 a4bb 5b57 a53e
00000370: ca19 8c3e 3f02 b33e 5e43 6ebe 8499 853e
00000380: 6d47 963e dbcd 1bbe 22f6 b93e 5a06 a03e
00000390: 072c ec3c 0c81 253e c6e4 09be de51 a1be
000003a0: a91a 003e dcb1 143e 3f08 52be af3b 683e
000003b0: e4a2 82be 8d09 a63e cc0f b53e 0edb ea3d
000003c0: e723 71be 1632 193e 90bd 083d 334e d23d
000003d0: 5627 053e b532 8a3e d95b 13be a216 82bd
000003e0: 8165 ed3d f647 5e3d a696 993e df96 26be
000003f0: 1a79 533c f233 bf3d 6a25 a2bd 1d0e 843e
-0.037542798 -0.036871795 0.10114748 -0.121955305 -0.35427013 0.24398963 -0.17447521 -9.519262e-05
0.13268533 0.059285756 -0.32176986 0.10917783 -0.22333083 -0.22885337 0.07331538 -0.16620548
-0.16825101 -0.1451996 -0.18790036 -0.20282035 -0.14765319 0.0444661 -0.29812732 -0.21575484
0.0035971426 0.050782472 0.19585957 -0.21623944 0.1409597 0.21436341 0.21012646 -0.31169346
-0.17111775 -0.35694683 -0.3108687 0.113337524 -0.12534833 0.089673944 -0.20467494 0.07797731
-0.19499597 0.15939364 -0.20476238 -0.12391063 -0.31474924 0.03434623 0.3719556 0.23402426
-0.21057813 -0.035408832 -0.10308548 -0.36716053 0.20840529 -0.016568778 0.05795479 -0.14021029
-0.31022176 -0.034753293 0.1831405 0.2340602 -0.027856154 0.34050083 -0.1302983 -0.34351242
-0.16014574 0.38810322 0.071511954 -0.032877896 -0.15166359 -0.13108477 -0.29413894 -0.27580336
0.22745106 0.32776013 0.36939353 -0.21422629 0.22674832 -0.1916275 0.22511771 0.27077687
0.29495424 0.2782929 0.23526888 0.05395962 0.195924 -0.12694156 0.16301775 -0.10083842
-0.008761802 -0.31615767 -0.12132491 -0.25261214 -0.16889189 -0.24067461 -0.32508555 0.023925578
0.26057437 0.36056468 0.23643595 -0.14032595 -0.32088488 0.13505334 0.21061623 -0.28139138
0.15193252 0.32374713 0.047210515 -0.16172847 0.3317426 0.17149459 0.2620805 -0.20592126
0.13855328 -0.2892412 0.31485906 -0.12479523 0.222244 0.049854167 0.083668195 -0.050106496
0.22955586 -0.05904919 -0.27948844 -0.11481177 0.25325418 -0.1353633 0.088213935 -0.14132667
0.323889 0.25845057 0.13946441 -0.17043225 -0.2866359 -0.0036203277 -0.19794095 0.31900764
-0.32639402 0.17117183 0.36571252 0.22273932 0.1641551 -0.3211577 0.35462344 -0.0371369
-0.3022995 0.36198503 -0.15487435 -0.053935155 0.2827794 -0.2863429 -0.26771137 0.0464723
0.025448767 0.15143391 -0.28566584 -0.02900628 -0.18946064 -0.16070886 -0.28443512 0.2403241
0.103977464 -0.2798198 0.27763346 0.14482585 0.11601247 -0.16169909 0.09700818 0.38756847
0.25094756 -0.25860423 0.33684912 0.07947923 0.20509908 0.27537817 0.30847514 -0.26014906
0.32771948 -0.2135115 0.022432597 -0.24191119 -0.0651958 -0.006779909 -0.01632545 -0.01792985
0.053885102 0.37606016 0.23347919 0.25295955 0.1858955 0.28618297 0.005049867 0.05702915
0.08613556 -0.33677047 -0.37705758 -0.06817502 -0.25360683 -0.09270828 -0.06812099 0.12539761
0.42966712 0.080615014 0.39611247 0.25593403 -0.3483407 -0.3687153 -0.31433764 -0.20218346
-0.13579829 -0.062293574 -0.18286301 -0.30068496 -0.18972456 -0.11551877 0.41677314 -0.007408943
-0.22776774 0.16336265 -0.005014917 0.3229321 0.27363425 0.3496265 -0.23267886 0.26093686
0.2935137 -0.15215246 0.36320597 0.31254846 0.028829588 0.16162509 -0.13466176 -0.31507772
0.1251017 0.14520973 -0.20510958 0.22679017 -0.255149 0.32429162 0.35363615 0.114675626
-0.23548852 0.14960513 0.033383906 0.102688216 0.13003287 0.2699181 -0.14390506 -0.06351973
0.11591626 0.054267846 0.29997748 -0.1626849 0.012907291 0.0933608 -0.079172924 0.25792018

encoder.conv1.bias f4 [64]
00000000: 5a55 20bc e857 943d bd49 49be bf6d 193e
00000010: af78 b1be 0724 333e d227 943d cc36 e33d
00000020: 0c8d 013e eb45 09be 6934 9f3e facc 2a3e
00000030: 855c 763e fc19 853d eb67 593e 0b16 5a3e
00000040: c81e 353e 2e89 8f3e 5753 a0bd 9f3a 683e
00000050: 513c c93d 1404 623e 9c92 a63e 86a8 da3d
00000060: acff b3bd 56f6 e9bc 1a46 b83d ffe5 b83d
00000070: 88b9 95bd 7b25 923e 1bb8 603e 2611 5fbe
00000080: 94ef fdbc 905c 833b eeb5 2bbe a262 913d
00000090: 0e7f 82bd 7e16 07be 6fa8 55bd 71ad 103e
000000a0: d77e b53e 5dfa 023e cdb3 b13e 605f e43d
000000b0: a1fb b43d 52bb 1b3e c832 853d d11b df3d
000000c0: 4f11 2bbe 2cc1 99bd 7da0 213d a689 0e3e
000000d0: e655 0a3e 3367 863e 8174 983d 31d2 c2bd
000000e0: 22de 84be ed63 6cbe 6d0c 8c3c 5fd9 ed3d
000000f0: 79a4 393e ddea 9b3e 02ca fbbc 79a0 d83b
-0.009785974 0.07243329 -0.19657035 0.14983271 -0.34662387 0.17494212 0.072341576 0.11094436
0.12651461 -0.13405578 0.31094673 0.16679755 0.24058731 0.06499097 0.21231048 0.21297471
0.17687523 0.28034347 -0.07828396 0.22678612 0.098259576 0.22071868 0.3253373 0.106766745
-0.08789 -0.028559845 0.08997746 0.09028243 -0.07310778 0.2854422 0.2194523 -0.21783885
-0.030998029 0.004008837 -0.1676862 0.07098891 -0.0637189 -0.13192174 -0.052162584 0.14128663
0.35448334 0.12790819 0.3470749 0.11151004 0.08837057 0.15208176 0.065038264 0.108939774
-0.16705821 -0.07507548 0.039459694 0.13919696 0.1350933 0.2625061 0.07444096 -0.09512747
-0.25950724 -0.23084994 0.017095769 0.11613726 0.18129148 0.30452624 -0.030735973 0.0066109267

encoder.conv2.weight f4 [32, 64, 6]
00000000: 8846 f63b ce92 ccbc bc05 843c 5edb b73c
00000010: 8a27 893c 7219 c53c d860 9d3c 6cbc 2ebd
00000020: 3671 d8bc 58ce 343c 58ea 1bbc 88f7 d93b
00000030: 6adb 693c b698 6bbc 6340 103c 6b6c 8abb
00000040: 3701 edbb 72e3 21bd 3480 ab3c 79c3 0c3d
00000050: 750c 413d a3fc 0c3d c123 e53c f6d8 8e3c
00000060: c196 013c 613d a0bd 2164 393d 9b8c f5bc
00000070: 11b7 a1bd df2c 26bd 8e69 c0bc 460a e5bc
00000080: cc69 4ebc 4c83 01bd cbea de3c 908d 4fbd
00000090: 95a1 853c 7005 83bd 5079 4dbc c230 dabb
000000a0: 590d 1f3d 6a47 f1ba ece3 7b3b 40b3 0f3d
000000b0: 9f9b ae3c 6cb6 7e3c 37e6 f33c 2bde 8bbc
000000c0: 6585 3dbd 9d4c 1c3d 6cff 51bd 563f 09bc
000000d0: 5f13 6fba f852 ab3d 87e3 933c 37db 183b
000000e0: 1c11 60bc f623 563d d9a9 603d e697 333d
000000f0: 67ce 613c f00b 833d 6672 94bc c498 7a3d
00000100: afb1 733d 9b7e 363d 0903 01bd 9206 2abd
00000110: a77c a33b 306b 4cbd 9ce0 29bd cb86 cebc
00000120: 6c4e ab3c c53e 5e3d 4d28 003d 1efa 073d
00000130: eaa6 233d f7e0 94bc 7874 953c bc0d fe3c
00000140: 22d2 e4bb 0a0c bd3d 6e07 133b 3ecd 1c3c
00000150: f9d8 cebc 127f 023d b366 803b 2f8b 443d
00000160: 267a 11bb 06df 0e3d 7c6f 21bd 4ccc b93c
00000170: 2b7e e6bc 138c e43c 158f 86bc fa06 f13b
00000180: 0b5d b53c c728 463d 5c81 3b3d 892b 64bc
00000190: e4d4 e13c bdd0 eebc de65 693d 07b2 5e3d
000001a0: 142a 153c 7eec c93b e2c5 183d ff6e d3bc
000001b0: 8845 eb3c 9da7 b93d 4e43 7f3d 8235 873c
000001c0: e16a 16bc 646f a33d 8875 5ebc ad41 0abd
000001d0: 8042 28bb e140 033d d41e 213d 71a0 b43c
000001e0: 27a4 5f3d 6b64 19bb 6c91 1c3d 69c9 08bb
000001f0: a08c 433d 0c99 40bd 0ee3 d3b9 4acc a33d
00000200: 2643 9c3d f312 303c 23ff d83b f9db 083c
00000210: 97f6 af3c 51fb 90bc 8c17 6abc 1bae 0fbd
00000220: a35e d63c 041b 723d 7936 c1bb c4fa 983d
00000230: 82eb 2f3d abf0 bb3d e8e9 123d 105e 943b
00000240: 4011 4a3d e43e b9bd d2e4 693d 443b 6f3a
00000250: 5bee e43b e257 8a3c 743e dabb 6328 b73c
00000260: 4b40 a1ba d626 783d 1771 653c 5276 af3d
00000270: 0cee eb3c 8cc7 97bd 0a51 22bd 9794 f4bc
00000280: 8189 ac3c 628a 423d 5bc2 57bc ac21 823d
00000290: 6553 3dba 848a f13c f83c a83d 7897 853c
000002a0: e1a4 51bc b453 c43d a72a bdbc bd22 423d
000002b0: 8c6f 503d ca48 86bc 0ada 793d 013b 153d
000002c0: f263 6a3d 785c 763c 45e7 213d fc12 073d
000002d0: 34af 433d dc29 563d 0fb5 8d3d 1f25 f53c
000002e0: 7b07 093d c70a 533d bb41 8d3d 4f13 cebb
000002f0: fe24 6c3d 620b ac3c 3985 09bb e4af cc3c
00000300: f807 e1bc 5b5e 07b9 7be1 453d 8330 0bbd
00000310: c503 a2bc 8ab2 68bc f51d c6ba bc10 133d
00000320: fa1e 03bd e25b 673d 77d5 ca3d 6e1c e03c
00000330: e7a0 413d df44 0f3e 87bc 82bc b938 fabb
00000340: ce95 923d 8a5f 783d ec69 2a3c b729 433c
00000350: 8475 92bc b317 d3bc 5b2f 8abd 807c 403c
00000360: 89ad b23c 56e7 dcbd 867b d63c e104 8c3c
00000370: 4823 19bc 0774 8b3d c8c2 643d 3a9e 96bc
00000380: 605f c1bc 09dc 253d b8a2 56bc 4172 48bd
00000390: 9fcb 513d 492e acbd 74fc 07bd 9a2b 243d
000003a0: 6aae 69bd 36e7 353d 1ec8 d5bd 226e 563d
000003b0: fea9 a8bd 2fc9 eb3c 1da1 a4bc 0139 f33c
000003c0: a997 023c 6844 3d3c 6977 fa3c 1f5f 903d
000003d0: 2fb8 82bb ce41 213c 7ef9 4fbd 4857 3ebd
000003e0: 5e02 173d 5fee 35bc 6a16 483d f9f4 173c
000003f0: 8396 9dbc 241e a9bc 48be 5d3d 3b72 f5bc
0.007515732 -0.024972346 0.016116016 0.02244347 0.016742487 0.024059985 0.019211218 -0.04266016
-0.02642117 0.011035524 -0.009516321 0.0066518225 0.014273504 -0.014379671 0.0088044135 -0.00422435
-0.007232811 -0.03952355 0.020935155 0.034366105 0.04713102 0.03442062 0.02797115 0.01743744
0.007909478 -0.07824207 0.045261506 -0.029974272 -0.07896245 -0.040570136 -0.023487832 -0.027959
-0.012598466 -0.031619355 0.027211567 -0.050672114 0.0163124 -0.063975215 -0.01254113 -0.0066586444
0.03883109 -0.0018408124 0.0038435413 0.035083055 0.02131444 0.015546422 0.02977286 -0.017073711
-0.046269793 0.038159 -0.05126898 -0.008376917 -0.0009120013 0.083654344 0.01805283 0.0023324022
-0.013675954 0.05228039 0.05484948 0.043846034 0.01378212 0.06398761 -0.018120956 0.061180845
0.059495624 0.044554334 -0.031497035 -0.041510172 0.004989225 -0.04990691 -0.04147397 -0.025210759
0.020911418 0.05425908 0.031288434 0.033197515 0.039954104 -0.018173678 0.018244013 0.031012408
-0.0069830576 0.09230812 0.0022434848 0.009570418 -0.025249945 0.031859465 0.0039184927 0.0479843
-0.002219805 0.03488066 -0.03941296 0.022680424 -0.028136333 0.027898824 -0.016425649 0.007355568
0.022139093 0.048378732 0.045777664 -0.013926395 0.027567334 -0.029152269 0.056981914 0.054369
0.0091042705 0.0061622253 0.03729809 -0.025809763 0.028719679 0.09065173 0.062320046 0.016505007
-0.009180755 0.079802305 -0.013577826 -0.03375404 -0.0025674403 0.032044295 0.03933604 0.02204916
0.054599907 -0.00234058 0.038224623 -0.0020872003 0.047741532 -0.047020957 -0.00040414225 0.079979494
0.07629995 0.010746705 0.0066222115 0.008353227 0.021479888 -0.017697962 -0.014287841 -0.03507815
0.026168173 0.059107795 -0.005896386 0.07469705 0.042949207 0.09176763 0.0358676 0.0045278147
0.049332857 -0.090451986 0.057102986 0.0009125958 0.006986422 0.016887609 -0.006660277 0.022358125
-0.0012302486 0.06058391 0.0140040135 0.0856749 0.028800033 -0.074111074 -0.039628066 -0.02985601
0.02106166 0.047495253 -0.013168897 0.06354079 -0.00072222046 0.029484995 0.08214754 0.016307577
-0.012795658 0.095862776 -0.023091627 0.04739641 0.05088763 -0.01639213 0.060998954 0.036433224
0.05722422 0.015036695 0.039527196 0.03297709 0.04777451 0.052286014 0.069193 0.029924927
0.0334544 0.05152395 0.06897303 -0.006288923 0.057652466 0.021001521 -0.0020983948 0.024986215
-0.02746962 -0.00012909753 0.048310738 -0.03398181 -0.019777188 -0.014202723 -0.0015115129 0.03590463
-0.032011963 0.05648411 0.099039964 0.027357306 0.04727259 0.13991116 -0.015959037 -0.0076361564
0.07157479 0.06063799 0.01040123 0.011911801 -0.017878301 -0.025768137 -0.067473136 0.011748433
0.021811264 -0.10786311 0.026181947 0.01709217 -0.009346791 0.0680924 0.05584982 -0.018385995
-0.023605049 0.040493045 -0.013100319 -0.048937086 0.05121958 -0.08407266 -0.033199742 0.040080644
-0.0570511 0.044409953 -0.1043856 0.052351125 -0.082355484 0.028782455 -0.020096356 0.029690268
0.007970729 0.011551954 0.030574517 0.07049393 -0.0039892416 0.009842349 -0.050775044 -0.046469957
0.036867492 -0.011104195 0.0488495 0.009274715 -0.019236809 -0.020644255 0.054136544 -0.029961696

encoder.conv2.bias f4 [32]
00000000: 593f 343d e649 24bc 0af8 fabc a680 4e3d
00000010: 364a fe3c c4a5 e3bc 31ca ac3c eec2 e7bc
00000020: be92 2cbb cf6d 0d3d bfe6 123d 2f47 8cba
00000030: 7026 b83c cfee 813d 6ec0 083d b4c4 0d3a
00000040: 36bb b7bb 176a 053d 8b80 1f3d 0b5a 103c
00000050: 981b 523c f67c 5dba 9a67 903d 7e91 1d3b
00000060: be1b bc3c 6483 dd3c c6ed 47bc 7573 733d
00000070: e5f0 3f3d 2dc7 8d3d a2e0 e63c c2ca 0f3b
0.044005726 -0.010027384 -0.030635852 0.050415657 0.031041246 -0.027789004 0.021092506 -0.028291192
-0.0026332582 0.03452855 0.035864588 -0.0010702367 0.022479266 0.06344377 0.03338664 0.0005408034
-0.005607034 0.03257188 0.038940948 0.00881053 0.012823962 -0.00084491016 0.070510104 0.002404302
0.022962447 0.027040191 -0.012202686 0.05943628 0.046860594 0.069227554 0.028183285 0.0021940921

encoder.conv3.weight f4 [8, 32, 5]
00000000: 8c0f 4cbd 3821 5bbd 28a2 923c 54d8 e13d
00000010: ef05 bebc 2ff2 f8ba e1f8 9b3c 6b8d e43d
00000020: b1bc 0e3d bacd 8fbb 77fc 973d 324c 823d
00000030: a280 f2bb 33c9 35bd acb5 febc a0c1 953d
00000040: 761c fabd 34f5 383d 6dae 8f3d ae0c 21bd
00000050: 09fd 503d b8ba 6b3d ecf0 933d d947 703c
00000060: 82d8 83bd 242d 7ebb a68d fdbc 85a2 db3c
00000070: 3fe9 b53c 0038 8bbc a232 873d 3848 653d
00000080: d9a2 abbd a24b a43d bf33 13bd dcee 83bd
00000090: 1ea5 c13c b606 183b 65c7 23bd 37d6 4ebc
000000a0: 3895 823d b18e 70bc 0b20 bd3d af8a 563b
000000b0: 78a6 803d ca0e 5ebc f65f c73d 556d 093d
000000c0: aefc 76bd 28d5 443d 5776 f93c e1e7 81bd
000000d0: 7863 72bd 476d 583c e0bb 233d 10c5 8d3d
000000e0: 9353 babc 447a 8dbd daab b33d 5022 23bc
000000f0: 0f89 a13b 4bc6 823d 2647 be3c 98a7 e63d
00000100: d8cb 753d c076 943c d9f8 953d 9020 4c3d
00000110: 2176 3fbd 317c a63d 6d98 9d3c 2a3c 7cbc
00000120: 7960 c63d b290 e63d a0e4 84bd db23 303d
00000130: ce05 23bd 8c35 d1bc 377d c03c 7e7a bcbc
00000140: 1ebc 15bd a7cd 373d 7470 19bc 66de 6a3d
00000150: f89e 8f3d baa7 4f3d 7e31 113d 6203 cf3d
00000160: 0e55 283c c0a8 e53c a1ff f0bb 382c 13bd
00000170: 984b a63d 644c 88bc 542f e23d 9c80 973b
00000180: 1c00 edbb 2f52 7c3d e1a4 fbbc 6497 92bc
00000190: 74db 0a3d 6a1f 28bc e3b0 993d 402f 303d
000001a0: d660 c23b 072d 14bd 19ba 6c3b 2969 e13c
000001b0: e429 1f3c 464c 7fbd b696 243d cfec 9c3d
000001c0: fd3c c9bd a213 b6bc 9d30 233a e112 973d
000001d0: e9c5 85bc e5c5 8a3d 5fb6 aa3c d9ec 3b3d
000001e0: 3b06 10bc 2611 a5bc cefe e63c 4d70 513d
000001f0: 479a 54bd 0191 27bd 0880 b13d db34 d9bc
00000200: d1a4 933d e2e0 8bbb 4d6c 523d 68c9 553d
00000210: 1348 cabd e742 143c bc94 043d 9060 75bd
00000220: 58c7 fa3d f741 053d 41c1 e9bb fe76 013d
00000230: 6d11 1abd 3075 c4bd 34f9 fbbb 7828 bdbd
00000240: db74 e5bc 484c 573c 9afd 37bd 36e7 a43c
00000250: cb41 b9bd 45aa 72bd 819b 433d fd33 33bd
00000260: 1db5 c73d 09e8 513b 0cf7 95bc a820 873d
00000270: 5754 333c 72c2 c4bd 9aba 55bc a368 183d
00000280: 233b a43d 5e5b f83d a4ae d7bb 5104 a3ba
00000290: 8564 583d 7de0 88bc 4a3d a03d 5100 87bd
000002a0: e13e f33c 1450 4d3d 9c49 c53d 8fb1 88bb
000002b0: 16ca ccbc 7d42 713d 90be 91bd 3f01 183e
000002c0: 695f 2bbe 7411 fa3c a4ef cf3d 462a 1b3d
000002d0: c251 bc3d b0b8 4abd 3ff6 1ebd 8c76 4fbc
000002e0: 3fb8 78bc e5fa 8cbd 7118 acbc b20d 983d
000002f0: 4f3f 843d beb1 d63d d27a 3fbd 3bb4 333d
00000300: dd6d 923d 1abc 6c3c f2fd b9bd 9062 033e
00000310: d8ce a13c 0fae f3bc a7b7 a43a bec7 f0bd
00000320: a9fa 053d 7c5b 833b d679 6d3d 5808 a33c
00000330: a4c9 64bd 814e 7dbd a8c8 0cbd 4a30 703d
00000340: b18a b93d 5417 fbbc 9053 eb3c f177 523c
00000350: 419d 7f3c ebbd 553c 213a 4a3b 751c 7b3d
00000360: dc31 25bc 80c9 253e 1c23 46bd 65f8 55bd
00000370: 0add 3c3d a60c c83d 1deb 983d 743f 94bb
00000380: 5ccb 023d df5f ca3c 28a0 283b 28ff 84bc
00000390: 6faf 0cbd b4ba 60bd a9c7 6abc 430d 16bd
000003a0: 0f16 3bbd da89 9cbd ce62 ac3c 774b af3b
000003b0: 0dc3 7d3d 72a1 1fbd bae4 f23c 184b 583c
000003c0: 42f0 913d 90d6 d23a 3db0 b1bc 4ccd 27bd
000003d0: c9d4 1abd 18b3 a53d 23e8 243d a8c0 6c3b
000003e0: f0a7 64bd 33f4 c0bc 965b 183d 0846 bcbd
000003f0: 90e6 373d 47ad 11bd d5af 9c3d bdd0 2c3d
-0.049819514 -0.053498477 0.017899588 0.110275894 -0.023196189 -0.0018993075 0.019039573 0.11159786
0.03484792 -0.004388538 0.07421201 0.06362189 -0.007400588 -0.04438133 -0.031092487 0.07312322
-0.1221246 0.04515572 0.07015691 -0.039318733 0.051022563 0.057551116 0.072236866 0.014665567
-0.0643778 -0.003878423 -0.030951332 0.026810894 0.022205947 -0.016994476 0.06601454 0.055977076
-0.0838067 0.08022238 -0.03593802 -0.06442043 0.023638304 0.002319736 -0.03998508 -0.012624315
0.063761175 -0.014682458 0.09234627 0.003273647 0.062817514 -0.013553331 0.097351 0.033551533
-0.060299568 0.048054844 0.030451937 -0.063430555 -0.059176892 0.0132096475 0.039974093 0.06922352
-0.02274493 -0.06908086 0.087730125 -0.009956911 0.0049296687 0.06385478 0.023227286 0.11262435
0.060008854 0.01812303 0.073228545 0.04983574 -0.046743516 0.081291564 0.019237721 -0.015395204
0.096863694 0.11258067 -0.06488919 0.043002944 -0.039800458 -0.025538228 0.023497207 -0.023007628
-0.036556356 0.04487386 -0.00936519 0.057341002 0.07012743 0.050697066 0.03544759 0.10108067
0.010274185 0.028034568 -0.007354692 -0.035930842 0.08119887 -0.016637988 0.110441834 0.0046234857
-0.007232679 0.061601814 -0.030718269 -0.017894454 0.033900693 -0.010261396 0.075044416 0.04301381
0.005931954 -0.036175754 0.0036121665 0.027515965 0.009714577 -0.0623286 0.04018279 0.07662355
-0.09826086 -0.022226159 0.00062252005 0.07376648 -0.016329722 0.06776027 0.020838914 0.045880172
-0.008790548 -0.020149779 0.028197672 0.05113249 -0.051904943 -0.04090977 0.08666998 -0.026514461
0.072091706 -0.0042687515 0.051372815 0.05219403 -0.09877028 0.009049154 0.032368407 -0.059906542
0.12245053 0.032533612 -0.0071336334 0.03160762 -0.037614275 -0.09592664 -0.0076896194 -0.092362344
-0.028009823 0.013140745 -0.044919588 0.020129781 -0.09045752 -0.059244413 0.047755722 -0.04375075
0.097513415 0.0032029173 -0.018306278 0.065980256 0.010945401 -0.096074 -0.013044978 0.037209164
0.08019092 0.12126802 -0.006582098 -0.00124372 0.052830238 -0.016708607 0.0782419 -0.06591857
0.029693069 0.050125197 0.096331805 -0.0041715573 -0.024998706 0.0589013 -0.07116425 0.14844225
-0.16735615 0.0305259 0.1015313 0.037882112 0.091952816 -0.049492538 -0.038809057 -0.012662541
-0.015180646 -0.06883792 -0.021007748 0.07424487 0.06457388 0.104831204 -0.04674799 0.043873053
0.07149861 0.014449144 -0.09081639 0.12830567 0.019751951 -0.029746084 0.001256694 -0.11756848
0.03270975 0.0040087085 0.05797752 0.01990144 -0.055856362 -0.061842445 -0.03437105 0.058639802
0.090596564 -0.030650772 0.02872637 0.012845979 0.015601457 0.013045768 0.0030857401 0.061306436
-0.010082688 0.16190147 -0.048373327 -0.05223884 0.046109237 0.097680375 0.07466719 -0.0045241658
0.03193222 0.024703918 0.0025730226 -0.01623495 -0.034346994 -0.054865554 -0.014329829 -0.03663374
-0.045675334 -0.076434806 0.021043207 0.0053495723 0.061953593 -0.038972326 0.029650081 0.0132014975
0.07125904 0.0016085673 -0.021690482 -0.04096727 -0.037800584 0.080908 0.040260445 0.0036125574
-0.05582422 -0.023553943 0.03719672 -0.09193045 0.044897616 -0.03556564 0.07650725 0.042191256

encoder.conv3.bias f4 [8]
00000000: 610a 85bd d0cc 033d f96c 323d 3efe 863d
00000010: edea 6dbc fc4b 6d3d e9b0 6dbd ff61 a53d
-0.0649612 0.032177746 0.043560956 0.065914616 -0.014521343 0.057933792 -0.058030043 0.08075332

decoder.deconv3.weight f4 [8, 32, 5]
00000000: fba3 463d 93e6 92bd b853 50bd f985 89bb
00000010: 4926 763d 9176 c73d 3237 283d 0645 afbc
00000020: 4958 333d 9da1 64bd 1cfa bdbc aeb2 acbb
00000030: 157e 8d3d 2dbf 9bbd 02c9 1fbc c3f4 32bd
00000040: 2ac1 5fbd 46e8 c7bc c680 30bc 6535 1f3b
00000050: b85a 753c 89de 52bd 6f30 b6bd 2fcf 95bc
00000060: 329c 9cbd 4919 993d d853 bc3d d356 bebd
00000070: 3781 95bd ad7a d1bc addf b23b 5a91 4e3c
00000080: d520 04be 88dc d4bc bdfd 86bd a938 8e3d
00000090: 975a 25bd 192a 9d3c f6de d43d 64b0 91bd
000000a0: f4e6 a5bb 1f6b e03c 1487 db3b 1c87 92bd
000000b0: 4aa6 0ebd 3b24 43bd 54f4 a7bc 1f0d 20bd
000000c0: fd41 a13d a958 503d 58c8 14bd 986b 543d
000000d0: 5e79 5dbd 4336 813d 886c 9fbd 9934 343c
000000e0: 523d c3bd 88f0 443d 3925 62bd db74 dabd
000000f0: c6db ae3c 0dec ee3c b776 dcbd 7fbb 46bd
00000100: 32aa 8fbd 52b3 48bd a71f 42bb 0395 003c
00000110: 2a9a 9dbd 91eb 803d 2f0a 023d cbdc 0dbd
00000120: a3ad 583d 8092 6e3d f312 403d df47 95bb
00000130: 7773 adbb 0b85 0c3d ae4f 9c3c ad23 673d
00000140: 9861 80bd c271 8f3c 776e 013d cd96 ae3d
00000150: 9578 f23c 19ad 8fbd 5000 723d 889e cabd
00000160: 3ea1 c9bd 9601 17bd a57c 9b3d 722b 61bc
00000170: 05bf a93d 68d4 833d d063 c5bb 5f6b 783c
00000180: 96f1 a83d 6b87 6abd 6ff8 0dbd 8cfa af3c
00000190: e99f 913d ecf9 dfbb d6c1 c63d 7d0b 463d
000001a0: 672c 5cbc 0be1 8abd 2ae3 773d a39a 3fbd
000001b0: 2f44 debc ccf7 82bd 54e2 c43c 7c2a a0bd
000001c0: ef13 f6bd 2ff7 95bd ded1 f6bc 45b5 ffbc
000001d0: fd03 793c a1ef 01bd bed0 963d cbc3 f53c
000001e0: 7079 533d ae2c 31bd 5548 af3d e01f 873d
000001f0: 5f16 d53c 5da6 b73c fba8 0abd b1d0 ffbc
00000200: 8217 9bbd 5d13 bd3c a99d 243d ff66 853c
00000210: cb3e 993b 5c4f 8f3c cc6c 2f3d 424f ec3c
00000220: 8398 823d f143 743d 47a8 e13c 1ea2 e2bc
00000230: 1525 69bd 1ab1 cbbc 84c4 6a3c ec32 19bd
00000240: dd8d 9bbd 383f 4c3b 58fe afbb a7dc 9c3d
00000250: da8d 5a3d 6a0d 76bd 5397 b4bb 0f50 11be
00000260: 5bc7 6e3d f9b7 40bd b4ef 5abd 48d0 db3b
00000270: 525b cb3d b4ff 11be 588b 84bd fc10 043c
00000280: d4e4 9e3d 29f5 56bd 8724 033d 6768 4b3d
00000290: 5ccf d9bb 6eff 1d3d 3da7 bd3d 0764 82bd
000002a0: 27d4 383d c09d 173d ac9c fb3c 485d a4bd
000002b0: a734 c93c 8fea 94bd 9f8b 0c3d fdae 32bd
000002c0: 62c3 70bd 3051 973d 3cdd 99bd c714 0e3d
000002d0: c21e 993c cd25 8e3d 551a 633c 0e38 9b3d
000002e0: a1fd 2cbd 0e67 473d bd7f 643d c8e9 8fbc
000002f0: c544 65bd 6b37 0e3d 2ca0 7aba 6373 bbbd
00000300: 7181 9cbb ea73 2f3c 1177 a13c b9d4 8d3d
00000310: 5913 673d 0a4c 243c acdc b23b 5a10 25bd
00000320: d436 923c 49c3 393d 69b2 743d 17ab 873c
00000330: 78a9 93bd d441 a63a bc75 b83d 8ed6 833c
00000340: a93d 8ebd 8d0d 353c 30e6 61bd af1a ef3c
00000350: b586 5f3d 2607 073d 1e0f a1bd 436a 2e3d
00000360: 6ae8 5c3a f315 263d 30cd 6d3c 7206 44bd
00000370: 50a7 54bd 0755 59bc b5ae 063d 8216 5dbd
00000380: ea41 373c a108 e73d d999 8bbd ff16 35bd
00000390: 7574 0e3d a729 2bbd 3c37 84bc 7fbd a3bd
000003a0: 9608 983c e729 423d bb29 3c3d c2a6 2a3c
000003b0: fdeb 8b3d dfcc 5d3d 2975 60bd a26f 413d
000003c0: d2ee 99bc 5332 cbbd e85f ae3c 5937 f13c
000003d0: 90eb 9fbd 1273 83bd 5d73 ddbc f7d7 66bc
000003e0: e10f 173d 7a57 573d 7269 9c3d b4ff 563d
000003f0: 5201 573c 03e3 083b d68d 963d 6263 b4bc
0.048496228 -0.07172885 -0.05086109 -0.004196879 0.060095105 0.097394116 0.041068263 -0.021395218
0.043785367 -0.05581819 -0.02319055 -0.0052703237 0.06908814 -0.07604823 -0.009752514 -0.043690454
-0.054627575 -0.024402749 -0.0107728895 0.00242933 0.014975242 -0.051481757 -0.08895957 -0.01828727
-0.076469794 0.07475526 0.091956794 -0.09293904 -0.073000364 -0.025571192 0.005458793 0.012607897
-0.1290315 -0.025984064 -0.065913655 0.06944401 -0.040369596 0.019185113 0.10394089 -0.07113722
-0.005062932 0.02739483 0.006699452 -0.07154676 -0.034826554 -0.047641974 -0.020502247 -0.039075013
0.078739144 0.050865803 -0.036323875 0.051860422 -0.054070823 0.06309178 -0.077843726 0.010998868
-0.0953318 0.04808095 -0.05521128 -0.1066682 0.02134503 0.029165292 -0.107648306 -0.048518654
-0.07014884 -0.04899914 -0.0029620917 0.007848027 -0.0769542 0.06294931 0.031747993 -0.034634393
0.052899968 0.058245182 0.04689307 -0.004555687 -0.0052933055 0.034306567 0.019080963 0.056430507
-0.062686145 0.017510299 0.031599488 0.08524857 0.029598514 -0.07015438 0.05908233 -0.09893519
-0.09845208 -0.036866747 0.075921334 -0.013743268 0.08288387 0.06436998 -0.0060238615 0.015162318
0.08249204 -0.05725805 -0.034660753 0.021481775 0.071105786 -0.006835213 0.0970494 0.0483508
-0.013438321 -0.06781205 0.060519375 -0.046778332 -0.027132122 -0.0639492 0.024033703 -0.07820603
-0.12015521 -0.07322537 -0.03012937 -0.031214366 0.015198705 -0.03172267 0.07364033 0.030000588
0.051629484 -0.0432555 0.08558718 0.065978765 0.026011644 0.022418195 -0.03385256 -0.031227442
-0.07572843 0.023080522 0.04018942 0.016284464 0.004676675 0.017493896 0.042828366 0.028846387
0.063767456 0.059635106 0.027546061 -0.027665194 -0.05692013 -0.024864722 0.01432908 -0.03740208
-0.07595418 0.003116561 -0.0053708963 0.076592736 0.053357936 -0.060071386 -0.0055112033 -0.14190696
0.05829559 -0.04705045 -0.053451255 0.0067081787 0.09929527 -0.14257699 -0.0647189 0.00806069
0.07758489 -0.052479897 0.032017257 0.049660113 -0.0066470336 0.038573675 0.09260414 -0.06366735
0.0451242 0.037015676 0.030714355 -0.080256045 0.02456124 -0.07271301 0.03431284 -0.043623913
-0.05878008 0.07388532 -0.075129 0.034687784 0.018691424 0.06940804 0.0138612585 0.07579051
-0.042234067 0.048682265 0.055785883 -0.01756753 -0.055973787 0.03472082 -0.00095606106 -0.09152868
-0.004776173 0.010708788 0.019710096 0.06925339 0.056414936 0.010027895 0.005458435 -0.040298797
0.01784841 0.045352254 0.059740458 0.016561074 -0.07210058 0.0012684413 0.09006831 0.016093519
-0.069453545 0.011050594 -0.055151165 0.029187528 0.054571826 0.0329658 -0.078642115 0.042581808
0.00084269664 0.040548276 0.014514253 -0.04785771 -0.051917374 -0.013264901 0.032881457 -0.053976543
0.011185149 0.11280943 -0.068164535 -0.044211384 0.03477903 -0.04178777 -0.016139619 -0.07995128
0.018558782 0.047403242 0.045938235 0.010415735 0.068321206 0.05415046 -0.054799233 0.047225602
-0.018790636 -0.09921708 0.021285966 0.029445337 -0.07808602 -0.06418432 -0.027032549 -0.014089576
0.036880378 0.05257366 0.076372996 0.05248995 0.013122873 0.0020887263 0.07351272 -0.022020046

decoder.deconv3.bias f4 [32]
00000000: eaa4 803b ade3 0ebd 5ff4 7d3d e84c 4c3d
00000010: b4f5 43bc 43c9 973c f00c 85bc 40e9 593d
00000020: 434d 5ebc 1247 c23c e13b 333d 368d aebd
00000030: ab9e 85bd 602c ffbc b22e 17bd 1655 3d3d
00000040: 03ea 8fbc d583 8fbc 4517 453d 470f 673d
00000050: b431 bb3c a8aa 443d 74dd 6ebd 9a94 d7bb
00000060: fe6b 953c 67bd 113c fbe8 aa3c f2e6 173d
00000070: 28e2 a43d 7af8 cbbc b000 0fbd c34c 6dbb
0.0039259093 -0.034885097 0.06200063 0.04987803 -0.011960436 0.018528586 -0.01624152 0.05320096
-0.013568225 0.02371553 0.043758277 -0.085230276 -0.06524404 -0.03114909 -0.036909766 0.046223722
-0.01756764 -0.017518917 0.048117895 0.056411054 0.022850849 0.048014313 -0.058316663 -0.006578994
0.018239971 0.008895255 0.020863047 0.03708548 0.080509484 -0.024898756 -0.034912765 -0.0036209084

decoder.deconv2.weight f4 [32, 64, 6]
00000000: b4bf 063d a69a e1bc c60a 85bd a75e 29bd
00000010: eec3 31bd 6469 93bc 22a9 95bc 11c0 81bc
00000020: 51bb 663d ea9a acbd 8f7a 8339 3fe2 c13c
00000030: 6fd9 0ebd b5ca 15bd 9ea2 0abc acf1 133d
00000040: fec5 2e3d d261 003c cb40 a13b 39de 0a3d
00000050: 3aac 84bc 4246 31bb 5e4b 263b 8863 ba3c
00000060: f137 2b3d d5ec ecbc f97b 51bc edf1 e9bb
00000070: 7fe1 13bd a72b 4dbd e1bb 43bd bed3 4dbd
00000080: 09c6 6d3d 5d78 03bd 2805 993d edae e23c
00000090: d55f afbc 5ad3 c93d f3b3 de3c 3dff 2bbd
000000a0: bcd8 58bd 01ac 5e3c 0519 6a3a 6644 e13c
000000b0: a322 53bb eb20 9f3d e038 c73a 38ee 28b9
000000c0: 0d4b e5bc cd9a fd3c 17c7 b63c fadc d53d
000000d0: 3ab1 37bc 0f1d 553c 7068 333b 82ad 3b3c
000000e0: db86 f03c 983a 583d a0db f63c 18bc cf3c
000000f0: 887c 12bd 9ed4 413d 2355 e63a a54f afbc
00000100: 0f9c 00be bfd7 d1bc 4824 323d 2a81 6a3c
00000110: 06f5 0abc be14 aa3c a9d3 2abc 2b9d 3dbc
00000120: a3d1 8c3b e9ec 1c3d 002a 413d 5d23 4c3d
00000130: e8bf 6c3c 551e 3e3d c05f 70bc a101 8c3c
00000140: de99 b4bd fa30 0abd f65a aebc 48c7 ecbc
00000150: bd2e 9f3c c64d 103d d324 0b3a 49a1 743d
00000160: 681e 5dbd 5c3f 8b3c 0dcb c83b 9abf 90bd
00000170: 85c2 103d 23d6 c33b 3ef4 1c3d 28ab 68bd
00000180: a8d4 623d ce48 f33b bc80 383d 3ac0 52bc
00000190: d4b4 433d 01a2 e4bb df25 06bd 0350 d43b
000001a0: 9b6c 10bd 90e8 72bc ac40 2dbb 52d4 c4bc
000001b0: e7af 6d3c 8660 293d 9380 533c 625f 26bd
000001c0: f297 34bd 3458 5dbd c0b8 9fbd aae0 5a3d
000001d0: 4139 b2bd 417c 4c3d 102c 613d 03c8 39bd
000001e0: 8fbd 623c 912e 1dbd 40ab 563d f581 8bbd
000001f0: f4b7 5c3d 185a 84bc caf5 d33c 9f2c eb3c
00000200: 90ad 2cbd c04f 043d b08c 0ebd ef73 6cbd
00000210: af04 32bd 748a 8abd 61f0 243d c90c b3bc
00000220: 8c41 853c fb34 35bc a457 a23c 58d7 aeba
00000230: b94f 6ebd 5cff 2b3d 1f6f 6cbd 5f12 78bb
00000240: b86e 69bb af06 9e3b d3e1 a73c f141 2c3a
00000250: 2b24 4d3c ce78 dbbc 67b3 e23c af68 783b
00000260: 0fcc 37bd faaf c53d 1dd8 dc3c 8a4d 523b
00000270: 16cb 403d 5992 86bd 5f46 4bbd 8e7f ca3c
00000280: 0b4b a4bb 69d1 503d 51d4 3cbd e59e 6eba
00000290: b254 003d e493 13bd a688 31bd 8065 17bd
000002a0: 207c 16bd c645 41bd 8bb1 8abd e8ee 20bd
000002b0: ab33 0fbd 416e ef3c ab3c cd3b 7f8b 143c
000002c0: 70df 2a3c 6bed a23c 9975 bd3c 750b cd3c
000002d0: df32 19bd 614f fa3c cf87 3a3d fbd7 a13c
000002e0: 6b56 813d b2f4 873d 812f 143d 46b6 4d3d
000002f0: c4ee 75ba a12d 19bd 4d8c 173d 0217 fcbc
00000300: 0555 1ebb de74 4a3d 2550 3dbd 55bd 84bc
00000310: c99f a83c bdd2 5a3d 781a 923d 86a6 2fbd
00000320: 41d5 913d 7116 9cbc 9f38 e93c 942b 3c3c
00000330: 334a f6bc f6ed bb3c e1aa 41bd e9b9 893d
00000340: 29f1 08bd 9ecd 7ebd 5674 033c bea3 063d
00000350: 32f5 46bc ef5e 6fbc 7a27 133d d97e 97bc
00000360: e4ad 003d cb54 143c 917e 4d3d c02e 32bd
00000370: 5ff7 47bd aaaf 3e3d 86ce 70bc d87e c1bc
00000380: 9674 babc 3869 3abc 3d19 17bd f92e 2abd
00000390: 4398 d5bc 8db7 fc3c 3b1b a7bc b66b f5bc
000003a0: 316b 69bd cdd9 483c b747 f1bb 0f67 53bd
000003b0: 31fe 103d 23e1 e93c d587 c8bc 23db 7a3d
000003c0: e643 6f3d 7be9 a2bc 05cd 22bc 7115 0dbd
000003d0: 7699 b43d 5224 b0bb b3e7 d7bb 6309 93bc
000003e0: eb73 af39 4255 47bd 6707 833c e069 49bd
000003f0: d628 5d3d 8533 113d 56a4 b7bc 0cdf 55bd
0.032897666 -0.027539562 -0.064961955 -0.041350033 -0.043399744 -0.01799459 -0.018269125 -0.015838655
0.056330983 -0.08427985 0.0002507758 0.023667453 -0.03487533 -0.03657027 -0.0084616225 0.036119148
0.04266929 0.007835822 0.004921054 0.033903334 -0.016195405 -0.0027049934 0.0025374512 0.022752538
0.041801397 -0.028921524 -0.012785905 -0.0071394355 -0.03610372 -0.05009046 -0.047786597 -0.05025076
0.05805019 -0.03209721 0.074716866 0.027671302 -0.021408001 0.09854765 0.027185416 -0.04199146
-0.05294107 0.013590814 0.000893012 0.027498435 -0.003221669 0.077699505 0.0015199445 -0.00016110472
-0.027989889 0.030957604 0.02231173 0.104425386 -0.011211688 0.013007416 0.0027375482 0.011454942
0.02936118 0.052790254 0.030134022 0.025358245 -0.035763294 0.04732191 0.001757298 -0.021400282
-0.12559532 -0.025615571 0.04349163 0.014313022 -0.00848127 0.020761844 -0.01042644 -0.011573116
0.0042974516 0.038311873 0.047159195 0.049838413 0.014450051 0.046415646 -0.014671266 0.01709062
-0.0881841 -0.033738114 -0.021283608 -0.028903618 0.019431466 0.03523042 0.00053079164 0.059724126
-0.053984076 0.016997986 0.006127721 -0.07067795 0.03534176 0.005976455 0.038318865 -0.056803852
0.055378586 0.0074244505 0.045044646 -0.012863213 0.047779873 -0.00697732 -0.03275096 0.0064792647
-0.035259824 -0.014825955 -0.0026436253 -0.024027023 0.01450727 0.041351818 0.012909072 -0.040618308
-0.04409022 -0.054039195 -0.0779891 0.053436913 -0.087023266 0.049923185 0.054973662 -0.04535676
0.01383914 -0.038374487 0.05240941 -0.06811897 0.05388637 -0.016156241 0.025874037 0.0287078
-0.04215771 0.032302618 -0.03480214 -0.05772775 -0.043461498 -0.06764689 0.040268306 -0.021856682
0.016266607 -0.011059995 0.019817181 -0.0013339324 -0.0581815 0.041991577 -0.05772316 -0.0037852747
-0.0035618972 0.004822574 0.020493424 0.00065711053 0.01252083 -0.026791003 0.027673436 0.0037904193
-0.04487234 0.096527055 0.02695852 0.0032089674 0.047068678 -0.06570882 -0.049627658 0.024719026
-0.0050138286 0.05098096 -0.04610092 -0.00091026566 0.03133077 -0.03602971 -0.04334321 -0.036962032
-0.03673947 -0.04718568 -0.06772145 -0.03929034 -0.034961384 0.029227378 0.0062633357 0.009066462
0.010429248 0.0198886 0.023127364 0.025029877 -0.03740203 0.030555429 0.045539673 0.019756308
0.06315311 0.06638469 0.036178116 0.050222658 -0.0009381587 -0.03739703 0.036999036 -0.03077269
-0.0024159562 0.04942786 -0.04621901 -0.016203562 0.020584004 0.053423632 0.07133955 -0.04288342
0.07120753 -0.01905367 0.028469382 0.011484999 -0.030064678 0.022940617 -0.047282103 0.06724913
-0.033433113 -0.06220781 0.008023342 0.032871 -0.01214342 -0.014610036 0.03592632 -0.018493103
0.031415835 0.009053419 0.05016953 -0.043501616 -0.048819896 0.046554245 -0.0146976765 -0.023620054
-0.02276067 -0.011377625 -0.036889303 -0.041548703 -0.02607358 0.030849243 -0.020398727 -0.029958587
-0.05698699 0.012258959 -0.0073632854 -0.051611956 0.035398666 0.028549736 -0.024478832 0.06124414
0.058414362 -0.019886723 -0.009936576 -0.034444276 0.08818333 -0.0053754235 -0.0065889 -0.017948812
0.00033464967 -0.048665293 0.01599474 -0.049173236 0.053994022 0.035449523 -0.022417229 -0.052214667

decoder.deconv2.bias f4 [64]
00000000: 4485 77bb 80ab 5ebd 495a d63c e0f4 c53c
00000010: c75a 09bd 31a2 0f3d a9e6 f13a c006 fabc
00000020: 5069 09bd 8d43 9fbc 8b80 6fbd 767d c6bc
00000030: 3ffd f13c 71d4 5cbc 1ccd 233d a27e b2bd
00000040: e540 cfbc f103 0a3d 383d f73c 3d36 62bc
00000050: 858c f9bc 21ee 4cbd 86ff f13c 6cdf 2f3d
00000060: f025 08bd f747 69bb f0ec 2ebd d11a 473c
00000070: 4714 113c 1ef9 1abc a861 ffbc bb4a 35bd
00000080: 18e1 d33c 2df7 33bd d2c8 a1bb 9142 883c
00000090: 0ef6 13bd 0b24 86bc 2e8e 353c 9a05 d7bc
000000a0: 1962 afbc 273b 413c f35a 5bbd e306 57bc
000000b0: b2ba 3fbd 553f dabc a59a f7bc 0c88 fb3c
000000c0: cb57 1e3d 6eb8 823c f0af b7bc 1b2f 02bc
000000d0: e207 7ebc 08dd 4fbc 65f7 49bb d375 f33c
000000e0: c2a6 8f3c 9662 313d c4d4 a3b9 5db1 583d
000000f0: a6fa 02bd 3518 fb3c 23ce 8f3c d379 d2bc
-0.0037768641 -0.054362774 0.026166098 0.024164617 -0.033533838 0.035066787 0.0018455583 -0.030520797
-0.0335477 -0.01944139 -0.058472198 -0.024229746 0.029539702 -0.013478384 0.03999053 -0.087155595
-0.025299499 0.033695165 0.030180559 -0.013806877 -0.030462513 -0.050031785 0.029540788 0.04293768
-0.033239305 -0.0035595873 -0.04270643 0.01215239 0.008854932 -0.009458808 -0.031174496 -0.04426072
0.025864169 -0.043936897 -0.0049372697 0.016633304 -0.036123328 -0.016374609 0.011081262 -0.026247788
-0.021409081 0.011793888 -0.053553533 -0.0131242005 -0.046808906 -0.026641527 -0.030225107 0.03070452
0.038657945 0.015957084 -0.02242276 -0.007945801 -0.015504809 -0.012686975 -0.0030817625 0.029719269
0.017535571 0.04330691 -0.00031248305 0.05290352 -0.03197732 0.030651191 0.017554348 -0.025692856

decoder.deconv1.weight f4 [64, 1, 8]
00000000: 945b 423e 136a 973c a29b 8b3d 69c1 40bb
00000010: 700a 69be 24f3 593e 180b 613d 53e6 a7be
00000020: fcf2 50be 4d3c 76bd e1b8 9ebe cefa f1bb
00000030: 6c9b a43e 3959 c33e e2e6 b5bd 651c 963e
00000040: 629d 25be afb4 1ebe 41c7 8b3d 0b62 9e3e
00000050: 115d 37be 9e1d bc3d ea16 b43e bafa 9e3e
00000060: 9353 e63d 7fba 1c3e 63a6 293b 1f72 4fbd
00000070: ad1a a83e 768e 723e dc40 8e3e 5a3e a7bd
00000080: d381 b83e 74b3 163c d964 723e 9020 3dbe
00000090: 581d 5a3e 41fb 51be 07d7 31be 5711 293e
000000a0: a59f 3dbe 3e06 86be 72be 1f3e a9bf ae3d
000000b0: 7439 9c3e a58f 1c3e f5e9 d13d 9464 1cbe
000000c0: daba 8cbe 8d96 573e 7729 3bbd 8187 34be
000000d0: 83e3 8fbe 04a3 55bd e7eb 08be 89a6 883e
000000e0: e2a3 61be 023b 6fbe f507 02be c346 51be
000000f0: b41d a7be a2c6 193e 796a 783e b668 a0be
00000100: 18f9 643e 1089 bdbd 46f8 18bd aded 95be
00000110: 8719 1f3e 702f e73c 1fb7 e6bd de17 01be
00000120: 503c 65be 1348 6ebe c50b 91be d10d 553e
00000130: ee22 9cbe ad77 41be 546f 2c3d f873 f33c
00000140: bf15 a33e 1514 8cbe cabd af3e f6cc a3be
00000150: a1f6 7ebe 60cf af3e c349 3a3e 7f0d 13be
00000160: a66a 5abe f0cf 19be 5091 8abe c83f 3abe
00000170: abcd aa3e 91b4 27be 3eae 53be c0a8 813e
00000180: b361 42be 512a 9f3e d2e9 88be 4bde 453e
00000190: d68c 7fbe 2cef b7be b828 2abe ecfc aa3d
000001a0: d726 44bc ebc5 3ebe 62fe d73c b3ca 45be
000001b0: 4d1f e4bd d4be 443e 395b c03e c51e ad3e
000001c0: c46a acbe 1ab3 62be 855e 7c3e 5bc9 4dbe
000001d0: 3139 66be 3697 56be ee0d e63d 3897 84be
000001e0: 420d 2fbe c196 723c bb4e bd3d 38b4 3d3e
000001f0: defd f33d d93d 9b3e ee11 4fbe 86f9 5cbd
00000200: 02c1 0dbe c2df 08bd 27b3 a7be 57bd 0f3e
00000210: 6fa1 dbbb cbd4 e93d d0f1 a7bd 99b7 39be
00000220: 99ef c53d 9502 663e a31f a93e 1af0 1f3e
00000230: 6cc5 02be b92c 98be 276f 673e c008 2d3e
00000240: 18a1 a03e ca74 9cbe c743 12be 0e53 9abe
00000250: b70b 483d 1b3c 7dbd 0e98 7b3e 3b7f 40be
00000260: ea98 b33c de0f adbe d5f1 83be a7cd aebe
00000270: b1e3 813d 8184 883e 2fb4 373a 251f 273d
00000280: bd88 c5bc 6567 d83b 502d 48bd 77c4 013e
00000290: 5d09 1c3e 53e2 b83e 4615 823e b0cd 303e
000002a0: f66d 89be 6210 8ebe e9e4 abbe 3929 e2bd
000002b0: 406d dfbc 008d 493e d875 5fbe 7640 5e3d
000002c0: d8ff dbbb 86e3 673d 1a46 073e 46fd 2f3e
000002d0: 0a26 a2bc f6bc 7dbd 2785 f3bb 891f 77be
000002e0: 79b8 433e 6881 793e 0e98 80be 8050 3abc
000002f0: 8fdc 89be 8389 5dbe 180b 7a3e 3863 963e
00000300: 5969 983e 46e1 e63c ed1e 343d 7f92 263e
00000310: 75dc 07bd c3f5 173e f32b a23e 8d3a 4e3e
00000320: ee8b 64be 76ef a4be 21f2 8bbe 4579 aebe
00000330: f8a3 80be 9c01 a5be 5c1a 77be 45b1 113c
00000340: e922 9c3e 913b ffbc 8d83 a3be 84a8 663e
00000350: 0645 5fbe a5ed c3be f100 7c3e 1c90 7bbd
00000360: 4685 9bbe dadf 94bd a7cc 74be bb70 383d
00000370: 6f9b c83d dde4 613e c5c9 9f3e b1b7 8fbe
00000380: 00d6 033e 8f0c 8d3c c9dd 25bc 9351 babd
00000390: 287a adbe 6734 9c3e c891 853e 8ad7 69be
000003a0: 1dff 32bd 85e8 cf3d 5ada 7a3d f79d 043d
000003b0: 5856 013e a1bc 55be fa2e 8dbe be26 8fbe
000003c0: 05a2 143e 4ad9 283e 6d71 46bd ad02 8ebe
000003d0: e453 45be b381 c0be 1cac 3cbe 3840 933e
000003e0: d8ae 86be 12af 963e 88f4 323e c68f 253e
000003f0: 32fe 9d3e 008b 593d 7bf7 143d a195 cbbd
0.18980247 0.018483197 0.06816794 -0.0029412156 -0.22757888 0.21284157 0.05494222 -0.3279291
-0.20405191 -0.0601161 -0.31000426 -0.0073846346 0.32149827 0.3815401 -0.08881928 0.29318538
-0.16173318 -0.15498613 0.06825114 0.30934176 -0.17906596 0.091853365 0.35173732 0.31050664
0.11246409 0.15305518 0.0025886528 -0.050645944 0.32832852 0.23687157 0.2778386 -0.081661895
0.36036548 0.009198058 0.23671283 -0.18469453 0.21300256 -0.20506002 -0.17367183 0.16510521
-0.18517931 -0.26176637 0.15599993 0.0853265 0.30512583 0.15289171 0.10249702 -0.15272743
-0.27486306 0.21053524 -0.04569384 -0.17629816 -0.28103265 -0.052157417 -0.1337124 0.26689556
-0.22035173 -0.23362353 -0.12698348 -0.2043715 -0.3263985 0.15017179 0.24259366 -0.31329888
0.22360647 -0.09254658 -0.037346147 -0.29282895 0.15537082 0.028220862 -0.11265396 -0.12606761
-0.22386289 -0.23269682 -0.28329292 0.20806052 -0.304954 -0.18893309 0.04209836 0.029718384
0.31852528 -0.2735907 0.34324485 -0.3199231 -0.24898769 0.34337902 0.181922 -0.14360617
-0.21329746 -0.15020728 -0.2706399 -0.18188393 0.33360037 -0.16377474 -0.20671937 0.2532406
-0.18982582 0.31086972 -0.2674089 0.1932308 -0.24956068 -0.3592466 -0.16617095 0.08349022
-0.011972151 -0.18630187 0.026366416 -0.19315605 -0.11138783 0.1921342 0.37569597 0.33812538
-0.33675206 -0.22138634 0.24645431 -0.20096342 -0.22482754 -0.2095612 0.112331256 -0.2589662
-0.17094901 0.01480645 0.09243532 0.18525779 0.11913656 0.30320624 -0.20221683 -0.0539489
-0.13843158 -0.033416517 -0.3275387 0.14037071 -0.006702594 0.1141754 -0.08200419 -0.18136443
0.0966484 0.22461922 0.3303195 0.15618935 -0.12770623 -0.2972162 0.22600995 0.16897869
0.31372905 -0.30557853 -0.14283668 -0.3014149 0.048839297 -0.0618249 0.24569723 -0.18798535
0.021923501 -0.33801168 -0.2577044 -0.34141275 0.06342257 0.26663592 0.00070077454 0.040801186
-0.024113053 0.0066041225 -0.04887134 0.12672602 0.15237947 0.36110172 0.25406855 0.17265964
-0.26841706 -0.27746874 -0.33573082 -0.11043019 -0.027273774 0.19682693 -0.21822298 0.054260693
-0.0067138486 0.056613468 0.13210335 0.1718646 -0.019793529 -0.061947785 -0.0074316445 -0.24133123
0.1911334 0.24365771 -0.2511601 -0.011371732 -0.26926085 -0.21634488 0.24418294 0.29372573
0.29767874 0.02818359 0.043974806 0.16266821 -0.03316923 0.14839844 0.31674156 0.20139523
-0.22319004 -0.32213944 -0.27333167 -0.34076896 -0.25125098 -0.3222779 -0.24131149 0.008892362
0.30495384 -0.031156333 -0.31936303 0.22525221 -0.21803674 -0.38267246 0.24609734 -0.06141673
-0.30375117 -0.07269259 -0.23906194 0.045029383 0.097952716 0.2205996 0.31208625 -0.28069833
0.12874603 0.017217902 -0.0101236785 -0.0909759 -0.3388226 0.3050873 0.26087785 -0.22836128
-0.043700326 0.101517715 0.061243393 0.03237721 0.12630594 -0.20872737 -0.27574903 -0.27959245
0.1451493 0.16489139 -0.048448015 -0.27736416 -0.19270283 -0.37598953 -0.1842503 0.28759933
-0.2630527 0.29430443 0.17476094 0.16168126 0.30857998 0.053111076 0.03636883 -0.09940649
