trys/best_model1.ckpt (torch, 153762 bytes, 11 tensors)

enc_conv1.weight f4 [32, 1, 3]
000000 77 1f c5 bd 21 da a7 bc 66 e2 99 3e 3c be ca bd
       -0.09625142 -0.020489754 0.3005554 -0.098995656
000010 32 1c f2 be 06 42 ff 3e 82 cc 94 be 18 6d 22 bd
       -0.47287136 0.4985506 -0.29062277 -0.03965482
000020 e9 0e 94 3d 1b 75 bf bd 8e 82 0e bf 09 e7 7f 3e
       0.072294064 -0.09348508 -0.5566796 0.24990477
000030 c8 31 92 be aa 0b a2 be 2b db ad 3d 75 bf 85 be
       -0.28553605 -0.31649524 0.084890686 -0.26122633
000040 dc 88 6a be 89 bd 57 be d3 ca 7a be a4 e6 80 be
       -0.2290377 -0.21068396 -0.24491434 -0.25175965
000050 da 3a 3e be 66 51 ca 3d 5b 09 fc be d6 cb d2 be
       -0.18577138 0.09878807 -0.49225888 -0.4117114
000060 d7 4c 1b bc b0 ea 6a 3d 98 a3 c9 3e 94 6c b9 be
       -0.009478769 0.05735272 0.39382625 -0.3621565
000070 1b 2b 6d 3e a1 54 c5 3e 5f 62 da 3e 16 40 0f bf
       0.23160975 0.3854113 0.42653176 -0.5595716
000080 5e fe fc be e1 7b 13 bf 16 95 d5 be 6c 49 7d 3e
       -0.49412817 -0.576109 -0.41715306 0.2473504
000090 dd 71 15 bd 46 71 91 3e 5f 38 a2 be ed ed b9 3d
       -0.03648554 0.28406733 -0.31683633 0.09078584
0000a0 b1 c4 a2 be da 40 a5 3e 12 80 60 be 19 70 f2 bd
       -0.3179069 0.3227604 -0.21923855 -0.11837787
0000b0 19 ae f8 be f6 c2 e4 bb b3 87 0c 3f b1 45 a2 3e
       -0.48570326 -0.006981249 0.5489456 0.31693795
0000c0 a7 f1 89 be 84 e9 67 bc b3 b9 13 be b2 4b fa be
       -0.2694218 -0.014154796 -0.14426307 -0.48885876
0000d0 2f 6d db 3e 54 a0 55 3c 73 ce 09 3e 5c 3e 6b be
       0.42856738 0.0130387135 0.1345766 -0.22973007
0000e0 6e e3 a6 be 4d c6 69 3e 0f 44 91 3e 16 02 5e 3e
       -0.3259539 0.22829552 0.28372237 0.21680483
0000f0 b3 8f 65 be a8 c0 21 3f c3 41 1c 3a 76 57 0f bf
       -0.22418098 0.63184595 0.0005960727 -0.5599283
000100 ce 2e 9b be ae 97 25 3f 74 86 d3 bc f2 5b 90 bd
       -0.30309147 0.6468457 -0.025820948 -0.07048787
000110 15 49 5d be d0 9c a4 be 28 e3 08 bf 54 ba 05 bf
       -0.2160991 -0.32150888 -0.5347161 -0.5223744
000120 96 f2 c3 3e 64 67 fb 3e 17 a5 13 3f e4 35 eb be
       0.38271016 0.49102318 0.5767378 -0.45939553
000130 39 64 87 3e ad fb c6 be d6 9d d4 3e 27 a0 ce 3e
       0.2644365 -0.38863888 0.4152667 0.40356562
000140 d9 ea 00 3f 3f c8 01 3f c8 54 c2 3e f8 b0 90 3c
       0.5035835 0.50696176 0.37955308 0.01766251
000150 f9 99 c3 3e ec 9a 28 be 82 87 5f 3e 46 d5 77 be
       0.3820341 -0.16465348 0.21829036 -0.24202451
000160 2f 8a 9a bc b8 f4 03 bf 09 60 3d be fd b3 97 be
       -0.01886472 -0.51545286 -0.18493666 -0.29629508
000170 40 d5 43 be 03 a2 d4 be 98 03 03 bf 29 7f 3f 3d
       -0.19124317 -0.41529855 -0.5117736 0.04675213

enc_conv1.bias f4 [32]
000000 3a 7f bc 3e ff 56 04 3f ea 6b ab 3e a7 ba 99 be
       0.36815816 0.51695246 0.3348077 -0.30025217
000010 ac cf 11 bf 01 4e 68 3e c3 29 a4 3e e8 b0 f9 be
       -0.5695751 0.22686006 0.32063112 -0.4876778
000020 07 ba 4b 3e c7 6b f3 3e 7d 9c d8 3c b8 7e ac be
       0.19895183 0.47543165 0.026441807 -0.3369043
000030 35 87 f2 3e f2 35 69 3e bb af c6 3e fd e5 c9 be
       0.4736878 0.22774485 0.38805947 -0.3943328
000040 47 89 a7 3e 57 5f c9 be f2 f7 10 3f 5a 26 68 be
       0.32721922 -0.3933055 0.56628335 -0.2267088
000050 ee d2 ac 3e 49 ea c6 3d b3 af 1b 3e be 6d ba bd
       0.33754677 0.09712655 0.15203743 -0.09102963
000060 84 af 5d 3e 59 97 76 be 61 e7 0f bf c1 0b 5d be
       0.21648985 -0.24081172 -0.5621243 -0.21586515
000070 18 04 e2 3e 36 00 1b be c3 fb 36 3e 0a 0b 5a be
       0.44143748 -0.15136799 0.17869477 -0.21293274

enc_conv2.weight f4 [64, 32, 3]
000000 49 84 a2 3d 91 8c 4e 3d c9 82 17 3d 52 55 59 bd
       0.07935388 0.050427023 0.03698996 -0.053059883
000010 04 0c b3 bd 2f f0 b9 3b 85 87 7f bd 58 50 b7 3d
       -0.08742526 0.005674384 -0.0623851 0.08950871
000020 a6 32 b5 bd be d2 38 3d 24 ec f3 3d 6c 6b 91 3d
       -0.08847551 0.045122854 0.119102746 0.07100567
000030 67 a4 10 3d 90 85 ad bd 37 c2 ea 3d 7c 9a cf bc
       0.035313036 -0.08472741 0.11462825 -0.025342219
000040 7d 1d 83 bd 90 cf 05 3e f9 9f 3f bd 73 bb 08 3c
       -0.06402109 0.1306746 -0.04678342 0.008345473
000050 5b eb e2 3d 5e ae 94 bd fc 08 34 bd 09 d3 16 3d
       0.11080047 -0.072598204 -0.04395388 0.036822353
000060 2a 14 71 ba 08 88 35 bb e9 34 a5 bd ef f7 ef 3b
       -0.0009196425 -0.002769949 -0.080667324 0.007323257
000070 37 47 66 bd 14 fc 41 bd 02 95 db bd f1 36 1e 3e
       -0.05622026 -0.04735954 -0.1072178 0.15450646
000080 00 0d 50 3d 08 5a b2 bd 35 27 d9 3d 92 49 94 3d
       0.050793648 -0.08708578 0.10603181 0.07240595
000090 f6 8b 76 3c 9e 54 6e bd 62 25 2e 3c b7 f1 cc 3d
       0.015048018 -0.058186166 0.01062903 0.10007041
0000a0 6d d2 66 3d 71 db a7 bd 4b 49 b4 3d d8 b0 c4 3c
       0.05635302 -0.08196152 0.08803042 0.024010107
0000b0 b3 04 82 3d 40 6c bd 3d 8d ae 96 3d e3 20 8d bd
       0.063485526 0.09249163 0.07357512 -0.06891038
0000c0 22 c5 aa 3d 7c b1 76 bd ff 5f b7 3c 91 7b 86 bd
       0.08338381 -0.060227856 0.022384642 -0.06566537
0000d0 c9 e4 c4 bc a8 40 90 3b 1f a8 75 bc 6c 51 29 bc
       -0.024034875 0.004402239 -0.0149936965 -0.010334354
0000e0 0e 69 10 3c dd 04 e9 3d 07 41 4b 3d a5 05 84 3d
       0.0088141095 0.11377881 0.04962256 0.06446389
0000f0 a5 42 34 3d 2b ef 89 3d 3b 12 e3 bb be 7b b5 3c
       0.04400887 0.06735071 -0.0069296635 0.022153731
000100 a7 07 a2 3c 01 ff 3f bd 38 30 b3 bd 18 4d 15 3d
       0.01977904 -0.04687405 -0.08749431 0.036450475
000110 7e 2e d2 bc 27 11 38 bd 5d 9b e3 3c e3 9f ec 3d
       -0.025656935 -0.044938233 0.027784044 0.115539335
000120 ad bd c5 3d 1c 6f 6f bd f6 4d ce 3d 0a 4a 91 3d
       0.096553184 -0.05845557 0.100734636 0.070942
000130 d7 62 5c bd 77 fd 18 bd be 98 9a bd 72 69 84 bd
       -0.0538052 -0.037351098 -0.075486645 -0.064654246
000140 fb c5 fc bc 1e 9f 3d 3b 46 4c 0a bd 66 90 84 bd
       -0.030856123 0.0028933953 -0.033764146 -0.06472854
000150 fc ed 08 bd 6a 4e 41 bd ae 57 c1 3d fe c1 6a bd
       -0.033430085 -0.047193922 0.09440552 -0.05731391
000160 ad b3 a6 bc d9 7a e9 3d 6b 21 6d bc c8 58 e5 3d
       -0.020349348 0.114003845 -0.0144732995 0.11198574
000170 d8 0f c3 3d ec e4 a7 3d 01 dd ed bc 13 c0 05 3e
       0.09524506 0.0819796 -0.029036047 0.13061552
000180 ad e8 b9 3d cb 68 43 bd f8 3a ca 3d 8d b6 9d 3d
       0.090775825 -0.04770736 0.09874529 0.077008344
000190 d0 01 4a 3b 21 e3 58 3d 3e de 1c bd 69 46 b5 bd
       0.0030823834 0.052950982 -0.038297884 -0.0885132
0001a0 de 78 e2 3c 99 cc b4 3c b4 37 85 bd 65 57 41 3d
       0.027645525 0.022070216 -0.06504765 0.047202487
0001b0 8a 06 bc bd e3 bb b2 3d 3b d8 c4 3d 0d a8 97 3c
       -0.09180935 0.08727243 0.09611555 0.01851275
0001c0 32 f4 6c bd 55 7e 3b 3d ff e6 37 3c 40 7d 00 3d
       -0.05785007 0.045774776 0.011224507 0.031369448
0001d0 e9 32 fc 3c 01 54 89 3d 12 93 1f bd 6f 6b 0b bd
       0.030785995 0.067054756 -0.038958617 -0.034038004
0001e0 4e 99 44 3d 7d a1 7f 3c 8d b8 bb 3d 92 9f 46 bd
       0.047997765 0.015602467 0.0916606 -0.04849202
0001f0 8a de f0 b9 fc b0 d0 3c cd b8 9c bd d6 16 fa 3d
       -0.00045942172 0.025475018 -0.076524355 0.12211387
000200 54 69 ca bc ad 26 d4 bd 7c 1e 26 bc 91 a7 41 bd
       -0.024708427 -0.10358939 -0.010139104 -0.047278944
000210 54 8e 0e 3c 3d 3e 0b bc 66 5e d1 bd e0 70 6d bc
       0.008700926 -0.0084987255 -0.10223083 -0.0144922435
000220 01 3f f0 bb f2 78 cc bc 78 61 af 3d af 71 89 bc
       -0.0073317294 -0.024960015 0.085635126 -0.016777841
000230 61 cc 7e 3d 49 ec 33 3d 70 9f b0 bd 99 49 be 3c
       0.06220663 0.04392651 -0.0862416 0.023228453
000240 eb 2f a5 3d a8 69 87 bd 17 cb 88 bd 64 13 c9 3d
       0.0806578 -0.06611949 -0.06679361 0.098181516
000250 12 be a7 3d cb c4 5a bd 91 bd 6c 3d 17 4b 13 bc
       0.0819055 -0.053410333 0.057797972 -0.008990071
000260 a7 c3 d1 bd 5a 8d 07 3d 08 ff 05 3d 92 3f 02 bd
       -0.10242396 0.033093788 0.03271392 -0.031798907
000270 ed e7 32 3d cc 03 ac bd 9b b9 9c 3d 86 80 ad 3d
       0.043678213 -0.08399162 0.07652589 0.084717795
000280 f1 74 83 3d 9b 38 1e 3d c8 a5 b1 3c bd 4a 89 bd
       0.06418789 0.038628202 0.021685496 -0.06703708
000290 b8 c8 09 bd af 58 06 bd 0a 1a fd bc 57 ac e9 bd
       -0.033638686 -0.03279942 -0.030896205 -0.11409824
0002a0 ba 6c c7 3d 88 f6 88 3d cf 02 af bd f4 31 95 3c
       0.09737535 0.06687647 -0.085454576 0.018212296
0002b0 f7 a8 1b 3d 48 28 b2 3d 5c 28 a1 3d 23 37 ba 3d
       0.038002934 0.08699089 0.07869026 0.09092548
0002c0 83 d7 24 bd e9 d6 e0 3d 70 d9 b1 3d 7b 35 d8 bd
       -0.04024459 0.10978491 0.08684051 -0.105570756
0002d0 3f cb 92 bd 31 ec be 3c e8 b5 6d 3d 42 bc 99 bd
       -0.07167672 0.023305984 0.058034807 -0.075066105
0002e0 77 68 b2 3c 87 e2 d6 bc 90 66 70 3c 89 c9 3d bd
       0.021778328 -0.026231064 0.01467289 -0.046334777
0002f0 b3 fe 4f 3d a5 84 57 3d a1 8a 83 bd ce b3 0e bc
       0.05078001 0.052616734 -0.06422926 -0.008709861
000300 0d 35 24 3a 63 9d 06 3d 22 9d c6 3d 56 02 fa 3c
       0.00062640087 0.03286494 0.096979395 0.030518692
000310 5b ee bb bc f7 87 ba 3d 7b ae 20 bd 14 40 02 bd
       -0.022940805 0.091079645 -0.039228898 -0.03179939
000320 e6 bb 33 3b 1e 9e 9b bd 1a 5f 38 3c d9 91 97 bd
       0.0027425229 -0.07598518 0.011253143 -0.07400865
000330 02 1c 27 3c ce df fb 3b 08 6a 2a 3c 09 36 ad bd
       0.010199549 0.0076865917 0.010401256 -0.08457572
000340 9e 09 d3 bd 52 3d 16 3d 24 f4 b2 3d 0e d7 c2 bd
       -0.10304569 0.036679573 0.087379724 -0.09513675
000350 84 10 ff 3c 2c c8 a1 bd 28 fb a3 3a 67 0a b2 3d
       0.031135805 -0.07899508 0.0012510763 0.0869339
000360 ed 84 a1 3d bf ae 93 bd 08 07 96 3d b6 f6 5b 3d
       0.07886682 -0.072110645 0.0732556 0.05370208
000370 1d cc 37 b9 fa 97 ce 3d ce 15 5a bd 57 4c fc bc
       -0.00017528278 0.10087581 -0.05324345 -0.03079812
000380 b0 09 95 bd ad 10 80 3c 82 7a bf 3c ad 57 00 ba
       -0.07277238 0.015632952 0.023373846 -0.0004895877
000390 e0 a7 70 bd 73 fc 3f bd 2a bd 05 3d 02 16 b3 bd
       -0.058753848 -0.046871614 0.032651104 -0.08744432
0003a0 72 d0 5b bc 10 d7 e7 39 c9 17 26 bd f1 ba 06 3d
       -0.013416396 0.00044219987 -0.040550027 0.032893125
0003b0 23 13 e9 b9 a4 13 88 3d 0d 44 2f bc d6 33 77 bd
       -0.0004445548 0.06644371 -0.010697377 -0.06035217
0003c0 86 e0 92 3d 95 54 30 3c c7 fe 0d bd cf e7 86 bd
       0.07171731 0.010762353 -0.034666803 -0.06587183
0003d0 ca fd c9 3c a1 dc c6 bd cb e9 ce 3c a4 04 46 3d
       0.024657149 -0.097100504 0.025257966 0.04834427
0003e0 02 3e be bd 0c 76 91 bd 33 ef 94 bd 31 33 ba 3d
       -0.09289171 -0.07102594 -0.07272186 0.09091795
0003f0 57 e0 b2 3d ed de 03 3c 19 25 ca 3d 24 ca f6 bc
       0.08734196 0.008048755 0.09870357 -0.030125685

enc_conv2.bias f4 [64]
000000 94 d1 b3 bc 65 e3 b3 3d e7 0a b5 3d 9f e0 c8 bc
       -0.02195052 0.087836064 0.0883997 -0.02452117
000010 08 48 96 3d d0 56 a7 3d a6 a8 b2 bd 9b 4b bf bd
       0.073379576 0.08170855 -0.087235734 -0.093405925
000020 00 72 5b bd 80 76 fb bb ec 0f fb 3c d2 af 2a 3d
       -0.053575516 -0.0076740384 0.03064724 0.04167158
000030 77 d7 6d 3d 61 43 38 bd e3 ec 8d 3d 22 bb ae 3c
       0.05806681 -0.044986133 0.06929948 0.021329466
000040 cb 44 96 bd ed cb 97 bd 69 cf 09 3d 5c ea ad 3d
       -0.0733734 -0.07411943 0.033645067 0.08491966
000050 73 eb 90 bd 44 04 45 3c 1e 16 c1 bd 60 2d 84 3d
       -0.070761584 0.012024943 -0.09428047 0.06453967
000060 f4 5d 98 3c 09 28 86 bc fa ee 4f 3d 5d 12 24 3d
       0.018599488 -0.016376512 0.050765015 0.040056575
000070 f5 d1 7a 3d 27 9b 47 3c 3d be fc ba cf c8 3b 3d
       0.061235387 0.012182987 -0.001928277 0.045845803
000080 84 45 d3 3c ec d1 a9 bd 30 ae 1c bd 1c be 9a 3d
       0.025789984 -0.082919925 -0.038252056 0.07555792
000090 3b f0 63 bd ca be 95 3d bb f0 69 bc bf db ba 3d
       -0.055649024 0.07311781 -0.014278586 0.091239445
0000a0 63 08 7d bd da 5c 91 3d a1 6d 3c bd 33 1b 96 3d
       -0.061775576 0.07097788 -0.046002988 0.073294066
0000b0 22 44 50 3d bc 6f 42 3d 51 bc db 3c b1 39 81 3d
       0.050846227 0.04746984 0.026823195 0.06309832
0000c0 70 36 1f bd c5 90 14 bd 71 1e 04 3d 8d 7f 95 bd
       -0.038870275 -0.036270875 0.032255594 -0.07299719
0000d0 ff 54 be 3b 0e 32 3f 3d c1 c4 bf bd 4d c5 40 bc
       0.005808472 0.046678595 -0.093637 -0.01176579
0000e0 51 d5 eb 3b 26 b4 9f bd 81 4c b6 3d 09 48 09 3a
       0.00719706 -0.077980325 0.08901311 0.00052368693
0000f0 93 95 b7 bd 1d e0 d0 bc 0b e8 75 3c 61 7a 9a 3d
       -0.08964076 -0.02549749 0.015008937 0.07542873

enc_conv3.weight f4 [64, 64, 3]
000000 cb 4f 9f bc 1c 32 65 3d 74 26 ab bc f2 4c 76 bd
       -0.019447228 0.05595599 -0.02089236 -0.060131975
000010 8a 66 e3 bc 7d 90 ef bc 40 b9 ca 3c 1b ca 39 3d
       -0.027758855 -0.029243702 0.024746537 0.04535876
000020 d6 b0 75 bd 7e f6 7f bd ed 3d 9d 3c a9 85 32 3c
       -0.059983097 -0.062490933 0.019194568 0.010896125
000030 65 30 cf 3d 6a 73 a1 3d c6 0d c2 bd e9 ed 27 3d
       0.101166524 0.078833416 -0.09475283 0.040998373
000040 2c 00 a5 bd af 65 24 3d ef 18 ff bc 9f 7a e5 3c
       -0.080566734 0.040136036 -0.031139819 0.028012572
000050 7a a9 8a 3d 84 7c 3d 3c bd 8f 1f bd fb 41 03 3d
       0.06770606 0.011565331 -0.03895544 0.032045346
000060 e1 bc 29 39 a4 41 7d 3d f9 2c 26 bd 1a f7 00 bc
       0.00016187459 0.061830178 -0.040570233 -0.007871414
000070 22 ee 7d bd 93 cd a8 bd a1 39 e8 bc e1 9c 75 bc
       -0.06199468 -0.08242335 -0.028347792 -0.014991016
000080 49 77 c4 bd 7d 34 f1 bb df 3d 96 bc bc 7b 4e bd
       -0.09593064 -0.0073609934 -0.01834005 -0.05041097
000090 10 e5 1f 3c 8f c5 27 bd d5 0e 67 3d da a0 bb 3d
       0.009759203 -0.04095989 0.05641063 0.091615394
0000a0 5b 26 06 3e 88 99 4e 3d 76 61 01 bc ad e5 85 3b
       0.13100569 0.050439388 -0.007896772 0.0040862174
0000b0 d0 09 29 bd f6 7f 24 3d d4 30 29 3d 5a e3 51 3d
       -0.041269124 0.040161096 0.04130633 0.05124221
0000c0 39 e8 a7 bc f7 8e 7f bd 77 c1 72 3c b1 94 81 3d
       -0.020496475 -0.0623922 0.014816633 0.06327189
0000d0 8c c8 0e bc a7 72 70 3d 18 33 5a 3d f9 53 8d 3c
       -0.008714806 0.05870309 0.053271383 0.017251955
0000e0 1d 96 4b 3b e4 8f 25 bd 1c f4 c7 bd 17 8d ac 3d
       0.0031064816 -0.040420428 -0.09763357 0.08425348
0000f0 b5 2a a2 bc b6 e7 c3 bd bd fd 4e bd a6 29 a4 bc
       -0.019795755 -0.0956568 -0.050534952 -0.02003939
000100 82 82 2f 3d f5 fc 4a 3d c0 c6 8f bd cf 86 7c bd
       0.04284907 0.049557645 -0.070203304 -0.061652
000110 60 e5 4b bd ff ba 82 3d 28 b4 76 3c c6 48 87 3d
       -0.049779296 0.06383323 0.015057601 0.06605677
000120 8d 5d 22 bd 8d b9 a8 3d 99 1d 36 3d 5b 5f 42 b9
       -0.03964 0.08238516 0.04446182 -0.00018536804
000130 18 c9 be bc e3 a4 bb 3c 64 b2 04 bd ef bd b0 bd
       -0.023289248 0.022905773 -0.03239669 -0.08629977
000140 34 c4 a7 3d 1d 2a 53 bd fd b9 e5 3c 76 07 0c bb
       0.0819172 -0.051553834 0.028042788 -0.0021366752
000150 3a 1c 05 3c 88 b0 b8 3c 8b a7 74 3d 38 1d 27 bd
       0.0081244055 0.022545114 0.059730094 -0.04079935
000160 68 17 09 3d cd 8e a4 bd fc cf 31 3d 37 4b 61 bb
       0.033469588 -0.080350496 0.04341124 -0.0034377107
000170 36 97 34 3c dd 99 8d 3c 5b 63 9e 3c c6 11 aa 3c
       0.01102238 0.017285282 0.019334486 0.020760428
000180 38 96 2d 3c 63 d1 1b bd d4 60 93 bd e0 56 25 3d
       0.010594897 -0.038041484 -0.07196203 0.040366054
000190 e2 78 21 3d e4 ab 52 bc 63 6d d8 bb e6 96 8c bc
       0.039421923 -0.012858365 -0.006604837 -0.017161798
0001a0 d9 76 1a bc f7 a5 49 3d dc 38 7f bc c9 f4 d2 bd
       -0.00942775 0.049230542 -0.015577521 -0.10300595
0001b0 5b 8c 3d bc 63 af 1e bd 0f 3d 5a bd ff 95 ae bc
       -0.011569108 -0.03874148 -0.053280886 -0.021311758
0001c0 a8 d3 53 bb 7f 2a 22 3d d9 cb 17 3d 29 44 82 3d
       -0.0032322202 0.03959131 0.03705964 0.06360657
0001d0 81 59 1f 3d 0b 32 e0 3c d7 e7 0d 3b 60 e1 89 3c
       0.038903717 0.027367612 0.002165308 0.0168311
0001e0 14 19 6c bd af 72 d3 3b 49 f9 2f bc ed 49 f2 bc
       -0.057641104 0.0064528803 -0.010740587 -0.029576266
0001f0 ce 6b 83 3d 7b 7e 48 3c b6 c7 56 3d 39 3a 5d 3d
       0.064170465 0.012237187 0.052436553 0.054010604
000200 7d d7 57 bd 07 10 be 3c 36 d7 7d 3a 87 5e 60 3c
       -0.05269574 0.023201002 0.0009683253 0.013694412
000210 5a f7 fb 3c 9a fc 14 bd dc e0 52 3d 25 e8 47 bc
       0.030757595 -0.036373712 0.051483974 -0.012201344
000220 c9 5d 12 bd a1 d1 75 3d b9 c1 5c 3d 85 19 d5 bc
       -0.03573397 0.06001437 0.053895686 -0.026013145
000230 a8 58 39 3d 0f a9 a4 bc d1 fd 3e bc 18 02 5a bd
       0.045250565 -0.020100145 -0.011657194 -0.053224653
000240 fe ac d5 bc 0a ca 2e 3c 4f 83 45 bc 06 d6 d8 bb
       -0.026083466 0.010668287 -0.012055232 -0.0066173105
000250 49 43 66 3c 98 80 4f bc 1f a4 27 3d 29 8f 9e 3d
       0.014054128 -0.0126649365 0.040928002 0.077421494
000260 63 05 72 3d fc cd 84 3d d1 e7 2b bd 59 9e a0 bc
       0.05908717 0.06484601 -0.041969124 -0.019606756
000270 73 ae c9 bc 91 71 01 bd e9 2f 9f bc 98 cf 98 3d
       -0.024619317 -0.031602446 -0.019432025 0.0746147
000280 26 39 64 bd fa 68 83 3c 52 3e 2f 3d 42 1d 1f 3d
       -0.055718563 0.016041268 0.042784043 0.03884626
000290 2e 29 5b bb 2b a6 99 bc 4e f1 3e bc b6 82 62 3d
       -0.0033441293 -0.018755993 -0.011654211 0.055300437
0002a0 f4 05 4c 3d 66 3c c1 bc c5 54 24 3c 3f f0 89 bd
       0.049810365 -0.02358837 0.010029976 -0.067352764
0002b0 fd 0e 7a bd 63 07 11 3d 9b 66 b7 bc 25 1a 3b bd
       -0.06104945 0.035407435 -0.022387793 -0.04567923
0002c0 05 71 90 3d d2 a2 18 3d 61 52 41 bc fb 92 eb bb
       0.07052807 0.037264653 -0.011799426 -0.0071891523
0002d0 de 8b da bb ed 39 3e 3d 26 4a d2 bc 93 5d fb bb
       -0.0066695055 0.04644196 -0.025670122 -0.007671067
0002e0 75 7a 47 3c dc e4 55 3d 75 a9 1f 3d 8a c6 0d bd
       0.012175192 0.05222021 0.038979966 -0.03461317
0002f0 12 3e 05 3d 94 1f 44 3c 3b 06 a9 3b 28 a1 46 bd
       0.032529898 0.011970419 0.0051582134 -0.048493534
000300 5e 3f 2e 3d 2f e0 e9 3c a5 8d 74 3a e6 ab b1 3c
       0.0425409 0.028549282 0.0009328968 0.021688413
000310 51 0d fb bc 14 62 4d bd d1 39 bb bc b7 54 9b bd
       -0.030645998 -0.050142363 -0.022854717 -0.075845174
000320 68 1f 70 3d 7f ff 0a 3d b5 6c 0b 3d f3 6b 49 bd
       0.0586237 0.033935066 0.034039218 -0.049175214
000330 8f c1 3b bd 5f 5d ba 3d 02 21 7f bd fa d0 21 3c
       -0.04583889 0.090998404 -0.062287338 0.009876484
000340 63 4d 4e 3d af 6b 9a bd d3 3f 38 3d 6c 46 49 bd
       0.05036677 -0.0754007 0.044982743 -0.049139425
000350 8e cb d4 bb 25 6c 5f 3d 17 51 76 3d 32 51 84 3d
       -0.006493992 0.054546494 0.060135927 0.06460799
000360 20 8f 5f 3d 23 1d c4 bd ca 3b bf 3c 56 b7 2f bd
       0.054579854 -0.0957587 0.02334394 -0.042899452
000370 83 9c 66 3d 3e 1d ff 3c cb ae 29 3d 12 90 76 3b
       0.056301605 0.031141873 0.04142646 0.0037622494
000380 51 ec 80 3d 1c 05 74 bc f0 ac 6d bd be be 47 bd
       0.06295074 -0.014893796 -0.058026254 -0.04876589
000390 43 b2 9f bc 84 b3 9c bd 8a 23 51 3d 5d dd 14 bd
       -0.019494181 -0.076514274 0.051059283 -0.03634392
0003a0 c0 b9 a6 bd b4 58 9f 3d 4e dd 0b bd 1f 18 26 bd
       -0.08140898 0.07780591 -0.0341466 -0.040550347
0003b0 2c 98 ef 3a bf b6 07 3d 59 39 8d bd 74 9c 42 3d
       0.0018279604 0.033133265 -0.06895704 0.047512487
0003c0 40 43 2e bd a2 a3 57 3c be 07 90 bd 30 4b 86 bd
       -0.042544603 0.013161572 -0.07032727 -0.0655731
0003d0 8c 87 c9 3c 78 a7 0b 3d 9e 94 2c bd d7 a0 dc 3c
       0.024600767 0.034095258 -0.04213392 0.026932163
0003e0 45 b8 0f bd 48 f4 6c 3c dc 8d a8 3c a3 dc 81 bc
       -0.035087842 0.014462538 0.020575456 -0.015852278
0003f0 37 09 dd 3b 71 60 a5 bc 63 8f e1 3c 25 84 7e 3d
       0.0067454833 -0.020187588 0.027534192 0.06213774

enc_conv3.bias f4 [64]
000000 f0 96 ba 3c 86 0d 8a bd c7 26 81 bd 4d 9b 28 bb
       0.02277705 -0.06740861 -0.06306224 -0.0025727332
000010 37 a0 7e bd bb a2 86 3c fb 67 54 bc 8d 3c 85 3d
       -0.06216451 0.016435018 -0.012964244 0.0650569
000020 81 1b af bc 71 85 8f bd 14 b8 2c bd 2b 97 b3 bb
       -0.02137542 -0.07007874 -0.042167738 -0.005480667
000030 f4 43 ed bc 3a 2f 8b 3d 45 73 53 bd 11 7b 98 bd
       -0.028963067 0.06796117 -0.0516236 -0.07445348
000040 65 44 ed 3c ae 37 3d bc 1a 66 4a 3d db 87 21 3c
       0.028963277 -0.01154892 0.049413778 0.009859051
000050 6f 6e ea 3c ab 0e 56 3d d2 89 c6 bb 8e fc 14 bd
       0.028617112 0.052260082 -0.00605891 -0.036373667
000060 8f d7 fa bc 63 49 60 bc 60 65 83 bd a9 f6 75 3d
       -0.030620364 -0.013689372 -0.0641582 0.060049687
000070 7c 80 10 3d ed 7c b2 bc 62 8d 58 3d 1e e6 bf 3c
       0.035278782 -0.021788085 0.05286921 0.023425158
000080 32 ec 08 3d a5 8b 15 3d 20 63 28 3c b4 86 21 bc
       0.03342838 0.03651013 0.0102775395 -0.009858776
000090 16 4b 5b 3d 07 45 92 3c 34 a1 5e 3d 7f 79 37 3d
       0.053538404 0.01785518 0.054352954 0.044793602
0000a0 62 97 57 bd 79 f4 c0 bc cb d3 5f 3d f3 af 8a bc
       -0.052634604 -0.023554074 0.05464534 -0.016929602
0000b0 80 4f d0 bc be 3d 13 bd e6 de 58 bd 22 9f 20 3d
       -0.025428534 -0.035947554 -0.052946948 0.03921426
0000c0 28 f1 3d 3d 02 06 ee bc ab b7 83 bd d1 41 5b 3c
       0.046372563 -0.0290556 -0.06431516 0.013382391
0000d0 87 15 a9 ba 3b 31 62 3d f2 91 30 3c 05 ea 3e bc
       -0.0012900092 0.05522273 0.010776984 -0.011652474
0000e0 6c ff 29 3d 8c 65 4c 3d 1c 1f e8 3c 4d 93 38 3d
       0.041503355 0.04990153 0.028335147 0.045062352
0000f0 33 87 75 bd 8b 33 ce 3c 62 a9 12 3d 12 78 25 3d
       -0.05994339 0.025171062 0.035806067 0.04039771

dec_conv1.weight f4 [64, 64, 3]
000000 c1 4d 00 bd fe 17 81 3c 1d c5 a1 bd 2a 16 84 3d
       -0.031324152 0.01575851 -0.078989245 0.0644954
000010 79 09 9a 3b 7d 56 3e 3d 2b 04 16 3c ca fb 3b bd
       0.0047008363 0.0464692 0.009156267 -0.04589442
000020 44 71 16 3d ef a5 e4 3c 00 65 15 bd 1a 51 10 3b
       0.036729112 0.027911155 -0.036473274 0.0022020997
000030 89 58 19 bd 7e 76 09 bd 82 3f 0a 3d 24 0b 7a bd
       -0.03743795 -0.03356027 0.033751972 -0.06104578
000040 91 54 04 3d 10 28 87 bd 46 f0 88 bb f3 2b c7 bc
       0.03230721 -0.06599438 -0.0041790335 -0.024312949
000050 03 bb 1f 3d 26 6f 87 3d ce d0 8b bd 2b fe 09 bd
       0.038996708 0.06612997 -0.06826936 -0.03368966
000060 a6 45 9d bb be 63 82 bd d0 ad 4e bd ce 61 de bc
       -0.0047995625 -0.063666806 -0.05045873 -0.027146246
000070 1f ba 98 bc 3a 4b 9c 3d 9a e6 12 3d bc fc 96 3d
       -0.018643437 0.07631536 0.03586445 0.07372424
000080 7e 4c 8e bd 53 77 3f bd ab f8 22 3c 19 83 89 bd
       -0.069481835 -0.046744656 0.009946982 -0.06714458
000090 ad 5c 1e 3d 28 1e 4f bb ab 56 5d bd c0 48 69 bd
       0.0386626 -0.0031603668 -0.05403773 -0.056954145
0000a0 5d d4 43 3b 0b 58 bc 3c 24 70 b3 bb 56 48 34 bc
       0.0029881217 0.0229912 -0.0054760147 -0.011003574
0000b0 ba f8 1c 3d ba 92 7e 3c bf 03 3a bd 9f 98 7d 3d
       0.03832314 0.015537912 -0.04541373 0.06191313
0000c0 ea 72 db bc 17 c8 ca bc 71 ba 90 bc 6d 1a b3 bb
       -0.026788194 -0.024753613 -0.017667027 -0.0054657967
0000d0 a8 4e 82 bc a6 06 cb bc 93 f5 03 3d 6a dc 9f 3b
       -0.015906647 -0.024783444 0.03221662 0.0048785703
0000e0 a5 1e 1e 3d 02 c0 fd 3b ef 44 06 3d 5a 94 0b bd
       0.038603444 0.0077438364 0.032780584 -0.034077026
0000f0 66 0c f8 3c 99 04 0b 3d 7a af 81 3c f7 87 3d bd
       0.03027935 0.03393993 0.015830744 -0.046272244
000100 2c 74 10 3c c9 67 2e bd 00 e8 21 bd 56 33 d3 bb
       0.00881676 -0.042579446 -0.039527893 -0.0064453287
000110 3d ce 77 bc 2b 1f 80 3c fc 9c 9c 3d 57 ea 88 bc
       -0.015124855 0.015639862 0.0764713 -0.016713304
000120 31 9c ac 3d 1b 90 2c 3d 3e 01 83 bd 26 20 83 3d
       0.08428229 0.042129617 -0.06396721 0.06402616
000130 b9 a8 71 bd aa d5 92 bc be c2 ed bc 8f ad 0f 3c
       -0.058998797 -0.017924149 -0.029023524 0.008769407
000140 19 14 a7 bd c5 04 8a bd b3 04 9e bd 08 b4 fe bc
       -0.0815813 -0.06739191 -0.0771574 -0.031091705
000150 48 21 25 bd e8 4d a9 3d b8 b4 82 bd 95 62 4d 3c
       -0.040314943 0.082668126 -0.063821256 0.012535711
000160 d6 3e 4b 3d 03 96 02 3d 56 3b 9b 3c c5 b2 8e bd
       0.049620472 0.031881344 0.018949192 -0.06967691
000170 cb ac 49 3d 45 41 b7 bc 41 33 af 3c e3 6f 23 bd
       0.049237054 -0.02236999 0.021386744 -0.039901625
000180 71 bb c9 bb e5 4d 15 3d 85 38 eb bc 42 59 48 bd
       -0.006156378 0.03645124 -0.028713474 -0.048913248
000190 53 a0 ec bb 9a 35 50 3d cb ef 1b bd a2 db d4 3b
       -0.0072212606 0.05083237 -0.03807048 0.006495909
0001a0 6a 79 ab bc b3 d2 d1 3a ca 2d 70 3c f0 fa 0e 3d
       -0.020931918 0.0016008228 0.014659354 0.03490728
0001b0 8b 73 fa bc be 6f 81 bd 3e ae bf 3c e5 31 17 3d
       -0.030572673 -0.06320141 0.023398515 0.036912818
0001c0 e9 8c 95 bc 69 45 96 3c c2 ff 71 bd c4 16 0c 3d
       -0.018255668 0.018343644 -0.0590818 0.0342014
0001d0 c0 85 47 3d 92 e0 98 bd db d7 a2 bc 71 42 a5 3c
       0.04871154 -0.074647084 -0.019878319 0.020173283
0001e0 91 a2 f0 3c b5 f7 cc 3c a8 2a 89 bd 6d 91 77 3d
       0.029374393 0.02502046 -0.06697589 0.060441423
0001f0 d7 5e 92 bd b5 48 4c 3c e3 c4 bb bc a7 c4 92 bd
       -0.071469955 0.012468507 -0.022921031 -0.07166415
000200 7a dd e5 bc 5d 29 54 3d ac de 45 bd e0 89 44 3d
       -0.02805971 0.05179726 -0.04830806 0.04798305
000210 1e bb 8b 3d c1 f0 3d bd 33 c8 2c 3d 01 9f 16 bd
       0.06822799 -0.04637218 0.042183112 -0.03677273
000220 c3 7b 92 bd 76 1c 97 bd 6f 75 98 bb 82 9f 5c bd
       -0.07152512 -0.07378475 -0.004652671 -0.053863056
000230 22 a8 ce bb 08 4c ff 3c 2e 00 1c 3d 8d b6 a1 bd
       -0.006306664 0.031164184 0.03808611 -0.07896147
000240 ec 35 ca 3c ca 47 87 bc 28 3c 83 3c 74 17 41 3d
       0.024683915 -0.016513724 0.016019896 0.047141507
000250 90 26 8b bd e6 2f 3d bd bf c0 14 3d ea 00 77 3c
       -0.067944646 -0.046188258 0.03631663 0.0150759015
000260 4b 4a 54 bc dc 1e 3b bd 80 d8 a2 3c 65 67 b6 bc
       -0.012957166 -0.045683727 0.019878626 -0.0222661
000270 a7 f8 89 3c a9 75 49 bc 30 90 71 3d 8f 51 cf 3a
       0.0168422 -0.012296119 0.0589754 0.0015817153
000280 d3 43 68 bc 8c 96 8b bd c1 11 a6 3d fc c0 8d bd
       -0.014176327 -0.06815824 0.08108855 -0.069215745
000290 42 9f 5d bd fc 7d c9 3c ec ab 1f bd aa de 7c 3d
       -0.05410696 0.024596207 -0.038982317 0.061735786
0002a0 8d 43 bd 3c 7b fd 70 bd 10 21 36 bd 7b 98 2f bd
       0.0231035 -0.058835488 -0.044465125 -0.042870026
0002b0 a7 da 91 3d 37 58 61 3c 9f eb 3a bd 08 c2 32 3d
       0.07121783 0.013753942 -0.045634862 0.043642074
0002c0 f8 e0 e6 3c c2 3c 78 3d af 2a 7c 3d 5e d0 e8 3c
       0.028183445 0.06060482 0.061564144 0.02841967
0002d0 a2 05 3b 3d a7 5d da 3c 66 74 10 3d 39 e0 c7 3c
       0.04565967 0.026655985 0.035267256 0.02439891
0002e0 8c 5c 5b bc fe b1 c6 bc c5 d7 e0 bc 18 7a 12 bd
       -0.013388764 -0.024254795 -0.027446637 -0.03576097
0002f0 2e 2c 8b 3d 16 13 0e 3d e7 9e 6c 3d 21 fd c5 3c
       0.06795536 0.03468617 0.05776873 0.024168553
000300 2b 08 6d 3d f1 fa 5f 3d 5e 64 9c 3b d3 81 9c bd
       0.057869118 0.054682676 0.004772707 -0.076419495
000310 05 6b c7 3c 75 44 ef bc 02 7b 20 bd 3a 2c 80 3d
       0.024343023 -0.029207448 -0.03917981 0.062584355
000320 32 24 88 3d 68 1c 62 3d 2b 46 11 bd 92 9e 95 bc
       0.06647529 0.05520287 -0.035467308 -0.018264089
000330 cd 8f 7c 3d 63 55 d1 3c d9 73 35 bc 37 d9 4a bd
       0.061660577 0.02555341 -0.0110749835 -0.04952356
000340 83 1b e4 bc e0 96 98 bc 38 c7 17 bd 75 5d 6d bd
       -0.02784515 -0.01862663 -0.037055224 -0.057950456
000350 e0 5c 3d bc 4e e4 66 3d bc 34 e6 3b dc 23 f4 3c
       -0.011557788 0.056370072 0.0070253294 0.029802255
000360 13 b4 06 bc 00 2f 8b bd 83 9f 30 3d 71 a7 52 3d
       -0.008221644 -0.06796074 0.043120872 0.051429216
000370 c2 81 a0 bc b8 cc 29 3c b3 a1 ad 3c a0 49 1c bd
       -0.019593123 0.01036375 0.021195268 -0.03815615
000380 d8 37 d7 3b 20 77 f2 bc c4 66 0f 3d 75 b7 2c bd
       0.0065679364 -0.029597819 0.035010114 -0.042167146
000390 20 df ea bb 70 77 f1 bc d2 38 9e bd 11 e7 19 bc
       -0.007167712 -0.029475898 -0.07725681 -0.009393469
0003a0 04 37 48 bc db ad b2 bc 72 ed 66 3b 10 d9 4b 3d
       -0.012220148 -0.021811416 0.0035236743 0.049767554
0003b0 8b 61 2e bd 57 c9 83 3c bf 1e 18 bd ca d9 67 3c
       -0.042573493 0.016087217 -0.037138697 0.014151046
0003c0 28 2d 15 3d b6 0d 86 3d 5d 15 91 bc 0c 78 43 bb
       0.036420017 0.06545584 -0.017710382 -0.0029826192
0003d0 e4 f4 e9 bb f3 e3 97 bd a0 99 3b bd fe 72 8e 3d
       -0.007139789 -0.07416525 -0.045800805 0.06955527
0003e0 66 08 5a 3c d1 d5 1b 3d df 17 7f bd 08 f9 3d 3d
       0.013307666 0.038045708 -0.062278625 0.046380073
0003f0 65 32 4c 3d 97 36 19 3d 21 96 87 3d 85 83 15 bd
       0.049852747 0.037405577 0.06620432 -0.03650238

dec_conv1.bias f4 [64]
000000 1f 68 4f 3d ce 25 2f 3d 06 d5 dc 3c 67 82 84 bb
       0.050636407 0.042760663 0.026957046 -0.0040438655
000010 49 5d 17 bd 04 70 36 3d cd 95 19 bd e3 e3 41 3d
       -0.036954198 0.04454042 -0.037496377 0.04733647
000020 fe b2 2b 3c 90 ce 63 3d 14 dd 07 bd 72 d3 9d bb
       0.010479687 0.055616915 -0.03316982 -0.004816466
000030 99 f8 90 3c 71 b3 1e bd 8d ab 06 bd c3 c1 36 3d
       0.017696666 -0.038745347 -0.032878447 0.04461838
000040 1c d4 3d 3d 0e e2 1c 3d 0d 37 6c bd 5f 0e 99 3d
       0.04634486 0.03830152 -0.057669688 0.07473444
000050 2b 15 42 3c b3 88 e7 bc f6 cf c4 bc c5 3e 7f bd
       0.011845867 -0.028263425 -0.024024945 -0.06231572
000060 0c 5a a5 bc bc 1b 91 3d 03 61 fd 3b 87 59 42 3c
       -0.02018454 0.07085368 0.007732512 0.011862165
000070 bc 65 98 bb 93 b8 a2 3c a5 e1 80 3d d9 d4 f9 3c
       -0.0046507996 0.019863402 0.06293038 0.030497001
000080 d2 7e b1 bc f2 ec 02 3d 77 55 4c bd 13 31 78 bd
       -0.021666918 0.03196425 -0.049886193 -0.060593676
000090 79 1b 3b 3d 63 69 7c bd 83 d6 3d 3d 61 25 50 3d
       0.045680497 -0.061623942 0.046347152 0.050816897
0000a0 a8 aa b3 3c e3 a9 a6 3b b4 02 52 3d ea 9e 6a bb
       0.021931961 0.00508617 0.05127211 -0.0035800287
0000b0 11 b5 8e 3d 6a 01 31 3d 0b 9e 77 3d 8c 9b a0 bd
       0.069681294 0.04321424 0.060453456 -0.07842168
0000c0 d6 29 eb 3c 89 f8 79 3c 35 1b ea 3c 47 6c 8c 3c
       0.028706472 0.015257009 0.028577426 0.017141474
0000d0 55 32 67 bd 52 75 21 bd 71 43 38 bc 02 79 2a bc
       -0.056444485 -0.039418526 -0.011246548 -0.010404827
0000e0 25 df 1b 3d ad 31 45 3d d2 29 62 bc 44 dc 35 bd
       0.038054604 0.048143078 -0.013803916 -0.044399515
0000f0 5e c2 f9 3c 4d ff 88 bc 0d 79 66 bd 95 fa 3c bd
       0.03048819 -0.0167233 -0.056267787 -0.04613741

dec_conv2.weight f4 [64, 32, 3]
000000 44 88 85 3c 9d ae de bb c9 c0 31 bd 1c 20 55 3d
       0.016300328 -0.006795718 -0.043396745 0.052032575
000010 b6 75 a1 bd 99 1d 80 3d c9 cb 66 bd 38 c0 20 bd
       -0.0788378 0.06255645 -0.05634669 -0.039245814
000020 b0 7b cd 3c bf 4e a9 3d 6a ed ae 3d 2b 50 c2 bc
       0.025083393 0.08266973 0.08541377 -0.023719868
000030 1a 37 9a bd 86 aa 49 bd b9 a0 33 bd dd 99 19 bd
       -0.07530041 -0.04923489 -0.04385445 -0.03750025
000040 78 4b 45 bd 6a c3 c9 3d 6f b2 c1 3d 73 c4 a7 bd
       -0.048167676 0.098517254 0.09457862 -0.081917666
000050 b6 3d 8c bd 39 42 e8 bc 27 75 ab 3d 3e da b1 3d
       -0.06847708 -0.02835189 0.083719544 0.086842045
000060 0a c1 ae bd 89 11 b5 3d 99 51 a2 3d b7 aa 9a 3d
       -0.08532913 0.08841235 0.0792572 0.075520925
000070 10 66 2c bb 20 ba 6b bd 28 47 e7 bc e0 7d 3d 3d
       -0.0026305951 -0.05755055 -0.028232172 0.046262622
000080 fb b8 5e 3d b9 4a 6f 3d b5 c2 2a bd f3 85 99 3c
       0.05437563 0.05842087 -0.041689593 0.01874063
000090 eb 50 35 3d 9d c4 b7 3d 81 36 d7 bd 61 d1 a0 bd
       0.044266623 0.08973048 -0.10508443 -0.07852436
0000a0 bc 0c ce 3d 9e 62 53 bd 48 3c 98 3b da 2b 53 3d
       0.10061023 -0.05160772 0.004645858 0.051555492
0000b0 d7 84 c3 3d d6 93 20 bd 79 a7 9e bd cd a1 5d 3c
       0.095468216 -0.039203487 -0.077467866 0.013527346
0000c0 5d 48 49 bd a2 31 d1 3d fc c6 9c 3d 10 2b c5 bd
       -0.049141277 0.10214545 0.07655141 -0.09627354
0000d0 78 34 bf bc 73 13 86 bd 39 5b a8 3d 8d 93 ad bd
       -0.023340449 -0.065466784 0.08220524 -0.08475409
0000e0 fa 41 1d bd b7 33 d1 3d 49 b8 ed ba 96 a9 a7 bd
       -0.038393 0.10214942 -0.0018136586 -0.08186643
0000f0 64 22 d6 3b 15 a1 1d 3d 62 c3 30 bb d8 39 9f bd
       0.0065348614 0.038483698 -0.0026971926 -0.07774705
000100 54 fd b8 bd 3d 83 a3 3d ba b3 d6 bc 2d c5 9e bd
       -0.090326935 0.07984016 -0.026208747 -0.07752452
000110 74 34 03 3b 6d 97 40 3d a0 89 bd 3d a2 af b1 3d
       0.0020020278 0.04701941 0.092547655 0.086760774
000120 72 b8 af bd a9 91 7f 3c 2f cc c8 3a 09 75 ba 3d
       -0.08580102 0.015598693 0.001531964 0.09104354
000130 ed b6 3f 3c f4 f7 c6 3d 44 d2 ab bd 7b ba f8 bc
       0.011701328 0.09715262 -0.08389714 -0.030362358
000140 9b 51 ef 3c 98 8d b3 bd d1 44 cd 3d 27 be 15 3d
       0.029213717 -0.08767241 0.10022891 0.036558297
000150 9b 63 3d 3d 7c ff 82 bd df a0 a0 3d 4b 78 4a bd
       0.04623757 -0.06396386 0.07843184 -0.049431127
000160 01 bc b7 bc 57 9c 66 bd 8f f1 bf bd 7c e7 78 3d
       -0.022428514 -0.05630144 -0.093722455 0.060767636
000170 05 2b 62 bd 16 d1 43 3d a8 e0 be bd 02 d6 bd bd
       -0.055216808 0.04780682 -0.093201935 -0.092693344
000180 1a d4 a6 bd f4 0a be bd 6c 57 b9 3a c6 ae f5 3c
       -0.08145924 -0.09279433 0.0014140434 0.029990565
000190 d9 c6 88 bd 29 96 63 bd 44 c6 bc 3d 2e 3e b1 3d
       -0.06678552 -0.055563126 0.09217504 0.08654438
0001a0 f6 09 2d bd 5e 4a ce bd f1 ae 24 3d f0 51 53 3d
       -0.042245828 -0.10072778 0.0402059 0.051591814
0001b0 60 17 ff 3a f2 d3 7b bd 6e 43 8f bd 56 c5 1f bb
       0.0019461922 -0.061481424 -0.06995283 -0.0024379096
0001c0 5f 1e 3f 3a c4 fa c7 bc 44 21 38 3d 54 8c b7 3d
       0.00072905974 -0.024411567 0.0449536 0.08962312
0001d0 96 c1 9b 3d dd ca a1 bd 02 7d 6c 3d af 66 6d bd
       0.07605283 -0.07900021 0.057736404 -0.057959255
0001e0 68 38 a6 3d ee 83 bf bd 6e 8c 07 bc 5f 05 94 3d
       0.081162274 -0.093513355 -0.008273227 0.07227587
0001f0 a0 c5 90 bc 17 22 44 3c 01 65 a8 bd c1 b6 4a bd
       -0.01767236 0.011971018 -0.0822239 -0.049490694
000200 14 a5 5f bd d1 34 ae 3d 39 15 a4 3d 0f 78 41 3a
       -0.05460079 0.08506168 0.080118604 0.0007380256
000210 58 e0 b9 bd 4a dd 27 bb 49 f2 a5 3d d6 26 2a bd
       -0.09075993 -0.0025614076 0.08102853 -0.041540943
000220 46 4d b4 bd bd 69 fe 3c 31 01 b5 3d 68 81 35 3d
       -0.08803801 0.03105628 0.08838118 0.044312865
000230 a3 68 b7 3d 69 6a 30 bd 1e 68 72 3d 9d 49 18 bc
       0.08955505 -0.04307023 0.059181325 -0.0092948945
000240 5d 59 9c bb 7c 31 d2 3d 14 fc 01 3d fd fb 33 bd
       -0.004771395 0.10263345 0.03173454 -0.043941487
000250 b3 2c 7e 3d 96 37 53 bd e6 e7 65 bc c5 86 d3 bd
       0.062054347 -0.051566683 -0.01403234 -0.103284396
000260 8d 9f f3 bc 14 99 a7 bc 3d 1e 8a bb 88 01 28 3d
       -0.029739166 -0.020458736 -0.0042150305 0.041017085
000270 c3 99 f4 3c 87 aa 56 3c a9 eb 54 3d 89 66 8e bd
       0.029858476 0.01310218 0.051982556 -0.06953151
000280 88 83 be 3c 3e aa 7b 3d 2b ef 36 bc 03 32 58 bc
       0.023256078 0.061441652 -0.0111654205 -0.0131955175
000290 0b 5c 22 3d 29 ad e7 bd bc 8f bc 3d eb 90 74 3d
       0.03963856 -0.113123246 0.09207103 0.059708517
0002a0 86 bd aa bd 70 07 40 bd 78 f8 a5 bd 61 2d 71 bd
       -0.0833693 -0.046882093 -0.08104032 -0.058881167
0002b0 ef 17 8a 3c 38 2a 65 bc ad 15 9a 3d 43 fb 83 3d
       0.016857116 -0.0139871165 0.075236656 0.06444409
0002c0 e8 83 ad 3d 79 8e d3 bc 0c 5f ae bd 41 c5 39 bd
       0.08472425 -0.025824772 -0.085142225 -0.04535413
0002d0 13 54 99 3d 33 94 c9 bd 3a cc a4 3d 1e be 6f 3d
       0.07486739 -0.0984272 0.080467656 0.05853092
0002e0 6d 6a 48 bd 15 3f 16 bc da 1d 3e bd db 2e b0 3d
       -0.04892962 -0.009170313 -0.046415187 0.08602687
0002f0 49 0c d8 bb ca 37 0e 3c 5a fb ea bc 81 99 9d 3d
       -0.0065932614 0.008680293 -0.028684307 0.07695294
000300 2d 03 0b bc 0b 1f 8d 3d dc 8f 15 3d 9a 00 b1 bb
       -0.008484644 0.068906866 0.036514148 -0.005401683
000310 b4 c3 67 3d 04 72 9e ba 45 74 f5 3b e3 f7 37 bd
       0.05658312 -0.0012088423 0.007490667 -0.044914138
000320 b2 81 8f bd 7a 00 53 bd 44 64 d2 bd 4c 19 90 3d
       -0.07007159 -0.051514126 -0.102730304 0.07036075
000330 bf 07 9c 3d 68 cf 1c bd a2 9c a7 3d 82 cd c8 bd
       0.07618665 -0.038283736 0.08184172 -0.098048225
000340 d7 27 ca bd ab a0 9c 3d 23 ce 01 3b 7e 33 68 bb
       -0.0987088 0.076478325 0.0019806705 -0.0035431082
000350 30 c9 de bc 1e 5c bf 3d 4f d7 79 3c fa a5 96 bc
       -0.027195543 0.09343742 0.0152490875 -0.01838969
000360 69 c9 b3 3d c6 f0 8b bb 6b ac db bd e5 2c 4d 3d
       0.0877865 -0.004270646 -0.107262455 0.050091643
000370 92 67 4c 3d 82 d3 83 bd 39 e9 3c 3c 6e 0d 4e bb
       0.04990346 -0.06436826 0.011530214 -0.003144111
000380 00 b7 aa bc 2c ca 23 bc ed 88 81 3d 0f 18 1a 3c
       -0.020839214 -0.009996932 0.06324945 0.00940515
000390 3f 85 b3 bd b9 50 da 3d 65 45 53 3d 1b 76 b2 bd
       -0.08765649 0.10659928 0.05157985 -0.08713933
0003a0 8c 68 a8 3d 2d 4c 7f bd 72 4f e4 bc c5 91 1c bd
       0.08223066 -0.062328506 -0.027869914 -0.038224954
0003b0 ea 76 34 bd 85 f0 b9 3c 02 3e c8 3c 15 36 2b 3d
       -0.044058718 0.022697696 0.02444363 0.041799624
0003c0 17 ab a2 3c d2 e2 a0 bd cb e0 74 3c d7 da f0 3a
       0.019856973 -0.078557625 0.014946173 0.0018375766
0003d0 f5 a4 97 bc af 63 a3 bd f9 50 cc bd 3d 22 86 3d
       -0.018511275 -0.079779975 -0.09976382 0.06549499
0003e0 a0 ae 41 bd 62 ba 79 3d 2c b0 9b 3d 2d 3d 3b 3d
       -0.047285676 0.060968764 0.076019615 0.04571264
0003f0 1d 23 2b bd 9d 98 67 bd 0f 1a 9b 3d bc 7b 96 3d
       -0.041781534 -0.056542028 0.0757333 0.07347819

dec_conv2.bias f4 [32]
000000 43 19 ef bb 3e ab 8d bd 8f 10 b1 3c 4a 25 8f 3d
       -0.0072967126 -0.069174275 0.021614341 0.06989534
000010 88 c5 15 bd f0 6e 81 bd 97 7a fc bc f5 71 dc bc
       -0.036565334 -0.06319988 -0.030820174 -0.026909808
000020 2b 88 33 3a 1d 14 68 3c fa e6 db 3c 05 48 f9 bc
       0.0006848599 0.014164952 0.026843537 -0.03042985
000030 bd 76 0f bd ba 23 c2 3d 47 bc 51 3d 14 90 6a 3d
       -0.035025347 0.094794706 0.051204946 0.05726631
000040 e8 df 79 bd 36 53 9a 3d 6c a9 b7 3d 8b 72 06 bd
       -0.06100455 0.075354025 0.089678615 -0.03282408
000050 88 73 d5 bd fd 14 dc 3c 29 a0 31 bd 27 91 fd 3c
       -0.104224265 0.026865477 -0.04336563 0.030953003
000060 98 87 22 bd b5 77 a9 3d 7e f9 b3 bc a4 2a d2 b9
       -0.039680094 0.082747854 -0.021969553 -0.0004008609
000070 3d d0 c9 bc 17 11 73 bd 23 c6 31 3d 89 c6 82 3d
       -0.024635429 -0.05934247 0.04340185 0.06385524

dec_conv3.weight f4 [32, 1, 3]
000000 11 67 fc be 6b a5 eb 3c 34 87 c5 3e 89 ff 34 3e
       -0.49297383 0.0287654 0.38579714 0.17675604
000010 49 d0 0f bf b3 bc 20 bd 00 4c 87 3e ae be 40 3e
       -0.5617719 -0.039242458 0.2642517 0.18822739
000020 35 12 13 bf fc 09 e3 bd aa 30 ba be 3b 26 81 be
       -0.57449657 -0.11085889 -0.36365253 -0.2522448
000030 ac c4 4c bc 73 0f 04 3f a0 90 9d 3e 98 06 c1 be
       -0.012498062 0.51586074 0.30774403 -0.37700343
000040 e3 86 98 3e 16 54 a3 be 25 f0 ff 3d 6b 1d fd be
       0.2979041 -0.3190009 0.12496976 -0.49436507
000050 ba 05 3a 3d 6e 94 6e be ca b6 0b 3f a6 d0 dc be
       0.045415618 -0.23298809 0.5457579 -0.43127936
000060 db d7 95 be 61 8f 99 3e f2 88 78 be a7 0c 35 3e
       -0.29266247 0.29992202 -0.2427099 0.17680608
000070 df b6 05 3f 33 f3 ec be 7a 45 06 bf 15 55 e9 bb
       0.52232164 -0.46279296 -0.5244976 -0.0071207383
000080 71 b8 92 3d c0 e6 8e 3e 4b 7d 79 3e da c4 e2 be
       0.07164086 0.27910423 0.24364202 -0.4429081
000090 60 36 f6 3e 45 7a 12 be 97 32 b5 3e d7 46 b7 be
       0.4808836 -0.14304455 0.3539016 -0.35796234
0000a0 95 9d 2f 3e 01 94 ba 3e 0d 3f b5 3e 8a c9 c4 be
       0.17149957 0.36441043 0.35399666 -0.38435012
0000b0 35 e4 b5 be 9a c4 6e 3d ee 04 12 3e 21 8b ea 3e
       -0.3552567 0.058292963 0.14259693 0.45809272
0000c0 6c 54 bb ba 12 a7 0f 3f 05 2d 90 be cb 22 87 3e
       -0.0014292127 0.56114304 -0.28159347 0.26393732
0000d0 e3 54 bd 3e 55 02 d6 3e 52 91 ad be 4f e3 e2 3c
       0.36978826 0.41798654 -0.33899933 0.02769628
0000e0 06 25 6c 3e 99 11 46 be cf 66 b8 3d 93 cd b3 3e
       0.23060998 -0.1934265 0.09003984 0.35117778
0000f0 2b 6f d1 3d 9c 52 39 be aa 73 0b bf 72 24 f8 be
       0.10226282 -0.18097919 -0.54473364 -0.48465306
000100 88 94 71 be 77 22 b8 be eb a0 9a 3e ec 3b ce 3d
       -0.23591816 -0.35963795 0.30200896 0.10070023
000110 84 d1 34 3e 10 88 04 bf c5 f0 69 3e 81 6e 70 3c
       0.17658049 -0.51770115 0.22845753 0.014674784
000120 10 f0 d9 be d5 c4 f0 be c3 a9 0d 3e 89 3e 0c 3d
       -0.42565966 -0.4702517 0.1383429 0.034239326
000130 47 f5 cc be 0b b9 97 bd 45 a0 0e 3d c5 96 a0 3e
       -0.40030882 -0.07408341 0.034820814 0.31365028
000140 0a e3 87 be bf 1a ec be b9 c2 52 3e cd 75 9a be
       -0.26540405 -0.46114156 0.20582093 -0.30168
000150 1f e1 71 be eb 8f 9a bd 8c 26 b6 be 1a c7 ee be
       -0.23621033 -0.075469814 -0.35576284 -0.46636277
000160 81 ff 94 be 78 1e dc 3e d3 24 28 3e c2 a7 78 be
       -0.29101184 0.42991996 0.16420297 -0.24282745
000170 11 49 16 3f e6 ca 8d be 29 81 90 be a8 d3 c8 3e
       0.5870524 -0.27693862 -0.2822354 0.3922398
