trys/buenisimo.ckpt (torch, 118050 bytes, 11 tensors)

encoder.conv1.weight f4 [64, 1, 8]
00000000: 201f 2ebe 738b 17bd 989a cbbc 8dfb 84bd
00000010: 96df bcbe 52a4 eb3d dc75 37be 4198 52be
00000020: 3660 f03d ea48 1bbe 0222 80be a88e 2cbe
00000030: 74b0 29be 6c22 51be 6269 b3bd 512e b83d
00000040: 7e9a abbe de3b 68be 8232 7ebd 707a 013c
00000050: fa14 583e 790a 05be 15ac 553e baaa 713e
00000060: a153 2b3e 54ce c4be 8e53 8dbe b7f7 d0be
00000070: 16ed 93be 7885 243e 6f2e 4ebc c313 4b3e
00000080: 06c9 44be b726 913d 4f00 7dbe c9a6 273e
00000090: b7e4 18be e3a4 d5bd cc93 91be 8f7f 963c
000000a0: 24a1 cb3e 5621 6e3e 8630 6fbe fa16 9dbd
000000b0: 1078 12be 3d72 fabe bcc0 2d3e 6028 ecbc
000000c0: e46b ac3d e283 37be 0c9f e3be fd88 7abe
000000d0: ed15 8abd 3083 663d 9cc9 983c 6979 033f
000000e0: 501d 7bbd bacf 69be 914f 62be ee9c a23e
000000f0: f040 dbbc 4a97 b7bd 9f00 2fbe 69e2 f8bd
00000100: 31f3 bebe a6b9 abbe 53a9 403e 9499 983e
00000110: cd5d b93e 76f9 45be 4daf 293e 33fc 87be
00000120: 39b2 4e3e 5604 6f3e 53cf be3e 0a6e ac3e
00000130: 503d 8c3e b84c d33d 3071 1c3e 03f6 08be
00000140: 6439 173e 2d09 ecbd bceb d1bd 1f0f bfbe
00000150: bc01 18be 9b05 85be 109d 0ebe 520c 78be
00000160: 25cb b7be 4aae 8c3b d79d 6f3e 1356 b43e
00000170: 841b 7c3e e623 27be e560 ccbe de95 6c3d
00000180: 95c9 683e d422 8ebe 471e 363e 17af b43e
00000190: b9ee 863d b3ce 22be 9ba5 903e c2b0 043e
000001a0: 2122 6e3e 3316 6ebe 08a4 9c3e df06 1ebe
000001b0: 62b5 d43e bee5 10bd 629c 693e cebd 9d3d
000001c0: 4a05 ef3d 7e70 02bd c950 353d 62bb 52be
000001d0: f592 c3be 869d 66be bf4b 813e d227 ebbd
000001e0: d10d b43d ac5a 13be 0c54 ac3e 1a73 8c3e
000001f0: 83e4 303e 3465 19be 5b46 afbe fc30 25bd
00000200: 23df b6be 47d3 3a3e 4a2c cabe 78e5 343e
00000210: 2107 ce3e 0911 663e f5da f43d e4f9 d6be
00000220: 2b44 a63e db22 1cbd bd1a 25be 95a0 013f
00000230: 04ba 7ebb 1c24 db3d c266 9b3e 341c 94be
00000240: ce54 79be f085 603d 97ea ccbd d24e 0b3d
00000250: 7be6 b5be fbaa 67bd edc7 50be 22ae 60be
00000260: d73c dabe 0402 0f3e 7c5b 613d f627 76be
00000270: 6a61 b43e 6ec8 283e 0f2e 683d 6854 92be
00000280: 2412 813d 6f8a ab3e 1ae4 9c3e 3d11 66be
00000290: 140e b13e a410 aa3d 694b 193e 8801 7b3e
000002a0: c284 aa3e 3da6 89be cdbf 4b3e 0b0d b2be
000002b0: a2f6 a8bd 9469 c1be 0480 ffbd 51b2 f0bc
000002c0: 3ed2 3abd 0451 86bd 291a 203d add8 c63e
000002d0: 08df 743e 7fe5 773e 1ecb e73d d52e 693e
000002e0: f023 a93b e2b9 4c3d f02a f4ba 0f30 b2be
000002f0: c77b 9dbe b3c6 49bc 82f2 e8bd 73ef c03c
00000300: a04d bdbd 2e06 3c3d 47d3 a33e 0ca4 2abd
00000310: 2223 a43e cfee 9e3e edc4 b3be c45b c4be
00000320: a5ed 9abe 622b 57be 6221 35be da46 5abd
00000330: 75e9 c5bd 2ef0 2bbe c56e b3bd 99eb dfbd
00000340: 69b2 ba3e 92db f6bd 854d 66be 8aae 353e
00000350: da51 673c 7be2 a73e ab14 7c3e 3743 b03e
00000360: bf65 53be 6073 813e 2762 bf3e a7ed a8bd
00000370: 36a7 c33e 22d9 a23e c1b2 26bd 6476 d43d
00000380: f4de abbe 4e91 fabe 0bb1 5cbe 2630 23be
00000390: 0fd9 babe c92c 0e3e 0080 46be 2df6 b93e
000003a0: 075b b63e 86e1 de3d 4af7 08be 8730 743e
000003b0: a5c5 e43d a62c 313e 0e65 f33d 14e7 823e
000003c0: 2227 b0bd 15eb a4bc eac3 463e 10d1 2c3e
000003d0: a657 c93e 355e 90bd e952 4fbc 2bf3 ab3c
000003e0: 6b4a 28bd 3e4d 8e3e bc93 10bc c9bf ccbe
000003f0: 039a 00be e907 83be 6e5d debc ed12 9dbd
-0.17004061 -0.036998224 -0.02485399 -0.06493292 -0.36889333 0.11505951 -0.17916054 -0.20565893
0.11737101 -0.15164533 -0.25025946 -0.16851294 -0.16571218 -0.20423287 -0.087603346 0.08993209
-0.33516306 -0.22679088 -0.062059887 0.0079027265 0.21101752 -0.12992276 0.20866425 0.23600283
0.1673112 -0.38438666 -0.2760281 -0.4081399 -0.2889182 0.1606654 -0.012584313 0.19831757
-0.1921731 0.070874624 -0.24707149 0.16372217 -0.14930998 -0.1043184 -0.28433073 0.018371372
0.39771378 0.23254904 -0.23358354 -0.07670398 -0.14303613 -0.48915282 0.16968054 -0.028827846
0.08419016 -0.17921403 -0.4445728 -0.2446632 -0.06742463 0.056277454 0.018650822 0.5135713
-0.06130725 -0.22833148 -0.22100665 0.31760353 -0.026764363 -0.08964403 -0.1709008 -0.12152559
-0.37294915 -0.33540076 0.18814592 0.2980467 0.36204377 -0.19333443 0.16570778 -0.265596
0.20185174 0.23341498 0.3726755 0.33677703 0.27390528 0.10317367 0.15277553 -0.13375096
0.14767987 -0.11525188 -0.10250041 -0.37316224 -0.14844412 -0.2598084 -0.13927102 -0.2422345
-0.35897174 0.004293238 0.23400055 0.3522192 0.24619871 -0.16322288 -0.39917675 0.057760112
0.22733147 -0.27760947 0.17784987 0.35289833 0.065885015 -0.15899162 0.28251347 0.12958053
0.23255207 -0.23250656 0.30593896 -0.15432309 0.41544634 -0.03537535 0.22813562 0.07702218
0.11670931 -0.031845562 0.044266496 -0.20579293 -0.38198057 -0.22521028 0.25253102 -0.114822045
0.08791698 -0.14390057 0.33657873 0.27431566 0.1727467 -0.14980012 -0.34233364 -0.04032992
-0.35717115 0.18244658 -0.39486915 0.1766566 0.40239814 0.22467436 0.11955825 -0.41987526
0.32473883 -0.03811918 -0.16123481 0.50635654 -0.0038868198 0.10700247 0.30351835 -0.28927767
-0.24348757 0.054815233 -0.10005682 0.034010716 -0.35527405 -0.056559544 -0.20388766 -0.21941426
-0.42624542 0.13965613 0.055018887 -0.24038681 0.3523057 0.16482708 0.05668455 -0.28580022
0.06302288 0.33504054 0.30642778 -0.22467513 0.34581053 0.08303955 0.14970173 0.24512303
0.3330441 -0.26884642 0.19897385 -0.34775576 -0.082501665 -0.37775862 -0.12475589 -0.029381903
-0.04561066 -0.06558421 0.03908745 0.38837186 0.23913205 0.2420864 0.113180384 0.22771771
0.005161755 0.04998196 -0.0018628519 -0.3480229 -0.30758497 -0.01231544 -0.1137438 0.023551678
-0.092433214 0.04590433 0.3199713 -0.041660354 0.32058054 0.31041571 -0.3511118 -0.38351262
-0.30259433 -0.21012643 -0.17688516 -0.053290226 -0.09663669 -0.1679084 -0.08761362 -0.109336086
0.3646424 -0.120535985 -0.22490509 0.17742363 0.014118636 0.32789978 0.24617259 0.3442628
-0.20644282 0.25283337 0.37379572 -0.082484536 0.3821351 0.31806284 -0.040697817 0.10374144
-0.33568537 -0.48938984 -0.21551912 -0.15936336 -0.36493728 0.13884272 -0.19384766 0.3632063
0.35616323 0.10882859 -0.13375583 0.23846637 0.1117051 0.17302188 0.11884509 0.25566924
-0.08601214 -0.020131627 0.19410673 0.16876626 0.39324683 -0.070492186 -0.012654045 0.020989975
-0.041086596 0.27793306 -0.008824285 -0.3999007 -0.12558751 -0.25591972 -0.02714416 -0.076696254

encoder.conv1.bias f4 [64]
00000000: 6ee9 a03d db15 043e 8ae5 333e 8e48 88bd
00000010: 8a3f 963e 1e1f 373e bfba 843e 0375 8b3d
00000020: 383d 703e 548b 7a3e bced 2f3e 9911 953e
00000030: 693b 79bd 9467 733e fa8f cb3d 2dcb 703e
00000040: 7385 b43e 0203 b63d 346b 89bd af2a 413d
00000050: 86d3 f63d 9c17 963d 3858 06be e8c9 943e
00000060: d7f7 753e 713b 56be a686 32bc 0954 19bc
00000070: 856c 25be a76d a23d 6f7e b9bd 8f6a b8bd
00000080: 1547 ab3d 46b2 ccbd f4c6 b33e 20ee 1b3e
00000090: 529a b53e 8194 e93d 985c b33d 998f 253e
000000a0: de6a b73d dcd3 84be c671 64be e08d d7bc
000000b0: f4c6 923d 4dd4 1a3e 67a6 143e 94bd 993e
000000c0: da1d 973d 26b1 273e fd26 00be f517 7abe
000000d0: 76f1 28be 7053 fe3d 02f9 513e 7493 a03e
000000e0: bc01 81bd 5161 e23c 2340 9ebd 0650 0d3d
000000f0: e84c 043e a783 973d 8e86 1b3d 3e50 863d
0.07857023 0.12898962 0.17568031 -0.06654464 0.2934535 0.17882964 0.25923726 0.068094276
0.23460853 0.24467212 0.17180532 0.29114988 -0.060847674 0.2376998 0.09939571 0.23515005
0.35258064 0.088872924 -0.067099005 0.047159847 0.12052064 0.07328722 -0.1311959 0.29060292
0.24020325 -0.20921113 -0.0108963605 -0.009358414 -0.16154678 0.07931071 -0.090573184 -0.090046994
0.08363167 -0.099949405 0.35112727 0.15227556 0.354693 0.11405278 0.08757895 0.1616806
0.0895593 -0.25942886 -0.22309026 -0.026312768 0.071668535 0.15120049 0.14516602 0.3002745
0.073787406 0.1637617 -0.12514873 -0.24423201 -0.1649836 0.12418258 0.20505145 0.31362498
-0.06299159 0.027634295 -0.07727077 0.034500144 0.12919962 0.073981576 0.03797012 0.06558274

encoder.conv2.weight f4 [32, 64, 6]
00000000: 4142 5b3d 4af8 c8bc 1bfb a43b 774a 513c
00000010: 9df2 e43b 2258 d5bc f14e 323d 3bf0 823c
00000020: 27f1 5a3d f184 aabd 724e 523d 3e04 e6bc
00000030: 83cb 0d3c e1d5 523d f7e0 4f3c 4db7 163c
00000040: 768b be3d 8796 93bc eac3 9b3c c069 0b3e
00000050: b359 d73d 71f9 8dbe 4416 9f3e 63e5 7fbd
00000060: 63b6 efbb f456 74bb fbc6 143c ec1b 52bc
00000070: bb99 6f3d f3f3 e2bc 06c1 6b3d 2411 42bd
00000080: c4e2 8f3d ce85 0dbd ff70 343d 02f6 1c3d
00000090: be20 903c 21a7 4b3d 04a4 403d 5ccd 2bbd
000000a0: f025 db3d cf94 06bd 3b95 a6bb 18f5 473d
000000b0: 288c 0bbd aec4 613d 5a59 363c a661 bc3c
000000c0: 0ebf a43b b532 6abc 5fa7 03bd 3a70 e53d
000000d0: 824b 0a3d f6d1 eb3c 6311 6b3c 3c0d 213d
000000e0: 931c 51bd 3436 903d b602 bebc 9fe0 583d
000000f0: a50e 703b f7b5 91bc d0fa 913d 76bd 83bd
00000100: e220 a0bc 6cc6 cebc d595 ca3c 19fc 303d
00000110: 070e df3c 45b6 a53d 2fab 64ba 5b39 b1bb
00000120: c304 e93c 3232 9e3c d976 21bd 7cf9 3e3d
00000130: 85ee 73bd 0230 d2bc d24e 01bd 8912 cb3c
00000140: f4a3 e3bc 6a6f 053d 3be5 a5bc b2e2 1a3d
00000150: 5bbe cebb d401 193d 5830 633d 15f9 15bd
00000160: d72c af3c 2f7c 2d3d ed19 993c cec9 153d
00000170: b8ac 233d 3628 053d bf8b 11bd 8eea 0a3c
00000180: 70b1 5c3d 9eb1 f63c ecd8 bcbc a714 a83c
00000190: b604 143d 25d1 11bd 2a2d 253d 780a 153d
000001a0: 532e 8dbb a465 633d ddf0 babd d9f5 a73c
000001b0: 6028 9e3c 000a e5bd a5d4 c93d a9f1 863d
000001c0: d278 3bbd 01ad 74bc bd1b 233e 4887 df3c
000001d0: 8c5e 22be e482 7f3e cea2 1e3e 3602 65be
000001e0: 861b 2ab9 26cd 843d 8cf7 3e3d b959 14bd
000001f0: b443 5ebd 4bb1 5e3c 0131 823d 916d 97bc
00000200: 9441 cd3d c2b0 9bbd 5855 f13c a965 fb3d
00000210: 79f1 9c3a db28 a33d 8985 1fbc 4dc5 723d
00000220: 6ef1 5abc 8b74 5ebd 0694 7a3d d642 393d
00000230: 0174 cc3d 8d1e febc d943 513d b24e 823d
00000240: fe98 f7bb ca3f 923c b112 5bbc fa35 f53d
00000250: 94d0 6fbd 91e2 e93c b797 a63c b1ac bfbd
00000260: d949 04be ca12 e2bd 6591 36bc 9fbd 07be
00000270: 0557 c9bc 9955 7f3d 0632 6abd e78b b0bd
00000280: bcf6 a33d d71c 09bd 4c25 0e3a 9e76 3f3d
00000290: 2718 e2bc 19ed 673d 0b32 a0bd a89a 64bd
000002a0: ea51 c73c e9e7 a93d 2568 3fbd 2826 15be
000002b0: e575 273e dc7c a1bd 9733 453d 2a05 433d
000002c0: 9633 1d3d 0254 9ebc 43fb 3dbb 9b89 1a3d
000002d0: 30aa cd3d c9d9 503d 3a29 40bc 197a 123e
000002e0: edd4 00be c1e9 f6bc 2495 d1ba 3fa4 5fbd
000002f0: aaf9 813e 10ad 91be a5fa 1dbe 65a5 883d
00000300: 13e2 403d 3f10 543d ba32 dabd c623 6b3d
00000310: f3a5 df3d 8648 0abe 1eff 8d3d ae47 c43d
00000320: 5f4b b6bd 8806 b7bc e3ea 1fbd 0dea 8ebd
00000330: 8173 ad3c 859f d43b d3ab 84bc 2771 83bc
00000340: 7659 7ebc f029 523d 9de1 083d 240b 5bbd
00000350: 72f0 613d f59d 673d 7653 a0bd bb0e ba3d
00000360: ca46 223d a397 7dbc c83c f1bc 3b36 7639
00000370: fb05 ddba 6506 35bd cca3 a93d a82c 88bc
00000380: ccbe 493c 374e 4c3d 92cc 08be 4de9 dc3d
00000390: cf6b abbb 5fad bc3b a8a4 30bd 9773 0fbb
000003a0: 7100 b73c cc64 6fbc e502 bbbb e93b 7f3c
000003b0: 8ebe b9bc 0d0a b33d ab70 81bc a4cd 82bc
000003c0: c885 52bc 3047 a6bb 523b c43d a460 30bd
000003d0: ff5d dc3d 3eb8 22bc e46c f9bc 3fef 90bc
000003e0: af4f 9a3c d8f0 1ebd 0e9d d13d a734 03be
000003f0: 02bc 7b3d 84ea 973d 83fe 033b 3783 bd3c
0.05352998 -0.024532456 0.005034817 0.012774101 0.0069869296 -0.026043002 0.043532316 0.015983691
0.053452637 -0.08326138 0.051344343 -0.028078195 0.008654478 0.051473502 0.012687913 0.009198976
0.09303944 -0.018016113 0.019014318 0.13614559 0.10515156 -0.2772937 0.31071675 -0.06247462
-0.0073154434 -0.0037283273 0.009080644 -0.01282404 0.05849622 -0.027704215 0.05755713 -0.047379628
0.07025674 -0.034551434 0.044053074 0.03832055 0.017593738 0.049719933 0.047031417 -0.041943893
0.107005954 -0.03285676 -0.0050837076 0.048817724 -0.03406921 0.05511921 0.0111297015 0.022995781
0.0050276583 -0.014294316 -0.03214204 0.11203046 0.033763416 0.02878664 0.014347407 0.039319262
-0.05105264 0.070415884 -0.023194652 0.05294859 0.0036629823 -0.017786963 0.07127917 -0.06432621
-0.01954693 -0.0252411 0.024729649 0.04320917 0.027228368 0.08091406 -0.0008723018 -0.0054084486
0.028444653 0.019311044 -0.039419983 0.046624646 -0.05955364 -0.025657658 -0.03156931 0.024789112
-0.02778814 0.032576956 -0.020250907 0.03781385 -0.0063093132 0.03735526 0.055466026 -0.036614496
0.021383686 0.04235476 0.01868912 0.03656941 0.03995964 0.03250905 -0.035533663 0.008478774
0.053880155 0.030113991 -0.023052655 0.02051766 0.036137305 -0.035599846 0.040326275 0.036386937
-0.004308501 0.055516854 -0.09127972 0.020502971 0.019306362 -0.11183548 0.09855012 0.06589062
-0.04576952 -0.0149338255 0.1592855 0.027286187 -0.1585638 0.24952275 0.15491793 -0.22364125
-0.00016222717 0.064844415 0.046622798 -0.03621838 -0.054263785 0.013592075 0.06357003 -0.018484863
0.10022274 -0.07602073 0.02945964 0.122752495 0.001197382 0.07966777 -0.009736427 0.059270192
-0.013363225 -0.054310363 0.061176322 0.045229755 0.099830635 -0.031020427 0.051090095 0.06362666
-0.00755608 0.017852683 -0.013371156 0.11973186 -0.058548525 0.028550418 0.020336015 -0.0935911
-0.12918796 -0.1103874 -0.011143063 -0.13255928 -0.024577627 0.06233749 -0.057176612 -0.08620434
0.08006045 -0.03347477 0.0005422428 0.04674398 -0.027599407 0.0566226 -0.07822045 -0.055811554
0.024331052 0.082961865 -0.04673018 -0.14565337 0.16353567 -0.07885143 0.048144903 0.047612347
0.038379274 -0.019327167 -0.0028988875 0.037728887 0.10042226 0.050988946 -0.011728579 0.14304389
-0.12581225 -0.03014076 -0.0015989882 -0.054599997 0.2538579 -0.2845235 -0.15427645 0.066721715
0.0470906 0.051773306 -0.106542066 0.057407163 0.10920324 -0.13504228 0.06933425 0.09583984
-0.08901095 -0.022341982 -0.039042365 -0.069782354 0.02117324 0.006488743 -0.016195213 -0.016045166
-0.015524259 0.051309526 0.033418287 -0.05347742 0.055160947 0.056547124 -0.07828419 0.09084841
0.03961829 -0.015478048 -0.029447928 0.0002348059 -0.0016862744 -0.04419555 0.08283195 -0.016622856
0.012313556 0.04987928 -0.13359287 0.10786686 -0.0052313576 0.005757972 -0.04312578 -0.0021888965
0.022339078 -0.014611434 -0.005707132 0.015578249 -0.022673871 0.087421514 -0.015800795 -0.015967198
-0.012849279 -0.005074404 0.09581627 -0.043060914 0.10760116 -0.009931622 -0.03044743 -0.017692206
0.018836824 -0.038803905 0.10235034 -0.12813054 0.061458595 0.07417777 0.0020140714 0.023133857

encoder.conv2.bias f4 [32]
00000000: 294a 003d 4cc2 f4bc 1d5d 4fbc 4400 3b3d
00000010: dc2b 773d 4fe9 1c3c b98c 163d c18b 773d
00000020: 06bd f43c d207 b33c b7af eabc 8c9b 8d3c
00000030: f766 0d3d 403d 85bc ee53 1e3d 4a5c febb
00000040: f1a2 f53c 55e7 8c3b 737a 803d b925 e1bb
00000050: 2283 883c c813 5d3d cdbe 333d 7d44 b43d
00000060: 29d2 033d adf2 92bb 4b57 25bd 71d4 1fbd
00000070: 50e3 983c 3638 8f3d b7ad 413a 2bf5 a8bc
0.031320725 -0.029877804 -0.012656477 0.04565455 0.060344562 0.0095771095 0.036755297 0.060436014
0.02987529 0.021854315 -0.02864824 0.017286085 0.034522023 -0.016264558 0.03865426 -0.0077624666
0.029984923 0.004300038 0.06273355 -0.006870952 0.016664091 0.053973943 0.043883134 0.088021256
0.032182846 -0.0044844956 -0.040366452 -0.03902096 0.018663079 0.06993143 0.0007388251 -0.020624718

encoder.conv3.weight f4 [8, 32, 5]
00000000: 28cd 9e3d acce 863d 165b 823b 4920 593d
00000010: ee2e bb3b 8d1c 9c3d 4c35 47bc e669 2fbc
00000020: 8192 04bd a71c d0bc 485f 77bd 7c2d ffbc
00000030: 4d78 10bd 8284 c1bc 227c 873c 3a46 0b3d
00000040: b7bf 743d 40cb fd3b c24f debb e504 eebd
00000050: 1c0e e8bc 35f9 11bd 0e48 873d 1813 da3c
00000060: 54ec b83d 57d6 a83d 9e9d e8bc 1b6b 9f3d
00000070: d526 48bd 6467 b5bd 09e5 463d b2e7 ea3b
00000080: e74a cdbc fb22 35bd c529 ab3d 3cc6 c4bb
00000090: f2b0 743d f73e c7bd f6f3 0d3e c2f2 30bb
000000a0: fee7 b13d fc81 b73d 45da f9bc 5b7d 963c
000000b0: ba03 143c 192e 0ebd c856 2dbd 3d56 f4bc
000000c0: 3e77 d63d 6a82 423d d91d 0e3c d34b abbd
000000d0: 794c ee3a 161a 3c3d 4207 a8bb 8e50 ae3d
000000e0: 044d 813c e847 143e 8a88 30bc 3936 783d
000000f0: 8023 bd3d d27c a83d cd05 7dbd 5ca3 ae3d
00000100: b4ad ec3b 2b8a c4bd e9f1 1f3d 2170 103e
00000110: f017 e7bd 6d1d b93c 4ee0 e8bc 8873 60bd
00000120: 5167 963c 1660 ae3c aed7 a2bc 847b ac3d
00000130: 1e5f 9dbc 76f2 4b3d 1179 033e 0766 443d
00000140: 9f2e 653d fb9c cf3d 9047 e8bc a131 64bd
00000150: c47d b6bd 80de 93bb e62e 143d 1984 d13d
00000160: 52a9 fb3c 6895 20bd 0358 94bc 4017 353d
00000170: 6158 4bbd 9c2a 383b ee34 64bb d550 9e3c
00000180: fbb6 3ebc aa9e c83c c07a 383d 2be6 83bd
00000190: ca42 ba3b 51b1 a83c 8327 273d 618d 2ebd
000001a0: 9f48 8fbc 2320 fc3c 5ad5 e2bc bed0 58bd
000001b0: e93f c43c 4802 8e3d f4d8 63bc ef2b 8d3d
000001c0: 24cb 07bb da9b 843c 7fd3 8ebd fc50 72bd
000001d0: 478e 54bb 4341 033e 276a 2fbe 59d4 253d
000001e0: 7eaa 103d a032 243d a107 0f3e 5244 87bd
000001f0: d423 673d 19b2 5b3d e2b6 88bc 54d7 c53c
00000200: a3a5 dcbb d2a2 e9bc 6e80 843d 5b20 86bd
00000210: 0d02 263b 2c6a 103d 222b 36bb 9681 33bd
00000220: e2bd 86bc aa76 c4bd d6cf 3a3d dda2 0a3d
00000230: 5603 a3bc ac62 033d 43b6 cbbd 60c9 a3bc
00000240: 9d6d 733d 2f5f 7bbc 95ed b83d ea53 9d3c
00000250: 712a 613c 1591 cc3d 805f 593c 1fee 88bd
00000260: 116c 3dbd 2194 5d3d d652 a83d 959b 0e3d
00000270: 0f21 87bd 6755 0abc d106 823d 943f 19bd
00000280: a45b 4e3d bae9 15be 56a9 e63c 1379 643d
00000290: 98ec 763d c6e0 02bd 2cc6 bcbc 7c77 c03d
000002a0: c681 0f3d 471e 6c3d d7be d6bd 3597 a0bd
000002b0: 9d04 b1bd 81b6 2c3d 5e88 67bd 5294 8e3d
000002c0: f4f8 753c 0bcd cb3d a2b8 f9bd 759e c9bc
000002d0: 2b5f 903d 93f9 b23d d0ff d7bd c6ca 9e3d
000002e0: f73a 1b3c 2fb7 db3c 476e 693d 2043 e33d
000002f0: cb9b 1bbd cff5 a03c eaed bf3b 820f 81bd
00000300: 376f 453b 31e4 1fbc 155c 293d 2880 883c
00000310: a2eb a43d 69f8 d33c 3827 bcbd 87cc 83bc
00000320: f1be 57bd 6617 3a3c ff73 0f3e 7be3 6cbd
00000330: a7e2 513d c34d b4bc ea93 8c3d 1ae6 1cbb
00000340: 804f 673d d31d be3d 67fc e7bc 5e3a 113e
00000350: 8ec9 d9bc ca3b 80bd e68a 803d 0359 42bd
00000360: 2b39 9cbd a081 02be 6790 7b3d 6baa acbd
00000370: fe84 e7bc 0e79 bd3b 0df0 383d 1211 f8bc
00000380: 8706 f6bb 5b38 9f3c 5aa0 6abc badf d1bb
00000390: 8ebb 583d dbef 49bc 2eba be3d d4b7 04bd
000003a0: d907 b0bc b524 5dbb 2e64 913d 810d 04bd
000003b0: 26c1 2bbd de13 52bd 9c3c eb3c 4e9b a23d
000003c0: 7d05 98bd d343 c3bc 17c8 9a3d df68 feb9
000003d0: 0e93 9abd 6344 243d d78e a93b 03e6 d23d
000003e0: ea56 1a3d 0734 c4bc 9406 96bb 125c b03d
000003f0: 38db 043e ee1b c13c e1c1 bcbc 067d 79bd
0.07753974 0.06582388 0.0039781434 0.053009305 0.0057123816 0.07622633 -0.012158703 -0.0107064005
-0.03236628 -0.025404288 -0.0603936 -0.031149618 -0.035270978 -0.023622755 0.016538683 0.03400252
0.059753146 0.0077451766 -0.00678441 -0.11622027 -0.02832704 -0.035638053 0.0660554 0.026620433
0.09029451 0.08244007 -0.02839547 0.077841006 -0.048865158 -0.08857611 0.04855827 0.0071687335
-0.02506013 -0.044222813 0.08357576 -0.0060050767 0.05973906 -0.097288065 0.13862595 -0.0027000164
0.08686827 0.089603394 -0.030499587 0.018370321 0.009034092 -0.03471193 -0.04231909 -0.029826278
0.104719624 0.047487654 0.008674108 -0.08364072 0.001818075 0.045923315 -0.0051278183 0.08511458
0.015783794 0.14480555 -0.010774741 0.060598586 0.09235287 0.082269326 -0.06177311 0.08527252
0.0072228555 -0.09596666 0.039049063 0.14105274 -0.112838626 0.02259704 -0.02842727 -0.05479768
0.018359812 0.021286052 -0.019878235 0.08421996 -0.019210394 0.049791776 0.12839152 0.047948863
0.055952664 0.101373635 -0.028354436 -0.055711392 -0.08910707 -0.004512608 0.03617754 0.10230274
0.030720387 -0.039204985 -0.018108374 0.044211626 -0.04964483 0.002810157 -0.0034821588 0.019325653
-0.011640306 0.02448972 0.04503894 -0.064403854 0.0056842314 0.020592364 0.040809166 -0.0426153
-0.017490683 0.030777043 -0.027689625 -0.052933447 0.023956256 0.06934029 -0.013906706 0.06893145
-0.0020720446 0.016187597 -0.069739334 -0.059159264 -0.0032433437 0.12817864 -0.17130338 0.040485714
0.035318844 0.040087342 0.13967754 -0.06604828 0.056430653 0.053636644 -0.016688768 0.024150528
-0.0067336126 -0.028520022 0.064698085 -0.0654914 0.0025330812 0.035257503 -0.0027796705 -0.043824755
-0.016447965 -0.09592946 0.045608364 0.033846725 -0.019899052 0.032076523 -0.09946873 -0.019993484
0.059430707 -0.015342518 0.0902969 0.019205052 0.013743029 0.0998861 0.013267398 -0.06686043
-0.04624564 0.054096345 0.08218925 0.034816343 -0.06598102 -0.008443213 0.063489564 -0.03741415
0.050380364 -0.14639941 0.028156918 0.055779528 0.060284227 -0.031952642 -0.023043714 0.0939779
0.03503587 0.057646062 -0.104856186 -0.078413405 -0.08643458 0.042166237 -0.056526534 0.069618836
0.015012968 0.09951218 -0.12193419 -0.024611691 0.07049402 0.08739009 -0.10546839 0.0775352
0.0094745075 0.026820747 0.056989934 0.110967875 -0.037990373 0.01964846 0.005857219 -0.06301786
0.0030126104 -0.009758995 0.041347582 0.016662672 0.08052756 0.025875287 -0.09187168 -0.016088737
-0.05267233 0.011358118 0.14009093 -0.05783413 0.051241543 -0.022009736 0.0686415 -0.0023940862
0.0564723 0.09283032 -0.028318597 0.14182422 -0.026585367 -0.06261404 0.06276493 -0.04744817
-0.076280914 -0.1274476 0.06141701 -0.08430942 -0.028261658 0.005782253 0.045150805 -0.030281577
-0.0075081023 0.019436052 -0.014320457 -0.006404844 0.05291324 -0.012325252 0.09312855 -0.032401875
-0.021488117 -0.0033743803 0.07099186 -0.03223944 -0.041932248 -0.051288478 0.028715424 0.07939778
-0.07422922 -0.023836052 0.07557695 -0.0004852479 -0.0754758 0.04010428 0.0051744985 0.102977775
0.037680544 -0.02395059 -0.004578421 0.08611311 0.1297425 0.023572888 -0.023041667 -0.060910247

encoder.conv3.bias f4 [8]
00000000: a00b 36bd fb86 873d fdd4 7f3d d4a9 54bd
00000010: 6045 5bbd db93 153d 0dfe 2d3d bd5a c63d
-0.04444468 0.06617542 0.06245898 -0.051919773 -0.053532958 0.03651796 0.04247861 0.09685276

decoder.deconv3.weight f4 [8, 32, 5]
00000000: e24c 043d 070e ecbc 7717 7c3d 1f0a 86bd
00000010: a139 d0bc bfce 92bb f7c0 9f3c c662 5dbd
00000020: 0126 323d 71cb 39bd b451 e3bc 70f7 0c3d
00000030: 7ff5 e33c a5f2 83bb 0293 523d db0c aebd
00000040: 048b 9fbd 5821 49bc abbe 8fbd 9324 c23d
00000050: 10c2 573d cc13 d2bd 9356 a5bd 4dc6 40bd
00000060: 2419 37bb 9521 733c ce1b 10bd d89a 463c
00000070: 88f1 03be 29e0 c23d 3126 32bd e1eb 473d
00000080: d8be b43d cb82 c5bd 5518 433b d533 a93d
00000090: 1433 2b3d b598 76bd 0952 9cbd 9955 c4bd
000000a0: 9bfe 8cbd cd64 b9bd c88d 283d b78c b03d
000000b0: d3bc b0bb 3f87 da3c 4a92 44bd 06e6 19bb
000000c0: 5922 09bd 872a 483d 6ea7 91bd 8fd3 213d
000000d0: 4d5d 4b3c b604 4cbd ce98 2a3d 4e98 0bbd
000000e0: 4d40 90bd 2fbc 6abc 5c32 68bb 33a3 20bd
000000f0: 9b61 ddbb 79b5 09bd b9cc 96bd 45a3 fb3d
00000100: 51ec 363d 8709 50bd c3f6 113d 892f 173d
00000110: b8c0 c23d 47c2 febc 9fbb 6bbd 1e7f 75bc
00000120: 9609 25bd 4e8b aa3d a831 81bd b135 c6ba
00000130: 0868 333d d58c 33bc 6b4e bd3d 564f 30bd
00000140: 1719 453d 7982 95bc f079 ff3c 015d 0abd
00000150: 0579 af3d 1639 9bbb 02b1 be3d 41b1 a83d
00000160: 79c5 94bd f22a bf3d a76b 073d f50d 49bd
00000170: 94f3 b9bd d75d f83d 595d 91bc d015 103d
00000180: de9d cb3d fffe 223c 443c c83a d89d 95bd
00000190: cf6c 543d 0d60 a1bd f8c5 913c 8723 58bd
000001a0: 439e a73d 3533 70bd 8dae cebd a01c b7bc
000001b0: d539 8b3c 29e8 1dbd 2eb1 e3bb a679 b2bc
000001c0: 522a 253d 21ea bf3d e365 3d3d 78ee c6bb
000001d0: 3d30 9f3d 3178 923d db99 333b 0e75 51bc
000001e0: 5dd0 a93c bd86 aa3c 1ad6 89bc 566c c23c
000001f0: cc8b 493d b4a1 003d 0f97 4b3d 78e3 9f3d
00000200: 22e5 ca3d e3da 173d 6b51 fe3b d472 f43c
00000210: 197a 183d 21c2 acbc 5d5c 813c 2dcd 00bd
00000220: ba88 20bc 8a78 21bd 358e e1bc fcd1 ef3c
00000230: a87c 9e3c 9917 ac3d ea78 9c3d c529 91bd
00000240: 14cd 023c 18dd d4bc 229b 433d 07d1 2cbd
00000250: f336 afbd fb70 a5bc e837 743d 0e6a 2fbd
00000260: 52e2 bdbd fdf5 6abc bbe1 fb3c 05e0 c0bb
00000270: 0d89 d43d 9a82 e43d 5144 88bd 1975 133d
00000280: 762b 353d f596 2dbd 0d93 4b3d 5bcc 9c3d
00000290: 5dee 633b 3238 aabd e5e3 b5bc beff d0bd
000002a0: 7e8f febb 52ab eabc b716 0abd 49fa 1e3d
000002b0: 37ad 24bd a2b2 a13d efcd 543d 6d1b c93d
000002c0: 0cc5 d33c 51f3 6a3d 39f5 1ebd 8855 7e3d
000002d0: d3de bd3d c7db 8abd da97 aabd d361 b33c
000002e0: d0d3 b4b9 6f8e 903c 1b96 35bd 8f79 093d
000002f0: 4a4e b1bc 25a3 613d 571e 303c 7699 63bb
00000300: 9c38 1e3d c91f b8bc d67b 3ebc 18de cc3c
00000310: 1c19 553d c65e 21bc be78 80bd 3bda 33bc
00000320: 2f2c 583d a17d ee3c ebbb 01be 4045 273c
00000330: 28bc 3dbd a5fc 773d a6af ef3d 726d 223d
00000340: ae27 3cbd 2fab d73c e08d e5bb 786a 67bc
00000350: 69c4 89bd c3cc d5bd 0bae 9b39 aa32 573c
00000360: 1a7e d83d bcc3 d3bd 2c8e 0c3c 03a2 443d
00000370: 4f2e 3cbd 6e57 93bc 5d2e 423c 7c03 2bbd
00000380: f4ce 103d 46b6 8dbd 0cb9 ed3b aa0e 4dbc
00000390: 4d58 bf3d 1a2f 6bbb c351 b63c a5ba b13d
000003a0: 1e59 acbd 9512 403d cf18 143c ebb3 77bd
000003b0: a4b3 9a3d 1409 d43a 01c2 c0bd b35e 52bd
000003c0: 52ee 1f3a 7ddb 0fbc b42a 043d f5ef 9f3d
000003d0: 21a1 413d 5707 533d 9155 993a 4405 993d
000003e0: dcbf b83d 8cbb 343d 6f2c af3d f453 4dbc
000003f0: a7a9 bfbd 792c 7dbb 3bf5 663d c9e3 adbd
0.032299884 -0.028815283 0.061545815 -0.06544899 -0.025418105 -0.0044802125 0.019501192 -0.054049276
0.043493275 -0.045360032 -0.02774892 0.034415662 0.027827023 -0.004026728 0.05140973 -0.08498546
-0.07790187 -0.012276016 -0.07018789 0.09479632 0.052675307 -0.10257682 -0.08073153 -0.047064114
-0.002793857 0.01483955 -0.035182767 0.012121879 -0.12885106 0.095154114 -0.043493453 0.048808936
0.08825463 -0.096440874 0.0029769142 0.08261839 0.04179676 -0.060204227 -0.076328345 -0.09586639
-0.068845 -0.09052429 0.041150838 0.08620589 -0.0053936034 0.026675818 -0.047991075 -0.0023483052
-0.033480022 0.048868682 -0.07112013 0.0395084 0.012412381 -0.04980918 0.041649632 -0.034080796
-0.070435144 -0.014327093 -0.0035430407 -0.03921814 -0.0067560202 -0.03362033 -0.073632665 0.122870006
0.044658963 -0.050790336 0.03563572 0.036910567 0.095094144 -0.031098498 -0.057551976 -0.01498392
-0.040292345 0.083273515 -0.06308299 -0.0015122202 0.043800384 -0.01095887 0.09243473 -0.04304441
0.04811963 -0.01825069 0.031186074 -0.0337801 0.085680045 -0.00473703 0.09311105 0.082369335
-0.072642274 0.09334363 0.03306165 -0.049085576 -0.09079662 0.121272735 -0.017744707 0.035177052
0.0994222 0.009948491 0.001527675 -0.07305497 0.05186158 -0.07879648 0.017794594 -0.052768257
0.08184483 -0.058642585 -0.10091887 -0.022352517 0.01699535 -0.038551483 -0.0069486117 -0.021786522
0.040323563 0.093708284 0.046239745 -0.006070908 0.077728726 0.07151831 0.0027404937 -0.012784256
0.020729238 0.020816201 -0.016825724 0.0237333 0.049205586 0.031404212 0.049704608 0.07807058
0.09906985 0.03707398 0.0077611706 0.02983991 0.037225816 -0.021088662 0.015791113 -0.03144567
-0.009798223 -0.039421596 -0.02753363 0.029274933 0.01934655 0.084029384 0.0764025 -0.07088045
0.007983465 -0.025984332 0.047755368 -0.04219153 -0.085554026 -0.020195475 0.05962363 -0.04282575
-0.09271683 -0.014340875 0.030747285 -0.00588608 0.10377703 0.11157723 -0.06653655 0.036000345
0.0442309 -0.042380292 0.049700785 0.07656165 0.0034779527 -0.083115 -0.022203395 -0.10205029
-0.0077685704 -0.028646145 -0.03371307 0.03881291 -0.040204253 0.078954 0.051954206 0.09819684
0.025850795 0.05736095 -0.03880808 0.062093288 0.09271016 -0.067802005 -0.08329745 0.021897232
-0.00034490088 0.017646043 -0.044332605 0.033563193 -0.021643776 0.055087227 0.010749421 -0.003472892
0.038628206 -0.022476094 -0.0116262045 0.025008246 0.0520259 -0.009849256 -0.0627303 -0.010977323
0.05277651 0.029112639 -0.12669341 0.010209382 -0.046322018 0.060543675 0.11703424 0.039655156
-0.04593628 0.026326744 -0.007005438 -0.014124505 -0.067269154 -0.10439446 0.00029693576 0.013134638
0.10570927 -0.10340068 0.008578818 0.04800607 -0.0459426 -0.017986026 0.011851874 -0.04175137
0.035353616 -0.069195315 0.0072547253 -0.012515703 0.09343014 -0.003588623 0.022255784 0.08678178
-0.08415435 0.04689272 0.009039118 -0.060474318 0.07553795 0.0016177022 -0.09412003 -0.051359843
0.0006100881 -0.008780357 0.032267287 0.0780944 0.047272805 0.05152067 0.0011698474 0.074717075
0.09020969 0.04412417 0.08553397 -0.012532223 -0.093585305 -0.0038631244 0.056386214 -0.08490712

decoder.deconv3.bias f4 [32]
00000000: 08ef ecbc c912 a53d a911 20bd 2793 3e3d
00000010: baa6 853d 64c9 a4bd 2f68 a7bd d6c6 56bd
00000020: 6ac8 4bbc 1cf8 583d ad7e 2dbd 42e7 cabc
00000030: c184 573d f2ac 9a3d 7061 093d 6b5e a53d
00000040: 12d4 88bd de02 00be 48c3 1f3d a300 81bd
00000050: a652 1dbd 327b 763d 7c6e b93d f1d4 293b
00000060: ff74 73bd c2b0 0ebc 56d7 d43d 4174 0dbc
00000070: dbcd 3fbd 49ab 60bd 82fe 91bd 0db3 e6bb
-0.028922573 0.080602236 -0.039079342 0.046527054 0.06525941 -0.08046225 -0.08174168 -0.05243572
-0.012437919 0.05297099 -0.042357136 -0.024768475 0.05261684 0.07552518 0.03354019 0.080746494
-0.06681074 -0.12501094 0.039004594 -0.062989496 -0.038408898 0.060176082 0.09054276 0.0025914276
-0.059437748 -0.0087091345 0.103926346 -0.008633674 -0.04682718 -0.05485085 -0.07128622 -0.0070403875

decoder.deconv2.weight f4 [32, 64, 6]
00000000: d46d 9bbd 5bdf 27bd 638e 913c e3a6 babd
00000010: d48b babb 681f ab3c bf73 3a3d 1b90 40bd
00000020: 18fe 113d c4b1 f53c f844 833d 93ef febc
00000030: 6b83 bc3b 5e7d 083d 15f1 ee3b d89e c43c
00000040: 13dd 5fbc d77e cf3c d3cc 6f3d a57f c8bb
00000050: 5a34 4a3b e543 473d c068 04bd d78c 183c
00000060: cbf1 0dbc 8d24 e2bc 0b07 2c3d 2340 48bd
00000070: a33b a43c fad0 143d 0edf 26bd 0879 2b3d
00000080: 2549 7fba 0bba 77bd 9851 3a3d 9e6a 013d
00000090: 0752 6b3a 690d 5abd 7b50 7a3c 737f 03bd
000000a0: fb4d a03c 517d b2bc 133f 09bd b1a3 be3c
000000b0: 3651 1dbc a7a0 16bc 2148 2abb e3e6 1fbd
000000c0: a7c0 7bbd 4ada 9d3a 127e f83b 83c5 94bc
000000d0: bed8 853c 0506 2d3d 47c6 07bd eb05 d63c
000000e0: 5b19 063c 2dd7 25bc 950f 60bd 60c1 0dbd
000000f0: f65a 933c 643d 0abc 43c0 a2bc a4bf a6bd
00000100: 01ab 663b 919c 8f3d c8a1 c33c c390 913c
00000110: 2c20 c23c b4d7 9c3c fe03 e63c a949 583d
00000120: c65a 8cbd 96d1 cd3c c2c8 85bd 635c d8bc
00000130: 95e9 04bd 0a4a 283c 23ad 8ebc 5f12 323d
00000140: a248 7fbb c774 d73c 5cf1 70bc 947f 723d
00000150: bc3c b639 b05c 7fbd 2a0f 343c bb45 dc3c
00000160: a910 a4bc 2c21 86bd befe ba3d 02c1 5dbd
00000170: d131 213d b52b c0bd b536 dd3d 83e5 04bd
00000180: 6748 e3ba 7847 c23c cd2d c7bc 38e2 113c
00000190: da95 513b 9060 49bc 9462 cbbc 159a 913d
000001a0: aa6f 10bc 2302 f0bc 6c85 65bc 30de 4a3c
000001b0: 0434 9abd 5902 043d 7b97 f0bb 62c5 33bd
000001c0: 5144 1e3d d1cd 9f3a 2a4a 203d c70f 06bd
000001d0: ee69 943d 70fe a2bb 8f22 98bc 6fa7 323b
000001e0: b4eb 22bd b4bc 953a 1bb7 73bd 2fbc 9dbd
000001f0: 186f caba 1337 cebc 6877 03bd 379e c2bc
00000200: 6139 c73d 7aba 91bd e699 52bc d2f5 94bc
00000210: 0e7b cf3c 3cef 49bc 5ded 8bbd c617 0b3d
00000220: 1757 5dbd 5ee7 7a3b 3366 363c 607c f03c
00000230: 0d98 143d c2c0 c63d 793a 22bd f5c7 1fbd
00000240: 1ca5 853c f45d b13c eeb6 4cbd be9d bf3c
00000250: 8e50 9e3d ac4e 5c3d 2fa4 0b39 3774 3fbd
00000260: 4365 75bc 9d2c b53c 71c0 9dbc 9217 493d
00000270: f65e 89bd 375f f5bb ce35 a33c 4ae7 bfbd
00000280: fef3 4fbb 9836 eabc ae45 94bc 197b b83b
00000290: c34d a9bd d0fd a03c 52ef 09bd 12c8 683d
000002a0: 9067 bc3c cec1 ea3c 20a8 6f3c 95ce 2a3d
000002b0: 45c7 db3c f74a 17bb 0443 10bd 1df0 92bc
000002c0: 83a8 9dbc b3f7 90bd ccaa f63c 3476 78bc
000002d0: e737 843d f9b0 403d 4181 c03b e7da 2d3d
000002e0: 33b5 323c 4436 a63a 9df2 adbc 9070 693d
000002f0: db5f 4fbd 0adc e2bc 1761 e93c b3af bc3d
00000300: af96 aa3d ad5a 0ebd fcf8 8f3d 486e 533d
00000310: 9c93 83bc 6f91 df3c 85e8 38bd 7f0a bd3c
00000320: c49e a73b 8aed a0bc 2858 b93b c3d8 433d
00000330: c91c b53c 7e0c 4a3d d685 c4bb 1ded 163d
00000340: f4a8 043d 82e1 983c 635e f53c 94c9 4a3d
00000350: 00b7 2a3d d883 cb3c ddcb bdbb 5db3 65bc
00000360: a01d 55bd 034f 01bc 3558 4dbc c9d2 23bd
00000370: eb51 b5bc 8dbf 723b 4df4 ddbc e5d3 0e3d
00000380: 19bf 10bc 73fe 69bd 63ef 82bc d1d3 453d
00000390: 47f8 813d c749 94bb a218 183d 2e29 bd3d
000003a0: 5ba3 1ebc 0b30 413d 1506 5f3c 78d0 3abd
000003b0: 2463 f93c c94b 9cbd 8dc9 a8bc 072d 30bc
000003c0: 913c 873d 6fd5 5e3c b74b 5c3d 9a4f 013d
000003d0: fd7d 113d 65a9 ffbb 6644 cf3c 05a0 2f3d
000003e0: ce95 1abd d057 0bbd bd4b c33c 063f dc3c
000003f0: d9ee 4b3d 0f84 7c3d ca23 033d 9d66 223d
-0.075893074 -0.040984493 0.01776809 -0.09113862 -0.0056929383 0.020889 0.04552054 -0.04701243
0.035642713 0.029991992 0.06409639 -0.031120097 0.005752971 0.033322684 0.007291923 0.024001524
-0.013663548 0.025329037 0.058544945 -0.006118732 0.0030853958 0.048648734 -0.03232646 0.009310923
-0.008663605 -0.02760532 0.041998904 -0.04888929 0.020047968 0.036332108 -0.040740065 0.04186347
-0.00097383774 -0.06048016 0.04548797 0.03159582 0.00089767616 -0.053235445 0.015277977 -0.032103967
0.019568434 -0.021788271 -0.033507418 0.023271414 -0.009601882 -0.009193576 -0.0025982934 -0.03903855
-0.061463024 0.0012043205 0.007583388 -0.018160587 0.016338702 0.04224207 -0.033148076 0.026125869
0.008184756 -0.010122103 -0.05470236 -0.034608245 0.01798771 -0.008437488 -0.019867068 -0.08142021
0.003519714 0.070122845 0.023880854 0.017769223 0.023696981 0.019145824 0.028078075 0.052804623
-0.06853251 0.025124352 -0.06532432 -0.02641124 -0.032449324 0.010271559 -0.017416542 0.04347455
-0.0038953205 0.026300801 -0.014705982 0.0592037 0.00034758996 -0.062344253 0.0109899435 0.026888719
-0.020027475 -0.06549296 0.091306195 -0.054139145 0.03935415 -0.093833365 0.1080145 -0.032445442
-0.0017340303 0.02371572 -0.024313832 0.008904032 0.0031980188 -0.012291089 -0.02482728 0.07109467
-0.008815685 -0.029297894 -0.014008861 0.012382075 -0.075294524 0.0322288 -0.0073422766 -0.04388941
0.03863937 0.0012192075 0.03913323 -0.03272989 0.07246767 -0.004974179 -0.018571166 0.0027260443
-0.039775565 0.0011424036 -0.059500795 -0.07701909 -0.0015444485 -0.025172746 -0.032096297 -0.023757083
0.09727741 -0.07115646 -0.012854075 -0.018183623 0.025327232 -0.012325104 -0.06832383 0.03395822
-0.054038133 0.0038284878 0.011132765 0.029356182 0.03627782 0.097047344 -0.039606545 -0.039009053
0.016314082 0.021651246 -0.049979143 0.023390647 0.07730208 0.053785965 0.00013317236 -0.04674169
-0.014977756 0.022116 -0.019256802 0.049094744 -0.067075655 -0.007488157 0.019923117 -0.09370287
-0.0031731124 -0.028590485 -0.018099632 0.0056299088 -0.08266785 0.019652277 -0.0336755 0.056831427
0.022998601 0.028656866 0.0146274865 0.04170092 0.026828418 -0.0023085454 -0.03522016 -0.01793676
-0.019245392 -0.07078495 0.03011074 -0.015164901 0.06455975 0.047043774 0.0058747833 0.04244509
0.010907459 0.0012680967 -0.021233851 0.056992114 -0.050628524 -0.027692813 0.028488679 0.092131995
0.08329522 -0.034754444 0.07029912 0.051618844 -0.016061597 0.027291028 -0.045143623 0.023076294
0.005115362 -0.019644517 0.005656261 0.047814142 0.022108452 0.04932832 -0.0059974 0.036847223
0.03238769 0.018662218 0.029952234 0.049508646 0.04167843 0.024843141 -0.0057921247 -0.014019814
-0.052030206 -0.007892373 -0.012533237 -0.039995942 -0.022133788 0.0037040443 -0.02709403 0.034870047
-0.008834624 -0.057127427 -0.01598329 0.048297707 0.06346183 -0.0045253965 0.037132867 0.0923637
-0.009682502 0.047164958 0.01361229 -0.045608968 0.030442782 -0.07631642 -0.02060392 -0.010752923
0.06603349 0.013600691 0.053783145 0.031570055 0.035520542 -0.007802176 0.02530117 0.042877216
-0.03774052 -0.03401929 0.023839826 0.02688552 0.04978833 0.06164938 0.032016553 0.03964864

decoder.deconv2.bias f4 [64]
00000000: 9b3a 403c 8bd8 c0bc a683 69bd 8060 43bc
00000010: e186 72bd 66fb 47bc 19c4 db3c 0432 a13b
00000020: 2b2f 1b3d e090 92bd 1bc1 19bc c2b2 243d
00000030: 2e8e 533d d493 b4bc cd3c 2dbd b973 bbbc
00000040: 2fd9 953b 0371 753d 343e 63bd 728d 92bc
00000050: b176 973c dfcc 483c 5a51 fb3c 5525 3cbd
00000060: c2ad 2dbc 1968 4ebd c01c 623d a548 b23b
00000070: a1a2 2ebd d1e5 6c3c a69c 29bd 9542 933b
00000080: ef15 6c3c 2524 f7ba 54d2 dabc 0f99 0f3d
00000090: 5b69 abbb 0d23 79bb f15a 30bd aeb1 3bbc
000000a0: f267 07bd e4a0 2d3d 9df1 2e3d 6bcb 1c3d
000000b0: 5929 0fbd a26a 96bc 272e c5bc 3d6c 4c3c
000000c0: 121c 71bb 74c3 0a3d bb9d 8a3c 26d5 d13c
000000d0: 15ae b1ba 0949 e53c 53d2 c2bc 1d73 433d
000000e0: 18dc 1b3d 8382 55bd 3942 d43c 733d 4bbc
000000f0: 9a1d be3c 409e 7e3c 1f4a 7dbd 9086 2a3d
0.011732723 -0.023540756 -0.057010315 -0.011924863 -0.05921066 -0.012205934 0.026826905 0.0049192924
0.03788678 -0.07156539 -0.009384419 0.04020954 0.051649265 -0.022043146 -0.042294312 -0.02288233
0.0045730094 0.05992223 -0.055479243 -0.017889712 0.018489214 0.012255876 0.03067844 -0.04593404
-0.010600509 -0.050392244 0.0552032 0.005440789 -0.042635564 0.014459089 -0.041409157 0.004494021
0.014409526 -0.0018855376 -0.02671162 0.035058077 -0.005231065 -0.0038015277 -0.04305548 -0.011455936
-0.033058114 0.042389765 0.04271089 0.038279932 -0.03495154 -0.018361393 -0.024069859 0.012476978
-0.0036790413 0.033877805 0.016920915 0.025614332 -0.0013555909 0.027988927 -0.023781931 0.047717202
0.038051695 -0.05212642 0.025910484 -0.012404787 0.023207474 0.015540659 -0.061838266 0.041632235

decoder.deconv1.weight f4 [64, 1, 8]
00000000: 0bd4 283d 721c b1be dfdc 85be 71ed 4fbd
00000010: 4c68 8cbe a81e 6ebd 2577 923e 7242 a23e
00000020: d42f 41be a2e2 863e 9096 5dbe 504c 07be
00000030: 83bd fc3d 235c d53e b563 efbd fd85 1c3e
00000040: 59da c33e 2d13 9e3e 782c 353e ce1c 3f3e
00000050: fd95 923d b68b c7bb 5a00 b63e 698d 5f3e
00000060: be69 943e cf25 a5bd 8b8f b53e 7b52 9a3d
00000070: 89f0 4d3e a2b2 3dbe 3ac3 413e 9a84 74be
00000080: 8561 31be 53f4 2a3e 36f3 02be abcf 7ebe
00000090: 00e9 613e b7ef cf3d b862 a13e e048 ef3d
000000a0: ff82 cb3d d6ac 21be 941e 98be 0e0c 263e
000000b0: 7d14 6abd 6edd 47be def0 90be dde2 2abd
000000c0: 0cd3 24be 2345 873e 7ce7 88be a18f 80be
000000d0: 52a2 f439 e265 19be cb75 a4be afac 783e
000000e0: 9b06 4e3e 3a98 b7be a254 4d3e ac09 9bbd
000000f0: 3323 5fbd f3a0 a5be 0611 373e 87af a73d
00000100: 5ede 20be d083 f5bd 1eb1 6cbe 4ddd 84be
00000110: 7b11 62be 135a 8d3e c963 87be 2123 2cbe
00000120: a688 743d c449 9f3c 6ab0 b13e 75bf 7dbe
00000130: 49b5 b93e 5ab9 8ebe 0de3 57be 9b9e b93e
00000140: 6cde 233e b431 20be d0e4 86be 94ee 30be
00000150: df94 63be 3d7a 56be ae8f a23e 7d44 85be
00000160: f61b 99be e755 823e 706d 4bbe 0792 9b3e
00000170: ca19 90be 557f 393e b9ab 81be 3197 b5be
00000180: d6cf 12be c4cd a43d c898 f33d 28aa 01be
00000190: 9104 e23d 3260 85be 569f 34be ef06 253e
000001a0: 298d 803e 8a21 af3e 6883 acbe 4770 5bbe
000001b0: 04e5 673e 1bd4 87be fe83 83be a2dc 6ebe
000001c0: 04ef ea3d 23ca 96be 2989 51be e6e7 1bbd
000001d0: fb7a db3d d71f 423e 45d3 173d 6efd 763e
000001e0: 0743 5bbe 184b f139 f23a bebd c7fb d8bd
000001f0: 1559 8cbe c3e3 653e c2a7 313d 802e 363e
00000200: 6283 27bd 039e 44be 78cd 073e 0c6a 8e3e
00000210: 3ec0 a73e aee6 023e 109e 21be e5ed a8be
00000220: 4249 763e 9915 2b3e 1145 ad3e 21b8 96be
00000230: 81ab 2bbe dbd8 abbe 6811 3b3d fde1 96bd
00000240: 0e50 813e 952f 4ebe eefe d23c 08e1 bebe
00000250: cf4f fabd 1f36 85be 1d91 f93d 79d2 b73e
00000260: dc0a e53b a638 883d 5a40 fa3c 5eca 333d
00000270: d360 9d3c 775f 5a3e 84b7 2e3e 1416 ad3e
00000280: c5eb 4f3e e20f 273e 2e59 9bbe 0958 7abe
00000290: 70e1 6dbe ba23 d8bd 5970 ab3c b32a 913e
000002a0: f5f0 89be 8d4c a43d 226e e5bc 76ab 593d
000002b0: 5d23 de3d ce9d 283e a798 c7bb 99d0 39bd
000002c0: b227 493d 3c1d 7bbe 519a 4a3e 8a48 833e
000002d0: bf9e 81be ecf9 4ebd 6c71 96be 3d3a 75be
000002e0: 06cd 993e 5921 9a3e 6abb b43e 52a9 e93d
000002f0: 6780 ba3d 77cf 4a3e 7a65 99bc e256 f63d
00000300: 8d61 913e ebcd 593e 5fa4 55be 4f67 aabe
00000310: d2f8 5ebe 4d7a 97be 1a09 54be 422e 8bbe
00000320: 059b 6ebe 90ea 843c 6886 a43e b819 61bd
00000330: 95c8 8bbe 1cbf b53e 0c98 23be 1674 aabe
00000340: 8841 6f3e e625 c0bd a0e5 a0be 60d7 cdbd
00000350: 0a6f 72be c0ed 783c d25b 9e3d 4e62 313e
00000360: 48d3 ae3e c596 79be 889a 613e 94d0 9d3d
00000370: 1efd 98bc 8fb8 11be 8b30 b2be 28fc 6d3e
00000380: fe4e 8f3e 13b8 6dbe 98b5 13bd 411d 383e
00000390: 01cd c23d 6b49 e73d 94cf 3d3e 433c 11be
000003a0: 867c 80be 9561 a0be f6e7 053e 95c2 263e
000003b0: 5a73 93bd d267 48be 3889 d0bd 1586 7ebe
000003c0: 220c 33be d969 a43e 95f0 55be 3323 ac3e
000003d0: eacc 753e 11f6 5c3e b16b 9b3e 9713 d13c
000003e0: 35d3 01bb ac41 c1bd b372 a33e 909d 9a3c
000003f0: 0983 85be b610 b3be bd7b 09bc 97bd 18bd
0.041217845 -0.34592015 -0.26145074 -0.05076355 -0.27423322 -0.058134705 0.28606525 0.3169132
-0.18865901 0.26344782 -0.21639466 -0.13212705 0.12340834 0.41671857 -0.116889395 0.15285487
0.38252524 0.30874005 0.17692745 0.18663332 0.07157514 -0.006089653 0.35547143 0.21831287
0.28986925 -0.08063852 0.35461077 0.07535263 0.20111288 -0.18525174 0.1892213 -0.23878708
-0.17322357 0.16694765 -0.1278809 -0.24883907 0.22061539 0.10153144 0.3152063 0.11683822
0.09937095 -0.15788588 -0.2971083 0.16215536 -0.057148445 -0.19518062 -0.28308767 -0.04172026
-0.16096133 0.26419935 -0.2673911 -0.2510958 0.00046660245 -0.14980271 -0.3212112 0.24284624
0.20119707 -0.35858327 0.20051816 -0.07570204 -0.054476928 -0.32349357 0.17877588 0.08187776
-0.15709826 -0.11988032 -0.2311444 -0.2595009 -0.22076981 0.27607784 -0.26443318 -0.16810276
0.05970063 0.019444354 0.34704906 -0.24780066 0.36271122 -0.27875787 -0.21082707 0.3625382
0.16002816 -0.1564396 -0.26346445 -0.1727851 -0.22224759 -0.20945068 0.31750244 -0.26028815
-0.29904145 0.25456163 -0.19865966 0.30384848 -0.28144675 0.1811498 -0.25326326 -0.35466912
-0.14337096 0.08047059 0.11894375 -0.12662566 0.11036027 -0.26049954 -0.17638907 0.16115926
0.25107697 0.34205276 -0.33694005 -0.21429549 0.22645956 -0.2652901 -0.2568664 -0.23326352
0.1147137 -0.29451093 -0.20462479 -0.038062952 0.10716816 0.18957458 0.037066717 0.24120113
-0.21412288 0.0004602305 -0.09288587 -0.10594898 -0.27411714 0.22450165 0.043372877 0.17791176
-0.04089678 -0.19200902 0.13261974 0.27815282 0.32763857 0.1278331 -0.15782952 -0.32994
0.24051383 0.16707458 0.33841756 -0.29437354 -0.16764642 -0.33563885 0.045670897 -0.073673226
0.2525639 -0.20135339 0.025756326 -0.3728106 -0.122222535 -0.26017854 0.12185881 0.35902765
0.00698982 0.0665143 0.030548263 0.043894164 0.019211208 0.2132548 0.17062193 0.33805907
0.20304783 0.16314653 -0.30341476 -0.24447645 -0.23230529 -0.10553689 0.020927595 0.2835289
-0.26941648 0.080224134 -0.028006617 0.053142034 0.10846589 0.16466448 -0.0060911956 -0.04536495
0.049110122 -0.24522871 0.1978543 0.2564128 -0.25316426 -0.050531313 -0.2938341 -0.23947997
0.30039233 0.30103567 0.35299236 0.114092484 0.09106522 0.19805704 -0.018725146 0.1202829
0.28394738 0.21269958 -0.20863484 -0.33281943 -0.21774605 -0.29585496 -0.20706597 -0.2718373
-0.23301323 0.01622513 0.32133794 -0.054956168 -0.2730147 0.35497367 -0.1597597 -0.33291692
0.23364842 -0.093822286 -0.3142519 -0.10050845 -0.2367517 0.015193403 0.07732357 0.17322657
0.3414557 -0.2437392 0.22031605 0.07705799 -0.018675383 -0.1423056 -0.3480266 0.23240721
0.27989954 -0.2321475 -0.036061853 0.1797991 0.09511758 0.112933 0.18536216 -0.14183144
-0.25095004 -0.3132445 0.13076767 0.16285165 -0.07199736 -0.19570854 -0.101824224 -0.24855836
-0.17485097 0.32112005 -0.20892556 0.33620605 0.2400395 0.21578242 0.303556 0.025522036
-0.0019809727 -0.09436354 0.31923446 0.01887396 -0.26076534 -0.34973687 -0.008391318 -0.037290182
