trys/chico_clasi.ckpt (torch, 112324 bytes, 26 tensors)

conv1.weight f4 [32, 1, 80]
000000 a2 a6 cf 3d 30 0b a8 3c f8 52 98 bd c6 15 ea 3d
       0.101392046 0.020513147 -0.074377 0.11429934
000010 0e 48 ed 3d 10 62 e0 3c 4b 2d ac bd 55 12 ee bd
       0.11586009 0.02739051 -0.084070764 -0.1162459
000020 23 05 b6 bd 04 ca 87 3d 27 7b 9e bc 4d 68 fe 3c
       -0.088876985 0.06630328 -0.019345833 0.031055594
000030 2c 51 02 3d 9a 49 df 3c 4d 5c 94 3d c4 fe d3 bd
       0.031815693 0.027256776 0.072441675 -0.10351327
000040 52 05 45 bd 25 8d 95 bd 05 2b 63 bb db 54 37 3d
       -0.048100777 -0.07302312 -0.0034663093 0.04475866
000050 c9 9e 13 3d f3 e8 72 3d 7e 8c b8 3d 72 a0 ba bd
       0.0360401 0.05930419 0.09011172 -0.09112634
000060 c2 28 5e bd d4 bf c9 3c 44 af ce bd 5b 51 ab bd
       -0.05423809 0.024627604 -0.10092023 -0.08365127
000070 8a e7 10 bd 52 75 bb 3d 1b a9 a0 3d 0e 64 3c bd
       -0.035377063 0.091532364 0.07844754 -0.045993857
000080 fe 93 de bc 99 14 83 bd 6e ec 38 3d f6 a7 70 3d
       -0.027170178 -0.06400413 0.045147352 0.05875393
000090 41 bb 8a 3d 80 50 44 3d e3 5a ee bd 03 0d ca bd
       0.06773997 0.047928333 -0.11638429 -0.09865763
0000a0 94 38 d6 3b 52 95 8e 3d 8e 59 24 3d 1e 52 8e 3d
       0.0065375064 0.06962074 0.04012447 0.06949256
0000b0 3d 83 e0 3c 7a 9c b6 3d e7 87 9b bd 92 d7 a5 3d
       0.02740633 0.08916564 -0.07594281 0.080977574
0000c0 b7 a7 b9 bc 4e 35 2e bd c0 1e 9b bd 2d 45 9a 3d
       -0.02266298 -0.042531304 -0.075742245 0.075327255
0000d0 ec 61 cf 3d a7 aa da 3b 98 f3 85 3d 93 15 a6 bd
       0.10126099 0.0066731754 0.065406024 -0.08109584
0000e0 6e 7e cd bc 3f ea e0 3c a1 ea 89 bc 6a 48 ec bb
       -0.0250847 0.027455447 -0.016835513 -0.007210781
0000f0 aa c4 a7 bd 63 32 60 bd 33 b1 ae bd ec ab ae 3d
       -0.081918076 -0.054735553 -0.08529892 0.08528885
000100 fe 79 d9 3d a9 dc 57 bd f6 5f 8d 3d 47 ae 8e bd
       0.10618971 -0.052700672 0.06903069 -0.069668345
000110 63 b0 56 3d cb ca 9d 3d 4d 7d eb bc cb 17 d9 bd
       0.05241431 0.07704695 -0.028746272 -0.10600241
000120 1a 70 2a bc 31 68 12 3d 0c c4 9a 3c 6c b5 d2 3d
       -0.010402704 0.035743896 0.01889231 0.1028851
000130 d1 b6 cc bd 13 c8 d4 bd 3e 56 ac bd 40 02 b9 3c
       -0.09995807 -0.10389724 -0.08414887 0.02258408
000140 9a d0 b7 bd 9b 52 a0 3d b7 7b e9 3d f1 08 f9 3c
       -0.089753345 0.07828256 0.1140055 0.030399771
000150 ad bd f4 bd 8f 2f 48 bd 13 ef d6 bd b7 38 bc 3d
       -0.1195024 -0.04887348 -0.104948185 0.09190505
000160 77 de f5 3d 05 88 52 3b ab f1 3e bd 3c f0 97 3d
       0.120053224 0.003212453 -0.04661719 0.07418868
000170 72 06 36 3d 76 f7 1d 3d e4 dd d2 bc a7 b3 6d bd
       0.04443974 0.038566075 -0.025740571 -0.058032658
000180 85 db e6 3d 57 07 d2 3d 7f 45 a2 3c e4 c7 d5 bc
       0.11272339 0.10255306 0.019808529 -0.026096292
000190 73 ba cc bd eb 35 28 bd 1c e9 d7 bd 6b 67 c6 bd
       -0.099965 -0.041067045 -0.10542509 -0.09687694
0001a0 b9 bd 2d 3d a2 ee 26 3d f0 de 98 3d 5d 2e 8a bd
       0.04241726 0.04075492 0.07464397 -0.06747124
0001b0 37 28 df bd 47 ef bc bd fe 63 0a 3d 91 d3 ab 3d
       -0.10896342 -0.09225326 0.033786766 0.083899625
0001c0 54 21 bb 3c 77 f3 cb bc ed ce b0 3d 56 59 65 3d
       0.02284304 -0.024896367 0.08633218 0.0559934
0001d0 86 6d 39 bd 13 c6 98 bd 7d 0e 53 bd 69 ef 9b bd
       -0.045270465 -0.07459655 -0.05152749 -0.07614023
0001e0 54 83 14 3d 97 5a de 3d 63 9b c2 3d 68 10 5e bd
       0.036258057 0.108571224 0.09502294 -0.054214865
0001f0 e5 5c 80 bd 95 6f dd bd 48 d9 14 3d 32 83 1a 3d
       -0.06267718 -0.10812298 0.036340028 0.037722774
000200 5a 32 00 3e e0 c7 e1 3d 1a 8a 10 bd b9 d9 44 3c
       0.12519208 0.11024451 -0.035287954 0.0120148
000210 09 0a 39 3d 4f da 9c bb 20 b8 58 bd d8 13 26 bd
       0.045175586 -0.0047867666 -0.05290997 -0.04054627
000220 96 52 ad bc 8c 5b 99 bc 6a 63 34 3d 81 eb 49 3d
       -0.021157544 -0.01872041 0.04404012 0.04929686
000230 a0 55 a7 bd 60 ee ac 3c 30 5a 47 bd b9 db 8a 3d
       -0.081706285 0.02110976 -0.048669994 0.0678019
000240 2b 16 34 bd 4a 4d 35 3d 93 be 4d bd 65 f6 7a 3d
       -0.043966454 0.04426316 -0.050230574 0.061270136
000250 d7 08 81 bd fb ba 13 3b 56 3b da 3d 4c bd a8 3c
       -0.06300514 0.002254187 0.10655849 0.020598076
000260 5c a1 9c 3d 28 2e 22 3a d5 f8 83 bd 30 eb ad bd
       0.07647964 0.00061866874 -0.06443945 -0.08492124
000270 e7 3d a9 bd 6d e8 6f 3d aa 24 50 bc da 0e a8 bd
       -0.0826376 0.058571268 -0.012704054 -0.08205958
000280 25 3e b9 3d 9c 5f 7a bc 01 9f e6 3d 78 4a 9a 3d
       0.09045056 -0.015281584 0.11260796 0.07533735
000290 cb 6b 73 3b f5 bd ac bd c8 4c c4 bc 03 c0 73 3d
       0.0037143107 -0.08434669 -0.023962393 0.05950929
0002a0 e6 0f c5 bd 54 66 bb 3b 0d 02 22 bd a2 0b b8 3d
       -0.09622173 0.0057189856 -0.039552737 0.08986594
0002b0 06 d9 e9 3d 13 d1 5a 3b 70 62 6a bd 0c e7 5e bd
       0.11418347 0.0033388778 -0.057222784 -0.054419562
0002c0 08 09 9c 3d 53 f4 26 bd fc c9 bc bd b2 73 19 3d
       0.0761891 -0.04076035 -0.09218213 0.03746385
0002d0 b2 00 df 3d 43 a2 88 3d 94 68 5f 3d 44 fe 1a bd
       0.108888045 0.06671574 0.054543093 -0.037840143
0002e0 79 fb 8c bb 7f 20 b7 b9 25 eb b7 bd 02 4e 9f bc
       -0.004302439 -0.00034928691 -0.08980397 -0.019446377
0002f0 3a 24 de 3d 49 cf 09 3b 3d 85 e0 3c 0d 50 87 bd
       0.108467534 0.0021028093 0.027407283 -0.06607065
000300 31 10 1d 3d 04 a3 fe bc cb 2b c9 3d e9 e3 da bd
       0.03834552 -0.031083591 0.09822806 -0.10688002
000310 34 fa 93 3c c0 26 8c bd 3c d4 be 3d db f3 2f bd
       0.018063642 -0.068433285 0.09317824 -0.042957168
000320 78 72 4f bd 80 8d e8 3d 8e fe 11 bd 38 ca be bd
       -0.050646275 0.11355114 -0.035643153 -0.09315914
000330 ec 68 f2 bb 6e 92 86 bd 75 b5 c4 3d 6e 31 b5 bd
       -0.0073977616 -0.06570898 0.09604923 -0.088473186
000340 88 b1 b2 bb 76 97 de bd 03 e1 a2 3d ce 7e 04 bd
       -0.0054532923 -0.10868733 0.07953074 -0.032347493
000350 cf a0 22 3d 56 11 e7 3c 86 0e b6 bd 74 9f 94 3d
       0.03970414 0.028206509 -0.08889489 0.07256976
000360 56 73 2c 3d a8 2d b9 bd 6c e9 cd 3c 46 ad 5e bb
       0.04210218 -0.09041911 0.025135718 -0.003397779
000370 c5 81 85 bd d3 ca 01 bd 27 a0 53 3d 00 27 8c 3c
       -0.06518892 -0.03168757 0.051666405 0.01710844
000380 f1 c2 ae 3d 35 13 9c bd 5b b3 d8 3d 22 40 9f bd
       0.08533276 -0.07620851 0.10581084 -0.07775904
000390 e0 e4 32 bd 40 25 c8 bd 62 79 e0 bb c8 ed b0 bd
       -0.043675303 -0.0977273 -0.0068504075 -0.08639103
0003a0 f3 2c 82 ba 36 85 9c bd f9 fe c9 bd e2 d7 55 3c
       -0.0009931609 -0.076425955 -0.09863085 0.013051959
0003b0 e4 f4 b9 3d 0a 8f ae bd 20 8d d6 bb e7 45 97 bb
       0.09079912 -0.08523376 -0.006547585 -0.0046164873
0003c0 c4 5e db 3b a5 33 a9 3d f4 3f ee 3c a7 ee 83 3c
       0.0066946466 0.082618035 0.02908323 0.01610501
0003d0 88 a0 2e bd 30 65 d0 3c aa 0f d7 bd 89 94 04 be
       -0.042633563 0.025438875 -0.105010346 -0.12947287
0003e0 db f5 8c bd 43 b0 e4 bd 9f 31 b5 3d 13 06 4b bd
       -0.06882831 -0.11166432 0.08847355 -0.04956634
0003f0 50 d7 ec 3d 1e da 96 bd 5c 75 3e 3d 65 c8 d5 3c
       0.11564505 -0.07365821 0.04649864 0.026096532

conv1.bias f4 [32]
000000 52 2a 64 3d 94 8a f6 3c 88 f8 76 3d b9 97 ab 3d
       0.055704422 0.030095376 0.06029561 0.08378548
000010 b2 cd 2f bd 29 3c 10 bd e5 4a 88 bd 0a 11 e0 3c
       -0.042920776 -0.035213623 -0.0665491 0.027351875
000020 c3 ab 71 3c bc 8e 35 bc a1 7a 7f 3b d5 3f a0 bd
       0.014750424 -0.011081394 0.0038983005 -0.07824675
000030 d6 2c e6 3d 87 3a 03 bd 35 18 46 bd d2 6f 90 bd
       0.112390205 -0.032038238 -0.04836293 -0.07052578
000040 b8 82 5b bc 81 d8 a4 3c 19 aa 62 bc 3e 1d bb 3c
       -0.013397865 0.020122768 -0.0138345 0.022841092
000050 21 24 bf 3d 59 ac 3c bd 4b d8 8b bd 9d f6 b6 bd
       0.09333063 -0.0460628 -0.06828364 -0.089337565
000060 9d 65 13 3d 0a ef c5 bd e5 e8 20 3d e6 10 7e 3d
       0.035985578 -0.09664734 0.039284606 0.062027834
000070 a8 24 13 bd fc c1 7a bd 37 4f 04 be b3 db e6 3d
       -0.03592363 -0.061220154 -0.12920843 0.11272373

bn1.weight f4 [32]
000000 39 5f 82 3f 8a 9f 83 3f 98 d2 80 3f 9b 27 80 3f
       1.018531 1.0283062 1.0064268 1.0012087
000010 83 24 7e 3f 63 69 81 3f 02 eb 7d 3f 7f 14 7e 3f
       0.9927446 1.0110286 0.9918672 0.99250025
000020 4e 47 81 3f df cc 81 3f 78 8d 80 3f f0 d1 7e 3f
       1.0099885 1.0140647 1.0043173 0.9953909
000030 f8 15 7d 3f 54 d9 80 3f 5b ed 79 3f 21 7c 81 3f
       0.98861647 1.0066323 0.976278 1.0116006
000040 3a 20 7c 3f ad bd 80 3f 5a 87 7f 3f 65 36 80 3f
       0.98486674 1.0057884 0.99815905 1.00166
000050 c2 96 7f 3f a6 65 7d 3f 1f 85 7d 3f 84 38 81 3f
       0.99839413 0.9898323 0.9903125 1.0095372
000060 9e f4 7d 3f 56 58 7c 3f b0 66 81 3f fe df 7c 3f
       0.9920138 0.9857229 1.0109463 0.98779285
000070 d6 80 7d 3f 55 9c 7c 3f a9 84 80 3f 18 16 81 3f
       0.99024713 0.98676044 1.0040485 1.0084867

bn1.bias f4 [32]
000000 8d 25 8b bc a1 06 f2 ba 67 8c 9e 3b 1a b0 33 3c
       -0.016985679 -0.001846511 0.0048385146 0.010967279
000010 da 0b 9c bc d9 7d 49 bc 3f 0e 3b bc 77 37 91 bb
       -0.01904862 -0.012298071 -0.011416971 -0.0044316608
000020 cb fd bf 3b 8b a2 0b 3b a4 d2 f6 bb 3b 8a 92 bc
       0.005859112 0.00213066 -0.0075324345 -0.017888179
000030 6c a5 8f bc b9 f7 5e 3c 06 5a 7c bc 6a 51 1c 3c
       -0.017534934 0.013608866 -0.015402323 0.009540895
000040 a6 34 bd bb ee 75 7b bc 6e b7 3f bd 30 ab 6f bb
       -0.0057740984 -0.015347941 -0.04680579 -0.0036570542
000050 72 4f 5d bc 96 58 71 bc 9e 35 a9 bc a5 06 f2 3b
       -0.013507711 -0.014730593 -0.02065545 0.007386046
000060 5e 58 80 bc 41 66 1f bc e4 27 b7 bc 9c fa 62 bc
       -0.015667137 -0.009728969 -0.022357889 -0.013853695
000070 f5 8a f2 bc 14 f4 5e bc 75 71 cd bb ef ad 0c 3b
       -0.029607276 -0.013607997 -0.0062696286 0.0021465977

bn1.running_mean f4 [32]
000000 73 61 6c 3d 21 07 ff 3c 15 bd 67 3d 87 c8 bf 3d
       0.057710122 0.031131329 0.056576807 0.093644194
000010 84 03 0b bd 88 18 0e bd 6c d2 b2 bd 85 88 3d 3d
       -0.0339389 -0.034691364 -0.08731541 0.046272773
000020 2d 31 bf 3c aa 46 b0 bc 16 90 6c 3c cb 26 9b bd
       0.023338879 -0.02151807 0.01443865 -0.075757585
000030 ce d4 eb 3d 02 93 2f bd cc 60 3c bd 23 d8 b0 bd
       0.11515199 -0.042864807 -0.04599075 -0.08634975
000040 2d de f8 bc 9b fc bc 3c 82 e5 28 bc e6 c8 12 3d
       -0.03037938 0.02306967 -0.010308625 0.035836123
000050 8b f5 c9 3d aa 1f 64 bd 04 a6 7d bd f3 08 a3 bd
       0.09861287 -0.05569426 -0.061925903 -0.07960691
000060 af 93 31 3d e7 5d ee bd a8 68 22 3d 77 f8 7d 3d
       0.043353733 -0.11639004 0.03965059 0.062004533
000070 74 52 00 bd 4a 56 6b bd 1c 34 fc bd de 53 f1 3d
       -0.031328633 -0.05745534 -0.123146266 0.117835745

bn1.running_var f4 [32]
000000 ba 20 4a 38 cf 04 32 38 d4 9c 17 39 c6 7a be 39
       4.8191032e-05 4.2442985e-05 0.00014458905 0.00036331097
000010 a4 c9 55 39 c8 c0 35 38 b3 17 b5 3a 1a d3 a3 3a
       0.0002038838 4.3333304e-05 0.0013816267 0.0012498826
000020 31 db 47 39 34 1e f1 39 e3 f2 ef 39 a9 82 ba 38
       0.00019059774 0.00045989605 0.00045766597 8.8935085e-05
000030 ee 49 5f 38 65 0e ea 39 88 86 4e 38 fd d6 35 3a
       5.3236196e-05 0.00044642683 4.923952e-05 0.0006936638
000040 6b 23 a5 3a a1 16 6e 38 5b 87 75 38 24 aa 48 3a
       0.0012599056 5.6764697e-05 5.853861e-05 0.00076547475
000050 c3 d0 2f 39 8f f6 ca 39 9d 95 ed 38 d8 44 bc 39
       0.0001676707 0.00038712143 0.00011328908 0.00035909447
000060 64 07 83 39 af 8a 94 3a 18 e0 ce 37 34 86 8e 38
       0.00024991774 0.0011332835 2.4661465e-05 6.796085e-05
000070 29 c2 c6 38 48 5e ba 38 0b 56 e3 38 cc f2 2d 39
       9.477541e-05 8.8867324e-05 0.0001084023 0.00016589015

conv2.weight f4 [32, 32, 3]
000000 fb 4f 14 3d 1e 6b ea 3d 12 54 88 3c 42 7e a0 3d
       0.036209088 0.11446212 0.01664165 0.07836582
000010 24 ba 7f 3d f3 27 ce 3d 9e c2 d2 3c df dc 88 bd
       0.062433377 0.100662135 0.025727566 -0.06682753
000020 ae 54 9c 3d 7f ef 7e 3d 74 61 16 3d 7c 7b 51 3d
       0.07633339 0.06224012 0.036714032 0.051143155
000030 43 59 62 bd 61 5a cc 3c f9 e4 84 3d b2 83 83 3c
       -0.055260908 0.02494544 0.064889856 0.016054008
000040 e1 4e c7 3d c8 ce 94 bd 3c 1c ab bd 02 43 08 bd
       0.09731842 -0.07266003 -0.08354995 -0.03326703
000050 30 d9 9f 3c 92 5c 97 bd 79 73 dc bd b0 34 22 bd
       0.019512743 -0.07390703 -0.10764212 -0.039601028
000060 85 d6 47 3d 7c ce a8 bd c4 cd 01 3d ac bc e1 bc
       0.048788566 -0.08242509 0.031690374 -0.027555786
000070 27 f0 49 3d 7c a5 89 bd 0f a2 14 bc 99 23 73 bd
       0.049301293 -0.06721017 -0.009071841 -0.05936012
000080 30 12 18 bd 78 f4 b2 3c 69 f6 04 bc 5f b3 86 3d
       -0.03712672 0.021845087 -0.008115389 0.06577181
000090 39 70 85 bd 0a d7 24 bd fd eb b4 3d a3 56 8c 3d
       -0.065155454 -0.04024414 0.08834074 0.06852462
0000a0 67 8e 83 3d 2f 62 b1 3c 2b 37 ff 3c 4d 1d 25 3d
       0.064236455 0.021653263 0.031154236 0.040311147
0000b0 88 1f 8f 3d 24 84 b0 ba 1c 2d e1 3a f4 a8 39 3d
       0.06988436 -0.0013467115 0.0017179581 0.045327142
0000c0 fa 6d 87 3b 02 fb a8 3d 69 3c 2d bd 4a c0 b0 3c
       0.0041329833 0.08251001 -0.04229394 0.021576066
0000d0 dd d3 92 3d 1f 59 8a bd e9 fd 11 3d 9c 12 af 3d
       0.07169316 -0.0675528 0.03564254 0.08548471
0000e0 c6 4a ee bd 51 93 03 bd 84 d1 c1 bd 72 8e b3 3d
       -0.11635356 -0.032122914 -0.0946379 0.08767404
0000f0 89 c9 47 bc 04 c5 8d 3c 8d 86 78 3d 45 7a b2 3d
       -0.012194046 0.017305858 0.060675193 0.08714727
000100 56 d4 5e 3c de 87 99 bc db 52 8a bd 79 e2 03 3d
       0.0136004295 -0.018741544 -0.06754085 0.032198403
000110 55 fb c0 3d 08 d4 78 bc 83 ba 83 bd fa e4 1f bc
       0.09422938 -0.015187271 -0.06432059 -0.009759182
000120 d0 c2 72 bd cc cf 56 3d 28 d5 41 3d cd 61 37 3d
       -0.05926782 0.052444264 0.047322422 0.044771004
000130 71 87 8e bc be 6d ca 3d fb 62 56 3d c5 2d 58 3d
       -0.017398568 0.09884213 0.05234049 0.052778024
000140 d7 bf 12 bd 1a d9 c0 3d 3d dc 03 bd 2d 94 92 3d
       -0.035827484 0.09416409 -0.032192457 0.071571685
000150 88 bb 9c 3d 3e 01 3b bb be 6c af 3c aa ea ac 3d
       0.07652956 -0.0028534676 0.021414157 0.08443196
000160 84 c9 4f bd 85 46 45 3c c3 97 7e 3d 9e 0a 5e bd
       -0.05072929 0.012040739 0.06215645 -0.054209344
000170 3b 95 6d bd 3d ae d2 bd b6 d4 8b bd e7 ae fd 3c
       -0.058003645 -0.102871396 -0.06827681 0.030967189
000180 e9 2f 95 bb f0 90 f6 3c 3e 1d ba 3d 2a 71 d0 3c
       -0.0045528305 0.030098408 0.09087609 0.025444586
000190 40 a0 67 bd 52 2e 0f 3e d9 b5 06 3d f8 e1 a6 bd
       -0.05654931 0.13982514 0.032888267 -0.08148569
0001a0 5c e0 fd 3c 95 65 61 bd b6 e7 02 3d eb 02 16 bb
       0.030990772 -0.055028517 0.031959258 -0.0022889923
0001b0 0b 0a 9b 3d ee 42 63 3c 01 47 cd 3a e6 a9 ad bd
       0.07570275 0.013870938 0.001566142 -0.08479671
0001c0 18 08 14 3d b5 b7 69 bd 69 36 5a bd 67 6c b4 3d
       0.03614053 -0.057059962 -0.053274546 0.088097386
0001d0 b8 57 40 3d f7 80 a5 bd 0c 4f 3c bc 70 c6 ac 3d
       0.046958655 -0.08081239 -0.011493456 0.084362864
0001e0 57 4a 71 bd e8 61 bd 3d c2 33 ce 3d 6b 78 ac bd
       -0.058908787 0.0924719 0.10068466 -0.084214054
0001f0 5f b8 d0 bd d2 a4 c7 bd fb b2 87 bd 27 28 b5 3d
       -0.10191416 -0.09748234 -0.06625935 0.08845549
000200 a8 67 c9 bd eb e7 b3 3d 49 37 a8 bc 6b d2 b2 bd
       -0.09834224 0.08784469 -0.020534175 -0.0873154
000210 be 65 ed ba d9 2f 60 3d 77 c8 b9 3d 72 36 7b bd
       -0.0018111987 0.05473313 0.09071439 -0.06133122
000220 a6 f0 05 bc e9 fa 81 bd e1 54 77 bd 48 f2 9a 3d
       -0.008175051 -0.063466854 -0.06038368 0.07565743
000230 d7 7a a5 3b eb 4d b0 3d d4 ae c5 bc d2 e2 ef bc
       0.005050044 0.08608612 -0.024131216 -0.029282961
000240 f2 4d 89 bb 75 1e 27 bd 7c 5c b1 3d 22 82 67 3d
       -0.0041902 -0.04080053 0.08660218 0.05652059
000250 51 09 c3 3c 2e 29 38 3d 27 d2 b8 bd d2 1b e3 3c
       0.023808153 0.044961147 -0.090244584 0.027723227
000260 19 14 7d 3d 37 d6 ca bd b3 d9 ca 3c a9 46 2d bd
       0.061786745 -0.099041395 0.02476201 -0.042303715
000270 a3 21 7f bd 30 90 81 bd e1 1b 06 3c 6c 4e 08 3d
       -0.062287938 -0.0632633 0.008185358 0.033277914
000280 32 d6 99 3d c8 af 04 3d ea b0 0c bc d0 48 b3 3d
       0.07511558 0.0323942 -0.0085871015 0.08754122
000290 98 76 dc bd 4c 06 3a 3d 47 70 f3 3a cb 69 0e 3d
       -0.107648075 0.04541616 0.001857289 0.03476886
0002a0 e9 5c 70 bc 6b db 0a 3d 34 72 71 bd a5 ac c0 bd
       -0.014670589 0.03390066 -0.058946803 -0.09407929
0002b0 3a 07 93 3c 3d d1 ad 3d fc f0 91 3c e4 ba 40 bd
       0.017947782 0.08487175 0.017815106 -0.047053233
0002c0 f8 8a fc bc 9c c7 a0 bd 6b ee 4d 3b 41 b7 78 3d
       -0.030827984 -0.078505725 0.0031422626 0.06072164
0002d0 ce 5d 8b bd 6a d8 ad bc e8 71 54 3d 8f ab 7e 3d
       -0.06805001 -0.021221358 0.051866442 0.06217533
0002e0 e5 f2 b7 bd 68 af 47 bd ab ba 9f 3d 22 8c 8f bd
       -0.08981875 -0.048751265 0.07799276 -0.0700915
0002f0 a7 84 e7 3d 45 b4 26 bd 5a 33 a0 3d 6d f2 e2 bd
       0.11304598 -0.040699262 0.078222945 -0.11081395
000300 7f 97 e0 3b 9d 95 b3 bb 14 46 06 bd 1d fe ac bd
       0.0068539972 -0.005480482 -0.032781675 -0.08446906
000310 8b 3c d0 bd 3d a1 a5 bd 92 5e af bd 03 95 10 bd
       -0.10167798 -0.080873944 -0.0856296 -0.03529836
000320 3e b0 40 3c c4 02 97 3d 60 dc 83 3d d0 95 86 bd
       0.011760769 0.073735744 0.064385176 -0.06571543
000330 e9 eb ad 3d fa 4d 47 3d 1b dd f1 bc 92 0e 26 3d
       0.08492262 0.04865835 -0.029524377 0.04054124
000340 fc ad 38 3d bd 96 b3 3d bc c9 d1 bd 8a 52 2f bd
       0.0450878 0.087689854 -0.10243556 -0.042803325
000350 dc d1 88 bd 3d eb d9 3b f1 24 29 bd 80 ba 58 3d
       -0.066806525 0.006650357 -0.041294996 0.052912235
000360 91 59 5d bd 7b 74 b8 3d b8 c5 00 bd 57 ff 24 3c
       -0.054040495 0.09006592 -0.03143856 0.010070643
000370 11 ec 94 bd 58 55 b1 bd 21 47 2b 3d 25 dc 6d bd
       -0.072715886 -0.08658856 0.04181588 -0.058071274
000380 ec 65 e4 3d ed 4d d6 bc 16 55 99 3d 51 67 87 bb
       0.111522526 -0.026160205 0.07486932 -0.0041321893
000390 30 91 ff bd e8 95 20 bd 58 cd 14 bd 1b 54 de 3d
       -0.12478864 -0.03920546 -0.036328644 0.108558856
0003a0 4f 9a a1 3d 26 19 8c bd d3 89 4c bc e6 4e 88 bd
       0.0789076 -0.06840734 -0.012484032 -0.06655674
0003b0 72 ac f8 3c 10 aa c0 bd bf 6b 5b 3d 11 89 f2 3c
       0.030355666 -0.09407437 0.05356955 0.029606374
0003c0 49 cc 4e 3b 7e 67 bf 3d 77 21 eb bd 3a a6 84 bd
       0.003155487 0.093459114 -0.11480992 -0.06477018
0003d0 2c 0f a3 3d de fa bb bc 0e 66 1b 3d d3 6e b4 3d
       0.07961878 -0.022946771 0.037939124 0.088102005
0003e0 77 b5 68 3d 62 fc b4 3d 60 59 0d 3e 4d 15 a2 3d
       0.056813683 0.08837201 0.13803625 0.07914219
0003f0 10 52 45 bb 86 cc 90 3d fc bf 69 bd 06 ff 15 bd
       -0.0030108728 0.0707026 -0.057067856 -0.036620162

conv2.bias f4 [32]
000000 59 04 03 3d 58 9f 3b 3c d8 a8 90 3b 29 cc 72 3c
       0.031986568 0.011451565 0.004414659 0.014819183
000010 f7 49 88 3d fc f1 8b 3d b2 ac 2b bc 46 49 85 3d
       0.06654733 0.06833264 -0.0104781855 0.065081164
000020 a5 20 98 3d cc 9a c0 bc 21 b6 6c bc e9 c6 bf 3c
       0.074281015 -0.023511313 -0.01444772 0.023410277
000030 bc 59 28 bd 44 ea e4 bc bc 7b bc 3d 30 df b2 bd
       -0.041101202 -0.027943738 0.09203288 -0.08733976
000040 c4 80 b1 3c 51 f1 83 3d 08 27 ed bc c0 77 f4 bc
       0.021667846 0.06442512 -0.028949276 -0.029842257
000050 a8 a7 15 3d d5 13 82 bd 0d 3a be 3d c2 9d 09 bd
       0.036536843 -0.06351439 0.09288416 -0.033597715
000060 a1 56 51 3d f3 ed b3 bd b3 1d bc bd 76 66 f2 3c
       0.051108006 -0.087856196 -0.09185352 0.029589873
000070 3e a9 92 bd de 6b 0e bd 1b 77 c4 3c 29 b9 c1 bd
       -0.07161187 -0.03477084 0.023982575 -0.094591446

bn2.weight f4 [32]
000000 5f fc 80 3f 70 60 88 3f 19 ed 7d 3f f9 1b 7e 3f
       1.0077018 1.065443 0.9918991 0.9926143
000010 e4 d7 80 3f 86 8e 80 3f d4 0a 82 3f be cc 7f 3f
       1.0065885 1.0043495 1.0159554 0.99921787
000020 1c 09 7c 3f 59 a6 81 3f 55 3f 80 3f 19 2e 80 3f
       0.984514 1.012889 1.0019327 1.0014068
000030 5d a5 7d 3f 2b 8b 81 3f ab 64 79 3f cd 54 80 3f
       0.9908045 1.0120596 0.9741923 1.0025879
000040 31 03 7b 3f fc aa 80 3f 9a be 77 3f e6 f8 7d 3f
       0.98051745 1.005218 0.9677521 0.99207914
000050 85 08 7e 3f 38 04 7e 3f 6d e8 7e 3f 73 06 83 3f
       0.9923175 0.9922519 0.99573404 1.0236343
000060 1e cc 81 3f 8c a2 7f 3f ed 4d 7e 3f cd be 7d 3f
       1.0140417 0.998574 0.99337655 0.99119264
000070 11 45 7b 3f 8d 36 7b 3f 2e be 7c 3f 4b 28 80 3f
       0.9815226 0.9813011 0.9872769 1.0012296

bn2.bias f4 [32]
000000 90 a9 b3 bc 9b 81 ac bb 1e 01 17 bb 4e da 3b bc
       -0.02193144 -0.0052644736 -0.0023041437 -0.011465622
000010 c4 4b 15 bc 8e 28 5e bc e7 3a bb 3c c0 58 8b 3a
       -0.009112302 -0.013559474 0.022855235 0.0010631308
000020 07 d7 70 bc b8 fd d5 bc a8 8f 5b 3c 8d 14 87 bb
       -0.014699704 -0.02612196 0.01340095 -0.004122323
000030 46 c8 19 bc 9e 3c 6e 3c fa f8 fe bc 86 b3 df bc
       -0.009386128 0.014540819 -0.03112458 -0.027307283
000040 b8 19 bc bc 8e df 81 3c 87 75 5e bc d4 59 2f bb
       -0.022961482 0.01585367 -0.013577825 -0.0026756423
000050 f6 c9 82 bc df 86 82 bd 80 9d 2b bd f9 e3 a0 3c
       -0.015965443 -0.06373381 -0.04189825 0.019639956
000060 3a 83 89 bc 0b 32 b2 bc cf 48 e4 bb 41 59 92 bc
       -0.016786207 -0.021752378 -0.0069666873 -0.017864825
000070 f2 a5 ac bc cc fb f5 bc 43 a2 15 bb d5 cd 08 bd
       -0.021075223 -0.030027293 -0.0022832311 -0.03339942

bn2.running_mean f4 [32]
000000 0e 79 dc 3e 42 8e 28 3d e1 4a e7 3d ad 92 3f 3f
       0.43061107 0.041151293 0.11293579 0.74833184
000010 e5 80 a1 3d 1e 4e 2d 3e 92 f8 e2 be 6e 8e 45 be
       0.07885913 0.1692433 -0.4433027 -0.19292614
000020 c4 20 ac be 94 e9 fb 3e d4 66 a0 3d ac 6f 05 3f
       -0.33618748 0.49201643 0.07832113 0.5212352
000030 a3 cb fb bd 29 8a 62 3e e4 4e 3d 3f ad cc 62 3e
       -0.122947 0.22123016 0.739485 0.2214839
000040 6d f8 3d 3f a9 48 0a be 46 a9 55 3e 6f 33 f2 be
       0.7420719 -0.1350428 0.20865354 -0.47304866
000050 67 14 55 3d 9f 81 06 be 2e 57 7f 3e 3f e4 35 bf
       0.05202141 -0.13135384 0.249356 -0.710514
000060 8f 28 da 3e 90 87 b1 3e dd 20 09 be 26 39 1c 3e
       0.4260907 0.34673738 -0.13391443 0.15256175
000070 93 3e 03 3f 96 ed ad 3e 67 62 5a bd ed cd 75 be
       0.51267356 0.33970326 -0.0533165 -0.24004336

bn2.running_var f4 [32]
000000 b2 d6 55 3e f0 6c eb 3d c8 d9 0e 3f da f4 ce 3e
       0.20882681 0.114953876 0.5580106 0.40421182
000010 da 82 ba 3e 6a 2f 06 3e ea b8 6c 3e 94 99 24 3e
       0.36427957 0.13104025 0.23117414 0.1607421
000020 31 52 c8 3e 66 78 65 3e fd 0f d1 3e 04 12 d4 3e
       0.39125207 0.2240921 0.4083251 0.41419995
000030 7d 30 3c 3e 13 8e cb 3d 53 4c 1a 3f 30 37 43 3e
       0.18377872 0.09939208 0.6027271 0.19064021
000040 74 f9 86 3f 27 33 ed 3e 2e 1d 62 3f 3b 0b 0b 3e
       1.0544877 0.4632809 0.88325775 0.13578503
000050 82 1a 6d 3e 2f dc 3b 3d 95 f3 a8 3e df a4 8c 3f
       0.23154643 0.04586428 0.32998338 1.0987815
000060 3b f8 83 3e 54 31 70 3e f6 58 99 3e d1 bd bd 3d
       0.25775322 0.23456317 0.29950684 0.0926472
000070 a3 cc 93 3f e5 50 2e 3e fc 92 ca 3e ce 7b bc 3d
       1.1546825 0.17023046 0.39565265 0.09203301

conv3.weight f4 [64, 32, 3]
000000 07 d0 96 3d dd f6 7b 3c 04 70 7e 3c b0 b5 81 bd
       0.07363897 0.015378681 0.015529636 -0.06333482
000010 1a 00 20 bd 7c 7f b1 bd 96 c2 60 bd de 0b 0f 3d
       -0.039062597 -0.08666894 -0.05487307 0.034923427
000020 ab 8f bf bc 8f c0 c3 bd 36 4a 42 3d 76 e1 84 bd
       -0.023383936 -0.09558212 0.047434054 -0.06488316
000030 ea 42 d0 3d 80 4a c7 3d 2e a6 4b bb 80 e1 78 3d
       0.10169013 0.097310066 -0.0031074393 0.06076193
000040 ba 28 56 bd f5 06 48 bd 38 6e f0 3d 79 8c db 3c
       -0.052284934 -0.04883476 0.117397726 0.026800381
000050 bc 57 98 bd b5 f2 13 3c e9 d8 a5 3d 3a 55 20 bd
       -0.07438609 0.009030034 0.08098013 -0.03914378
000060 78 f6 da 3b a9 8c 8f 3c 02 23 2d 3d c4 b6 c4 3c
       0.0066822134 0.017523127 0.042269714 0.02401293
000070 1f be 84 bd 65 98 52 3b c7 5f b8 3d dc 61 8c bc
       -0.06481575 0.0032134291 0.09002643 -0.017136507
000080 20 d0 00 be 8c 64 f3 3c f2 e0 bf bd d7 3a 28 bd
       -0.12579393 0.02971103 -0.09369077 -0.04107174
000090 be 73 74 bd 99 fe f1 3d 5a c8 06 bd 10 17 ca bc
       -0.059680693 0.11816139 -0.032905914 -0.0246692
0000a0 f5 b7 43 3d 80 b1 8e 3a 66 38 88 3d 4e fd 11 bc
       0.047782857 0.0010886639 0.06651382 -0.00891049
0000b0 c5 e1 97 3d da ab fc bc 22 1e af bd 36 3a 0e ba
       0.07416109 -0.030843664 -0.08550669 -0.0005425544
0000c0 b6 46 8c 3d a9 04 c8 bc 1e cb 8f bd b2 9c a1 ba
       0.068494245 -0.024416285 -0.070211634 -0.0012330024
0000d0 26 4a e2 bb 38 71 8a 3d b5 b7 5e bc 91 f5 e0 bc
       -0.006905812 0.06759876 -0.013593604 -0.027460845
0000e0 31 c5 ae bc 01 ad a3 bd de 1a 01 3c 9e d4 aa bd
       -0.021334263 -0.07991982 0.007879941 -0.08341335
0000f0 da ab 3f bc 6d d4 c3 bd 68 51 a6 bd 88 81 8b 3c
       -0.011698687 -0.095620014 -0.08120996 0.017029539
000100 dc 45 86 3c e7 22 61 bd 1e 4b 2a bd 9a 2b 09 bd
       0.016390733 -0.054964926 -0.041575544 -0.033488847
000110 84 3c 8f bd 78 97 c5 3c 0e c1 ad 3d f2 71 b8 bd
       -0.06993964 0.024120077 0.08484088 -0.09006108
000120 b8 be a0 bd b7 67 82 bd 3e 43 86 3d 8c 47 9d 3c
       -0.07848877 -0.06367438 0.06555794 0.019199155
000130 50 ee 2c 3d d3 16 0f bc d1 98 a4 3d ab 7d e4 bb
       0.04221946 -0.008733469 0.0803696 -0.0069729886
000140 fc be a9 3c 96 cb 3f 3d 07 06 80 bd db e9 28 3c
       0.020720951 0.046825014 -0.062511496 0.010309662
000150 6d ce 79 bd 87 93 84 3d 83 eb 80 3b 2d 85 a3 bd
       -0.06098788 0.06473451 0.003934325 -0.07984386
000160 fc 37 ae 3d 31 ae 8c bd 5b 5e 45 3d d2 10 2f bd
       0.08506772 -0.06869162 0.048185688 -0.04274065
000170 b1 7d 83 bd 04 02 53 3d cb ea 64 3c 1c 4f ba 3a
       -0.06420458 0.051515594 0.013971995 0.001421425
000180 b8 e0 bc bd 3f 40 9e 3d ae 8f cf bd 87 04 b8 3c
       -0.09222549 0.07727098 -0.101348266 0.022463096
000190 90 83 60 bc 61 94 a5 3d 51 8f 43 3d f3 5c 78 bd
       -0.013703242 0.08084942 0.0477441 -0.06063552
0001a0 0c 30 be bc 3b a1 49 3d 21 c1 9d 3c b8 93 ae bc
       -0.02321627 0.049226027 0.01925713 -0.021310672
0001b0 7a 81 7d bd ab 33 65 bd 81 b0 1f 3b f1 99 ae 3c
       -0.061891057 -0.055957478 0.002436668 0.02131364
0001c0 82 56 62 bd 92 de 88 bd d3 dc 01 be 1b 41 81 3b
       -0.05525828 -0.06683077 -0.12681894 0.0039445288
0001d0 fa f6 5a 3d 4d f0 09 3d f5 01 55 bd c1 7f 0b bd
       0.05345819 0.033676434 -0.05200382 -0.034057382
0001e0 42 37 cf bc 81 05 37 3c db 3f 11 3d 93 9e 14 bd
       -0.025294904 0.011170746 0.035461288 -0.03628404
0001f0 1b 95 b8 bd fd e3 1e 3b 9a 06 fb 3c b3 05 f6 bc
       -0.090128146 0.0024244778 0.030642796 -0.030032014
000200 08 a0 26 bc 7a 0d 89 3c 0e 4b 6d bd 21 8a c0 bc
       -0.01016999 0.016730059 -0.057932906 -0.023503365
000210 10 40 a2 3c d1 28 36 bd 90 fe 05 be 94 77 4e 3c
       0.019805938 -0.04447252 -0.13085389 0.012601752
000220 97 84 11 b9 6b 7f b4 bc 5a c8 0e bd d1 cc a9 3d
       -0.00013877671 -0.022033414 -0.03485904 0.08291019
000230 77 22 be 3d 43 e7 fc 3b 82 ae 71 3d 90 69 0d 3d
       0.092839174 0.007717998 0.059004314 0.0345245
000240 41 7d 99 3d b3 8e 37 bd 6e 8c 02 bd b1 4d bd bc
       0.074945934 -0.044813823 -0.031872205 -0.023108335
000250 d4 94 5a bc 32 70 91 bd 6b 1d 98 3d bc 4a cb bc
       -0.013341147 -0.07101478 0.07427486 -0.02481591
000260 ca 01 c8 3b 0d 71 16 3e 9c bb 06 3e 9e 53 bf 3d
       0.006103729 0.14691563 0.13157505 0.093421206
000270 e4 6e 94 bd bc af 5b bd 90 e6 2e 3d aa f3 d6 bb
       -0.07247713 -0.05363439 0.04270035 -0.0065598087
000280 7d 1d f6 3a 87 84 5c bc 54 f1 d5 bd 76 fa 9d 3b
       0.0018777099 -0.013459331 -0.1044642 0.004821117
000290 dc 79 dc 3b b9 79 ef 3c 51 e2 c8 bd 56 3f 48 3c
       0.006728394 0.029232847 -0.098087914 0.012222132
0002a0 32 e3 75 3d 31 25 ce 3c 25 2b aa 3a 3e ed 69 3c
       0.060031123 0.025164219 0.0012982829 0.014277754
0002b0 b1 02 9c bd 09 f9 35 bd dc 1b 39 3d 87 84 da bd
       -0.07617701 -0.04442695 0.045192584 -0.10669809
0002c0 a3 3f 39 bc 38 0b 65 3d df f7 50 3d 65 e7 37 3d
       -0.011306676 0.055918902 0.05101764 0.04489841
0002d0 3e b9 44 3d 1d 1a 4d bd e1 59 02 bc ec 91 33 3d
       0.048028223 -0.05007373 -0.007955999 0.043840334
0002e0 9a 28 18 bd 77 2b 07 3d 03 20 57 3c 55 8f cc 3d
       -0.037148096 0.033000436 0.013130191 0.09988276
0002f0 4d 99 06 bc 31 18 54 3d 6b 18 e2 3c d6 a9 0c 3d
       -0.008215261 0.051780883 0.027599534 0.034341656
000300 57 df 0b bd bf 93 ea bc 65 5d 54 bc 8b d1 ad 3a
       -0.03414854 -0.028634904 -0.01296172 0.0013261301
000310 97 77 eb bc 62 5e b5 3d d4 fc b5 bc f5 c2 33 bd
       -0.028743548 0.08855893 -0.022215284 -0.043887097
000320 3f eb e7 3d d7 f8 65 bd 17 d0 d5 3d 38 f8 e9 bc
       0.113241665 -0.056145515 0.104400806 -0.028560743
000330 43 8a b9 bd 24 29 9f 3c 91 cd a6 3d ab be 43 bc
       -0.090595745 0.019428797 0.081446774 -0.011947314
000340 a5 1a 8b bd 4b 57 25 3d a1 39 c4 3d 75 39 5d bd
       -0.067921914 0.040366452 0.09581304 -0.054009873
000350 52 67 7c bd 81 2d 8e bb 63 97 9a bc 1c f0 b8 3d
       -0.06162197 -0.0043389206 -0.018871015 0.09030172
000360 cb df 9d bc 80 42 92 bc 6e 06 2f bc 88 31 93 3c
       -0.019271752 -0.017853975 -0.010682685 0.017967954
000370 1a 07 69 bd ae 91 b4 bc 4b c0 c0 bd d8 69 0d bd
       -0.05689154 -0.022042122 -0.09411677 -0.03452477
000380 79 3e 10 bd 4f 67 59 3d 08 12 a4 bd b5 ef bd 3c
       -0.03521583 0.05307704 -0.08011252 0.02318559
000390 b2 93 67 bd 47 e6 50 bd c8 97 52 3b 37 25 c8 3d
       -0.056537338 -0.05100086 0.0032133926 0.09772723
0003a0 10 d5 a3 3d ab cc 3d 3d 21 b5 f0 3c 95 10 97 3d
       0.07999623 0.046337765 0.029383244 0.0737621
0003b0 4f 01 10 bd b4 62 b3 3d 57 00 8e 3d b4 ad 68 3d
       -0.035157498 0.087590605 0.069336586 0.05680628
0003c0 5a a8 75 3d 24 7f a8 bd 0c 52 87 bd dc 72 9e bc
       0.059975006 -0.08227375 -0.06607446 -0.019341879
0003d0 55 70 84 bc 4e 6e 79 3d ae 45 48 3d 3a 78 fa 3b
       -0.016166845 0.06089621 0.048894577 0.0076437267
0003e0 2e 40 9d bd 32 d6 61 bd 8d e3 27 bc 7e 81 b9 bd
       -0.07678257 -0.055135913 -0.010247123 -0.09057902
0003f0 8b fa 9f 3b 2e 47 de 3d 87 56 2e bc d4 06 af bc
       0.004882162 0.1085342 -0.010640747 -0.02136556

conv3.bias f4 [64]
000000 97 12 b6 3d 8f 5a 9b bd 59 06 c5 3c a3 f0 4e 3c
       0.088902645 -0.07585632 0.024050878 0.012630614
000010 0a 73 a5 3d 1c 33 4f 3d 83 45 0c 3d dd fd 3f bd
       0.080785826 0.05058585 0.03424598 -0.046872962
000020 4f 93 d1 3c d1 cf c8 3d 1a a7 d9 bc 20 19 2d bd
       0.025582938 0.09805263 -0.026568938 -0.04226029
000030 b3 d1 22 bc 19 b6 b5 3c d9 a3 b6 bd 92 7e 2a 3d
       -0.0099376915 0.022181557 -0.0891797 0.041624613
000040 02 c5 ec 3c c2 18 a3 3d 50 8c 93 bd e4 41 39 bd
       0.028902534 0.079637066 -0.07204497 -0.045228854
000050 15 11 ac bd dd 4f a9 bd fa dc 46 bd c4 52 b0 bd
       -0.08401696 -0.08267186 -0.048550583 -0.08609536
000060 d4 cc 6b 3d e2 e2 3b bc 23 d7 80 bc d2 37 81 bd
       0.057568386 -0.011467667 -0.015727585 -0.06309475
000070 88 e7 a3 bd 57 43 7c bd b3 9e 85 bd 9e e5 d4 3b
       -0.080031455 -0.061587658 -0.0652441 0.006497099
000080 d4 75 78 bc 2a f6 4d 3d e1 d0 96 bd 13 1d bc 3b
       -0.015164811 0.05028359 -0.07364059 0.0057407706
000090 74 69 4c bc 45 2a 40 bc a6 ba 83 3c f2 d4 b6 3d
       -0.012476314 -0.011728828 0.016080212 0.08927335
0000a0 f8 ec c3 bd 1f 31 03 3d b1 e0 bc 3d 57 09 87 3d
       -0.095666826 0.032029267 0.09222544 0.06593578
0000b0 53 f9 b1 3b 00 58 bc bc 0a 5b 54 3d ba 9d 5d 3d
       0.005431333 -0.02299118 0.051844634 0.054105498
0000c0 7f 95 d2 3c 7d 2e 8b bc d1 f8 8c bd 21 8b b0 bd
       0.02570605 -0.01698994 -0.068833955 -0.08620287
0000d0 b1 12 1b 3d ac a1 38 bb 25 e4 92 bc f8 38 48 3c
       0.037859622 -0.0028172536 -0.017931053 0.012220614
0000e0 46 34 07 bd 96 b3 16 3d 16 ef a3 3d 70 29 46 bc
       -0.033008836 0.03679236 0.080045864 -0.01209484
0000f0 c1 ba ce 3d 4d 21 2f 3d 50 24 23 bd 93 ab 99 3d
       0.10094214 0.042756367 -0.039829552 0.07503428

bn3.weight f4 [64]
000000 04 6d 81 3f ef 0d 78 3f 58 69 81 3f 6f c4 84 3f
       1.0111394 0.9689626 1.0110273 1.0372447
000010 6d 75 79 3f 4e 1b 86 3f ff 7c 81 3f 81 9d 83 3f
       0.974448 1.0477083 1.0116271 1.0282441
000020 1d d8 77 3f cf 0c 89 3f d9 ac 89 3f 75 7b 80 3f
       0.9681414 1.0707034 1.0755874 1.0037676
000030 2a f4 76 3f 32 97 83 3f 63 fb 79 3f 8d f3 84 3f
       0.96466315 1.0280516 0.9764921 1.0386826
000040 23 48 77 3f 29 a4 85 3f d9 34 83 3f 56 2b 81 3f
       0.96594447 1.0440723 1.0250503 1.009135
000050 b8 cd 82 3f 33 d3 79 3f 9f 2a 7e 3f c6 83 7b 3f
       1.021903 0.9758789 0.99283785 0.98247945
000060 50 bf 7c 3f b3 ac 81 3f b0 f8 7e 3f b6 3e 7b 3f
       0.9872942 1.0130829 0.99598217 0.98142564
000070 a3 17 78 3f 6a 4a 7e 3f 4f 7b 7b 3f a0 56 76 3f
       0.96911067 0.99332297 0.9823503 0.9622593
000080 5f 0c 7e 3f a6 c4 88 3f d9 0e 81 3f ad ed 7b 3f
       0.99237627 1.0685012 1.0082656 0.9840954
000090 3a 41 77 3f c8 55 80 3f b7 d4 7c 3f bb 4a 86 3f
       0.965839 1.0026178 0.9876208 1.0491556
0000a0 55 0d 7b 3f ee 11 7d 3f dc 8c 82 3f 1c 3d 80 3f
       0.9806722 0.98855484 1.0199237 1.0018649
0000b0 05 9c 78 3f dc f3 7e 3f 04 a8 7a 3f e0 c6 7b 3f
       0.97113067 0.9959085 0.9791262 0.98350334
0000c0 d3 a9 7a 3f d5 cd 7c 3f f5 f6 7a 3f 4b bd 7e 3f
       0.9791538 0.98751575 0.98033077 0.9950759
0000d0 ab 88 7b 3f d2 cc 88 3f 4e e0 86 3f 98 1a 81 3f
       0.98255414 1.0687506 1.0537202 1.0086241
0000e0 44 5a 7f 3f e7 20 7e 3f 3a c2 83 3f 72 63 84 3f
       0.9974711 0.99268955 1.0293648 1.0342848
0000f0 b0 bd 79 3f 41 23 7b 3f ae 7d 84 3f 0c 77 83 3f
       0.97555065 0.9810067 1.0350854 1.0270705

bn3.bias f4 [64]
000000 7c f2 21 3c f4 3b 9d ba fa f1 1a bd 5b 08 11 3d
       0.009884473 -0.0011996017 -0.037828423 0.03540836
000010 04 06 c6 bc f4 38 af bb bc 98 3a 3c 57 47 2e bc
       -0.02417279 -0.0053473655 0.011388954 -0.010637126
000020 7e 78 58 bc b5 34 36 3d bb 57 62 bc 61 cf 17 3c
       -0.013212321 0.04448386 -0.013814862 0.009265752
000030 8f ac c6 bc 69 71 14 3d d7 bc e1 bc 7d 9e 3d bc
       -0.024252204 0.03624097 -0.027555866 -0.011573431
000040 71 8e 8a bc fd 8e 6b bc aa 52 72 3c e9 a0 0b bc
       -0.016913624 -0.014377353 0.014790216 -0.008522251
000050 ee 98 96 3b 68 45 9f bc f0 f6 61 bd ae 90 83 bc
       0.0045958674 -0.019442275 -0.05516714 -0.0160602
000060 51 04 4b bc b9 cf 53 3c e4 d7 96 bc 33 74 a7 bc
       -0.012391166 0.012927943 -0.018413492 -0.02044115
000070 4b 3e b9 bc ea 49 a4 bc 8d 0c c2 bc 8d 13 70 bd
       -0.022612711 -0.020054776 -0.023687625 -0.058612395
000080 cf c9 2f bc 75 ea 62 3c 82 f9 38 bd ae c1 80 bc
       -0.010729267 0.013849844 -0.045159824 -0.015717354
000090 2d 6b 93 bc 6f 75 ab 3c 73 fc df bc a5 95 bd 3c
       -0.017995441 0.02093002 -0.027342057 0.023142645
0000a0 c4 29 8c bc 19 cb 10 bc e1 cd 38 3b 23 d5 f2 bb
       -0.01710976 -0.008837485 0.0028198885 -0.007410662
0000b0 1e 56 81 bc de 86 0f bb 15 b0 87 bc f3 b9 9d bd
       -0.015788134 -0.0021900455 -0.016563455 -0.077014826
0000c0 da ad ad bc bc bf 47 bc b2 10 42 bd 02 b8 30 ba
       -0.021201063 -0.012191709 -0.047379203 -0.00067412865
0000d0 77 20 b1 bc 64 ca 10 3d 35 31 3b bc 2c 81 4c 3c
       -0.021621926 0.035349265 -0.011425306 0.012481969
0000e0 77 e0 98 ba d5 db 04 bc 48 0f 73 bd 66 af 07 3c
       -0.0011663575 -0.008109053 -0.059340745 0.008281564
0000f0 e2 91 8c bc df b0 3f bc b4 53 13 3c 61 11 b1 3c
       -0.017159406 -0.011699884 0.008992124 0.021614732

bn3.running_mean f4 [64]
000000 a7 a9 4c be e4 61 82 bd 52 a7 67 3e 3e 18 88 be
       -0.19986592 -0.063663274 0.22622421 -0.26580995
000010 76 9a c0 3e bd 62 93 3e 38 ab a0 bd 75 ef a2 bd
       0.37617844 0.2878627 -0.078451574 -0.07955829
000020 d9 e3 3b be 56 0f d3 bd df dc 42 be d7 c7 c1 be
       -0.18348636 -0.103056595 -0.19029568 -0.37847778
000030 9a f4 84 3e 59 57 f5 bd e8 8c 0e be 62 29 b5 be
       0.25967866 -0.11979551 -0.13920939 -0.35383135
000040 85 19 b3 3d b6 e5 aa bc 4a cf cc bc 74 bf 58 3e
       0.08745102 -0.020861488 -0.025001187 0.21166784
000050 8c 00 be 3d e7 51 39 bf 62 83 1d 3f c2 b1 db be
       0.09277448 -0.723906 0.615286 -0.42909056
000060 17 92 61 bd 76 cd bd be 7f 0a 11 3e ba 60 56 be
       -0.055070963 -0.37070817 0.1416416 -0.20935336
000070 fe 39 25 3f 1b dc 2e be 1d d3 b5 3d 4a 44 4a bd
       0.64541614 -0.17076151 0.08878157 -0.04938153
000080 26 e6 76 bd 57 89 e9 bd 6c fe ce be 7e 9a 94 be
       -0.06027808 -0.114031486 -0.40428483 -0.29024118
000090 e1 3e a5 3e 36 7c 8c bd e6 f7 1c 3f 35 44 47 be
       0.32274535 -0.06859629 0.61315763 -0.19459613
0000a0 77 61 06 3e ae 51 fe 3e 8a fe a0 3c e0 a6 42 bd
       0.13123117 0.49671692 0.019652624 -0.047522426
0000b0 82 f3 d4 bd b4 09 c6 bd 1f 5f 3c 3e f0 08 46 3f
       -0.10398008 -0.096698195 0.18395661 0.7735739
0000c0 fa 67 a7 3e 51 83 44 be bc 55 0f 3f fd 19 bb bd
       0.32696515 -0.19190718 0.55990195 -0.09135816
0000d0 7e 16 1f 3f 6d 7f 3d be fe 6f cb be 4d 01 37 be
       0.62143695 -0.1850564 -0.3973388 -0.1787159
0000e0 c1 fb ee be 55 2c 93 3e c8 a6 9b bd f7 d2 1a bb
       -0.46676448 0.2874476 -0.076001704 -0.002362428
0000f0 27 26 c6 3e ba 9c 4d be 38 5a 7b be 4f 62 0c be
       0.38700983 -0.20079318 -0.24546134 -0.13709377

bn3.running_var f4 [64]
000000 e4 22 95 3f cc 74 87 3e 92 bd 87 3e ae ad 12 3e
       1.1651273 0.26456296 0.26511818 0.14324066
000010 6b d5 89 3e e7 38 2d 3e c6 81 0d 3f ba 94 36 3e
       0.26920637 0.16916238 0.55276144 0.17830172
000020 dd 9a 52 3e ba 33 55 3e ff 16 0c 3e 3d 3c 6d 3f
       0.20566888 0.20820513 0.13680647 0.9267004
000030 36 f7 53 3f a2 57 25 3e 70 96 8b 3e fd b8 dc 3d
       0.8279909 0.1614671 0.27263212 0.10777471
000040 b2 6c 75 3e f2 fc 5c 3e b4 63 a8 3e 67 d8 09 3e
       0.23967245 0.21580866 0.32888567 0.13461457
000050 82 be ab 3d e4 89 8d 3f de 39 ba 3e d9 08 b6 3f
       0.08385946 1.1057706 0.36372274 1.422145
000060 b1 26 68 3e ba 5c 0f 3f 55 f0 1f 3e 0a 41 8f 3d
       0.2267101 0.56000865 0.15619023 0.06994827
000070 f1 ae 35 3f 0b ee c4 3d 55 0a b9 3e f4 01 58 3e
       0.70970064 0.096157156 0.36140695 0.21094495
000080 fb 1d 0d 3f 1d 98 22 3e 26 db 9f 3d 96 03 00 3f
       0.5512387 0.15878339 0.07805471 0.5000547
000090 31 2e 52 3e 3e 7f 88 3e 80 b2 16 3f a7 ad 70 3e
       0.20525433 0.26659578 0.5886612 0.23503743
0000a0 02 f6 f0 3e bf a0 fd 3e 96 eb c9 3e e6 62 6f 3e
       0.4706269 0.49536702 0.3943755 0.2337757
0000b0 d9 cf db 3d 16 ff 2f 3e 2a 84 a1 3e b5 eb c2 3e
       0.10733003 0.17187151 0.31546146 0.38070455
0000c0 fb 2f a5 3e 7c ad 1a 3e 61 3d 0e 3f 86 64 20 3e
       0.3226317 0.15105242 0.55562407 0.15663347
0000d0 05 c5 ba 3e fd 00 64 3e 38 17 a3 3e 04 9b 3e 3e
       0.3647844 0.22266002 0.31853652 0.18613821
0000e0 bb f9 35 3f f5 38 60 3e 96 9d ff 3d b3 a6 de 3e
       0.71084183 0.21896727 0.12481229 0.43486556
0000f0 05 7c b3 3f af e1 8d 3e e1 86 9a 3e 8f 82 f1 3e
       1.4022223 0.27711245 0.3018103 0.4716992

conv4.weight f4 [64, 64, 3]
000000 d7 02 ed bc 96 9e 39 3d 44 9e b6 bd bc be 7c 3d
       -0.028932018 0.045317255 -0.089169055 0.061705336
000010 9e db c6 3c 45 7a a5 bc 32 85 a7 3c 31 2e 95 3d
       0.024274644 -0.020199904 0.020449255 0.07284201
000020 f7 e0 18 3d ff 3c 71 3d 99 bb 97 3b 9a 6c a3 bc
       0.03732392 0.05889606 0.0046305177 -0.019949246
000030 9c fc 6b bd 06 0b 1e 3d a3 14 46 bd cc 2f 04 3d
       -0.057613954 0.03858473 -0.048359524 0.032272145
000040 3f 85 9f 3d aa ba 69 3d da da 6a bd 0e b8 f9 bc
       0.077890866 0.057062782 -0.05733762 -0.030483272
000050 60 c8 26 3d bb dd 96 3d 69 e7 87 bd fd 85 ab 3d
       0.040718436 0.073665105 -0.06635935 0.083751656
000060 68 e8 a3 3d e3 81 e9 bc 36 cf 3e 3d 58 d6 c5 bc
       0.08003312 -0.028504318 0.04658433 -0.024150059
000070 a7 0d 8d 3d d5 47 81 bb d0 c0 76 3c f2 19 0c 3b
       0.068873696 -0.0039453306 0.0150606185 0.002137777
000080 10 50 e3 3d 1d 1b 41 bd fb 83 9b bd 22 45 08 3d
       0.11099255 -0.047144998 -0.07593533 0.033269055
000090 55 7f 80 3c f4 12 8f bc 82 d4 f6 bb 21 c3 54 3d
       0.015685717 -0.017465092 -0.007532657 0.051943902
0000a0 1c 2b 9b 3d 05 d5 07 bc 2e 48 0b bd 25 e7 45 bd
       0.07576582 -0.008290534 -0.034004383 -0.04831614
0000b0 1f b0 1f bc 04 99 2f 3d 5e 80 53 3c a3 80 aa 3d
       -0.00974658 0.042870536 0.012909023 0.08325317
0000c0 47 f7 62 3c 3a 9e 74 3d 86 ae c0 bc 43 03 3b bd
       0.013852901 0.05972121 -0.02352072 -0.045657407
0000d0 2c aa 80 3d af fd 43 bd 2e 6f a4 bc 5c 87 87 3c
       0.06282458 -0.047849353 -0.020072546 0.016544037
0000e0 c8 63 90 bd 95 2d 63 3d ac 6c a5 3d 30 1a 92 3d
       -0.07050282 0.055463392 0.08077368 0.07133901
0000f0 87 fb d6 3c a6 5c bd 3c 5e 79 8b bd 15 47 a4 3c
       0.026242984 0.023115467 -0.06810258 0.020053426
000100 2b aa 39 bd 19 0a 4f bd 3e 39 9c bc 0d ed ad bc
       -0.0453283 -0.05054674 -0.019070264 -0.021231199
000110 5e 6a a1 3d bf 0e 65 3d 5b ec 19 bd 62 3b d8 bb
       0.07881616 0.055922266 -0.03757892 -0.006598876
000120 17 4a 7a 3d f2 54 81 3d 0d 8b 51 3c 87 0c 79 bc
       0.061105814 0.0631503 0.0127895 -0.015200741
000130 98 3f f6 3c 58 41 86 3d 2d 1c eb bc 3c 21 ee bc
       0.03005962 0.06555432 -0.028699959 -0.029068582
000140 a9 db 42 bd 55 3f 32 3d 43 db 20 bd e1 56 21 bd
       -0.047572765 0.04351743 -0.039271604 -0.039389495
000150 41 b0 25 bc cd fc 4f 3d bc 95 66 bc 55 10 6c bd
       -0.010112823 0.0507782 -0.014073785 -0.057632763
000160 5c 63 1b bc 09 3a e8 bb 13 46 9c 3d e3 c2 85 3d
       -0.009484138 -0.0070869965 0.07630553 0.06531312
000170 2b ba 71 3d 45 56 07 3d 32 17 4d bd c3 51 89 3d
       0.059015434 0.033041257 -0.05007095 0.06705048
000180 83 2f 36 bc c7 df 03 3d 51 00 17 3d d4 75 3b bd
       -0.011119726 0.032195833 0.036865536 -0.045766667
000190 a9 c8 86 3b 50 f7 45 3d 00 8b 4b 3d 22 73 43 bc
       0.004113276 0.04833156 0.049693108 -0.011929305
0001a0 d4 0a 6e bc b8 24 aa 3b bf cd 89 bd 7f 0a 5f 3b
       -0.014528949 0.0051923655 -0.06728696 0.0034033356
0001b0 28 81 8d 3d b8 27 0a bd 62 f1 0a 3d 67 43 3a 3d
       0.069094 -0.033729285 0.033921607 0.045474436
0001c0 79 44 bc bc e4 c4 8f 3c 20 eb 81 bd 88 db e3 bc
       -0.022981869 0.01754994 -0.06343675 -0.027814642
0001d0 36 94 0e bc 62 6a 2c bc 89 23 7f bc 1f 93 2e bd
       -0.008702328 -0.0105234105 -0.015572437 -0.042620774
0001e0 80 04 1e 3c a6 7e 62 bc 9f 0d 34 3d d3 4b 4e bd
       0.009644628 -0.013824141 0.043958303 -0.05036528
0001f0 21 85 d8 bc 15 9b 69 bd 77 f1 4d bd 80 4e 79 3d
       -0.026430668 -0.057032663 -0.050279107 0.06086588
000200 cc 80 83 bd 69 e0 99 3d 06 2d 72 3d 1b cb 05 bd
       -0.064210504 0.07513506 0.05912497 -0.0326644
000210 2c 62 a7 bc 42 57 c3 bc cb fd 16 bd 76 4d 30 bd
       -0.020432554 -0.023845319 -0.03686313 -0.043042623
000220 d1 ee 3a 3d be b5 cb bc c8 c6 33 3c e0 5d 4e bd
       0.04563791 -0.024866935 0.010972686 -0.050382495
000230 cc 7e 56 3d 9e 55 f0 bc 24 05 38 bc c7 93 bd 3c
       0.052367017 -0.0293377 -0.011231694 0.023141755
000240 e6 d7 99 3c ee b7 4c 3d e7 f1 38 bd 7c ea 61 3c
       0.018779706 0.049980097 -0.04515257 0.013788816
000250 d1 33 9d bd 68 ac b1 bc ab 0d 79 3d 3c c6 8f 3d
       -0.07675899 -0.021688655 0.06080405 0.07020232
000260 42 7f 23 3d 70 5a 46 bd 55 13 22 3d 6e e9 11 3d
       0.039916284 -0.04842609 0.039569218 0.035623007
000270 67 09 72 bd 5c 4e 0e bd d5 88 a8 bc fd ff 58 bc
       -0.059090998 -0.034742698 -0.02057306 -0.013244626
000280 b8 92 6e bd 1e 17 4d 3d 7f 37 b6 3d 0b be 01 3c
       -0.05824539 0.050070874 0.08897304 0.007918845
000290 2b 40 cd 3d 39 43 41 3d bf 6d db 3c f0 28 13 3d
       0.10022005 0.04718325 0.02678573 0.035927713
0002a0 79 f8 39 bd a4 41 2d 3d 98 4f 0e bd 43 13 1c bd
       -0.045402978 0.042298928 -0.034743875 -0.038104307
0002b0 d8 39 eb 3c 0c ee d4 3c c0 74 03 bd b6 69 35 3d
       0.028714105 0.025992416 -0.032093763 0.044290267
0002c0 fc 70 c2 3c 8d 99 d3 bc c5 bb 81 bd 9a 10 16 bd
       0.023735516 -0.025830055 -0.06334642 -0.036636926
0002d0 78 13 28 bd 56 78 35 3d ae 81 f5 bc f3 01 2e 3d
       -0.04103419 0.044304214 -0.029969063 0.042482328
0002e0 aa 75 5e 3d c9 28 6b bd d1 b8 a3 bb ea 1b b1 bd
       0.054311432 -0.057411943 -0.004996397 -0.08647902
0002f0 91 fd 89 3c 7f 84 2a 3d 1d a9 57 bd 0c a6 2d bb
       0.016844543 0.041630264 -0.052651513 -0.0026496677
000300 3a ce 55 3b 7d a3 8d bd 4c e0 17 3c 41 f6 83 3c
       0.0032624141 -0.069159485 0.009269785 0.016108634
000310 75 fe 3c bd 77 91 81 3d b3 08 a2 3d d0 c5 75 3d
       -0.046141107 0.06326573 0.079118155 0.0600031
000320 df 01 fa 3b 6e 6e 22 bd 00 07 10 bd 52 55 74 bd
       0.0076296176 -0.039656095 -0.035162926 -0.05965168
000330 1b 10 35 b8 61 38 08 bd b3 dc 06 bd 76 14 bd 3b
       -4.3168762e-05 -0.033256892 -0.03292532 0.0057702614
000340 fe 17 68 bd 19 42 17 bc 6e 19 aa bd 1d 30 b1 bc
       -0.056663506 -0.0092320675 -0.083056316 -0.021629388
000350 a9 54 2c 3d 51 60 12 bd 13 7c 7c bd 53 52 1b bd
       0.042072926 -0.035736386 -0.061641764 -0.037920307
000360 df 60 98 3c 05 ba 24 3d bd 3e a4 3d f2 8d 88 bc
       0.01860088 0.040216465 0.08019779 -0.016669247
000370 d7 1b da bb 8b 4b 4c bd 97 c2 12 3e c2 85 3d 3c
       -0.006656151 -0.04987673 0.14332043 0.011567535
000380 60 87 1a 3d 5d 19 4d 3d 8c 91 bd bc 80 4b 38 3c
       0.03772676 0.050073016 -0.023140691 0.011248469
000390 33 00 56 3d 12 f8 9d 3d e7 57 06 bd 02 91 38 bd
       0.052246284 0.07713331 -0.032798674 -0.045060165
0003a0 bc ac 9d 3b 7e 82 13 ba 6c 11 69 bb d4 7a 16 bd
       0.0048118513 -0.000562705 -0.0035563363 -0.03673823
0003b0 78 1d 95 3d 9d 62 d3 3d e2 72 98 3c 51 43 c3 3d
       0.07281011 0.10321543 0.018609468 0.09534324
0003c0 ca 90 c7 3c 35 f3 a6 3d 54 81 36 3d 13 87 0e bc
       0.024361033 0.08151857 0.04455693 -0.008699196
0003d0 47 f4 4a bd 40 4e 3b bd 92 60 fd bb a2 bf 0b bd
       -0.049549367 -0.045728922 -0.0077324593 -0.034118302
0003e0 7f 60 97 bd fd 1f b5 3c a4 8e d6 3c 7e fc 10 bd
       -0.07391452 0.02210998 0.026191063 -0.035397045
0003f0 80 85 f6 3c 1b 90 72 3d 71 ec 44 3c ce 47 37 3d
       0.030092955 0.05921946 0.012019263 0.044746213

conv4.bias f4 [64]
000000 ac cd 48 3b cb 15 88 bd b9 31 a4 3c b0 31 c9 bb
       0.0030640168 -0.06644782 0.02004324 -0.0061399564
000010 f2 c0 62 bc 3f d4 02 bd 56 55 87 3c a3 28 4a 3d
       -0.013839947 -0.031940695 0.016520184 0.04935516
000020 36 e9 fe 3b e0 58 0f 3c 06 e4 3d bd 76 4e 92 3c
       0.0077792658 0.008749217 -0.04636004 0.017859679
000030 e3 e4 9d 3d 7e 81 a4 bd 69 0f 8e bd d4 2f b4 3d
       0.07709672 -0.08032511 -0.06936533 0.08798185
000040 ee 5d 5b 3d 3e 6d 30 3c ca 62 7a 3c c6 54 5b 3c
       0.053556375 0.010768233 0.015282342 0.013386911
000050 73 f0 41 3d 75 e9 bd 3d 0a bc 8b bc 0b 6f 28 bd
       0.04734845 0.09273044 -0.017057437 -0.041121524
000060 03 d7 e0 38 65 21 7c bd 76 e6 6e 3d 27 63 9c 3d
       0.000107212014 -0.061555285 0.058325253 0.07636099
000070 36 55 9b bd f2 81 81 bd 5c f9 e7 3c 60 7b 94 3c
       -0.07584612 -0.06323613 0.028317146 0.018125236
000080 f2 6a 41 bd 00 07 16 3d a4 dc 5b 3d 65 7c e0 3b
       -0.04722113 0.03662777 0.053677216 0.0068507665
000090 e6 48 54 bd 3f f3 9d bd 37 d1 85 3c 6f 1e 0f bd
       -0.051827334 -0.07712411 0.016335113 -0.034941133
0000a0 5d 09 c1 bc 1f fc 86 bd 63 72 95 bc d1 dd 24 3d
       -0.023564035 -0.06591057 -0.01824302 0.040250603
0000b0 d7 48 95 3b 88 32 5a bd 23 d1 e1 bc cd 2f 58 3d
       0.0045558023 -0.053270847 -0.027565544 0.05277996
0000c0 5e 8f 91 3d eb 89 47 bc 6b 7f 02 3d 08 23 e3 bc
       0.07107423 -0.012178878 0.031859796 -0.027726665
0000d0 e7 a2 e4 3b 58 9e 58 bd 13 9b 68 3c ad cf c3 3c
       0.0069774273 -0.052885383 0.014197129 0.023902738
0000e0 79 5a 8f 3c e6 62 47 bc a8 bd 65 bd 6b 67 98 bd
       0.017499195 -0.012169575 -0.056089073 -0.074416004
0000f0 1e a6 e6 bc 8f 49 4b 3d 81 ca ea bc c9 cf 4d 3b
       -0.028155383 0.049630698 -0.028661015 0.0031404367

bn4.weight f4 [64]
000000 7b cb 8d 3f 61 b0 8e 3f dc 57 85 3f d4 3f 82 3f
       1.1077722 1.1147577 1.0417438 1.0175729
000010 64 d6 84 3f 0f b1 92 3f bf a9 81 3f 97 81 86 3f
       1.0377927 1.1460284 1.0129927 1.0508298
000020 20 5f 81 3f f7 c6 8e 3f a9 03 7f 3f 3c d8 94 3f
       1.0107155 1.1154469 0.9961496 1.162849
000030 02 a4 87 3f 56 78 89 3f d0 d5 8e 3f e2 1b 91 3f
       1.0596926 1.0739849 1.1159 1.1336634
000040 1b bf 87 3f f1 04 8c 3f b9 30 89 3f 60 e9 8a 3f
       1.0605196 1.0939008 1.0717994 1.085247
000050 e4 6f 8d 3f 6e f9 8c 3f bf 23 8d 3f f0 5d 8c 3f
       1.1049771 1.101362 1.1026534 1.0966167
000060 31 34 8b 3f 1c e1 8f 3f 87 f6 87 3f 62 3e 8a 3f
       1.0875303 1.1240573 1.0622109 1.0800288
000070 d7 5e 83 3f f8 db 89 3f c7 9f 8b 3f 79 1f 87 3f
       1.0263318 1.0770254 1.0908135 1.055648
000080 b0 17 87 3f bc c9 8a 3f 5c d8 89 3f 66 53 8d 3f
       1.0554104 1.0842814 1.0769153 1.1041076
000090 5f 01 8e 3f 4b 63 8c 3f 82 2d 91 3f 1d b4 8d 3f
       1.1094168 1.0967802 1.1342013 1.1070591
0000a0 9b 59 89 3f 72 9a 86 3f 35 66 8b 3f 38 0b 89 3f
       1.073047 1.0515883 1.0890566 1.0706549
0000b0 d9 e3 8c 3f 76 d4 89 3f e4 21 88 3f c5 80 88 3f
       1.1007034 1.0767963 1.0635343 1.0664297
0000c0 9b f8 82 3f bf e6 8a 3f cc 3b 94 3f 14 8c 8b 3f
       1.0232118 1.0851668 1.1580749 1.0902123
0000d0 92 f1 8c 3f 0a 86 86 3f 2d 37 8b 3f b0 d8 8b 3f
       1.1011221 1.0509655 1.0876213 1.0925503
0000e0 46 00 8e 3f 17 6d 88 3f 41 de 8a 3f 16 f1 87 3f
       1.1093833 1.0658292 1.0849077 1.0620449
0000f0 cd d2 80 3f 22 4f 8b 3f 1a 26 89 3f 7f 18 86 3f
       1.0064331 1.0883524 1.0714753 1.0476226
