trys/chico_clasi.ckpt (torch, 103108 bytes, 26 tensors)

conv1.weight f4 [32, 1, 8]
-0.098139845 0.3523416 -0.14912982 -0.23659198 0.27586055 -0.102803044 -0.027516585 -0.12225149
-0.22857423 0.039882414 0.25868186 -0.1517863 -0.2301705 0.11903938 0.26264685 -0.13744693
-0.39652637 0.25888532 -0.26098448 -0.20935805 -0.1681652 0.15165798 0.19319952 0.34693804
-0.039798986 -0.30854455 0.22227147 0.2732376 0.06753372 0.09816281 -0.21364468 -0.095423035
0.28198895 -0.06661164 -0.4194307 0.26723367 0.18960261 0.2526394 0.2310763 0.21189247
0.40076813 0.24009298 -0.25313184 -0.007107381 0.067606874 -0.30895165 -0.18374775 -0.26821738
-0.31067625 0.119896606 0.2557146 -0.16121215 -0.07776557 -0.0720178 -0.14248048 -0.02010964
-0.104270175 0.3372858 -0.33654416 0.21454114 -0.049477916 -0.24991697 0.11109425 0.09599542
0.3003206 -0.17594743 -0.024399478 -0.3295898 -0.16958405 0.062241644 0.2147495 -0.037159387
0.19891018 -0.04372077 -0.25130346 -0.0033220425 0.245012 0.11763588 -0.113294095 -0.12966764
0.3275021 0.24791783 0.2375586 -0.17917094 -0.3496265 -0.27936724 0.11908684 0.37439266
-0.13526492 -0.3330027 -0.24958226 0.18100086 0.27610752 0.0021749828 0.04049116 -0.2040108
-0.06590547 -0.27612403 0.25074673 -0.12377558 -0.15852693 -0.057919025 0.16092248 -0.12543316
-0.11124994 0.09841189 -0.01918151 0.16658199 -0.18696675 -0.018221501 -0.23518819 0.3162586
-0.3486142 -0.226626 -0.13531224 0.18269485 -0.1828021 -0.12953515 0.10964935 -0.0061885007
0.3982373 0.20726149 0.22897598 -0.28257823 -0.16387862 -0.28472465 0.28567445 0.21604072
-0.35489407 -0.26284677 0.1803515 -0.15649304 0.06922563 -0.20467749 -0.39050436 0.104476005
-0.2194101 0.29520622 -0.2002911 -0.058938064 -0.38227376 0.3116952 0.08408076 -0.25838476
-0.0682671 0.20925948 -0.126837 0.31167978 -0.03644555 0.3705681 0.11815206 0.15696956
-0.078220025 -0.074741915 0.09325387 0.14250503 0.073224545 0.07637304 0.36787707 -0.18974108
-0.054568265 -0.007838058 -0.023715744 -0.18789941 0.1352889 0.105692714 -0.1742751 -0.10777753
0.0030045526 0.007219004 0.10624716 -0.29913422 -0.05367919 0.30199903 -0.020309048 -0.07179789
-0.08230211 -0.04910257 -0.04851408 -0.15176581 -0.29357997 -0.06171184 0.3531729 0.24783155
-0.010066227 0.07867523 0.09028608 -0.21554628 0.17369919 0.13245246 -0.110318474 0.1697725
0.11081523 -0.08632067 0.16828237 0.16446234 0.19464722 -0.316337 -0.39244506 -0.12747008
-0.0018592337 -0.28105193 -0.11127898 -0.28501028 -0.19211113 0.13644099 0.17498988 0.12083522
0.23422885 -0.05544257 -0.04107486 0.33828646 0.36205864 -0.009927351 -0.27168068 0.07304171
0.31482512 0.19367412 -0.2738765 -0.10009877 -0.22394761 -0.2515735 -0.25549564 0.2575557
-0.15277037 -0.19432569 -0.11346236 0.11209841 0.2473937 -0.3526832 -0.11187931 0.0643589
0.1435822 -0.21232879 -0.061384283 -0.18203767 0.0036309909 0.21285626 -0.13572007 0.013698022
-0.19250095 0.19171055 -0.22625512 0.20977464 -0.26117235 0.1479845 0.17411818 -0.18209131
-0.120238766 -0.26615202 -0.14945552 0.201986 -0.14583708 0.15698433 0.1515038 0.32953513
00000000: 8bfd c8bd 1e66 b43e 7db5 18be 2b45 72be
00000010: 983d 8d3e 678a d2bd 766a e1bc fd5e fabd
00000020: 5d0f 6abe be5b 233d f371 843e de6d 1bbe
00000030: d1b1 6bbe ebca f33d a679 863e e3be 0cbe
00000040: 8105 cbbe 9e8c 843e c29f 85be f561 56be
00000050: 8033 2cbe 3b4c 1b3e 18d6 453e dda1 b13e
00000060: 4304 23bd 8df9 9dbe 229b 633e cce5 8b3e
00000070: 1e4f 8a3d 9509 c93d acc5 5abe 276d c3bd
00000080: db60 903e af6b 88bd 9fbf d6be dad2 883e
00000090: 3027 423e f459 813e 449f 6c3e 57fa 583e
000000a0: 7b31 cd3e efda 753e 7f9a 81be 08e5 e8bb
000000b0: 7975 8a3d e92e 9ebe 5f28 3cbe ca53 89be
000000c0: f510 9fbe 5a8c f53d 06ed 823e cc14 25be
000000d0: 8e43 9fbd 117e 93bd 67e6 11be f9bc a4bc
000000e0: 9a8b d5bd b9b0 ac3e 844f acbe acb0 5b3e
000000f0: 5ba9 4abd 3cea 7fbe 6285 e33d 3f99 c43d
00000100: 9fc3 993e 902b 34be 6ae1 c7bc ffbf a8be
00000110: 71a7 2dbe 18f1 7e3d 4be7 5b3e 7134 18bd
00000120: 1caf 4b3e 8d14 33bd d9aa 80be a0b6 59bb
00000130: 6de4 7a3e 15eb f03d bc06 e8bd 98c7 04be
00000140: 5bae a73e 2cde 7d3e 9042 733e 9678 37be
00000150: 3f02 b3be 3909 8fbe cde3 f33d 65b0 bf3e
00000160: e382 0abe 547f aabe 7e92 7fbe 4a58 393e
00000170: f75d 8d3e 288a 0e3b 0fda 253d 35e8 50be
00000180: 72f9 86bd 2160 8dbe e061 803e 0d7e fdbd
00000190: e254 22be 803c 6dbd ddc8 243e 8d71 00be
000001a0: 02d7 e3bd 2c8c c93d 8b22 9dbc 7894 2a3e
000001b0: 3674 3fbe 4245 95bc 2cd5 70be a6ec a13e
000001c0: 8f7d b2be a510 68be 4b8f 0abe 5c14 3b3e
000001d0: 7930 3bbe dda4 04be d78f e03d e8c8 cabb
000001e0: c2e5 cb3e 5b3c 543e ae78 6a3e 18ae 90be
000001f0: cccf 27be 6ec7 91be ec43 923e c739 5d3e
00000200: adb4 b5be da93 86be 10ae 383e b63f 20be
00000210: 2bc6 8d3d fa96 51be 30f0 c7be 84f7 d53d
00000220: 0bad 60be 4525 973e 1c19 4dbe 0a69 71bd
00000230: 63b9 c3be 8396 9f3e 8932 ac3d 024b 84be
00000240: 9fcf 8bbd 1e48 563e 8fe1 01be 7e94 9f3e
00000250: ee47 15bd 1abb bd3e b5f9 f13d a1bc 203e
00000260: d231 a0bd 4a12 99bd e3fb be3d d7ec 113e
00000270: c0f6 953d 7869 9c3d 625a bc3e 7c4b 42be
00000280: f982 5fbd 336b 00bc 8547 c2bc b468 40be
00000290: 2c89 0a3e 6c75 d83d 2c75 32be 77ba dcbd
000002a0: 07e8 443b 658d ec3b 1c98 d93d 1f28 99be
000002b0: b6de 5bbd 9e9f 9a3e 295f a6bc c60a 93bd
000002c0: 028e a8bd c71f 49bd b3b6 46bd 7f68 1bbe
000002d0: 1d50 96be 8ec5 7cbd 14d3 b43e 8ec7 7d3e
000002e0: d1ec 24bc 7b20 a13d e9e7 b83d 2ab8 5cbe
000002f0: 33de 313e 9ea1 073e a7ee e1bd d8d8 2d3e
00000300: 18f3 e23d e4c8 b0bd 3752 2c3e d168 283e
00000310: 9a51 473e ecf6 a1be 8fee c8be 8487 02be
00000320: 88b1 f3ba 0ae6 8fbe 3ce6 e3bd deec 91be
00000330: c8b8 44be 30b7 0b3e 8c30 333e 7578 f73d
00000340: b0d9 6f3e c017 63bd 1d3e 28bd e233 ad3e
00000350: c05f b93e 54a6 22bc bb19 8bbe e496 953d
00000360: c230 a13e 8252 463e 8a39 8cbe 9500 cdbd
00000370: 8652 65be 3ece 80be 53d0 82be 57de 833e
00000380: d66f 1cbe 50fd 46be f45e e8bd da93 e53d
00000390: c654 7d3e e492 b4be fb20 e5bd 99ce 833d
000003a0: 3607 133e b86c 59be 166e 7bbd 1568 3abe
000003b0: ebf5 6d3b fef6 593e 34fa 0abe ab6d 603c
000003c0: f81e 45be c54f 443e 6caf 67be 2acf 563e
000003d0: 62b8 85be 4089 173e 094c 323e 2576 3abe
000003e0: be3f f6bd 1445 88be de0a 19be 6bd5 4e3e
000003f0: 5156 15be 80c0 203e d023 1b3e d4b8 a83e

conv1.bias f4 [32]
-0.14441997 -0.3902993 0.19337428 -0.07638786 -0.14166278 -0.13820353 0.32595924 -0.27740017
0.08837063 0.09139982 -0.14284188 0.17685147 0.21579054 0.13282846 0.0845161 0.074688554
0.12000088 -0.12901361 -0.31449798 0.0043713837 0.024961337 0.18223864 0.030656658 0.027192041
-0.109749384 0.2583634 0.28242743 0.36765587 -0.003589685 -0.16900273 -0.26676401 -0.30748513
00000000: d4e2 13be 4fd5 c7be e803 463e 3d71 9cbd
00000010: 0c10 11be 3a85 0dbe 21e4 a63e 6507 8ebe
00000020: a9fb b43d d42f bb3d 2445 12be 8d18 353e
00000030: 32f8 5c3e 2f04 083e c716 ad3d 50f6 983d
00000040: 05c3 f53d 251c 04be e105 a1be d33d 8f3b
00000050: b87b cc3c c49c 3a3e ac23 fb3c d8c1 de3c
00000060: 49c4 e0bd 3548 843e 549a 903e 643d bc3e
00000070: ec40 6bbb 0d0f 2dbe 4b95 88be b16e 9dbe

bn1.weight f4 [32]
0.9873137 1.0601573 0.9956934 1.0196421 0.96608627 1.0240289 0.9960812 1.0235138
0.9721596 1.0510414 1.0431563 0.9801932 0.9746856 1.0043658 0.97445923 0.9805539
0.9229457 0.9457475 1.0057251 0.9410893 0.9685406 1.0272963 0.91563594 0.99556524
1.0282451 0.9807398 0.96704286 1.0240008 0.9752439 1.0000206 1.002642 1.0308902
00000000: 97c0 7c3f 3cb3 873f c3e5 7e3f a283 823f
00000010: 6e51 773f 6113 833f 2dff 7e3f 8002 833f
00000020: 74df 783f 8688 863f 2586 853f f1ed 7a3f
00000030: ff84 793f 0f8f 803f 2976 793f 9505 7b3f
00000040: 2b46 6c3f 821c 723f 9abb 803f 3aeb 703f
00000050: 47f2 773f 727e 833f 1e67 6a3f 5ddd 7e3f
00000060: 899d 833f c311 7b3f 1f90 773f 7512 833f
00000070: 96a9 793f ad00 803f 9356 803f 36f4 833f

bn1.bias f4 [32]
0.011214416 -0.056642942 -0.08778695 0.0705007 -0.05439547 0.07136929 -0.034408424 -0.03515968
-0.0642217 -0.0017256051 0.09891943 0.0021244697 0.010949448 0.013268668 -0.06330947 0.096002474
0.025869567 -0.051895857 -0.010307425 -0.045010053 -0.037823785 0.09157232 0.1326707 -0.027932007
-0.061289895 -0.00044303344 -0.02488521 -0.0344933 -0.06366655 -0.005733472 0.029173674 0.112095065
00000000: abbc 373c 6e02 68bd a5c9 b3bd ac62 903d
00000010: c9cd 5ebd 102a 923d d9ef 0cbd 9903 10bd
00000020: ab86 83bd b32d e2ba 4596 ca3d b03a 0b3b
00000030: 5065 333c d464 593c 65a8 81bd f29c c43d
00000040: 6aec d33c c090 54bd 79e0 28bc 765c 38bd
00000050: 1ded 1abd 458a bb3d d4da 073e aad1 e4bc
00000060: 1d0b 7bbd f146 e8b9 11dc cbbc d948 0dbd
00000070: 9c63 82bd d9df bbbb a1fd ee3c 1992 e53d

bn1.running_mean f4 [32]
-0.314196 -0.46942654 0.04580111 -0.10573418 1.3503762 -0.6432499 -0.3086954 -0.25010914
-0.16833472 0.10464921 0.6489288 -0.5133346 -0.39889523 0.14808576 -1.0937364 1.0411074
-1.4776101 -0.798219 1.1692756 0.6690469 -0.47306755 0.15497743 -0.10803079 0.5245808
-0.5769327 -0.43466344 1.2867646 -0.18500584 -0.8026598 -0.51167154 -0.48797408 -0.046647005
00000000: 4cde a0be ad58 f0be f299 3b3d 298b d8bd
00000010: 21d9 ac3f 07ac 24bf 530d 9ebe 4e0e 80be
00000020: f05f 2cbe 5352 d63d 3320 263f e569 03bf
00000030: ff3b ccbe cba3 173e 8eff 8bbf 0243 853f
00000040: 5422 bdbf 1558 4cbf d3aa 953f a846 2b3f
00000050: e935 f2be 67b2 1e3e 3f3f ddbd ed4a 063f
00000060: ddb1 13bf 358c debe b4b4 a43f 2c72 3dbe
00000070: 1d7b 4dbf e8fc 02bf bdd7 f9be ee10 3fbd

bn1.running_var f4 [32]
0.039711364 0.045282573 0.1173144 0.07010775 0.33333895 0.13717258 0.08025084 0.03999012
0.08066779 0.042156883 0.2563944 0.14620598 0.06532508 0.03496141 0.1940363 0.2504916
0.332414 0.10598744 0.27054095 0.0861495 0.042294167 0.030672016 0.09180587 0.04166034
0.12991552 0.13097289 0.17745464 0.15515415 0.11530776 0.039736476 0.03750769 0.08524957
00000000: 62a8 223d 387a 393d 8842 f03d a794 8f3d
00000010: 67ab aa3e f876 0c3e 8d5a a43d aecc 233d
00000020: 2735 a53d b2ac 2c3d 2046 833e 05b7 153e
00000030: 28c9 853d b233 0f3d 74b1 463e 6f40 803e
00000040: 2b32 aa3e f10f d93d 5884 8a3e 266f b03d
00000050: a63c 2d3d e143 fb3c b704 bc3d 08a4 2a3d
00000060: 9308 053e c21d 063e abb6 353e bbe0 1e3e
00000070: 7a26 ec3d b7c2 223d aaa1 193d 5497 ae3d

conv2.weight f4 [32, 32, 3]
-0.093409136 -0.044770595 0.09810479 -0.07545229 -0.06373427 0.087468736 0.039594967 0.026695412
-0.06437755 -0.06053763 -0.09187055 0.10280775 0.012624548 0.017122203 0.11757639 0.056831867
-0.08609646 -0.03904947 -0.098786086 0.011412233 -0.08036113 -0.031885304 -0.12782387 0.0861462
-0.06272873 -0.11183187 -0.0005238383 -0.039937362 -0.10686509 0.1315882 0.0011327461 -0.09312601
-0.0038598555 0.05148641 -0.07763824 0.13767882 -0.004089058 -0.012450187 0.030830195 0.0017437562
-0.06795663 -0.0026208712 0.034975857 -0.080396675 0.06625026 -0.036524136 -0.15328532 0.068969235
0.03395411 0.06051356 -0.11233147 -0.007049443 -0.055451006 0.08542877 0.0016626329 0.016818672
-0.12827799 -0.027965395 0.08523851 -0.032412834 -0.029928632 -0.06839447 -0.01027011 -0.05187551
-0.07842335 0.024957268 -0.007237963 -0.054723073 0.0633706 -0.002862091 0.034425896 0.051159423
0.04214417 0.07453464 0.09012996 -0.0004722063 0.056823723 -0.06167486 -0.00932611 0.09419998
0.022977352 -0.088049866 0.043015897 -0.051628657 0.0006838401 -0.006169381 0.07508971 0.033199485
0.016524922 -0.0076025804 -0.06685005 0.035120398 0.021168066 -0.06327265 0.08480895 -0.02601771
0.027863037 0.060113546 -0.02918185 0.09495683 0.07198614 0.026146764 -0.039407566 -0.055758692
0.036914043 -0.048758775 0.09596997 -0.0030591097 -0.007725564 -0.02805019 -0.0402047 -0.008691917
0.034564994 -0.056652706 -0.08035068 -0.04049326 0.06748431 -0.0072582955 0.0041588726 -0.02055078
-0.1948489 -0.091554195 -0.04179554 -0.10107729 0.13413985 -0.008020239 -0.07300934 0.012785591
0.03116925 -0.0467527 -0.020042058 0.03949688 0.010536614 0.12283882 -0.07453525 0.056767914
0.08936948 0.0011391361 -0.033424295 -0.03352615 -0.14510335 -0.00444335 -0.041016437 0.07458842
0.06944112 0.07814767 -0.07705616 -0.008910325 0.027050182 -0.0044329735 0.03524292 -0.2011057
0.0107967 -0.0019645696 -0.015094624 -0.15586051 -0.09342794 0.024172204 -0.04002504 -0.014893962
0.06985985 0.073166296 0.082605235 0.022562556 0.053480987 0.026796186 0.02238007 -0.07986642
0.122051045 0.041419707 0.104243524 -0.0049163466 -0.017136987 -0.014452606 -0.03996251 -0.087758996
-0.030994898 0.004732876 -0.097070895 0.040890522 0.064799696 0.06088229 -0.076114364 -0.07940188
0.06981183 -0.072269104 -0.05557795 -0.012682916 0.057200346 0.16979277 -0.038542744 0.05514885
0.04061057 0.019162867 0.00091273844 0.14189841 -0.06955247 0.019274646 -0.005268617 -0.02628285
-0.08881353 -0.088226646 0.10429199 -0.082615055 -0.101974875 0.075132996 -0.07834116 -0.004679918
-0.05433394 0.007704298 -0.059984367 -0.00092514226 0.019754494 0.12586403 -0.05161781 0.096528985
0.012307415 -0.056519512 -0.088237524 0.007306153 0.1589336 0.0149388 -0.07640252 0.060892086
-0.09809531 0.04210461 -0.01213687 -0.01660225 -0.041025367 0.0243717 -0.017177291 0.06355575
0.07765352 0.035462428 -0.0016092807 -0.009210716 -0.076420665 0.04837592 -0.029433757 -0.1091817
-0.032062043 -0.07701354 -0.11475293 0.019324498 -0.0006188158 -0.081034414 -0.10753348 -0.08301746
-0.022949517 0.07158 -0.01208557 -0.056554463 0.041533727 -0.094477534 -0.08238382 0.052771084
00000000: 4a4d bfbd 5f61 37bd 2aeb c83d bb86 9abd
00000010: 1d87 82bd cf22 b33d 552e 223d 56b0 da3c
00000020: 60d8 83bd 4ef6 77bd a026 bcbd df8c d23d
00000030: 31d7 4e3c dd43 8c3c e4cb f03d 88c8 683d
00000040: 5753 b0bd 56f2 1fbd 5c50 cabd 60fa 3a3c
00000050: 6094 a4bd 2a9a 02bd 43e4 02be 6b6d b03d
00000060: ec77 80bd 1c08 e5bd 3152 09ba 5c95 23bd
00000070: 16dc dabd 0fbf 063e a778 943a d9b8 bebd
00000080: a1f5 7cbb 6ae3 523d cc00 9fbd adfb 0c3e
00000090: 81fd 85bb defb 4bbc 9b8f fc3c c08e e43a
000000a0: d82c 8bbd ecc2 2bbb d842 0f3d 03a7 a4bd
000000b0: 37ae 873d 559a 15bd d4f6 1cbe be3f 8d3d
000000c0: 7713 0b3d 11dd 773d 0b0e e6bd 04ff e6bb
000000d0: 9820 63bd 47f5 ae3d b4ec d93a 50c7 893c
000000e0: 4e5b 03be af17 e5bc 8791 ae3d 52c3 04bd
000000f0: e42c f5bc 6612 8cbd f743 28bc 6a7b 54bd
00000100: 6c9c a0bd 2f73 cc3c 6f2c edbb 4d25 60bd
00000110: 72c8 813d eb91 3bbb 2b02 0d3d 8b8c 513d
00000120: 5d9f 2c3d 9ea5 983d 0e96 b83d 7592 f7b9
00000130: febf 683d c79e 7cbd 8acc 18bc ebeb c03d
00000140: 003b bc3c 7d53 b4bd 7031 303d 9278 53bd
00000150: bb43 333a 8528 cabb a2c8 993d 2ffc 073d
00000160: 465f 873c 111f f9bb aee8 88bd 68da 0f3d
00000170: a768 ad3c 1795 81bd 51b0 ad3d 1823 d5bc
00000180: 0641 e43c 9f39 763d c60e efbc ba78 c23d
00000190: 786d 933d bd31 d63c d469 21bd 3a63 64bd
000001a0: 2e33 173d 48b7 47bd e78b c43d 587b 48bb
000001b0: ba26 fdbb 83c9 e5bc afad 24bd 8b68 0ebc
000001c0: 0694 0d3d ab0c 68bd e68e a4bd 43dc 25bd
000001d0: 3735 8a3d ffd6 edbb 2747 883b 1c5a a8bc
000001e0: 7886 47be c480 bbbd cd31 2bbd 9c01 cfbd
000001f0: f55b 093e 5267 03bc ec85 95bd a87a 513c
00000200: a856 ff3c c27f 3fbd 3e2f a4bc 7bc7 213d
00000210: c3a1 2c3c eb92 fb3d f0a5 98bd 7985 683d
00000220: 5907 b73d 114f 953a eae7 08bd b752 09bd
00000230: f995 14be 8599 91bb da00 28bd d0c1 983d
00000240: 2537 8e3d e30b a03d 9fcf 9dbd 9dfc 11bc
00000250: 5898 dd3c 7a42 91bb e15a 103d a7ee 4dbe
00000260: a4e4 303c 02c0 00bb 714f 77bc e699 1fbe
00000270: 2657 bfbd c904 c63c 4cf1 23bd ce05 74bc
00000280: ae12 8f3d 36d8 953d ef2c a93d 1cd5 b83c
00000290: e10e 5b3d ad83 db3c 6956 b73c 0191 a3bd
000002a0: e6f5 f93d b6a7 293d a17d d53d 4e19 a1bb
000002b0: de62 8cbc a0ca 6cbc bbaf 23bd fdba b3bd
000002c0: 03e9 fdbc 3e16 9b3b 1bcd c6bd d27c 273d
000002d0: b4b5 843d b55f 793d d9e1 9bbd 749d a2bd
000002e0: 81f9 8e3d d301 94bd b4a5 63bd 01cc 4fbc
000002f0: e94a 6a3d 28de 2d3e ffde 1dbd c3e3 613d
00000300: 4557 263d 72fb 9c3c d744 6f3a d14d 113e
00000310: 8771 8ebd dde5 9d3c 5da4 acbb 224f d7bc
00000320: dee3 b5bd 2cb0 b4bd 0a97 d53d 1532 a9bd
00000330: 34d8 d0bd 54df 993d 5571 a0bd ff59 99bb
00000340: 448d 5ebd 5674 fc3b 2bb2 75bd 3f85 72ba
00000350: 2dd4 a13c 80e2 003e 326d 53bd fdb0 c53d
00000360: 0aa5 493c 0181 67bd e0b5 b4bd 7468 ef3b
00000370: 7dbf 223e dec1 743c ed78 9cbd fb69 793d
00000380: 32e6 c8bd e275 2c3d b9d9 46bc 7101 88bc
00000390: 370a 28bd 29a7 c73c 64b7 8cbc 8429 823d
000003a0: cf08 9f3d 0d41 113d 80ee d2ba 8be8 16bc
000003b0: 7082 9cbd d425 463d 101f f1bc a89a dfbd
000003c0: 7d53 03bd 46b9 9dbd 9603 ebbd 694e 9e3c
000003d0: 0638 22ba 5ff5 a5bd 833a dcbd 0f05 aabd
000003e0: a000 bcbc 8998 923d 8e02 46bc a7a5 67bd
000003f0: 451f 2a3d 707d c1bd d9b8 a8bd 7e26 583d

conv2.bias f4 [32]
0.020174008 0.0600907 -0.060789805 -0.012110037 -0.07292676 0.05516531 0.067488514 -0.09775313
0.020764953 0.09535082 -0.0091477875 0.11975666 -0.009928851 0.07750687 -0.016442552 0.06285989
-0.11025936 0.077316225 0.009434213 0.06681559 0.052948598 0.06286695 -0.037247326 -0.12106061
0.039706804 -0.07088255 0.058644816 0.038331803 -0.03669612 0.09782079 -0.046791177 -0.09615636
00000000: f643 a53c aa21 763d bbfe 78bd 2d69 46bc
00000010: a05a 95bd 05f5 613d 6b37 8a3d cb32 c8bd
00000020: 431b aa3c 4a47 c33d 9ae0 15bc fb42 f53d
00000030: 9fac 22bc ecbb 9e3d 88b2 86bc b0bc 803d
00000040: a9cf e1bd f857 9e3d f591 1a3c 9dd6 883d
00000050: a1e0 583d 63c0 803d a790 18bd a0ee f7bd
00000060: 9aa3 223d df2a 91bd 8c35 703d cf01 1d3d
00000070: ac4e 16bd 4456 c83d 1ba8 3fbd a0ed c4bd

bn2.weight f4 [32]
1.1211712 0.9814579 1.0440186 0.9823791 0.98924094 1.0041103 0.97317415 1.0729117
0.9752969 0.99608314 0.9755298 1.0338273 1.0090923 0.9754699 0.95735663 0.99471074
1.0227301 0.9499706 1.025871 0.99822164 1.0475214 0.9991582 1.0288733 0.9580956
1.0341593 0.9864714 1.0195228 0.991757 0.9554964 1.0218132 0.98693407 1.007864
00000000: 8a82 8f3f d340 7b3f 67a2 853f 327d 7b3f
00000010: e53e 7d3f b086 803f f121 793f 2c55 893f
00000020: 0fad 793f 4eff 7e3f 52bc 793f 7454 843f
00000030: f029 813f 65b8 793f 5315 753f 5da5 7e3f
00000040: d2e8 823f 4631 733f be4f 833f 748b 7f3f
00000050: 2e15 863f d5c8 7f3f 1fb2 833f c145 753f
00000060: 555f 843f 6489 7c3f b97f 823f c9e3 7d3f
00000070: 699b 743f c6ca 823f b6a7 7c3f b001 813f

bn2.bias f4 [32]
0.11307853 -0.019287357 0.07871617 -0.03906855 -0.090164214 -0.02030494 0.04223424 0.08246255
-0.011097057 -0.017138569 -0.009881786 0.012952138 -0.056002617 -0.010370192 -0.0030982 -0.029092442
0.0020326334 0.00096956204 0.022836164 -0.02413318 0.023965435 -0.069886215 -0.052341986 -0.117121175
0.07716524 -0.019969374 -0.022615893 -0.07819609 -0.037448384 0.011502512 -0.05649272 -0.052857116
00000000: b795 e73d 8500 9ebc f135 a13d 5806 20bd
00000010: 04a8 b8bd 8c56 a6bc cffd 2c3d 20e2 a83d
00000020: 6ed0 35bc 2f66 8cbc 37e7 21bc 3435 543c
00000030: 0063 65bd bde7 29bc 2c0b 4bbb 4653 eebc
00000040: ee35 053b 352a 7e3a e812 bb3c f2b2 c5bc
00000050: 2953 c43c 8120 8fbd 8d64 56bd 3add efbd
00000060: cf08 9e3d d096 a3bc f744 b9bc 4625 a0bd
00000070: 7a63 19bd 0875 3c3c e964 67bd b480 58bd

bn2.running_mean f4 [32]
-0.25773105 0.023811461 -0.63491535 -0.100744985 -0.30230823 1.4111226 -0.28321385 -0.7090483
0.30518946 0.80409193 0.39493108 -0.22430453 -0.8800415 -0.65743804 -0.59480786 -0.35167855
-0.16002543 0.58975255 -0.6409774 0.63705987 -0.116262205 -0.34501168 -0.9101994 -0.4458616
-0.4390591 -0.19501716 -0.13135795 -0.17478399 -0.1608035 -0.4684871 -0.12496377 0.007871799
00000000: 53f5 83be 4110 c33c d089 22bf 6353 cebd
00000010: 25c8 9abe aa9f b43f 6801 91be 3084 35bf
00000020: cb41 9c3e f8d8 4d3f 6834 ca3e 16b0 65be
00000030: 664a 61bf dc4d 28bf 5445 18bf 360f b4be
00000040: b5dd 23be 06fa 163f 1817 24bf 5b16 233f
00000050: e11a eebd 5fa5 b0be d402 69bf f947 e4be
00000060: 5bcc e0be 94b2 47be b382 06be 93fa 32be
00000070: aca9 24be 8bdd efbe 01ed ffbd b8f8 003c

bn2.running_var f4 [32]
0.20456754 0.13828368 0.24054964 0.18465166 0.27636918 0.861409 0.25173998 0.32042903
0.3013049 0.2932768 0.28882566 0.27122527 0.48355666 0.68670267 0.28023353 0.313517
0.20878632 0.24247062 0.32466662 0.40179166 0.18688291 0.21454398 0.4475195 0.22397234
0.28352538 0.17157488 0.2685781 0.32653907 0.2461786 0.3154151 0.46987486 0.112140074
00000000: 277a 513e 3d9a 0d3e a552 763e 5315 3d3e
00000010: 4380 8d3e 4d85 5c3f 10e4 803e 460f a43e
00000020: a344 9a3e 6028 963e f5e0 933e 0ade 8a3e
00000030: bd94 f73e bfcb 2f3f c57a 8f3e 4d85 a03e
00000040: 15cc 553e 384a 783e b43a a63e a3b7 cd3e
00000050: 3c5e 3f3e 6bb1 5b3e 4721 e53e 0159 653e
00000060: 3d2a 913e 53b1 2f3e 1283 893e 2130 a73e
00000070: 3e16 7c3e 177e a13e 7093 f03e b2a9 e53d

conv3.weight f4 [64, 32, 3]
-0.10257902 0.036286738 -0.054842692 -0.039126255 -0.0025199505 -0.012518419 0.07621322 -0.07571419
-0.060897164 0.09104139 0.0075794538 0.030204644 0.080194995 0.064314924 0.17006834 -0.10533264
-0.020295173 -0.089455314 -0.08186433 -0.043625157 0.035218343 0.04923589 0.07737714 -0.10441028
0.024023734 -0.10411259 -0.08263159 0.08153773 0.08598275 -0.048823874 -0.11992109 0.01694212
0.09241458 0.051503636 0.03547279 -0.033366874 0.09957109 0.025652342 0.028401619 -0.078435354
0.10041397 0.1261841 -0.06216665 0.11321447 0.15055856 0.045662202 -0.052741706 0.02093074
-0.025132487 0.09406394 -0.04636394 -0.09054718 -0.08971289 -0.022091122 -0.058149453 -0.06962848
-0.07034935 -0.09392101 -0.06379119 0.015080528 0.0048814095 0.100971505 0.01689018 -0.011987723
-0.0064999503 0.03920465 0.08678839 -0.057806436 -0.06568954 0.0065789055 -0.046440974 0.021560384
0.05960052 -0.0024304003 -0.07797301 0.054150812 0.056360837 0.005044549 -0.053287335 -0.06655158
0.13062702 0.08580038 0.08428864 -0.001211189 -0.057749055 0.11218445 0.11699191 0.038087104
0.029553872 -0.04962041 -0.047727905 0.04987201 0.020434162 -0.10588398 0.021492766 0.051423937
0.09469432 -0.0056356597 0.016602606 0.033100676 -0.00067493506 -0.066775545 0.051397834 0.04578856
-0.020813314 -0.068939656 0.038379747 0.019855503 0.043694146 0.083713576 0.01151252 -0.14157847
-0.118755646 0.038293134 0.04046998 0.06830641 -0.061732255 -0.0023754577 -0.041440073 -0.096071884
0.04194338 0.03753273 0.027151993 -0.095590755 -0.06913392 -0.059510086 -0.12817462 -0.07886158
-0.025408546 -0.062859654 -0.04187538 0.03897516 -0.023346331 -0.10647197 -0.020958073 -0.07939988
0.0689014 0.02513388 0.06645614 0.03542381 0.09803144 0.014939243 -0.050268162 0.08587397
-0.07657666 -0.067673564 0.040577527 0.017061556 0.038230512 -0.08945662 -0.045532446 0.0022417204
-0.19743536 -0.08305552 0.069794774 0.045690462 -0.0024564364 0.08929979 -0.051002998 0.03116376
-0.043772258 0.029109487 0.025047243 0.0058827866 -0.02306376 0.02121951 -0.0039484627 -0.035858788
0.073231265 0.13506204 -0.033791095 -0.12808557 -0.047840614 -0.039240967 0.014031068 -0.14696062
-0.113324545 -0.057958174 -0.06748681 -0.04585811 0.03940061 0.025228718 0.10929973 -0.05860312
0.019539835 0.03212483 0.100835726 -0.014490604 0.087728195 -0.019700201 -0.04751091 0.01494557
0.08874777 0.028235843 0.023715926 -0.16190085 0.04440568 -0.07430123 0.077489674 -0.05166731
0.07780553 0.09591821 0.09581448 -0.076252155 0.059929818 -0.22560441 -0.18115877 -0.055240337
0.07990389 -0.070832625 -0.03671772 -0.10604955 -0.009159666 0.048822846 0.100464545 0.10874799
0.016315464 0.012434908 0.009199924 0.02416015 0.07922721 -0.0028140715 -0.06398563 0.04745333
-0.017023755 0.068088956 -0.044770516 -0.0727661 -0.091353245 -0.03301249 -0.076310046 -0.06590828
0.0074268193 0.022165522 -0.026842404 -0.01687007 -0.12406166 -0.08795572 -0.08666369 -0.107546195
0.017509213 -0.08215554 0.0053652464 -0.09331371 -0.011549254 -0.1016394 -0.11558245 0.046215933
-0.014777609 -0.0032326623 0.048413493 0.027914532 -0.07784782 0.020196343 -0.06675409 0.002604107
00000000: f314 d2bd 67a1 143d bba2 60bd da42 20bd
00000010: c125 25bb 0e1a 4dbc ad15 9c3d 0b10 9bbd
00000020: 4e6f 79bd e973 ba3d 115d f83b bb6f f73c
00000030: 463d a43d 8bb7 833d 6526 2e3e a4b8 d7bd
00000040: 1042 a6bc 5934 b7bd 7ca8 a7bd 4bb0 32bd
00000050: 1c41 103d 93ab 493d e877 9e3d 0fd5 d5bd
00000060: 6ccd c43c fb38 d5bd c03a a9bd 41fd a63d
00000070: b917 b03d 8bfb 47bd 3099 f5bd 33ca 8a3c
00000080: db43 bd3d 7af5 523d eb4b 113d b4ab 08bd
00000090: edeb cb3d dc24 d23c 83aa e83c b7a2 a0bd
000000a0: d7a5 cd3d 6836 013e 75a2 7ebd fddc e73d
000000b0: 062c 1a3e 4a08 3b3d b007 58bd f176 ab3c
000000c0: a5e2 cdbc 98a4 c03d 1de8 3dbd cd70 b9bd
000000d0: 64bb b7bd 71f8 b4bc 1f2e 6ebd 6099 8ebd
000000e0: 5213 90bd a959 c0bd f5a4 82bd 5214 773c
000000f0: 3bf4 9f3b 26ca ce3d 465d 8a3c 2868 44bc
00000100: 89fd d4bb 0e95 203d 1dbe b13d 71c6 6cbd
00000110: 3d88 86bd dc93 d73b e438 3ebd 679f b03c
00000120: ad1f 743d 5a47 1fbb 50b0 9fbd 3ecd 5d3d
00000130: 9fda 663d be4c a53b d243 5abd 324c 88bd
00000140: 17c3 053e 1cb8 af3d 869f ac3d c2c0 9eba
00000150: 468a 6cbd f6c0 e53d 7499 ef3d 3901 1c3d
00000160: f61a f23c c53e 4bbd 567e 43bd 9846 4c3d
00000170: 8b65 a73c b3d9 d8bd 9911 b03c e8a1 523d
00000180: 18ef c13d 57ab b8bb 3002 883c 9394 073d
00000190: 20ee 30ba 9ec1 88bd 8986 523d c98c 3b3d
000001a0: af80 aabc 3c30 8dbd 1534 1d3d 02a8 a23c
000001b0: a2f8 323d 0672 ab3d 029f 3c3c f2f9 10be
000001c0: 2936 f3bd 43d9 1c3d dac3 253d 3be4 8b3d
000001d0: f6da 7cbd 91ad 1bbb 11bd 29bd 56c1 c4bd
000001e0: d2cc 2b3d ebbb 193d db6d de3c 16c5 c3bd
000001f0: 1696 8dbd d9c0 73bd 3540 03be 2e82 a1bd
00000200: 9525 d0bc 90bc 80bd 8585 2bbd 6ba4 1f3d
00000210: ce40 bfbc fa0d dabd 44b0 abbc 679c a2bd
00000220: 2d1c 8d3d 91e5 cd3c 281a 883d 8f18 113d
00000230: b5c4 c83d bac3 743c fde5 4dbd b1de af3d
00000240: 39d4 9cbd 7098 8abd 9f34 263d adc4 8b3c
00000250: 9997 1c3d 0835 b7bd 3b80 3abd d4e9 123b
00000260: 7f2c 4abe 0319 aabd 90f0 8e3d ec25 3b3d
00000270: 2afc 20bb cfe2 b63d 85e8 50bd 244b ff3c
00000280: 8a4a 33bd 0577 ee3c e02f cd3c 64c4 c03b
00000290: 36f0 bcbc 8ad4 ad3c 1b62 81bb aae0 12bd
000002a0: 46fa 953d b44d 0a3e 8868 0abd dd28 03be
000002b0: 85f4 43bd 23bb 20bd 91e2 653c d87c 16be
000002c0: b316 e8bd 8d65 6dbd 8636 8abd b7d5 3bbd
000002d0: 8962 213d 75ac ce3c 89d8 df3d d309 70bd
000002e0: 0112 a03c 5395 033d f682 ce3d 006a 6dbc
000002f0: d7aa b33d 5162 a1bc cd9a 42bd 44de 743c
00000300: 64c1 b53d db4e e73c e747 c23c 56c9 25be
00000310: bbe2 353d 3e2b 98bd e8b2 9e3d 1aa1 53bd
00000320: 8158 9f3d c470 c43d 623a c43d 172a 9cbd
00000330: f878 753d d804 67be af81 39be b143 62bd
00000340: a7a4 a33d b210 91bd 5265 16bd 8230 d9bd
00000350: 6c12 16bc 77fa 473d 5bc0 cd3d 44b7 de3d
00000360: 02a8 853c c9bb 4b3c 47bb 163c 82eb c53c
00000370: e041 a23d 496c 38bb e60a 83bd 6c5e 423d
00000380: 6775 8bbc 3972 8b3d 4a61 37bd 6506 95bd
00000390: 6917 bbbd 1b38 07bd 7148 9cbd ecfa 86bd
000003a0: ad5c f33b 7894 b53c 9ae4 dbbc 1a33 8abc
000003b0: 0a14 febd 2122 b4bd bc7c b1bd 2e41 dcbd
000003c0: 7b6f 8f3c 2a41 a8bd f3ce af3b 421b bfbd
000003d0: 1539 3dbc 5128 d0bd 7eb6 ecbd eb4c 3d3d
000003e0: c91d 72bc 13db 53bb 3a4d 463d 04ad e43c
000003f0: ae6e 9fbd cd72 a53c 5eb6 88bd aaa9 2a3b

conv3.bias f4 [64]
0.086101614 -0.07781722 0.00012715223 0.027091317 0.048024923 -0.07198432 -0.03382707 -0.0005113297
-0.079235666 -0.08840926 0.028133245 0.07863433 -0.0961903 -0.030917885 -0.1162931 0.022572245
0.029442785 -0.102623954 -0.0052487585 -0.038981196 -0.030671122 -0.0794594 -0.014493587 0.04660439
-0.057604194 -0.03706982 -0.070572786 -0.050658934 0.07988669 0.07483763 -0.03890609 0.10208837
0.040971216 0.052968096 -0.06710908 -0.019969547 0.08816238 0.06357074 0.030050648 -0.053473122
-0.023816848 0.037400145 0.043410335 -0.03948741 -0.055621397 -0.08923575 -0.091014415 -0.03729552
0.024803113 -0.049770042 0.02362155 -0.073025174 -0.003278825 -0.0825379 -0.035168715 0.040176023
0.03083921 0.0795825 -0.0003332918 0.0058388137 0.079092875 -0.06933226 0.0602783 -0.009333468
00000000: 0b56 b03d a25e 9fbd 2b54 0539 9cee dd3c
00000010: c8b5 443d 846c 93bd 418e 0abd c10a 06ba
00000020: 4f46 a2bd ea0f b5bd b177 e63c 090b a13d
00000030: 6cff c4bd 8147 fdbc 142b eebd 6ee9 b83c
00000040: ff31 f13c 822c d2bd c7fd abbb bfaa 1fbd
00000050: 0142 fbbc 9cbb a2bd 8376 6dbc 3fe4 3e3d
00000060: 60f2 6bbd 86d6 17bd 7788 90bd be7f 4fbd
00000070: a29b a33d 7944 993d fe5b 1fbd b513 d13d
00000080: 6fd1 273d 13f5 583d 7c70 89bd 2d97 a3bc
00000090: 7a8e b43d 6031 823d c72c f63c a206 5bbd
000000a0: 8d1b c3bc e530 193d 09cf 313d 8dbd 21bd
000000b0: 43d3 63bd 3cc1 b6bd c465 babd 30c3 18bd
000000c0: e62f cb3c acdb 4bbd fb81 c13c 398e 95bd
000000d0: 8ee1 56bb a109 a9bd 120d 10bd 9d8f 243d
000000e0: 83a2 fc3c 26fc a23d abbd aeb9 8553 bf3b
000000f0: 72fb a13d 12fe 8dbd 61e6 763d 67eb 18bc

bn3.weight f4 [64]
0.9755261 1.0041146 0.97051835 0.89919406 1.0038459 1.1319957 0.9843754 1.0011742
0.98530006 0.93288445 1.0679469 1.0980045 0.9863695 1.0374638 1.0025085 1.0467101
1.0224556 1.0698035 1.0952427 0.9231625 1.0593951 1.0010272 0.92328227 0.9336109
0.97354096 0.8803255 0.985856 1.0543466 1.0333902 1.0189447 0.92784095 1.0341989
1.0548604 1.017911 1.0370537 0.9396539 0.9087822 1.0012358 0.9646155 1.0434141
0.92130613 0.9703989 0.99102765 1.0982045 1.0111624 1.1003399 1.0326743 0.9909771
1.0565116 1.0620663 0.9845361 0.9485129 0.84910226 1.0007676 1.0583549 0.97920513
1.094886 0.95491433 1.0431018 0.91227305 1.0622385 0.9367646 1.0621326 1.0415088
00000000: 14bc 793f d486 803f e473 783f 9531 663f
00000010: 067e 803f 3ce5 903f 0700 7c3f 7a26 803f
00000020: a03c 7c3f 84d1 6e3f 7cb2 883f 698b 8c3f
00000030: b682 7c3f 9dcb 843f 3352 803f 99fa 853f
00000040: d3df 823f 52ef 883f ea30 8c3f 6154 6c3f
00000050: 429a 873f a921 803f 3a5c 6c3f 2001 6f3f
00000060: fb39 793f 035d 613f 0f61 7c3f d4f4 863f
00000070: 2146 843f c86c 823f fc86 6d3f a160 843f
00000080: aa05 873f e84a 823f 2dbe 843f 288d 703f
00000090: f3a5 683f 7f28 803f 0bf1 763f 988e 853f
000000a0: b8da 6b3f 106c 783f fdb3 7d3f f791 8c3f
000000b0: c56d 813f f0d7 8c3f ac2e 843f adb0 7d3f
000000c0: c63b 873f caf1 873f 8f0a 7c3f bed1 723f
000000d0: c45e 593f 2719 803f 2c78 873f 30ad 7a3f
000000e0: 3925 8c3f 4475 743f 5c84 853f ba8a 693f
000000f0: 6ef7 873f cecf 6f3f f6f3 873f 2950 853f

bn3.bias f4 [64]
-0.14729264 -0.0933965 -0.10064418 -0.07991417 -0.02143555 -0.038642347 -0.03029076 -0.007321447
-0.04323705 -0.10648392 -0.11985688 -0.102387175 -0.04887615 -0.10640178 -0.066146426 -0.08855847
-0.12545483 -0.013717307 -0.032245062 -0.07489155 -0.022543736 -0.13094306 -0.16504253 -0.025737682
-0.042925574 -0.112203084 -0.1837615 -0.20757756 -0.16623758 -0.10243807 -0.09455312 -0.07832881
-0.036944054 -0.05795124 -0.051962882 -0.10333128 -0.16177845 -0.13447131 -0.17406489 -0.026536684
-0.068667166 -0.047332525 0.006963798 -0.11527739 -0.114544295 0.018260749 -0.054207917 -0.0025124957
-0.12552664 -0.11479759 -0.04341734 -0.15103363 -0.07617666 -0.057216547 -0.056960087 -0.13767312
-0.043362383 -0.11374841 -0.11952088 -0.121541075 -0.0015459936 -0.083134115 -0.10193637 -0.0059992415
00000000: e2d3 16be aa46 bfbd 891e cebd 0aaa a3bd
00000010: 9b99 afbc 7047 1ebd 5424 f8bc c0e8 efbb
00000020: 5519 31bd 3e14 dabd 8677 f5bd 5eb0 d1bd
00000030: 5c32 48bd 2de9 d9bd c777 87bd 255e b5bd
00000040: 3b77 00be 8ebe 60bc 6613 04bd be60 99bd
00000050: a4ad b8bc f015 06be e900 29be d5d7 d2bc
00000060: bad2 2fbd bbca e5bd fa2b 3cbe 368f 54be
00000070: 2f3a 2abe 0dcb d1bd 11a5 c1bd db6a a0bd
00000080: a652 17bd 485e 6dbd 08d7 54bd 5a9f d3bd
00000090: 40a9 25be d9b2 09be 113e 32be 7663 d9bc
000000a0: 5fa1 8cbd c0df 41bd 9230 e43b 8d16 ecbd
000000b0: 3396 eabd 9197 953c 1f09 5ebd afa8 24bb
000000c0: 0e8a 00be 001b ebbd 61d6 31bd 8fa8 1abe
000000d0: 8202 9cbd e65b 6abd fb4e 69bd 2ffa 0cbe
000000e0: c19c 31bd edf4 e8bd 5dc7 f4bd 87ea f8bd
000000f0: f0a2 caba 3842 aabd 04c4 d0bd 4995 c4bb

bn3.running_mean f4 [64]
0.27490646 -0.46125236 -0.9452783 0.74629074 -0.3959497 -0.85407937 -0.39665478 -0.78749585
-0.71133894 0.5953405 -0.1401375 -0.39753306 -1.0581232 -0.3490878 -0.8709548 -0.1971944
-0.008765838 -0.83940285 -0.35933828 -0.6276587 -0.83479613 -0.8671334 0.1990348 -0.21620949
-0.66222054 -0.5215364 -0.45606396 -0.7786599 -0.23540965 0.2849802 -0.17957771 -0.7007752
-0.40562683 -0.36473045 -0.9134765 -0.051536392 0.4163205 0.078105144 0.42809233 -0.28132802
-0.6316168 -0.51783997 -0.6834849 -0.211187 0.10799549 -1.034042 0.029500468 -0.4596647
-0.3620533 -0.08964246 -0.29185915 0.02885928 -0.42862925 -0.86675924 -0.9316903 0.18647227
-0.21012735 0.18337765 -1.0215147 0.8215922 -1.1893109 -0.37689975 -0.6609399 -0.24279134
00000000: 8ac0 8c3e 4529 ecbe c2fd 71bf e90c 3f3f
00000010: ebb9 cabe f2a4 5abf 5616 cbbe 5499 49bf
00000020: 4f1a 36bf 3c68 183f 3480 0fbe 7489 cbbe
00000030: 9570 87bf a3bb b2be e5f6 5ebf 54ed 49be
00000040: 979e 0fbc 1be3 56bf 30fb b7be 3eae 20bf
00000050: 33b5 55bf 74fc 5dbf c7cf 4b3e 0566 5dbe
00000060: 4987 29bf 6983 05bf 3781 e9be 4156 47bf
00000070: 3a0f 71be ede8 913e 38e3 37be 0166 33bf
00000080: 52ae cfbe f3bd babe 99d9 69bf d317 53bd
00000090: f627 d53e 97f5 9f3d eb2e db3e 3a0a 90be
000000a0: a3b1 21bf 2991 04bf def8 2ebf 6841 58be
000000b0: bd2c dd3d 7d5b 84bf f7aa f13c 2c59 ebbe
000000c0: 0d5f b9be 7796 b7bd 906e 95be 4c6a ec3c
000000d0: 4b75 dbbe efe3 5dbf 4183 6ebf 96f2 3e3e
000000e0: a02b 57be 5ac7 3b3e fec0 82bf de53 523f
000000f0: 573b 98bf 01f9 c0be 5b33 29bf 4b9e 78be

bn3.running_var f4 [64]
0.25588563 0.41694668 0.72115004 0.45502746 0.34627807 0.51399666 0.29478386 0.5723135
0.28561646 0.41833472 0.28435335 0.42013043 0.3293186 0.40038836 0.41012827 0.39380705
0.41308948 0.5468284 0.35938004 0.2015674 0.36104158 0.39513618 0.5438937 0.18091469
0.33853203 0.31738243 0.28529048 0.49113348 0.23316014 0.32005534 0.39620417 0.3134294
0.23671035 0.37008837 0.25675067 0.33789998 0.28471658 0.3603524 0.19753744 0.35379332
0.29545045 0.3587924 0.4669523 0.41256833 0.26049948 0.48739782 0.2540483 0.4573089
0.2922201 0.25094476 0.28994092 0.22660688 0.9521853 0.38026395 0.44399896 0.21762848
0.2489194 0.43160215 0.3387301 0.36012563 0.41061568 0.29171583 0.40738672 0.32018045
00000000: 7103 833e 097a d53e 4a9d 383f 5cf9 e83e
00000010: 5c4b b13e 4995 033f e9ed 963e 2383 123f
00000020: 523c 923e f82f d63e c396 913e 561b d73e
00000030: 739c a83e b4ff cc3e 55fc d13e 14a1 c93e
00000040: 7780 d33e f2fc 0b3f a900 b83e af67 4e3e
00000050: 71da b83e 4a4f ca3e 9e3c 0b3f b341 393e
00000060: 1254 ad3e f37f a23e 9811 923e d975 fb3e
00000070: 88c1 6e3e 4bde a33e 46db ca3e d179 a03e
00000080: 3364 723e 397c bd3e d374 833e 3a01 ad3e
00000090: 5fc6 913e 1c80 b83e 4147 4a3e 6624 b53e
000000a0: 4845 973e a3b3 b73e 5f14 ef3e 283c d33e
000000b0: 3060 853e 358c f93e 9e12 823e 6424 ea3e
000000c0: df9d 953e d57b 803e 2373 943e a20b 683e
000000d0: 6ac2 733f f5b1 c23e d553 e33e 00da 5e3e
000000e0: bae4 7e3e f5fa dc3e 086e ad3e 6362 b83e
000000f0: 383c d23e c75b 953e fe94 d03e b1ee a33e

conv4.weight f4 [64, 64, 3]
0.016891617 -0.06712879 -0.02618707 -0.07280909 0.0011897323 -0.09634568 -0.06621242 0.04818329
-0.06090718 -0.0641056 0.012795097 0.012254167 -0.043852035 -0.024200555 -0.06811162 -0.15749276
-0.04258082 -0.17162713 -0.030337395 0.05812236 -0.04937819 -0.07499021 -0.04358027 0.033835884
-0.015669996 -0.06631554 0.052078653 0.0110387895 0.03456481 -0.03187799 0.034994017 -0.0720438
0.06751548 -0.096173726 -0.06774119 -0.037293926 -0.042983256 -0.05817019 -0.05802011 -0.02690276
-0.025617154 -0.06430152 -0.02457865 -0.040483452 -0.03565437 0.048207086 0.033175718 -0.014224153
-0.02993582 -0.04875704 -0.03713833 -0.1273657 -0.069899425 -0.08332505 -0.11246323 0.0010740922
-0.12571833 0.055653933 0.04188655 0.04318785 0.04267617 -0.05877319 -0.05314891 -0.030645967
-0.038176984 -0.06474624 -0.018704733 -0.052005675 -0.0029063618 -0.0047325343 0.03496817 0.0046973927
-0.045014318 -0.03646443 -0.024975909 0.030466085 0.06172241 0.00018141902 0.002197114 -0.041185055
0.013749319 -0.07449555 -0.1308082 -0.04884112 -0.008413723 0.0765411 -0.0130374385 -0.042219758
0.046704322 -0.027371425 0.06821452 -0.026750833 0.03472771 0.04021272 0.04258344 -0.037550185
-0.034281854 0.016099652 -0.062128235 -0.019056315 0.061297406 0.011948249 -0.00798498 -0.03472938
-0.10006782 0.0392362 0.068610065 -0.053695686 -0.005607 -0.026528317 -0.04121912 0.059391517
0.08115416 -0.045486547 -0.024997173 0.016138889 -0.014409916 0.022200491 0.043691047 0.022507424
0.0513157 -0.049239673 -0.020353911 -0.048598535 0.0057912846 -0.0733426 0.03793572 -0.04968117
0.027184127 -0.13767044 -0.06593654 -0.11044582 0.055118803 0.024563126 0.03514071 0.054580256
0.03470651 0.055886693 -0.09612756 -0.03159774 -0.043903884 0.053236432 0.060097408 -0.064450525
-0.06738826 -0.020996848 -0.08015844 -0.028704973 0.02662259 -9.11752e-05 -0.08636476 0.015822409
-0.07324302 -0.025075473 -0.02940445 0.015414172 -0.051514957 -0.061272427 0.03927533 -0.039117426
-0.02586354 -0.033458717 -0.012795223 -0.08970571 -0.07393796 -0.03738236 -0.064824715 -0.03896336
-0.059070468 -0.0006303017 -0.07029345 -0.0035382614 0.0075633232 0.028763425 -0.061442625 -0.035548225
-0.0457168 -0.110200636 0.014760061 0.00036629502 -0.06778998 0.0107450895 -0.08492256 0.001378945
-0.051055644 0.006122626 0.01990439 -0.084180124 -0.06234033 -0.055971075 -0.013065112 0.029983088
0.02935854 -0.013236196 -0.04015431 0.060771123 0.008834538 0.055984672 0.069522776 -0.02666839
-0.029498518 0.02079819 0.05010033 -0.019867938 -0.010794689 0.036494862 0.06397331 0.04034588
0.103588246 0.01157422 -0.03966714 -0.022157317 -0.048618685 -0.07154545 0.013747321 0.008435708
-0.022014787 0.079531886 0.091838345 -0.040700033 0.006806865 -0.07381914 -0.07129075 -0.071887515
-0.0515928 0.017156001 0.06134959 0.00041226484 -0.05112193 -0.046521395 -0.02218811 -0.03811112
0.08516879 0.046726644 -0.08867751 -0.04911862 -0.019602757 0.02697786 0.035663825 0.046842717
0.037766434 -0.022161683 0.01825922 0.04828734 0.023797084 0.008080301 0.0920051 0.14722618
0.13205284 -0.010268579 -0.06276408 -0.05004545 -0.020793915 -0.02628712 0.013752739 0.045647457
00000000: 4a60 8a3c d27a 89bd 4486 d6bc ef1c 95bd
00000010: cbf0 9b3a e250 c5bd 619a 87bd d75b 453d
00000020: cf79 79bd cc49 83bd 87a2 513c b4c5 483c
00000030: 319e 33bd 3e40 c6bc 1b7e 8bbd c845 21be
00000040: 3a69 2ebd 06bf 2fbe 2186 f8bc b611 6e3d
00000050: c940 4abd 7894 99bd 3a81 32bd 7f97 0a3d
00000060: 5d5e 80bc 71d0 87bd 6d50 553d 0adc 343c
00000070: d593 0d3d 7f92 02bd e355 0f3d b38b 93bd
00000080: 8e45 8a3d bbf6 c4bd e5bb 8abd 84c1 18bd
00000090: 360f 30bd dd43 6ebd 7fa6 6dbd 2d63 dcbc
000000a0: 11db d1bc 84b0 83bd 2a59 c9bc fad1 25bd
000000b0: 510a 12bd cb74 453d 43e3 073d 6c0c 69bc
000000c0: f73b f5bc 76b5 47bd 5d1e 18bd 276c 02be
000000d0: 6e27 8fbd 53a6 aabd 1f53 e6bd 8ec8 8c3a
000000e0: 4ebc 00be 61f5 633d 3b91 2b3d bee5 303d
000000f0: 35cd 2e3d 28bc 70bd acb2 59bd 400d fbbc
00000100: 785f 1cbd ad99 84bd ab3a 99bc e703 55bd
00000110: a978 3ebb 6013 9bbb c93a 0f3d 96ec 993b
00000120: ef60 38bd ba5b 15bd 479a ccbc 0394 f93c
00000130: a3d0 7c3d 4c3b 3e39 75fd 0f3b a9b1 28bd
00000140: d344 613c 1f91 98bd 96f2 05be a00d 48bd
00000150: b6d9 09bc 95c1 9c3d fb9a 55bc a0ee 2cbd
00000160: 084d 3f3d 0a3a e0bc 0eb4 8b3d 9024 dbbc
00000170: a53e 0e3d 18b6 243d f96b 2e3d 39ce 19bd
00000180: 216b 0cbd 6be3 833c 2d7a 7ebd fd1b 9cbc
00000190: fd12 7b3d 97c2 433c 6fd3 02bc 6540 0ebd
000001a0: 5bf0 ccbd 23b6 203d 6f83 8c3d 02f0 5bbd
000001b0: edba b7bb ea51 d9bc 61d5 28bd 8544 733d
000001c0: 2734 a63d 1a50 3abd dfc6 ccbc b435 843c
000001d0: 9117 6cbc cedd b53c 62f5 323d 7d61 b83c
000001e0: 6930 523d 8aaf 49bd 3fbd a6bc 420f 47bd
000001f0: d1c4 bd3b a534 96bd 7c62 1b3d 7c7e 4bbd
00000200: 3fb1 de3c 7bf9 0cbe bd09 87bd 6b31 e2bd
00000210: 41c4 613d 9c38 c93c b5ef 0f3d 8c8f 5f3d
00000220: 6a28 0e3d 72e9 643d 87de c4bd a26c 01bd
00000230: 8fd4 33bd 720e 5a3d b328 763d a3fe 83bd
00000240: db02 8abd 9501 acbc 1c2a a4bd b126 ebbc
00000250: 9e17 da3c 5035 bfb8 02e0 b0bd ff9d 813c
00000260: 7000 96bd 146b cdbc 9ae1 f0bc b98b 7c3c
00000270: 5901 53bd ccf8 7abd 2bdf 203d 9839 20bd
00000280: c6df d3bc 020c 09bd 0ea3 51bc a1b7 b7bd
00000290: c96c 97bd 3f1e 19bd d2c2 84bd 0b98 1fbd
000002a0: e0f3 71bd d53a 25ba 03f6 8fbd 2de2 67bb
000002b0: c1d5 f73b 46a1 eb3c 43ab 7bbd 049b 11bd
000002c0: 8a41 3bbd dfb0 e1bd 2fd4 713c 490b c039
000002d0: 79d5 8abd 2c0c 303c e1eb adbd b7bd b43a
000002e0: b91f 51bd 4fa0 c83b 880e a33c a166 acbd
000002f0: 9358 7fbd ed41 65bd 0d0f 56bc 189f f53c
00000300: 5281 f03c a1dc 58bc d978 24bd 24eb 783d
00000310: bdbe 103c 2f50 653d f561 8e3d ab77 dabc
00000320: e0a6 f1bc f760 aa3c 0136 4d3d 16c2 a2bc
00000330: 35dc 30bc a37b 153d 7004 833d b941 253d
00000340: 1326 d43d cca1 3d3c 037a 22bd 4383 b5bc
00000350: 6324 47bd 6c86 92bd 723c 613c ec35 0a3c
00000360: 5b58 b4bc 9de1 a23d be15 bc3d 14b5 26bd
00000370: 1f0c df3b 7d2e 97bd e200 92bd c339 93bd
00000380: f952 53bd be8a 8c3c b549 7b3d 4025 d839
00000390: 3b65 51bd 388d 3ebd d7c3 b5bc 681a 1cbd
000003a0: f96c ae3d 7064 3f3d 8e9c b5bd 9b30 49bd
000003b0: f695 a0bc ac00 dd3c 3b14 123d 26de 3f3d
000003c0: fab0 1a3d 6b8c b5bc 5c94 953c f2c8 453d
000003d0: 1af2 c23c 3d63 043c 2b6d bc3d 76c2 163e
000003e0: dc38 073e 8b3d 28bc 748a 80bd 75fc 4cbd
000003f0: 0058 aabc 1658 d7bc 2b53 613c d4f8 3a3d

conv4.bias f4 [64]
-0.02759488 -0.09794201 -0.044312198 0.013341714 -0.00852991 -0.043300856 -0.03754466 -0.02965967
0.05902619 -0.07526752 0.056693405 0.024899751 -0.040911116 0.06938746 -0.0018275697 -0.02340555
0.043206193 -0.0121218255 0.031958926 0.059476644 -0.021832533 0.049718685 0.0057263374 0.0047454266
-0.058824997 0.029560845 0.07221986 0.023027418 0.041485783 -0.044405024 -0.034622032 0.04453838
0.035610568 0.0605948 -0.031164058 -0.04541493 -0.0947455 -0.049252074 -0.056159336 0.075085185
-0.06877825 -0.05359848 0.02661041 0.031830322 0.040623862 -0.047067042 0.0046982383 0.050355054
-0.0673195 0.03038318 0.047629114 0.07984424 -0.05435318 -0.022822943 -0.06271233 0.01132819
-0.02745479 0.022853777 -0.013693476 -0.019112634 0.056462523 0.076580904 0.08257609 0.05916559
00000000: a80e e2bc d295 c8bd b580 35bd 3497 5a3c
00000010: 09c1 0bbc 3d5c 31bd 6ec8 19bd d6f8 f2bc
00000020: 72c5 713d dc25 9abd 5837 683d 90fa cb3c
00000030: 6a92 27bd 031b 8e3d 108b efba ffbc bfbc
00000040: faf8 303d 9f9a 46bc 5de7 023d c89d 733d
00000050: 24da b2bc d2a5 4b3d 00a4 bb3b 867f 9b3b
00000060: 7bf2 70bd 9629 f23c 02e8 933d ffa3 bc3c
00000070: ffec 293d 0be2 35bd d5cf 0dbd e06d 363d
00000080: 63dc 113d 4132 783d c44b ffbc 0105 3abd
00000090: ee09 c2bd 8bbc 49bd 5507 66bd 43c6 993d
000000a0: 9cdb 8cbd 148a 5bbd 13fe d93c 8360 023d
000000b0: 3565 263d 5fc9 40bd aef3 993b 1a41 4e3d
000000c0: cede 89bd 26e6 f83c bf16 433d 6085 a33d
000000d0: 71a1 5ebd 2ef7 babc 526f 80bd df99 393c
000000e0: dee8 e0bc d837 bb3c 9a5a 60bc 1992 9cbc
000000f0: 3f45 673d 73d6 9c3d a71d a93d 9e57 723d

bn4.weight f4 [64]
1.229688 1.2416388 1.2159773 1.2256854 1.2533104 1.2873911 1.2820652 1.16963
1.306374 1.285312 1.225099 1.1957005 1.2245519 1.2084489 1.2208414 1.233339
1.2456641 1.1726869 1.2217615 1.2667551 1.2730292 1.2977568 1.2611647 1.2444285
1.2207416 1.2810198 1.1788104 1.2751191 1.2423474 1.23264 1.2372606 1.26153
1.2063221 1.3005737 1.2103274 1.2573351 1.2997633 1.2108654 1.2324301 1.1006668
1.2210535 1.2405938 1.2226497 1.2422694 1.3120039 1.2153994 1.2770736 1.2460132
1.2377774 1.2465329 1.2085971 1.2792696 1.2480954 1.2883201 1.1988512 1.2719523
1.2187214 1.300017 1.1718688 1.2212282 1.2228681 1.2673948 1.283601 1.2757331
00000000: 6b66 9d3f 05ee 9e3f 25a5 9b3f 42e3 9c3f
00000010: 7a6c a03f 3bc9 a43f b61a a43f 70b6 953f
00000020: 4337 a73f 1b85 a43f 0bd0 9c3f b70c 993f
00000030: 1ebe 9c3f 74ae 9a3f 8844 9c3f 0dde 9d3f
00000040: ec71 9f3f 9b1a 963f ae62 9c3f 0825 a23f
00000050: 9ff2 a23f e51c a63f d86d a13f 6f49 9f3f
00000060: 4341 9c3f 75f8 a33f 42e3 963f 1a37 a33f
00000070: 3d05 9f3f 26c7 9d3f 8e5e 9e3f d179 a13f
00000080: c368 9a3f 3379 a63f 02ec 9a3f 5bf0 a03f
00000090: a55e a63f a3fd 9a3f 45c0 9d3f a6e2 8c3f
000000a0: 7b4b 9c3f c7cb 9e3f c97f 9c3f af02 9f3f
000000b0: beef a73f 3592 9b3f 2677 a33f 5c7d 9f3f
000000c0: 7d6f 9e3f 648e 9f3f 4fb3 9a3f 1bbf a33f
000000d0: 97c1 9f3f ace7 a43f f573 993f 55cf a23f
000000e0: 10ff 9b3f f566 a63f ccff 953f 3551 9c3f
000000f0: f186 9c3f fe39 a23f 0a4d a43f 394b a33f

bn4.bias f4 [64]
0.12241452 0.03524429 0.099096835 0.072541855 0.106238805 0.12250684 0.055514008 0.036499724
0.1790409 0.06624548 0.04619362 0.049397513 0.08067433 0.054769367 0.16114591 0.14903395
0.05457876 0.049998134 0.07005853 0.14041063 0.09080618 0.17671208 0.088646874 0.1130126
0.035392817 0.17234272 0.08130807 0.13651894 0.07816981 0.043258518 0.0695305 0.13453835
0.12072084 0.1699716 0.06513342 0.05658836 0.10670533 0.028188819 0.046784747 0.049170017
0.024309061 0.053486705 0.055194058 0.18298365 0.18463507 0.057122625 0.061724994 0.17717311
0.079909414 0.05075461 0.09995126 0.12749414 0.074993744 0.0996052 0.06526328 0.1893575
0.1544428 0.16261005 0.018943 0.046183556 0.094451696 0.17746632 0.17131099 0.08956425
00000000: 77b4 fa3d 515c 103d 48f3 ca3d d390 943d
00000010: bb93 d93d dee4 fa3d a862 633d bc80 153d
00000020: 7f56 373e b6ab 873d 8535 3d3d 0c55 4a3d
00000030: 9538 a53d d855 603d 6f03 253e 5b9c 183e
00000040: fa8d 5f3d d8ca 4c3d d97a 8f3d cec7 0f3e
00000050: 97f8 b93d 03f4 343e 7e8c b53d 2673 e73d
00000060: 0ff8 103d 9c7a 303e d884 a63d 9fcb 0b3e
00000070: 7e17 a03d d82f 313d 0266 8e3d 6cc4 093e
00000080: 7d3c f73d 090d 2e3e ac64 853d 32c9 673d
00000090: 5388 da3d 3dec e63c 5da1 3f3d 8066 493d
000000a0: cc23 c73c e014 5b3d 2a13 623d 1160 3b3e
000000b0: fa10 3d3e 6af9 693d 59d3 7c3d de6c 353e
000000c0: 8ca7 a33d 11e4 4f3d 3fb3 cc3d d38d 023e
000000d0: 5296 993d d0fd cb3d c1a8 853d efe6 413e
000000e0: 4126 1e3e 4083 263e 5a2e 9b3c f82a 3d3d
000000f0: e46f c13d bbb9 353e 266c 2f3e 766d b73d

bn4.running_mean f4 [64]
-1.9026238 0.6557516 -0.5540807 0.1145368 -0.14437388 0.18561037 1.043586 0.37260142
-1.275388 0.84187865 0.4340551 0.8250871 0.009741087 0.35805354 -2.0515728 -0.59563744
1.302792 0.09496421 0.51006556 -1.0003586 1.164295 -0.9570788 0.62237656 -0.34982106
0.67944235 -0.2123789 0.44431698 -0.8550592 -0.012999033 0.42427427 1.0576469 -0.35427845
-0.30446136 0.35915422 0.14175709 1.0486469 0.62391686 0.13270749 1.3370674 -1.7514414
0.53893316 1.1404 0.565978 -0.6144607 -1.6223181 0.09340339 0.39344427 -1.7250983
1.0847006 1.362824 0.10309088 -0.4895683 -0.26263952 0.49039835 -0.2062962 -0.28654316
-0.6556788 0.167092 0.30532503 1.0755033 0.24863309 -0.13554363 -0.7807217 0.42815608
00000000: 2d89 f3bf 56df 273f 3cd8 0dbf 4592 ea3d
00000010: bfd6 13be a510 3e3e 3a94 853f 9dc5 be3e
00000020: ea3f a3bf 5c85 573f 783c de3e e838 533f
00000030: 1599 1f3c cb52 b73e f84c 03c0 b27b 18bf
00000040: e3c1 a63f 997c c23d a893 023f c00b 80bf
00000050: 9e07 953f 1e03 75bf 1254 1f3f bf1b b3be
00000060: efef 2d3f db79 59be 847d e33e 29e5 5abf
00000070: e5f9 54bc 7a3a d93e f960 873f fc63 b5be
00000080: 5ce2 9bbe 10e3 b73e c528 113e 103a 863f
00000090: 04b9 1f3f 79e4 073e 0625 ab3f 3b2f e0bf
000000a0: 86f7 093f a1f8 913f efe3 103f 4c4d 1dbf
000000b0: 1fa8 cfbf 474a bf3d 8771 c93e 05d0 dcbf
000000c0: 78d7 8a3f 0471 ae3f 5021 d33d b2a8 fabe
000000d0: b078 86be 7e15 fb3e 503f 53be c9b5 92be
000000e0: 91da 27bf 2a1a 2b3e 9053 9c3e 18aa 893f
000000f0: ac99 7e3e f3cb 0abe 61dd 47bf 4637 db3e

bn4.running_var f4 [64]
0.30529007 0.25042313 0.2472586 0.20839182 0.23519515 0.2528042 0.2958876 0.24544136
0.31387547 0.33527386 0.19515643 0.2612329 0.16674165 0.21474615 0.4371669 0.3483081
0.3506062 0.20526154 0.24662775 0.26666552 0.37634033 0.22426225 0.26198015 0.21479131
0.23950717 0.29876623 0.21396051 0.24113159 0.19889596 0.2329819 0.28970167 0.22721213
0.3080561 0.32426775 0.19623353 0.3902609 0.2546903 0.29505324 0.35761514 0.32878003
0.22070932 0.44799763 0.23435032 0.26072654 0.31488276 0.22136149 0.32617313 0.2769739
0.29833728 0.41349098 0.24039437 0.2887153 0.22131547 0.28902432 0.19855931 0.28463373
0.32614642 0.33311358 0.31646353 0.4080229 0.22798069 0.32450265 0.22783099 0.30223298
00000000: fb4e 9c3e 7637 803e 5c31 7d3e aa64 553e
00000010: ffd6 703e 8d6f 813e 947e 973e fb54 7b3e
00000020: 49b4 a03e 04a9 ab3e 16d7 473e 52c0 853e
00000030: 53be 2a3e 6ae6 5b3e 57d4 df3e 7055 b23e
00000040: a882 b33e 1530 523e fc8b 7c3e 6288 883e
00000050: aeaf c03e 01a5 653e 4322 863e 41f2 5b3e
00000060: 5e41 753e e3f7 983e 7718 5b3e 33eb 763e
00000070: 62ab 4b3e cf92 6e3e c753 943e 4caa 683e
00000080: 87b9 9d3e 6c06 a63e 71f1 483e 47d0 c73e
00000090: c466 823e 3811 973e 5519 b73e db55 a83e
000000a0: a001 623e f25f e53e 88f9 6f3e f37d 853e
000000b0: 5038 a13e 96ac 623e 2a00 a73e 86cf 8d3e
000000c0: aabf 983e 17b5 d33e f129 763e 7ed2 933e
000000d0: 86a0 623e fffa 933e 2253 4b3e 83bb 913e
000000e0: aafc a63e dd8d aa3e 8207 a23e 61e8 d03e
000000f0: c573 693e 3625 a63e 874c 693e 48be 9a3e
