trys/chico_clasi.ckpt (torch, 103108 bytes, 26 tensors)

conv1.weight f4 [32, 1, 8]
0.04636789 -0.25384793 -0.3103487 -0.3276668 0.3390602 -0.074881986 0.33010864 0.26840273
0.18983972 0.37956244 -0.0036616197 0.34603897 -0.049467485 0.16137506 -0.030306717 0.33958697
0.16609414 -0.13605985 0.061012965 0.23724434 -0.076602235 -0.061997276 -0.19824508 -0.32644096
0.12718356 0.20902276 -0.19601253 -0.25958553 -0.1250573 0.26591933 -0.31143028 0.256512
-0.123745404 -0.0028355003 0.14391686 -0.118929654 0.28309616 -0.13024054 -0.042405535 0.07258647
-0.060750198 -0.16075689 -0.23617215 0.30838078 0.20054632 0.08917507 0.025490273 0.29870638
0.21417643 -0.055108283 -0.29619116 -0.153168 -0.029751314 0.20136984 -0.26562852 -0.3299589
-0.031150915 0.19437222 -0.35294005 0.36943865 -0.06300254 0.18133326 -0.11682869 -0.21562135
0.06479993 -0.0674978 0.32659495 -0.17486078 -0.117404245 0.08489001 0.27684617 0.040141534
0.09102716 -0.03126825 0.0676284 -0.33172864 0.22657552 -0.07685589 0.20720558 -0.13225268
-0.20802656 0.1466321 -0.19706903 -0.11715024 -0.3948173 -0.3484502 -0.1224422 0.2616364
0.362835 0.22090696 -0.02886971 -0.00439775 0.19891924 0.25184098 -0.27428368 -0.3219193
0.004687424 0.25237113 0.20581873 -0.0690794 -0.26690534 -0.32297197 0.18247612 0.056771528
-0.13241158 -0.08242521 0.010372966 -0.20687173 0.21594512 0.061577827 -0.32603908 -0.33186316
0.33087167 -0.20702384 -0.15558212 0.104484364 -0.15321305 0.1784065 0.06248037 -0.14534257
-0.3286227 0.047967955 -0.016253943 -0.13197558 0.23927505 0.19744042 0.28730583 -0.049248222
-0.038867444 -0.27187434 0.34110272 0.09822755 -0.21813768 0.2346675 0.079794005 -0.192871
0.26270595 0.0471915 0.25139505 0.039156646 -0.33719653 0.006506373 -0.28459165 -0.10854682
0.22146069 0.10626591 -0.3618245 0.07551852 0.30560726 0.019863822 -0.06787704 -0.25307655
-0.15740706 -0.15544824 -0.17052542 -0.094052196 -0.11915864 0.10794201 0.19807078 0.31930444
-0.2293539 -0.16633834 0.097152814 0.11973429 0.18173338 0.2950276 -0.10118929 -0.21087009
0.17882973 -0.215366 0.2246876 -0.061323564 0.22328915 -0.38721222 0.2744734 0.030693261
0.31747645 -0.12872338 0.10899353 -0.2365348 -0.36401996 -0.15887016 0.22172435 0.20872939
-0.21639267 0.34001225 0.0054853507 -0.22592908 0.0102075925 0.007299411 0.2496277 -0.109126695
-0.23624818 0.25477058 -0.04591355 -0.15395845 -0.12914813 0.25317842 0.050135326 -0.006543137
-0.10610241 -0.2666882 0.2150599 0.35778946 0.05716913 -0.25066444 -0.18723276 0.092598744
0.2291707 0.19781075 0.1075985 -0.04363903 -0.21760976 0.085848816 -0.109482445 0.19822867
-0.120781764 0.22217643 -0.106062636 -0.2623038 0.16900226 -0.13327199 -0.3613641 -0.22202452
-0.08906379 0.2991815 0.32380965 -0.082791455 -0.1432857 -0.3212269 -0.13089618 0.09642794
0.30032477 0.20055759 0.19347301 -0.11361226 -0.003104628 -0.0024332656 -0.24922834 -0.3878368
0.25929204 0.013522589 0.2903425 0.08389861 -0.23449343 -0.03734274 0.35164443 -0.25855598
-0.32188383 -0.20926698 0.018101178 -0.10737136 0.2570202 -0.11698127 -0.4078414 -0.35590163
00000000: 42ec 3d3d 5bf8 81be 06e6 9ebe f1c3 a7be
00000010: 4c99 ad3e ba5b 99bd 0004 a93e 156c 893e
00000020: 5865 423e 0256 c23e c9f7 6fbb 052c b13e
00000030: 6b9e 4abd 813f 253e cb45 f8bc 58de ad3e
00000040: 9514 2a3e 4653 0bbe bbe8 793d 2ef0 723e
00000050: a2e1 9cbd dbf0 7dbd c200 4bbe 4523 a7be
00000060: 683c 023e 100a 563e 82b7 48be 65e8 84be
00000070: 050f 00be 9426 883e ca73 9fbe 8a55 833e
00000080: 3b6e fdbd cdd3 39bb f15e 133e 6491 f3bd
00000090: fbf1 903e c75d 05be 6db1 2dbd 37a8 943d
000000a0: 33d5 78bd 749d 24be 1dd7 71be 16e4 9d3e
000000b0: 045c 4d3e 6ba1 b63d fad0 d03c 0bf0 983e
000000c0: 1151 5b3e 39b9 61bd 5ea6 97be 12d8 1cbe
000000d0: 07b9 f3bc e533 4e3e 7600 88be 5ff0 a8be
000000e0: 3430 ffbc 8309 473e 8fb4 b4be 1027 bd3e
000000f0: 7a07 81bd 6daf 393e e143 efbd d8cb 5cbe
00000100: d3b5 843d 493c 8abd 7437 a73e b40e 33be
00000110: a371 f0bd d0da ad3d c8be 8d3e 736b 243d
00000120: 736c ba3d 2313 00bd c280 8a3d 56d8 a9be
00000130: 6a03 683e 9f66 9dbd b32d 543e 3f6d 07be
00000140: ea04 55be ba26 163e 77cc 49be 77ec efbd
00000150: 7e25 cabe 1168 b2be fac2 fabd 35f5 853e
00000160: 82c5 b93e 6f35 623e 2c80 ecbc 001b 90bb
00000170: 7cb1 4b3e 4df1 803e e96e 8cbe 9bd2 a4be
00000180: f698 993b ca36 813e 25c2 523e 8079 8dbd
00000190: d1a7 88be 955c a5be 05db 3a3e 4389 683d
000001a0: e796 07be 8cce a8bd 5ff3 293c 2fd6 53be
000001b0: b820 5d3e 0839 7c3d 98ee a6be f8e9 a9be
000001c0: 0368 a93e 0ffe 53be eb50 1fbe e6fb d53d
000001d0: e2e3 1cbe 32b0 363e 6beb 7f3d afd4 14be
000001e0: 3c41 a8be 0c7a 443d fd26 85bc 9b24 07be
000001f0: 8504 753e d22d 4a3e c019 933e 81b8 49bd
00000200: 7833 1fbd 1d33 8bbe 04a5 ae3e 872b c93d
00000210: 7c5f 5fbe ad4c 703e 0a6b a33d fa7f 45be
00000220: 6581 863e e04b 413d dab6 803e b862 203d
00000230: 06a5 acbe 6a33 d53b ffb5 91be cc4d debd
00000240: 97c6 623e f1a1 d93d 1041 b9be 74a9 9a3d
00000250: 8e78 9c3e 74b9 a23c 1e03 8bbd 4093 81be
00000260: 512f 21be d32d 1fbe 379e 2ebe 709e c0bd
00000270: 7209 f4bd b310 dd3d 11d3 4a3e df7b a33e
00000280: c0db 6abe 9954 2abe 0ef8 c63d 4037 f53d
00000290: 5118 3a3e dc0d 973e 553c cfbd 54ee 57be
000002a0: 241f 373e e888 5cbe 8214 663e 6b2e 7bbd
000002b0: e9a5 643e ae40 c6be c787 8c3e 6f70 fb3c
000002c0: 468c a23e 10d0 03be 0038 df3d 2e36 72be
000002d0: d360 babe dcae 22be b50b 633e 28bd 553e
000002e0: 0a96 5dbe 1616 ae3e 75be b33b f459 67be
000002f0: bf3d 273c e62f ef3b 679e 7f3e d17d dfbd
00000300: 0beb 71be 4a71 823e d90f 3cbd 49a7 1dbe
00000310: 683f 04be 9aa0 813e b35a 4d3d d067 d6bb
00000320: 384c d9bd 5b8b 88be aa38 5c3e 2e30 b73e
00000330: 2d2a 6a3d 1757 80be f2b9 3fbe 69a4 bd3d
00000340: b9ab 6a3e e78e 4a3e 9a5c dc3d d7be 32bd
00000350: 18d5 5ebe 81d1 af3d 5538 e0bd 75fc 4a3e
00000360: 6e5c f7bd 3882 633e 5e37 d9bd af4c 86be
00000370: ee0e 2d3e 7478 08be b704 b9be 655a 63be
00000380: 1467 b6bd 512e 993e 61ca a53e 918e a9bd
00000390: 7db9 12be da77 a4be a609 06be 037c c53d
000003a0: 2bc4 993e f85e 4d3e ca1d 463e 8bad e8bd
000003b0: 0477 4bbb 6c77 1fbb b735 7fbe 8c92 c6be
000003c0: edc1 843e d98d 5d3c c6a7 943e 09d3 ab3d
000003d0: 0c1f 70be b3f4 18bd bd0a b43e 7361 84be
000003e0: f5cd a4be 154a 56be ec48 943c 84e5 dbbd
000003f0: 2798 833e e093 efbd 97d0 d0be bd38 b6be

conv1.bias f4 [32]
0.17031886 0.07227121 0.09339303 -0.25053284 -0.19266301 -0.33835092 -0.16021147 0.3268621
-0.24954289 0.16120379 -0.1144888 -0.16718644 0.08097785 0.29541862 0.042041305 -0.15848051
-0.3771702 -0.33028898 0.2428718 0.20714243 -0.30384704 0.1458482 0.11034824 0.031748187
-0.025617277 0.06133198 -0.28219122 -0.02832577 -0.3260056 0.20952506 0.12297324 0.077918395
00000000: 1168 2e3e ee02 943d d844 bf3d d745 80be
00000010: 7449 45be 553c adbe 7a0e 24be 785a a73e
00000020: 2c88 7fbe 9b12 253e 1b79 eabd ec32 2bbe
00000030: b7d7 a53d 1c41 973e 8133 2c3d b748 22be
00000040: 741c c1be a31b a9be 63b3 783e 251d 543e
00000050: d791 9bbe 3b59 153e 42fe e13d 630a 023d
00000060: 53db d1bc 3e37 7b3d 5e7b 90be 720b e8bc
00000070: 35ea a6be bd8d 563e 65d9 fb3d ae93 9f3d

bn1.weight f4 [32]
1.0192401 1.0122916 0.9822698 0.99993473 1.0003667 1.0258706 0.96808547 1.008172
1.0324879 1.0069866 0.96661556 0.9766762 0.98118263 0.9685673 1.0785215 0.9834576
1.020445 0.9947793 0.95603466 0.98335487 1.009692 1.017508 1.00437 1.0162767
0.94774055 1.078292 0.96922827 0.94939846 1.002184 1.002397 0.9729597 0.97569346
00000000: 7676 823f c592 813f 0976 7b3f b9fb 7f3f
00000010: 040c 803f ba4f 833f 73d4 773f c80b 813f
00000020: 9028 843f f0e4 803f 1e74 773f 7407 7a3f
00000030: c92e 7b3f 07f4 773f fe0c 8a3f e1c3 7b3f
00000040: f19d 823f dba9 7e3f b0be 743f 25bd 7b3f
00000050: 963d 813f b43d 823f 328f 803f 5b15 823f
00000060: 209f 723f 7905 8a3f 581f 783f c70b 733f
00000070: 9147 803f 8b4e 803f e313 793f 0cc7 793f

bn1.bias f4 [32]
-0.02877884 0.00930758 0.0021288786 0.022280421 0.007263292 -0.04319979 -0.033165693 0.015611787
-0.033703398 0.017812228 -0.026820555 -0.03564588 0.072584674 -0.08532901 0.044705935 0.038372327
0.08361986 0.08671019 0.023810022 0.23862158 -0.0156211285 0.057865348 0.013309631 -0.020589482
0.041639064 0.12529172 0.021158062 -0.044846293 -0.0012879629 0.1727596 -0.045535482 -0.03384121
00000000: 9ac1 ebbc d27e 183c a884 0b3b 6e85 b63c
00000010: e900 ee3b 43f2 30bd c0d8 07bd 95c8 7f3c
00000020: 930c 0abd f3ea 913c c8b6 dbbc 6a01 12bd
00000030: 46a7 943d fac0 aebd 921d 373d 4d2c 1d3d
00000040: e440 ab3d 1d95 b13d 3c0d c33c 3759 743e
00000050: c3ef 7fbc 3704 6d3d a310 5a3c 46ab a8bc
00000060: b98d 2a3d 794c 003e ac53 ad3c bfb0 37bd
00000070: ddd0 a8ba e5e7 303e 6a83 3abd 159d 0abd

bn1.running_mean f4 [32]
0.21195883 2.1897588 -0.41019115 -0.2612035 -0.02953525 0.39876437 -1.2830484 0.2696952
0.42724055 0.18146141 -1.6551726 0.48527318 0.18124913 -0.963551 0.077651836 0.21713564
-0.345965 -0.49581715 0.351242 0.11342653 -0.31275693 0.58066195 0.07385263 0.14761727
-0.0701813 -0.06977155 0.4487504 -1.3355322 -0.3752747 0.14879577 0.8833196 -1.8944844
00000000: bc0b 593e 0225 0c40 9304 d2be 77bc 85be
00000010: e9f3 f1bc d82a cc3e ee3a a4bf 7d15 8a3e
00000020: 46bf da3e 05d1 393e b2dc d3bf ba75 f83e
00000030: 5f99 393e 47ab 76bf ed07 9f3d ce58 5e3e
00000040: 5322 b1be bfdb fdbe fed5 b33e 2b4c e83d
00000050: ad21 a0be 43a6 143f 0c40 973d fb28 173e
00000060: 37bb 8fbd 63e4 8ebd 9dc2 e53e b8f2 aabf
00000070: 0124 c0be eb5d 183e 3c21 623f 777e f2bf

bn1.running_var f4 [32]
0.1432393 0.5144716 0.08413952 0.06787079 0.021762978 0.121304534 0.19600984 0.050183583
0.084568635 0.028339507 0.34294784 0.13920408 0.086146094 0.22553723 0.038817473 0.08434664
0.04731151 0.083453536 0.0650889 0.077740446 0.082465 0.059267186 0.11392704 0.04004772
0.03299265 0.0865118 0.10366337 0.2334539 0.101729944 0.1011119 0.11751368 0.51082087
00000000: 53ad 123e 69b4 033f 5751 ac3d d7ff 8a3d
00000010: 4648 b23c 836e f83d ceb6 483e 4d8d 4d3d
00000020: 5232 ad3d 4128 e83c dc96 af3e 848b 0e3e
00000030: 5d6d b03d 3bf3 663e 12ff 1e3d eebd ac3d
00000040: b7c9 413d b0e9 aa3d 544d 853d 6236 9f3d
00000050: 69e3 a83d 26c2 723d 9452 e93d 1409 243d
00000060: 4d23 073d 192d b13d 764d d43d 8a0e 6f3e
00000070: ca57 d03d c113 cf3d 03ab f03d 28c5 023f

conv2.weight f4 [32, 32, 3]
-0.027584339 0.09783591 -0.06371685 0.04886497 -0.117857166 -0.04753747 -0.06708225 -0.043664075
-0.030238878 -0.07545452 -0.07573286 -0.02111354 0.05454387 -0.029751778 -0.088439025 -0.024896756
0.026073659 -0.07670575 -0.04607681 -0.103282936 -0.096877396 -0.0021033282 -0.07221649 0.01845884
-0.052983064 0.03279202 -0.11621173 -0.006308575 -0.078707375 -0.019622073 -0.06231503 -0.059316967
-0.14657529 -0.04033263 0.009680511 0.090157226 0.122395344 0.044449832 0.0045740562 -0.12097608
-0.041728206 -0.14275831 0.009859851 -0.027594756 -0.0055216923 0.008871886 -0.05787953 0.033583157
0.07851839 -0.013974048 -0.016099142 0.018230718 0.058223 -0.057660833 0.07214544 -0.061349887
0.15507892 -0.07546321 0.05382636 -0.012205729 0.07669758 0.10595065 0.07567811 0.036674924
0.057904236 -0.04147719 0.06098389 -0.049502574 0.04129998 -0.07676386 0.050488263 0.008838138
0.01875013 -0.08191265 0.0065803495 -0.009223102 0.09408263 0.04161825 -0.072355166 0.02940769
0.0038344765 0.034189783 -0.14425917 -0.1240271 -0.034274217 -0.07773307 -0.046120726 0.04766422
-0.0014298499 0.009585274 0.06593004 -0.029229717 0.066194244 -0.09048281 0.051404547 -0.020571087
-0.040988732 -0.020477694 -0.016246991 0.029715132 0.05396963 0.15230952 0.060764547 0.11439162
-0.020972742 -0.034625735 -0.051062085 0.0395731 -0.072067566 -0.1298579 0.071396604 -0.08088998
-0.10613039 0.021660725 0.01820422 -0.03352805 0.04293417 -0.046342697 -0.078431726 0.11341486
-0.084686965 -0.017972069 0.07232501 -0.0013425716 -0.08305089 0.04097929 0.057052888 -0.010474938
-0.042994704 -0.07371078 -0.014401478 0.054241475 -0.0561151 0.015171698 -0.05790501 0.009498305
0.036975328 -0.061346713 -0.060737472 -0.16463272 -0.13292839 0.11451485 0.08541148 0.027449815
0.024837155 -0.12843609 0.0140211 0.060153615 0.017722689 0.0061547095 0.010249333 -0.07706942
-0.08973755 -0.04537384 -0.026791796 0.008933273 0.10749658 0.0772077 0.0533217 0.07139972
-0.013191609 0.0564142 0.08454647 0.041951198 0.06430605 -0.0394763 -0.14029874 -0.07424679
-0.11844286 -0.119791456 -0.039335124 -0.10738184 -0.12026256 -0.122732535 0.010448903 -0.04528351
0.09946004 -0.015527459 -0.037663095 -0.10637902 -0.036478244 0.06417159 0.02545193 0.005264657
0.0566707 -0.054969367 0.035257578 -0.048380293 -0.080864854 -0.11183537 0.013192591 0.073694594
0.07653535 -0.05933629 -0.02892725 -0.031993654 -0.12674034 0.075526826 -0.11828191 -0.13380662
-0.10496399 -3.7501027e-06 0.09902945 -0.03735618 -0.039553285 -0.10311903 -0.1208309 0.06742191
-0.05447314 -0.059630774 0.014673394 0.039397802 0.05299547 -0.09641329 -0.051993337 -0.10028655
0.072769046 0.029253853 -0.053478867 0.06572264 0.096853845 -0.05578359 0.004078642 -0.07623962
-0.08080571 -0.056614764 -0.037351716 -0.02809601 0.0050385655 0.09008496 0.03419 -0.08810331
0.016526816 0.015793966 0.13585399 0.099502586 0.029675161 0.0017678128 -0.09447512 -0.013439516
0.047603857 -0.11407093 -0.0818025 -0.05065126 0.030455558 -0.085270576 0.0018309986 -0.08887166
0.052954927 0.044550423 0.08500731 0.058549475 -0.037350267 0.06934075 -0.008587661 -0.054872077
00000000: 8df8 e1bc 325e c83d fb7d 82bd a326 483d
00000010: 195f f1bd a6b6 42bd 6b62 89bd 1ad9 32bd
00000020: 86b7 f7bc e687 9abd d419 9bbd 4df6 acbc
00000030: 6569 5f3d 00ba f3bc 851f b5bd 48f4 cbbc
00000040: 6d98 d53c e717 9dbd 0abb 3cbd 0186 d3bd
00000050: a867 c6bd fed7 09bb 3de6 93bd fe36 973c
00000060: c504 59bd ed50 063d 6a00 eebd 2ab8 cebb
00000070: 5531 a1bd 78be a0bc 0b3e 7fbd 59f6 72bd
00000080: d517 16be d433 25bd 029b 1e3c 5aa4 b83d
00000090: 69aa fa3d 0711 363d f7e1 953b 4fc2 f7bd
000000a0: 32eb 2abd 3c2f 12be 368b 213c 660e e2bc
000000b0: 50ef b4bb 635b 113c 1613 6dbd 7e8e 093d
000000c0: 40ce a03d 68f3 64bc 59e2 83bc 9658 953c
000000d0: 3e7b 6e3d c42d 6cbd fdc0 933d 054a 7bbd
000000e0: 02cd 1e3e 758c 9abd 0779 5c3d 8afa 47bc
000000f0: 9f13 9d3d a8fc d83d 20fd 9a3d 7238 163d
00000100: fe2c 6d3d fce3 29bd 3eca 793d 36c3 4abd
00000110: 2b2a 293d 5f36 9dbd c8cc 4e3d d6cd 103c
00000120: df99 993c d2c1 a7bd f99f d73b 7e1c 17bc
00000130: 65ae c03d e677 2a3d f22e 94bd 65e8 f03c
00000140: d74b 7b3b 960a 0c3d adb8 13be ec01 febd
00000150: 1f63 0cbd 8432 9fbd 16e9 3cbd 8f3b 433d
00000160: cd69 bbba 8e0b 1d3c 5406 873d 2973 efbc
00000170: d990 873d 0d4f b9bd 938d 523d b284 a8bc
00000180: cde3 27bd d6c0 a7bc 6918 85bc 266d f33c
00000190: 420f 5d3d 07f7 1b3e 3fe4 783d 2746 ea3d
000001a0: 07cf abbc b7d3 0dbd 7a26 51bd 6717 223d
000001b0: 2998 93bd 78f9 04be 6238 923d a5a9 a5bd
000001c0: e45a d9bd d571 b13c 0421 953c b554 09bd
000001d0: bedb 2f3d d7d1 3dbd d0a0 a0bd 0d46 e83d
000001e0: 5c70 adbd 293a 93bc 231f 943d 3af9 afba
000001f0: 9616 aabd e6d9 273d 4ab0 693d 139f 2bbc
00000200: 371b 30bd adf5 96bd 2df4 6bbc 4f2c 5e3d
00000210: f2d8 65bd b792 783c ce2d 6dbd c79e 1b3c
00000220: 7173 173d b146 7bbd dbc7 78bd 7b95 28be
00000230: 611e 08be c386 ea3d 37ec ae3d 6fde e03c
00000240: 4a77 cb3c c084 03be c1b8 653c a363 763d
00000250: 2c2f 913c 72ad c93b d2ec 273c 92d6 9dbd
00000260: 52c8 b7bd ebd9 39bd 787a dbbc dd5c 123c
00000270: 2b27 dc3d 121f 9e3d db67 5a3d 043a 923d
00000280: 9e21 58bc 9412 673d b326 ad3d 05d5 2b3d
00000290: e4b2 833d e7b1 21bd 79aa 0fbe b30e 98bd
000002a0: 2c92 f2bd 3955 f5bd de1d 21bd 03eb dbbd
000002b0: 384c f6bd 325b fbbd e031 2b3c 347b 39bd
000002c0: b5b1 cb3d e266 7ebc 9e44 1abd 3edd d9bd
000002d0: 366a 15bd 656c 833d 9180 d03c 2583 ac3b
000002e0: 891f 683d 8f27 61bd 406a 103d 6a2a 46bd
000002f0: 799c a5bd f109 e5bd bd25 583c 31ed 963d
00000300: 91be 9c3d 9c0a 73bd d7f8 ecbc c70b 03bd
00000310: 38c8 01be cfad 9a3d c93d f2bd 9a04 09be
00000320: 5cf7 d6bd 46aa 7bb6 f4cf ca3d cb02 19bd
00000330: a002 22bd 1230 d3bd 3176 f7bd 8014 8a3d
00000340: 3a1f 5fbd 663f 74bd ad68 703c 975f 213d
00000350: c711 593d 5574 c5bd f7f6 54bd 0963 cdbd
00000360: f007 953d c7a5 ef3c a80c 5bbd 9799 863d
00000370: 4f5b c63d 557d 64bd 21a6 853b 8523 9cbd
00000380: 777d a5bd e2e4 67bd 1dfe 18bd 9b29 e6bc
00000390: 8d1a a53b 777e b83d d00a 0c3d 826f b4bd
000003a0: 3f63 873c 5962 813c 4f1d 0b3e 03c8 cb3d
000003b0: 5319 f33c f4b5 e73a 2c7c c1bd 6a31 5cbc
000003c0: 43fc 423d 059e e9bd 1288 a7bd b277 4fbd
000003d0: ef7d f93c 57a2 aebd 1efe ef3a 5802 b6bd
000003e0: 44e7 583d 817a 363d 5018 ae3d 93d1 6f3d
000003f0: 98fc 18bd 8602 8e3d 43b3 0cbc 8bc1 60bd

conv2.bias f4 [32]
0.032899603 -0.071440145 0.04827788 -0.0017689257 -0.035734832 -0.040566325 -0.09193757 -0.005087502
0.037804436 -0.052921522 0.06092171 0.12026818 0.07614983 -0.07517407 0.06751508 0.08409188
-0.0994159 -0.06752088 -0.04637227 -0.0062589254 0.053293332 -0.07434062 0.09179787 -0.006566328
0.055059142 -0.072639026 -0.09772343 -0.031821437 0.06086537 -0.10572652 -0.025521163 -0.011991415
00000000: bcc1 063d 364f 92bd 07bf 453d 4cdb e7ba
00000010: b05e 12bd e028 26bd c449 bcbd 0fb5 a6bb
00000020: d3d8 1a3d 3dc4 58bd 0b89 793d 2a4f f63d
00000030: 71f4 9b3d ddf4 99bd 5945 8a3d 5d38 ac3d
00000040: 909a cbbd 6348 8abd d9f0 3dbd ac17 cdbb
00000050: 1c4a 5a3d e53f 98bd 8600 bc3d 5a2a d7bb
00000060: b285 613d c5c3 94bd 3923 c8bd 3257 02bd
00000070: f74d 793d 2587 d8bd c211 d1bc a477 44bc

bn2.weight f4 [32]
0.9817791 1.027812 1.0297632 1.0228683 1.076693 1.0099427 0.94542587 1.0332792
1.0725164 0.93977326 1.0196747 1.039161 1.0052233 0.99122196 1.0065747 1.0159565
0.9982152 0.9895274 1.0365617 0.94207746 0.9853629 1.0124061 0.91504455 1.065826
0.9183424 0.97083914 0.9835772 1.0234379 1.0465872 0.99099094 1.0344429 0.9773743
00000000: e055 7b3f 588f 833f 48cf 833f 59ed 823f
00000010: 14d1 893f cd45 813f 6e07 723f 7e42 843f
00000020: 3848 893f fb94 703f b384 823f 3a03 853f
00000030: 28ab 803f b9c0 7d3f 71d7 803f dd0a 823f
00000040: 088b 7f3f ab51 7d3f 0eae 843f fd2b 713f
00000050: be40 7c3f 8696 813f 5c40 6a3f fd6c 883f
00000060: 7d18 6b3f ea88 783f b7cb 7b3f 0300 833f
00000070: 92f6 853f 95b1 7d3f a068 843f 3435 7a3f

bn2.bias f4 [32]
-0.06464673 -0.07312679 -0.052821264 -0.08276158 -0.03841905 -0.0012753966 0.0032206185 0.0834229
0.05711602 -0.056570023 -0.049842894 0.026549991 -0.04962104 0.038547803 -0.04121732 0.0012025376
-0.008779131 -0.053009413 -0.035726767 -0.027996624 -0.005044458 -0.056249376 -0.046717383 0.08642827
-0.10672989 -0.04474463 -0.081595056 0.032623976 0.078637734 -0.04603191 -0.06679031 -0.09546978
00000000: 8165 84bd 80c3 95bd 1c5b 58bd e77e a9bd
00000010: 4b5d 1dbd 352b a7ba 0311 533b a0d9 aa3d
00000020: 7df2 693d f8b5 67bd 1028 4cbd 5e7f d93c
00000030: 6e3f 4bbd 4de4 1d3d 7ed3 28bd 779e 9d3a
00000040: 58d6 0fbc 6620 59bd 3b56 12bd 2d59 e5bc
00000050: fb4b a5bb bf65 66bd ba5a 3fbd 4e01 b13d
00000060: 3395 dabd 2546 37bd 4f1b a7bd b8a0 053d
00000070: d20c a13d f58b 3cbd 5cc9 88bd a985 c3bd

bn2.running_mean f4 [32]
-0.5581551 -0.62035936 -0.16602287 -0.7643853 -0.5443547 -0.9442377 0.04632156 -0.20335805
-0.5021804 0.15872745 -0.39528513 -0.2214433 1.1126649 0.21335731 -0.71676105 -0.06782731
-0.4423048 0.4247541 -0.72599715 0.48402524 0.9437039 -0.3510498 0.037257414 -0.3093664
-0.16374765 -0.3920692 -0.23736285 -0.29942858 -0.68250954 -0.5417244 -0.44075987 -0.64255023
00000000: 41e3 0ebf dfcf 1ebf e601 2abe c1ae 43bf
00000010: d45a 0bbf 90b9 71bf adbb 3d3d 183d 50be
00000020: e58e 00bf 7389 223e d062 cabe 08c2 62be
00000030: ce6b 8e3f 577a 5a3e a77d 37bf 0be9 8abd
00000040: c675 e2be 5f79 d93e f3da 39bf 28d2 f73e
00000050: 9496 713f cdbc b3be 3b9b 183d 4665 9ebe
00000060: 77ad 27be 4bbd c8be 3f0f 73be b44e 99be
00000070: f2b8 2ebf 73ae 0abf 47ab e1be 2c7e 24bf

bn2.running_var f4 [32]
0.4031429 0.2882919 0.24001281 0.5405147 0.21788146 0.40929094 0.44657642 0.20464295
0.34621105 0.41650462 0.3974415 0.15346569 0.4771414 0.34407902 0.6779252 0.21417923
0.35921466 0.19962071 0.5663314 0.25505838 0.62522674 0.17864212 0.3706401 0.28260255
0.36754382 0.23262274 0.21915513 0.2746923 0.40644062 0.30011523 0.47489223 0.22261903
00000000: bf68 ce3e ff9a 933e ebc5 753e 2c5f 0a3f
00000010: 511c 5f3e 958e d13e aaa5 e43e ec8d 513e
00000020: 9342 b13e 1840 d53e 747d cb3e 1c26 1d3e
00000030: e14b f43e 202b b03e 828c 2d3f cd51 5b3e
00000040: fcea b73e 5f69 4c3e 18fb 103f 0397 823e
00000050: dc0e 203f f6ed 363e 8ac4 bd3e 48b1 903e
00000060: b42e bc3e a834 6e3e 346a 603e 78a4 8c3e
00000070: fc18 d03e b4a8 993e 1325 f33e 3ef6 633e

conv3.weight f4 [64, 32, 3]
-0.05635007 -0.029682724 -0.0223427 0.10789333 0.097062364 0.13791049 0.02570062 -0.008284139
0.018283695 0.09817089 0.025231933 0.11609625 0.10836107 -0.063706115 -0.08969964 0.049782008
0.0887427 0.03801809 -0.01992605 -0.016816687 -0.040272005 -0.13107918 -0.06093381 -0.0773037
0.013190681 -0.0040676747 -0.04606942 -0.056808688 -0.04013879 0.012269242 -0.07947743 -0.12899247
-0.08293767 -0.11102618 -0.0071745515 -0.09303011 0.0009617596 0.06269845 0.09135049 0.048394907
-0.050408952 0.039728206 0.051408954 -0.016668653 -0.06596444 0.06716593 -0.02647669 -0.05298318
0.04323351 0.046598237 -0.044190377 -0.010593362 -0.08035516 0.011789502 0.035142872 -0.049992293
-0.032265324 -0.08709801 -0.0016113981 -0.10793425 0.0034750788 -0.08855023 -0.111531176 -0.06275718
-0.038374756 0.05902969 0.016361212 -0.039013945 -0.10959624 0.023284039 0.04053611 -0.05341584
-0.072790004 -0.07658178 -0.017159456 -0.022398487 0.05160339 0.034578495 -0.035071786 -0.044884052
-0.0009110649 -0.15022442 -0.16667035 -0.06486205 0.018436601 -0.037511546 0.013334528 -0.0012192258
-0.09143236 0.06876408 -0.0021097371 -0.104803815 -0.12806107 -0.011696053 0.021821449 0.10518682
0.041180134 -0.1324463 0.07235242 -0.037981115 -0.07134454 0.0059753405 -0.07529421 -0.074737586
0.050516963 0.07434955 -0.08407864 0.016061746 -0.07104706 0.0558464 -0.027740717 0.09194454
0.02728498 0.054969493 -0.10592272 0.0062264595 0.046927 0.11855086 0.037917726 -0.035347976
0.0866756 -0.056221783 0.03741245 -0.057500046 -0.03003258 -0.00089214515 -0.06462255 0.0049215397
-0.09206014 -0.08112304 0.0378328 -0.13199727 0.09425277 0.084635034 -0.046831474 -0.06805144
-0.098113485 -0.11583101 -0.00712743 0.07520643 -0.007471745 -0.11198233 -0.0033553205 -0.018623505
-0.033890717 -0.022182913 0.052655764 0.13652274 -0.015495386 0.02595094 -0.10810554 -0.09661131
-0.02462052 0.020234639 0.095826775 -0.14436671 0.07035952 0.09799199 0.059674133 0.08115484
0.072350405 0.027575351 0.0131503 -0.006791127 -0.1100423 -0.025140481 -0.008840443 -0.12982972
0.061642222 -0.02463756 0.04676645 -0.046923406 -0.09028817 -0.08148302 0.12557915 -0.03626977
0.09591709 -0.047803648 0.049901325 -0.06650132 -0.03387303 0.08186317 0.026078055 -0.040986877
-0.04350406 -0.08283627 -0.1354383 -0.07943791 0.0038943551 0.046524957 0.0012810848 -0.055091668
0.058984738 0.044362966 0.041634057 0.034706727 0.041934088 -0.08192989 -0.1468515 -0.14590767
0.0941152 0.09330042 0.004110098 0.044340465 -0.053490467 0.070925996 0.06385193 0.11827488
-0.0580429 -0.13208398 -0.04981957 -0.04978955 -0.067827344 -0.06590036 0.034812815 0.036997158
-0.10345186 -0.02556368 -0.05434979 -0.0014639043 0.06956096 0.043314688 0.051596608 0.087762244
-0.021298869 0.014254098 0.022909133 0.1006847 0.05206654 -0.089544825 -0.07458754 -0.092833884
0.035650704 0.05159595 0.08073371 0.031662177 -0.027466362 0.029960332 0.036970627 0.11420637
-0.09785888 -0.052157268 0.07483626 -0.056982283 -0.10224091 0.10759184 -0.066999614 0.013063811
0.040671095 -0.0898489 -0.06608949 -0.00022640603 -0.03252108 -0.024053022 -0.056513526 0.043142386
00000000: 55cf 66bd 2f29 f3bc 0a08 b7bc 2ef7 dc3d
00000010: a2c8 c63d 6838 0d3e 1b8a d23c 33ba 07bc
00000020: b0c7 953c d20d c93d 33b3 ce3c dfc3 ed3d
00000030: 69ec dd3d 5a78 82bd 72b4 b7bd 38e8 4b3d
00000040: bcbe b53d dbb8 1b3d f53b a3bc 26c3 89bc
00000050: 42f4 24bd 9f39 06be bb95 79bd 6751 9ebd
00000060: ba1d 583c 214a 85bb 4ab3 3cbd 3ab0 68bd
00000070: 9268 24bd ee04 493c 10c5 a2bd 9a16 04be
00000080: 3adb a9bd b261 e3bd 8018 ebbb 9286 bebd
00000090: 981e 7c3a 0c68 803d f715 bb3d bd39 463d
000000a0: 9e79 4ebd 0bba 223d 3292 523d b38c 88bc
000000b0: 5d18 87bd 4b8e 893d a5e5 d8bc e404 59bd
000000c0: 9f15 313d cbdd 3e3d f800 35bd c88f 2dbc
000000d0: 3f91 a4bd c128 413c f9f1 0f3d b8c4 4cbd
000000e0: a528 04bd 7160 b2bd 8c35 d3ba a20c ddbd
000000f0: 26be 633b d359 b5bd 756a e4bd d686 80bd
00000100: d92e 1dbd 1ec9 713d f307 863c 16cd 1fbd
00000110: fe73 e0bd 2bbe be3c 3109 263d 91ca 5abd
00000120: ed12 95bd e9d6 9cbd fd91 8cbc 087d b7bc
00000130: 145e 533d 2ea2 0d3d 6fa7 0fbd 57d8 37bd
00000140: 88d4 6eba 6ed4 19be a2ab 2abe 65d6 84bd
00000150: 5b08 973c b5a5 19bd 1079 5a3c 6ece 9fba
00000160: e440 bbbd 2fd4 8c3d 8443 0abb 62a3 d6bd
00000170: 7122 03be cda0 3fbc e5c2 b23c 306c d73d
00000180: 80ac 283d 01a0 07be 812d 943d 1692 1bbd
00000190: 161d 92bd cacc c33b da33 9abd 0510 99bd
000001a0: e0ea 4e3d 9444 983d 6c31 acbd ec93 833c
000001b0: 1f81 91bd 32bf 643d 8040 e3bc 6b4d bc3d
000001c0: c084 df3c b127 613d 03ee d8bd 5407 cc3b
000001d0: 8736 403d cbca f23d 9e4f 1b3d 0ac9 10bd
000001e0: fa82 b13d d048 66bd cc3d 193d 2b85 6bbd
000001f0: e306 f6bc d9de 69ba d458 84bd de44 a13b
00000200: 078a bcbd d623 a6bd 91f6 1a3d 4b2a 07be
00000210: 9907 c13d 2255 ad3d 5cd2 3fbd 8e5e 8bbd
00000220: b9ef c8bd cf38 edbd 378d e9bb d405 9a3d
00000230: 8ad5 f4bb fe56 e5bd f0e4 5bbb 5290 98bc
00000240: fed0 0abd f1b8 b5bc 92ad 573d 9ecc 0b3e
00000250: 5ce0 7dbc 1197 d43c 7066 ddbd 27dc c5bd
00000260: f9b0 c9bc 1dc3 a53c d440 c43d ded4 13be
00000270: a718 903d 06b0 c83d dd6c 743d 8234 a63d
00000280: 732c 943d b4e5 e13c 5b74 573c 1a88 debb
00000290: db5d e1bd 69f3 cdbc 81d7 10bc 15f2 04be
000002a0: 8e7c 7c3d b5d4 c9bc 2d8e 3f3d c232 40bd
000002b0: 01e9 b8bd 92e0 a6bd d297 003e 9c8f 14bd
000002c0: 2e70 c43d c2cd 43bd 5565 4c3d d831 88bd
000002d0: 72be 0abd e1a7 a73d a5a1 d53c dbe1 27bd
000002e0: 5031 32bd 10a6 a9bd 56b0 0abe 58b0 a2bd
000002f0: 7038 7f3b f490 3e3d 13ea a73a cda7 61bd
00000300: fb99 713d f1b5 353d 7988 2a3d a428 0e3d
00000310: 14c3 2b3d dcca a7bd 3d60 16be d268 15be
00000320: 78bf c03d 4a14 bf3d 00ae 863b 599e 353d
00000330: d218 5bbd a641 913d cdc4 823d 1a3a f23d
00000340: 64be 6dbd 0641 07be 9b0f 4cbd 21f0 4bbd
00000350: 10e9 8abd c5f6 86bd e297 0e3d 558a 173d
00000360: 92de d3bd ec6a d1bc e39d 5ebd 7ae0 bfba
00000370: fa75 8e3d be6a 313d f756 533d b1bc b33d
00000380: f77a aebc 058a 693c efab bb3c c833 ce3d
00000390: b943 553d 4763 b7bd 5ac1 98bd b11f bebd
000003a0: 7906 123d 4656 533d b757 a53d 33b0 013d
000003b0: 2301 e1bc 5f6f f53c 836e 173d 08e5 e93d
000003c0: 3d6a c8bd dca2 55bd c143 993d 4166 69bd
000003d0: af63 d1bd 1c59 dc3d 1837 89bd 9809 563c
000003e0: bc96 263d b302 b8bd ed59 87bd 6867 6db9
000003f0: d334 05bd d80a c5bc ba7a 67bd 12b6 303d

conv3.bias f4 [64]
-0.019731209 0.018935626 0.021327747 0.036254317 0.030027673 0.028706921 0.084021196 0.05966319
-0.037416525 0.0913129 -0.028953534 -0.08746348 -0.03590892 0.00994146 -0.0022852723 -0.017750904
0.088008106 0.046380684 -0.06890986 0.04790602 -0.0559647 0.0357457 -0.022876635 0.034039624
-0.10325336 0.09118425 0.0033589264 0.08862873 0.0057395124 0.0029102142 -0.10668454 0.052122194
-0.03333163 0.05623794 -0.045041382 -0.094868004 -0.07244629 -0.019697769 -0.0985076 -0.078329824
-0.100311734 0.07484516 -0.0363495 -0.011573237 0.0045106187 0.013406159 -0.09553744 0.0076908283
-0.040995974 -0.039034773 0.047046058 -0.078337 0.06861065 -0.07947541 0.035765175 0.0035440775
0.042740166 0.025420358 0.010353436 -0.05289198 -0.0792049 -0.082225 0.08960831 -0.023190608
00000000: 58a3 a1bc e31e 9b3c 87b7 ae3c 687f 143d
00000010: 98fc f53c c72a eb3c 4e13 ac3d 6461 743d
00000020: 1242 19bd 4202 bb3d f62f edbc 0e20 b3bd
00000030: 3b15 13bd 81e1 223c 82c4 15bb 586a 91bc
00000040: 983d b43d acf9 3d3d 9d20 8dbd 1a39 443d
00000050: 3e3b 65bd 156a 123d c867 bbbc 226d 0b3d
00000060: 7f76 d3bd cfbe ba3d 6f21 5c3b fb82 b53d
00000070: 8512 bc3b 4bb9 3e3b 6d7d dabd 157e 553d
00000080: bf86 08bd c159 663d 507d 38bd 284a c2bd
00000090: b85e 94bd 375d a1bc 5abe c9bd 636b a0bd
000000a0: 3d70 cdbd 6b48 993d 37e3 14bd ad9d 3dbc
000000b0: d0cd 933b 82a5 5b3c 22a9 c3bd 5803 fc3b
000000c0: 65eb 27bd ede2 1fbd 5eb3 403d 266f a0bd
000000d0: be83 8c3d 01c4 a2bd 817e 123d c143 683b
000000e0: 5010 2f3d 5b3e d03c 75a1 293c 43a5 58bd
000000f0: 2e36 a2bd 9565 a8bd 9084 b73d 3bfa bdbc

bn3.weight f4 [64]
1.0275339 0.9660295 1.0737181 0.9286561 0.9768465 1.0013132 1.0322437 0.87061054
0.93512547 0.9814991 0.96293575 1.0097572 0.9791056 1.1093146 1.0040839 0.9634948
1.056105 1.0505137 0.9768846 0.846876 0.9760442 1.039706 1.0166569 1.0226126
0.9988271 0.97308797 1.0075332 0.92447215 0.85827816 1.0614425 0.876959 0.953758
1.0265613 0.99168754 1.0432413 1.0053395 1.0592071 1.0887349 1.0424626 0.91895515
0.9311036 1.002816 1.0278051 1.0501683 1.0290685 1.0358133 1.037382 1.0784158
1.0306613 1.037338 1.0567839 1.042519 1.0242748 1.0029682 1.0125632 0.9895446
0.95130837 0.928253 0.90703434 0.98288673 0.9473975 0.91973037 0.93852335 1.0146921
00000000: 3b86 833f b64d 773f 986f 893f 68bc 6d3f
00000010: 9d12 7a3f 082b 803f 9020 843f 55e0 5e3f
00000020: 6264 6f3f 8643 7b3f f582 763f b93f 813f
00000030: aaa6 7a3f 05fe 8d3f d285 803f 98a7 763f
00000040: 732e 873f 3c77 863f 1c15 7a3f decc 583f
00000050: 08de 793f 1615 853f d021 823f f8e4 823f
00000060: 22b3 7f3f 4b1c 793f d9f6 803f 35aa 6c3f
00000070: 1eb8 5b3f 59dd 873f 6380 603f 7c29 743f
00000080: 5c66 833f 3cdf 7d3f ee88 853f f7ae 803f
00000090: 1994 873f aa5b 8b3f 6a6f 853f a540 6b3f
000000a0: ce5c 6e3f 465c 803f 1e8f 833f ea6b 863f
000000b0: 84b8 833f 8895 843f efc8 843f 8709 8a3f
000000c0: b6ec 833f 7ec7 843f b244 873f 4371 853f
000000d0: 701b 833f 4361 803f ac9b 813f cb52 7d3f
000000e0: f288 733f fda1 6d3f 6733 683f 779e 7b3f
000000f0: a488 723f 7373 6b3f 1143 703f 6ee1 813f

bn3.bias f4 [64]
-0.064064994 -0.14844045 -0.1196641 -0.109562166 -0.030829458 -0.07969555 -0.079831675 -0.119636066
-0.11869895 -0.04631906 -0.049862754 -0.037914593 -0.13912287 -0.105536245 -0.06966448 -0.05144144
-0.063313246 -0.0030890564 -0.079949595 -0.076098666 -0.0050058346 -0.12271456 -0.04701183 -0.017256387
-0.10855403 -0.0958976 -0.11575836 -0.114609085 -0.119474135 -0.07721188 -0.09710036 -0.1040259
-0.02247119 -0.022740683 -0.2181946 -0.17932402 -0.010296973 -0.07661067 -0.06408037 -0.120494775
-0.07913467 -0.05516577 -0.13674161 -0.19320695 -0.14558893 -0.043968547 -0.09825932 -0.1291384
-0.13931683 -0.069986254 -0.034136627 -0.084016465 -0.0131064225 -0.055821583 -0.065979764 -0.07993238
-0.06149963 -0.13347997 -0.0952697 -0.022842802 -0.060057536 -0.05030112 -0.115219265 -0.07872537
00000000: 8234 83bd c600 18be 7412 f5bd 2162 e0bd
00000010: 0f8e fcbc 6c37 a3bd ca7e a3bd c103 f5bd
00000020: 6f18 f3bd 0eb9 3dbd e33c 4cbd 554c 1bbd
00000030: 3a76 0ebe 6323 d8bd 40ac 8ebd 42b4 52bd
00000040: 60aa 81bd c471 4abb 9dbc a3bd 9ed9 9bbd
00000050: fc07 a4bb c551 fbbd 7a8f 40bd 445d 8dbc
00000060: 9351 debd f665 c4bd b812 edbd 2bb8 eabd
00000070: dbae f4bd 4321 9ebd 8edc c6bd 880b d5bd
00000080: 8015 b8bc ab4a babc 686e 5fbe b7a0 37be
00000090: a3b4 28bc 0ee6 9cbd 923c 83bd f7c5 f6bd
000000a0: 5c11 a2bd 81f5 61bd fe05 0cbe 0bd8 45be
000000b0: 4415 15be 5d18 34bd 2f3c c9bd db3c 04be
000000c0: 12a9 0ebe f454 8fbd d9d2 0bbd d310 acbd
000000d0: 52bc 56bc 2ca5 64bd 6620 87bd 96b3 a3bd
000000e0: 09e7 7bbd f9ae 08be c31c c3bd d420 bbbc
000000f0: e4fe 75bd 8c08 4ebd 14f8 ebbd c43a a1bd

bn3.running_mean f4 [64]
-0.85112125 -0.46094963 -0.06884819 -0.45843995 0.2067481 -0.5233888 -0.25146356 0.12364992
-0.5257911 -0.07508507 -1.0253506 -0.8306576 -0.5701795 -0.7008976 -0.57082266 -1.2299771
0.396828 -0.025583247 0.36330014 0.12380249 -0.88643765 -1.039717 -0.24707302 -0.18483849
-0.9493427 -0.32575884 0.7382654 -0.24473412 -0.71869236 -0.4840854 0.08429172 0.40694064
-0.28530324 -0.5703536 -0.6027451 -0.16267116 -0.5470591 -0.35269552 -0.6901083 -0.21490408
0.60323125 -0.42261082 -0.5241962 -0.121292174 0.57696784 -0.30855358 -0.15971994 0.29021737
-0.5539573 -0.28045914 -0.40250707 -0.61771667 -0.8254192 -1.5861263 -0.29667297 -0.2921032
-0.27272668 0.23738396 -0.081185654 -0.27951333 0.052186083 -0.32798254 0.10282755 -0.8416744
00000000: 15e3 59bf 9701 ecbe 4800 8dbd a4b8 eabe
00000010: c6b5 533e cffc 05bf d5bf 80be 2b3c fd3d
00000020: 3f9a 06bf 34c6 99bd b03e 83bf faa5 54bf
00000030: 49f7 11bf 066e 33bf 6f21 12bf e46f 9dbf
00000040: 0a2d cb3e f593 d1bc 7a02 ba3e 298c fd3d
00000050: 94ed 62bf 7215 85bf b600 7dbe 4d46 3dbe
00000060: 2008 73bf ddc9 a6be f6fe 3c3f 959b 7abe
00000070: 39fc 37bf 0bda f7be 23a1 ac3d 865a d03e
00000080: 4413 92be b202 12bf 814d 1abf 4593 26be
00000090: 110c 0cbf 8294 b4be f0aa 30bf d10f 5cbe
000000a0: 5d6d 1a3f 7260 d8be b931 06bf 0868 f8bd
000000b0: 2ab4 133f bcfa 9dbe a08d 23be 5f97 943e
000000c0: 25d0 0dbf 5798 8fbe 6815 cebe ae22 1ebf
000000d0: ac4e 53bf 3006 cbbf 85e5 97be 8d8e 95be
000000e0: d5a2 8bbe c814 733e aa44 a6bd 5f1c 8fbe
000000f0: 13c1 553d 54ed a7be 4097 d23d f977 57bf

bn3.running_var f4 [64]
0.35743695 0.18097353 0.19896162 0.3973259 0.21524887 0.34280634 0.22141457 0.66083395
0.29579112 0.30019957 0.21810454 0.25517115 0.1636571 0.34843484 0.24329835 0.39335555
0.24099912 0.26945645 0.38985872 0.5239383 0.27946025 0.27535155 0.20857209 0.18965793
0.24662194 0.31341225 0.22732635 0.62667865 0.27488172 0.2877314 0.30507404 0.32298926
0.18192287 0.23718974 0.13806695 0.44413123 0.3446757 0.1791522 0.20796715 0.36093402
0.2696473 0.1673312 0.21821491 0.23378596 0.30781168 0.27619332 0.22873887 0.34837663
0.17147551 0.25032294 0.3237018 0.22846013 0.3512976 0.35549656 0.28521106 0.38830757
0.5658471 0.1566727 0.18336259 0.23327424 0.27004328 0.28533036 0.2213557 0.20312676
00000000: fa01 b73e 2051 393e 98bc 4b3e 4d6e cb3e
00000010: 336a 5c3e 5084 af3e 80ba 623e 6a2c 293f
00000020: ef71 973e c2b3 993e cc56 5f3e cba5 823e
00000030: ba95 273e 0d66 b23e 3423 793e e665 c93e
00000040: 79c8 763e 32f6 893e 909b c73e d220 063f
00000050: 6a15 8f3e e1fa 8c3e ec93 553e b035 423e
00000060: 768a 7c3e 9277 a03e 3dc8 683e 036e 203f
00000070: 4cbd 8c3e 8851 933e aa32 9c3e d95e a53e
00000080: fd49 3a3e dee1 723e 6c61 0d3e 2b65 e33e
00000090: 5579 b03e ad73 373e 57f5 543e 58cc b83e
000000a0: 360f 8a3e df58 2b3e bb73 5f3e 9665 6f3e
000000b0: 7e99 9d3e 3669 8d3e 863a 6a3e 6c5e b23e
000000c0: 4797 2f3e 542a 803e 3ebc a53e 74f1 693e
000000d0: 47dd b33e a503 b63e 2f07 923e 40d0 c63e
000000e0: 5bdb 103f cf6e 203e 67c3 3b3e 71df 6e3e
000000f0: 1d43 8a3e d216 923e 12ab 623e 7600 503e

conv4.weight f4 [64, 64, 3]
0.013891738 -0.054423608 -0.064954616 0.012405503 0.118651494 0.040083755 -0.04379021 -0.027243948
-0.0657931 -0.021378225 -0.09197653 -0.07523919 0.08348651 0.08615614 0.013818433 0.06378064
0.026386827 0.052705232 -0.046541717 -0.06406846 -0.07298057 0.0135746235 0.021785967 -0.05440189
-0.04547386 0.019030586 0.030578785 0.0007307198 0.0700236 -0.018377535 -0.045412317 -0.04547181
-0.03758608 0.037526477 0.07927069 0.049536284 0.050992325 0.033043083 0.07937949 0.052981544
0.0016451613 -0.03842804 0.08521272 0.09145829 0.010698608 -0.017629953 0.05734622 0.03738765
0.07080422 0.06948812 0.056528255 0.028118163 0.01605292 0.0150943585 -0.038673557 0.10161548
-0.00018268646 -0.017137995 -0.0039045156 -0.0014639519 0.059979122 0.022004846 0.05463567 -0.042581555
-0.08615763 0.0466516 0.03230071 -0.0143103 -0.016191954 0.004893961 -0.044217452 -0.018045284
0.010620062 0.0224188 0.026378358 0.0746698 -0.011646821 0.12916732 0.019231437 0.042216543
0.0002464143 0.04440941 -0.015085578 0.045459002 -0.014219435 0.04286712 -0.01932897 0.070623785
0.04098817 0.0352152 0.058550917 0.03668863 -0.0031101569 -0.029226279 -0.029508375 -0.0017497654
-0.020725483 0.05881095 0.071725965 0.08045432 0.08859223 0.008835535 -0.042879876 -0.09457003
-0.024644518 -0.007243327 0.04480275 -0.010413587 0.024634395 0.041671444 0.012541793 0.0060425
-0.04600313 -0.04983282 0.055771776 0.08270955 0.025238372 -0.0075472384 0.06326699 0.010484027
-0.034458335 0.017087162 -0.021803273 0.014374552 0.021801371 0.02861752 -0.033412784 -0.037081923
-0.05868604 -0.039879493 -0.06592489 -0.1333933 0.13501616 0.17135209 0.13412425 0.015942909
0.03868107 0.014285485 -0.055767335 -0.036784012 -0.014583675 0.06854806 -0.008255928 -0.05691427
0.046074126 -0.03026391 0.002016563 0.05699786 0.0022668745 0.06487851 0.019777114 -0.025509456
0.03990244 -0.061997592 -0.09489532 -0.07919436 -0.0007658441 0.10725728 0.054696783 0.0648855
0.08530953 0.047934238 0.0075696595 -0.0026791103 -0.015788555 -0.027872998 0.015396247 -0.030224582
-0.07083217 0.028107403 -0.020858876 0.07228001 -0.007638979 0.06250969 -0.057496708 0.02309953
0.02824245 -0.021139344 -0.044103894 -0.057325277 0.022131989 -0.013264961 0.037622217 0.028752828
0.07356451 -0.016660033 0.024824452 -0.12914923 -0.049487986 0.10280216 0.11330256 0.07710077
0.09767833 -0.0062281364 0.08846305 0.032860305 0.01781166 0.030263357 0.007577635 0.03330746
-0.012899432 -0.053259015 0.06338508 -0.010995717 -0.0142767215 -0.006407957 -0.0010960691 -0.086835444
0.017831683 -0.045647737 -0.026037443 -0.111685954 -0.06535434 -0.098647 -0.010912013 -0.02416255
-0.063408 -0.037197303 -0.07765757 0.008190468 -0.043365322 0.03458184 -0.017992578 0.043384787
0.0037127184 0.13649398 0.08453113 0.18012077 0.012239025 0.037221957 -0.040495384 -0.0035794813
-0.036341768 0.03373242 0.07061058 -0.006459833 0.085893124 -0.07172822 -0.030875035 0.018395474
0.01609776 0.04610542 0.036048867 -0.10952649 -0.00551846 -0.060942765 0.054866515 0.040200204
-0.015520144 -0.039300814 0.050608993 0.02788424 -0.004648169 -0.043547317 -0.030326175 0.02001273
00000000: 2c9a 633c 4aeb 5ebd ed06 85bd 7340 4b3c
00000010: 8eff f23d dd2e 243d 5d5d 33bd b32e dfbc
00000020: 88be 86bd 6321 afbc 315e bcbd 0117 9abd
00000030: fafa aa3d a172 b03d b566 623c 6d9f 823d
00000040: 3029 d83c 71e1 573d 87a2 3ebd 5336 83bd
00000050: d676 95bd 1968 5e3c 7c78 b23c 84d4 5ebd
00000060: cc42 3abd 08e6 9b3c 5c80 fa3c c78d 3f3a
00000070: 8868 8f3d 7c8c 96bc 4402 3abd a640 3abd
00000080: ddf3 19bd 5db5 193d ac58 a23d 8fe6 4a3d
00000090: 54dd 503d 2f58 073d b791 a23d 2d03 593d
000000a0: 74a2 d73a b866 1dbd 0284 ae3d 7c4e bb3d
000000b0: 3749 2f3c b16c 90bc dfe3 6a3d cb23 193d
000000c0: ce01 913d ca4f 8e3d 2c8a 673d 1058 e63c
000000d0: 6a81 833c 544e 773c 2a68 1ebd c71b d03d
000000e0: 868f 3fb9 fb64 8cbc e7e2 7fbb 13e2 bfba
000000f0: abac 753d 8243 b43c a7c9 5f3d ff69 2ebd
00000100: 6973 b0bd c015 3f3d c04d 043d c075 6abc
00000110: fda4 84bc 855d a03b 5c1d 35bd b4d3 93bc
00000120: c5ff 2d3c a2a7 b73c 6d17 d83c 7bec 983d
00000130: 4fd2 3ebc 7044 043e 3f8b 9d3c 41eb 2c3d
00000140: 2b31 8139 a4e6 353d 8029 77bc 3833 3a3d
00000150: a2f8 68bc 6f95 2f3d ca57 9ebc 34a3 903d
00000160: 36e3 273d d03d 103d 16d3 6f3d d146 163d
00000170: c6d3 4bbb f36b efbc 8cbb f1bc 6258 e5ba
00000180: 7dc8 a9bc c0e3 703d 10e5 923d 3cc5 a43d
00000190: d86f b53d ebc2 103c cfa2 2fbd efad c1bd
000001a0: 4de3 c9bc 6e59 edbb 1783 373d c09d 2abc
000001b0: 12ce c93c adaf 2a3d 187c 4d3c 2a00 c63b
000001c0: c76d 3cbd 801d 4cbd f270 643d a063 a93d
000001d0: b4c0 ce3c d34e f7bb 2092 813d 32c5 2b3c
000001e0: 2f24 0dbd 60fa 8b3c c79c b2bc 3e83 6b3c
000001f0: ca98 b23c 4a6f ea3c d8db 08bd 37e3 17bd
00000200: c660 70bd ae58 23bd a103 87bd 4198 08be
00000210: ad41 0a3e ec76 2f3e de57 093e b49a 823c
00000220: 0b70 1e3d ab0d 6a3c 4a6c 64bd d5aa 16bd
00000230: 5ef0 6ebc ed62 8c3d df43 07bc f01e 69bd
00000240: 39b8 3c3d 05ec f7bc 5028 043b 9776 693d
00000250: d88f 143b 06df 843d 9d03 a23c 35f9 d0bc
00000260: be70 233d 30f1 7dbd 7a58 c2bd a730 a2bd
00000270: edc2 48ba b4a9 db3d bc09 603d b0e2 843d
00000280: c3b6 ae3d b156 443d e80a f83b 0394 2fbb
00000290: 0057 81bc ea55 e4bc 8a40 7c3c 8b99 f7bc
000002a0: 7510 91bd 7f41 e63c 3ce0 aabc 8b07 943d
000002b0: 6650 fabb 1505 803d ab81 6bbd 3a3b bd3c
000002c0: b65c e73c 6b2c adbc 49a6 34bd e9cd 6abd
000002d0: 254e b53c 4755 59bc c119 1a3d 0d8b eb3c
000002e0: fda8 963d 9f7a 88bc a65c cb3c b23f 04be
000002f0: eab3 4abd f089 d23d 2c0b e83d 02e7 9d3d
00000300: 940b c83d 6515 ccbb 1e2c b53d 8798 063d
00000310: c2e9 913c dcea f73c cf4d f83b 676d 083d
00000320: 2458 53bc 2026 5abd 09d0 813d 6127 34bc
00000330: e9e8 69bc d7f9 d1bb faa9 8fba c8d6 b1bd
00000340: c013 923c 1ff9 3abd 7a4c d5bc 9bbb e4bd
00000350: 7fd8 85bd 7007 cabd 4dc8 32bc 8af0 c5bc
00000360: 0edc 81bd 335c 18bd ef0a 9fbd 5031 063c
00000370: d69f 31bd b0a5 0d3d 2c65 93bc 3fb4 313d
00000380: 1451 733b 14c5 0b3e a81e ad3d 9471 383e
00000390: 3186 483c 0d76 183d 7dde 25bd bb95 6abb
000003a0: 1bdb 14bd 022b 0a3d 489c 903d 02ad d3bb
000003b0: bce8 af3d 3fe6 92bd a4ed fcbc 1bb2 963c
000003c0: 73df 833c 09d9 3c3d faa7 133d 6d4f e0bd
000003d0: 33d4 b4bb 1f9f 79bd b6bb 603d f8a8 243d
000003e0: 3448 7ebc e4f9 20bd 604b 4f3d 7d6d e43c
000003f0: ab4f 98bb ac5e 32bd 996e f8bc bdf1 a33c

conv4.bias f4 [64]
-0.030218331 -0.03566902 0.06043983 0.04533052 0.032136645 0.08252182 -0.020780403 -0.03421018
-0.0049769757 -0.096712865 -0.031828016 0.070092484 0.03979598 0.010447496 0.061625745 0.04586957
0.0003996082 0.030217692 -0.05310444 -0.00032995825 0.006559265 -0.037354216 -0.023229718 0.017559266
-0.021565517 -0.008665554 0.0155570125 -0.0441939 -0.10498884 0.010289459 0.042273104 0.03607379
-0.041599445 -0.046376552 0.04265511 0.051647738 0.05740793 -0.030380888 0.015781611 0.04340908
0.03725944 0.047542285 -0.07643438 -0.018859327 -0.023260422 -0.07800071 -0.0010445367 -0.03587593
0.04719017 -0.0130666625 -0.0023402725 -0.031598166 -0.0043597105 0.09597491 0.064629555 -0.01406098
-0.028150888 -0.049887087 0.05512438 0.013697036 0.0012824376 0.015918186 0.002759788 -0.04094515
00000000: 6f8c f7bc ae19 12bd c18f 773d 7fac 393d
00000010: b7a1 033d 3301 a93d aa3b aabc f91f 0cbd
00000020: e615 a3bb 6511 c6bd 185e 02bd a68c 8f3d
00000030: 1c01 233d f92b 2b3c 476b 7c3d bbe1 3b3d
00000040: 8182 d139 188b f73c 0b84 59bd 3ffe acb9
00000050: 1aef d63b bc00 19bd 404c bebc 73d8 8f3c
00000060: 2baa b0bc f8f9 0dbc d7e2 7e3c aa04 35bd
00000070: 6404 d7bd 1e95 283c 9026 2d3d 1cc2 133d
00000080: 2e64 2abd 57f5 3dbd 20b7 2e3d 948c 533d
00000090: 9424 6b3d 57e1 f8bc 7048 813c b8cd 313d
000000a0: 5b9d 183d b3bb 423d a189 9cbd e07e 9abc
000000b0: a48c bebc d6be 9fbd d6e8 88ba a4f2 12bd
000000c0: 7b4a 413d 8e15 56bc 425f 19bb 146d 01bd
000000d0: e7db 8ebb 7e8e c43d 805c 843d 0660 66bc
000000e0: b19c e6bc 6756 4cbd 1aca 613d 8869 603c
000000f0: 7717 a83a db66 823c 8fdd 343b 1ab6 27bd

bn4.weight f4 [64]
1.1663321 1.2647692 1.2578374 1.2236456 1.1994004 1.170069 1.2819489 1.2713984
1.2037632 1.3117024 1.2367499 1.206846 1.1727558 1.2102375 1.2470893 1.1828455
1.2055132 1.2637829 1.266251 1.2462884 1.1774547 1.2981367 1.25093 1.2230417
1.2102997 1.2088794 1.2530552 1.2461119 1.2513992 1.3278246 1.2178705 1.1825955
1.2757322 1.2572966 1.2084175 1.2284187 1.1980767 1.2764274 1.2056404 1.2866445
1.3023509 1.2079813 1.2145424 1.2232573 1.244598 1.2093433 1.2299031 1.151953
1.18411 1.1835811 1.2262402 1.2601593 1.244737 1.1889155 1.2719741 1.156647
1.1806666 1.1986316 1.2597313 1.2492812 1.2507601 1.3029736 1.2362144 1.269012
00000000: 5f4a 953f f5e3 a13f d100 a13f 6ba0 9c3f
00000010: f485 993f d2c4 953f e716 a43f 2fbd a23f
00000020: ea14 9a3f dde5 a73f d24d 9e3f ee79 9a3f
00000030: dd1c 963f 10e9 9a3f 9fa0 9f3f 7b67 973f
00000040: 424e 9a3f a3c3 a13f 8314 a23f 6186 9f3f
00000050: d6b6 963f 5829 a63f 791e a03f a18c 9c3f
00000060: 1aeb 9a3f 8fbc 9a3f 1d64 a03f 9880 9f3f
00000070: d92d a03f 28f6 a93f 2ee3 9b3f 4a5f 973f
00000080: 314b a33f 18ef a03f 6dad 9a3f d33c 9d3f
00000090: 945a 993f f961 a33f 6d52 9a3f c4b0 a43f
000000a0: 6fb3 a63f 229f 9a3f 2076 9b3f b293 9c3f
000000b0: fd4e 9f3f c3cb 9a3f 776d 9d3f 3273 933f
000000c0: eb90 973f 967f 973f 70f5 9c3f e64c a13f
000000d0: 8b53 9f3f 622e 983f 0cd0 a23f 020d 943f
000000e0: 1520 973f c36c 993f e03e a13f 72e8 9f3f
000000f0: e818 a03f d7c7 a63f 463c 9e3f fc6e a23f

bn4.bias f4 [64]
0.031653963 0.14044063 0.108073704 0.07700065 0.10299241 0.10366888 0.082683355 0.13575107
0.08848748 0.10552136 0.112666905 0.099890314 0.090445556 0.057334002 0.098018266 0.1407075
0.033903394 0.075793594 0.061963473 0.14041235 0.06762942 0.18008864 0.14636189 0.15791945
0.11187774 0.056087647 0.10276559 0.05794538 0.082014956 0.19412197 0.15750146 0.08105569
0.12585795 0.10093281 0.08138656 0.08076041 0.070415266 0.10491629 0.031476356 0.16533248
0.09029119 0.06665916 0.067275696 0.06813836 0.16752757 0.073138334 0.14844589 0.09976948
0.08191313 0.05673466 0.103064366 0.10834667 0.13149801 0.109952666 0.14076908 0.0397791
0.07425857 0.07216809 0.13316013 0.09762625 0.078046285 0.17737405 0.14082372 0.09404605
00000000: 96a7 013d abcf 0f3e bf55 dd3d 84b2 9d3d
00000010: afed d23d 5a50 d43d e455 a93d 5402 0b3e
00000020: ed38 b53d 951b d83d e8bd e63d 4b93 cc3d
00000030: 853b b93d 0fd7 6a3d cdbd c83d a015 103e
00000040: 49de 0a3d ac39 9b3d 69cd 7d3d 41c8 0f3e
00000050: 4b81 8a3d 2869 383e e4df 153e a3b5 213e
00000060: 2820 e53d 29bc 653d c476 d23d 2358 6d3d
00000070: 75f7 a73d e9c7 463e 1048 213e 8700 a63d
00000080: e8e0 003e dcb5 ce3d ffad a63d b765 a53d
00000090: e135 903d 5ade d63d 5aed 003d eb4c 293e
000000a0: 96ea b83d 9984 883d d7c7 893d 208c 8b3d
000000b0: 598c 2b3e 8dc9 953d 3302 183e f153 cc3d
000000c0: 12c2 a73d 9a62 683d 6913 d33d dce4 dd3d
000000d0: 6aa7 063e dd2e e13d c525 103e 69ef 223d
000000e0: e114 983d ddcc 933d 215b 083e 45f0 c73d
000000f0: bbd6 9f3d 8ba1 353e 1834 103e 379b c03d

bn4.running_mean f4 [64]
0.9696209 0.016314834 -0.32147428 0.7697942 0.41276354 -0.91033655 0.8100565 -0.45520002
0.57672924 1.5315497 -0.19154681 0.016551461 -0.01531256 0.4913014 -0.007868905 -1.62775
1.110627 1.2012496 0.34567475 -0.36425376 0.33224398 -0.96687764 -0.9408665 -0.99354297
-0.24100174 0.6864323 -0.21667701 1.1267661 0.8731119 -1.1695733 -1.2362641 0.008035017
0.09280591 1.2995 0.023285216 0.7248148 0.4321592 0.7884338 1.3794695 -0.6260181
1.121546 0.35132676 0.55053955 0.44264057 -1.4397899 0.8667268 -0.46082237 -1.3133193
0.17947482 0.83457947 0.3654116 0.5341641 -0.52262336 -0.30632165 0.6144495 0.7504568
-0.25559643 0.4237338 0.5514202 0.42642602 1.000774 -1.2214404 -0.5780745 1.0208741
00000000: 1339 783f b0a6 853c 4798 a4be 3c11 453f
00000010: be55 d33e d10b 69bf dd5f 4f3f fa0f e9be
00000020: 87a4 133f d209 c43f d924 44be ee96 873c
00000030: 88e1 7abc db8b fb3e 94ec 00bc 1d5a d0bf
00000040: 0729 8e3f 8cc2 993f 48fc b03e 787f babe
00000050: e21b aa3e 4b85 77bf a0dc 70bf d558 7ebf
00000060: 29c9 76be 07ba 2f3f 94e0 5dbe df39 903f
00000070: 4384 5f3f 94b4 95bf e73d 9ebf 4ea5 033c
00000080: 0611 be3d 0456 a63f a3c0 be3c 768d 393f
00000090: f843 dd3e ccd6 493f 7592 b03f b942 20bf
000000a0: d28e 8f3f 1ae1 b33e 29f0 0c3f c9a1 e23e
000000b0: 094b b8bf cfe1 5d3f e9f0 ebbe d91a a8bf
000000c0: 3fc8 373e 00a7 553f 3b17 bb3e fabe 083f
000000d0: a5ca 05bf 31d6 9cbe 904c 1d3f f01d 403f
000000e0: 89dd 82be a3f3 d83e e029 0d3f 8354 da3e
000000f0: 5d19 803f 2958 9cbf b1fc 13bf 01ac 823f

bn4.running_var f4 [64]
0.22725421 0.3625491 0.19676909 0.33086532 0.31612653 0.329681 0.19167227 0.2291189
0.30891705 0.38197705 0.20914634 0.22181201 0.18093714 0.25209442 0.2311305 0.3210624
0.162987 0.32004064 0.22614275 0.23933741 0.17462243 0.27395445 0.21755879 0.31723252
0.27765924 0.2691096 0.20635034 0.28961462 0.26245695 0.32902274 0.24796402 0.23590812
0.2546846 0.2873649 0.25220785 0.23776518 0.25526142 0.32978052 0.20905764 0.22527102
0.37845325 0.22773834 0.27113524 0.3352305 0.3414126 0.26423573 0.41041127 0.21975133
0.25418678 0.25305635 0.2314429 0.16937172 0.19502734 0.21885656 0.22111979 0.2911857
0.16926701 0.2007876 0.20121509 0.2617252 0.22876829 0.28904846 0.33254987 0.28053033
00000000: 54b5 683e 09a0 b93e d67d 493e 2e67 a93e
00000010: 56db a13e f3cb a83e bc45 443e 259e 6a3e
00000020: 602a 9e3e 7f92 c33e 752a 563e b022 633e
00000030: 9647 393e 8512 813e 79ad 6c3e 4a62 a43e
00000040: 10e6 263e 5edc a33e f791 673e de14 753e
00000050: 39d0 323e c243 8c3e bbc7 5e3e 4d6c a23e
00000060: 5a29 8e3e bcc8 893e 814d 533e 5e48 943e
00000070: c260 863e ab75 a83e 48ea 7d3e e691 713e
00000080: 0566 823e 7e21 933e 6321 813e b778 733e
00000090: a0b1 823e fed8 a83e 3513 563e 72ad 663e
000000a0: a0c4 c13e 3d34 693e 3dd2 8a3e 55a3 ab3e
000000b0: a2cd ae3e e849 873e 6d21 d23e 7e06 613e
000000c0: c524 823e 9a90 813e 5eff 6c3e c86f 2d3e
000000d0: 3fb5 473e ef1b 603e 3a6d 623e 4b16 953e
000000e0: 5554 2d3e 449b 4d3e 540b 4e3e d800 863e
000000f0: 3c42 6a3e 29fe 933e fa43 aa3e aca1 8f3e
