trys/extra_chico_clasi.ckpt (torch, 112528 bytes, 26 tensors)

conv1.weight f4 [32, 1, 80]
00000000: 46f2 8fbd 1d43 053d 9edd e43b edc8 853d
00000010: 4e2d ca3d 0965 353c 23d6 cd3d 0e20 53bd
00000020: 8729 783d 6381 acbd 4b7e d3bd 37df 353d
00000030: a5c9 903d 6c27 51bd 8c61 173d 900d 0bbd
00000040: 3b40 0cbd 2218 8cbc b5af 963d d461 20bd
00000050: bc49 28bd 7d04 c8bc 8b63 813c db65 f5bd
00000060: e3f8 36bd b7c3 96bd 063b bf3c 3cbc 433d
00000070: 2167 523d 6b80 9abd 79d5 e9bd a4ab 01bd
00000080: d2fa 723d 3a0b f03c 81e6 11bd c9eb d43c
00000090: b8c3 7fbd 1008 303a 0f53 bb3c 3867 32bb
000000a0: 090f f73c c6a2 3dbd a8c4 023d 1a51 a5bd
000000b0: cc51 873c f47d 35bd ac02 0b3d ae97 e8bd
000000c0: 1d3f 563d 66cf 8dbc 217d 313d ac01 2f3d
000000d0: 4823 8cbd df31 9a3d 9f0c a93b b2fd db3d
000000e0: f608 1a3c 0034 973d ede1 5f3d 70c0 62bc
000000f0: 06bd 1a3d 9ac2 b1bd 8974 993d 30e7 b8bc
00000100: 3b51 a6bd 189b d2ba 5fae 9e3c 15ad a73c
00000110: 1589 d2bd 5cec 393e 28dd 69bc 8fdf da3c
00000120: 5f0a 01bc 4541 b0bd 1256 dc3d ee80 423d
00000130: 6aa2 423e 4327 723d 9de5 81bd 8f0c 19bd
00000140: 00c2 ee3c 82d1 bcbc 4eac 7e3d 6378 87bd
00000150: c401 fcbd 10ba db3c 329f a3bc eb20 00be
00000160: 9584 063e f1d4 3cbe 7554 c73d e722 80bd
00000170: d864 b23d b77c c2bd 8a28 8dbb 8632 af3d
00000180: 5a36 0fbd 9047 93bd 0e6a 1e3e f79c 273b
00000190: 545f 593c fb49 c8bc c1be 073c 7bf1 3abd
000001a0: 3a19 d73c 5287 beba c52d 723d 4deb c2bc
000001b0: e742 febb 5c3d 4dbd d9b2 97bb 904e 44bd
000001c0: c6cf af3d 291a d1bd f2af b43d 0a56 0dbe
000001d0: 5fac 043e 894e 1abd 95eb 093d e23f c33c
000001e0: 7f7a ee3b 646c a43c ede8 e2bd d31e 1d3e
000001f0: dc2d bfbd f9ed 563d 5fd3 413d 4ea8 c3bc
00000200: 10d9 69bd 2c2b af3d 492b 253d a347 8abd
00000210: 631f 4a3d 3ef5 d1bc c66d 5bbd 44d3 8dbd
00000220: c4e3 103d e949 2dbc 1927 aebd 3285 c4bd
00000230: c7b1 20bd dccd 23bd 9b55 323d 3a92 afbd
00000240: 2d1c 8e3b 1d47 d93c dc9c 2dbc 6ec9 513d
00000250: 1cd8 a43d c774 6a3d 3c4f 8abd 3a6a 053e
00000260: c962 593c 00ab 413d 3a60 013e c449 d5bd
00000270: 08ef 9b3d 7a4f 613d 481a 23bd 365b 2c3d
00000280: ebfe 1ebd 55be dabd e09a 9d3c a764 a53b
00000290: b4f4 f2bd 17d4 81bd 31c6 c7bd eafe 9cbd
000002a0: cd2d 9a3b 3929 1dbd 3ac9 edbd d2b6 15bd
000002b0: 53fe bd3b 0db2 fbbc ad21 bbbc a6fd c6bc
000002c0: 0aa8 c2bd 050b 59bc f6eb fe3d 7b40 823d
000002d0: ef0c 9fbb 30e5 05bd 6f35 49bd 3fae 0fba
000002e0: 9562 153d a542 003d 9ba8 003e e3e1 d23d
000002f0: 7b04 6bbd d9a8 cd3d 5483 e73d be03 ca3c
00000300: ab50 9aba 334e 8ebd d0c3 bd3c 1ad4 2e3e
00000310: 514e f83c 2c5a eabd 832c 2b3e 1d1f fa3d
00000320: ba5e 51bd d958 a6bd 87ed 2bbd 3616 5abb
00000330: e2b4 dcbc b44a b23d 1a61 ae3d e850 5ebc
00000340: 2c99 b83d 88d6 c43d 8085 5f3d eed8 edbd
00000350: 6e2e 77bd f59e 0dbd ff0c ab3d 9dd6 123d
00000360: 84db 803c 17b3 973d 8c09 5f3d e0a2 3bbd
00000370: 78e6 9abd 07e4 c1bb 37e9 59ba 7dbe 07bd
00000380: 3e8d 65bd 23b6 843d cf42 a4bc 4cab 4a3d
00000390: 54eb a3bd 080f a4bd 4404 db3c 2cc5 e13c
000003a0: 4a17 99bd 91d7 33bd 57c0 01bd c206 ecbb
000003b0: 210d ce3d e2b2 873d f6b0 d8bd cefb 87bd
000003c0: aa63 78bd 4989 7b3d 1618 6b3c c908 263d
000003d0: 36f3 073d 67e2 9ebd 1990 7abd ae06 dfbd
000003e0: aff1 e6bc a3d3 0a3d 7c87 b5bc 02d8 3b3c
000003f0: 0f0d b0bd 64ff 6abc 9464 57bd f434 03bd
-0.07028632 0.032534707 0.0069844266 0.06532464 0.098719224 0.011071452 0.10050609 -0.05154424
0.06058648 -0.08423116 -0.10326823 0.044402327 0.07069711 -0.051062986 0.036958262 -0.03394848
-0.034240942 -0.017101351 0.07357732 -0.039155796 -0.041085944 -0.024416203 0.015794536 -0.11982318
-0.04467095 -0.073615484 0.023343574 0.047786936 0.051367883 -0.07544025 -0.1141767 -0.03165783
0.059321232 0.029302228 -0.035620216 0.025991337 -0.06244251 0.00067150686 0.022866754 -0.0027222168
0.030158537 -0.04629781 0.031925827 -0.080721095 0.016518496 -0.04430957 0.033938095 -0.113570556
0.052306283 -0.01731081 0.043332223 0.042726204 -0.06842667 0.075290434 0.0051589753 0.10741748
0.0094015505 0.07382965 0.05465882 -0.013839826 0.037777923 -0.086796954 0.074929304 -0.022571176
-0.08120962 -0.001606795 0.019370256 0.020468274 -0.102800526 0.1815657 -0.014273919 0.02671793
-0.007876008 -0.08606199 0.10758604 0.04748624 0.19007269 0.059119474 -0.063426234 -0.037365492
0.02914524 -0.02304912 0.06217604 -0.06614759 -0.12305024 0.02682212 -0.019973371 -0.12512557
0.13136514 -0.18440606 0.09732906 -0.06256657 0.08710641 -0.09496444 -0.004307811 0.085545585
-0.034963943 -0.07191384 0.15470144 0.0025575736 0.013267357 -0.02444934 0.008285225 -0.04564045
0.026257146 -0.0014536178 0.05912568 -0.02379384 -0.00775944 -0.050107345 -0.0046294746 -0.047926486
0.085845515 -0.10210068 0.088226214 -0.13802353 0.1295638 -0.037672553 0.033671934 0.023834173
0.0072777863 0.020071216 -0.11079583 0.1534379 -0.09334919 0.052473042 0.04732072 -0.023883965
-0.057091773 0.08553156 0.040324483 -0.06751945 0.04934634 -0.025629636 -0.053571485 -0.06925061
0.035373464 -0.010576704 -0.08503551 -0.095957175 -0.03923204 -0.039991245 0.04353867 -0.085728124
0.004336855 0.026523167 -0.01059648 0.05121749 0.08049032 0.057240274 -0.06753394 0.13028803
0.013268181 0.04728222 0.12634364 -0.1041446 0.07613951 0.055007435 -0.039819986 0.042079173
-0.038817327 -0.10680834 0.01923889 0.005047399 -0.1186308 -0.06339281 -0.09754599 -0.076658085
0.004705167 -0.03836939 -0.116106465 -0.036551304 0.00579814 -0.03072455 -0.022843206 -0.02429087
-0.09504707 -0.013247256 0.1244735 0.06359955 -0.0048538367 -0.032689273 -0.049123224 -0.0005480982
0.03647097 0.031313557 0.12564318 0.10296991 -0.05737732 0.10041971 0.11304346 0.024659988
-0.0011773309 -0.06948509 0.02316466 0.17073098 0.030310782 -0.1144298 0.16716199 0.12212966
-0.05111573 -0.08122415 -0.04197457 -0.00332774 -0.02694172 0.08705655 0.085146144 -0.013569094
0.0901359 0.09611231 0.054570675 -0.11613642 -0.060347013 -0.03457542 0.08352088 0.035849202
0.015729673 0.074072056 0.054452464 -0.045809627 -0.0756349 -0.0059170756 -0.0008312645 -0.03314065
-0.056042902 0.06480052 -0.020051388 0.049479768 -0.0800387 -0.080106795 0.026735432 0.02755984
-0.07475145 -0.043906752 -0.03167757 -0.007202954 0.10061098 0.06625916 -0.105806276 -0.06639825
-0.060641922 0.061410222 0.014349004 0.040535722 0.03319093 -0.077580266 -0.06117258 -0.10889946
-0.028191416 0.03389324 -0.02215933 0.0114650745 -0.08596241 -0.014343116 -0.052586153 -0.032032922

conv1.bias f4 [32]
00000000: 1d9d 4ebd 9823 31be b8d2 08be 3690 043c
00000010: 95eb 543d 9421 df3d d1d0 103e 36cd 94bd
00000020: 612a de3d b097 da3c 3bdb 0b3d 6496 f3bc
00000030: 7ae4 3abc d4e2 483c 7482 a5bd 45f4 c1bd
00000040: 6e34 06bc 94e4 aa3d 0874 acbc 292b 49bd
00000050: 020d af3d 3f1d 8c3c c7a5 2d3d 77f7 59bd
00000060: 77bd 3d3d e3ec 9cbd 0f83 d03d cd95 76bd
00000070: 9449 b63c ce55 00bd 1d10 d3bd 9ddd ac3d
-0.050442804 -0.17298734 -0.13361633 0.008091023 0.05198248 0.108950764 0.14142157 -0.072657034
0.10847927 0.026683658 0.03414462 -0.029734798 -0.011407012 0.012261111 -0.080815226 -0.09470419
-0.008191211 0.08344379 -0.021051422 -0.049113426 0.08547403 0.01710379 0.042394426 -0.053214516
0.046323266 -0.0766237 0.101812474 -0.060201455 0.022251882 -0.03133183 -0.10305808 0.08440707

bn1.weight f4 [32]
00000000: 77cc 7a3f 6720 823f 1b04 813f 84fd 8a3f
00000010: 1557 753f a9d7 773f 50aa 823f f76d 863f
00000020: 02c2 7c3f 85e9 833f 23b1 793f c39b 853f
00000030: d938 7e3f d10e 773f f80d 813f 24cd 7e3f
00000040: e79f 813f d65c 823f 36c4 7f3f 7417 883f
00000050: d649 803f 365f 823f fed0 7b3f ebf7 843f
00000060: 4e15 7d3f 1832 7b3f d717 813f 7bfb 803f
00000070: 7a24 793f 3222 7b3f b4e2 753f 4762 813f
0.9796824 1.0166138 1.0079378 1.0858617 0.95836 0.96813446 1.0208225 1.0502309
0.9873353 1.030564 0.97535914 1.043816 0.9930549 0.96506983 1.0082388 0.9953177
1.0126923 1.0184581 0.9990877 1.0632157 1.0022533 1.0185306 0.9836577 1.0388159
0.98860633 0.9812331 1.00854 1.0076746 0.97321284 0.9809905 0.96049047 1.0108117

bn1.bias f4 [32]
00000000: efe8 66bd a68f 0bbd 9803 e4bc 0931 d0bc
00000010: d793 213d 8bd9 a0bc a446 47bd 3aa5 293c
00000020: 1d0a 3bbc c37c 90bd 5388 2abc a9b7 cabc
00000030: bb4c 6f3a 7d34 6f3c a5f6 0dbd 76ac 99bd
00000040: 3530 9cbc cd39 41bc 03bc 89bd 3b09 30bc
00000050: e1f8 5c3d fbcb 903c 624e d5ba 82a5 893c
00000060: 663d e9bd c2e5 9c3c bcff 373c 0eb7 553c
00000070: 9595 9bbd a279 53bd 20b5 743d 1901 49bd
-0.056374487 -0.03407254 -0.027833745 -0.025414007 0.03944763 -0.019634983 -0.048651353 0.0103543345
-0.011415985 -0.070550464 -0.010408479 -0.02474578 0.000912856 0.0145999165 -0.034659047 -0.075035974
-0.019065956 -0.011793566 -0.067253135 -0.010744388 0.053948287 0.01767539 -0.001627397 0.016802553
-0.11388664 0.019152526 0.011230405 0.013044132 -0.0759689 -0.05162967 0.059743047 -0.049073312

bn1.running_mean f4 [32]
00000000: ca52 36bd 2cfe 30be e3c0 0abe 7bfe 0f3c
00000010: 32f6 633d 3cdd e53d 8359 053e 7ba5 8ebd
00000020: 724d ce3d 6aea d73c bffb e23c f65b dfbc
00000030: eb3c 11bc 1d31 fe3b 9890 c3bd fa89 d3bd
00000040: 4703 32bc 48a8 a03d edb4 b1bc eee0 3bbd
00000050: ef2e c73d de4f 153b 9db2 153d 62fd 48bd
00000060: 0001 4d3d a003 b0bd f820 db3d 459e 81bd
00000070: 6835 9c3c 93a6 8abc 35a9 cdbd 45b4 b03d
-0.044512548 -0.17284459 -0.13550143 0.0087887 0.055654712 0.11223838 0.13022427 -0.06965157
0.10073365 0.026356895 0.027707933 -0.02726553 -0.008864622 0.0077573196 -0.095490634 -0.10329051
-0.010865039 0.07844597 -0.021692717 -0.045868807 0.09725749 0.00227832 0.036547292 -0.04906977
0.05004978 -0.085944414 0.10699648 -0.06329016 0.019068435 -0.016925132 -0.10042039 0.08628134

bn1.running_var f4 [32]
00000000: 3b6a b538 4328 e938 8b5e d538 5a4d f838
00000010: d0a2 a938 7995 de38 1266 dd38 2c63 da38
00000020: 34b1 e238 fd94 d338 74d7 ba38 f24f 0239
00000030: 329d bb38 f205 b438 8b07 0739 6b03 a238
00000040: 0b23 d738 0593 bf38 2d9e d738 cab5 c338
00000050: 9939 e338 2582 ce38 36a1 0439 dc67 f238
00000060: e32a fa38 821c c938 995e f138 2d8f d838
00000070: c048 f838 0555 fc38 293e e538 4449 e238
8.6505395e-05 0.00011117805 0.000101742415 0.000118399694 8.088874e-05 0.000106136264 0.00010557113 0.00010413522
0.000108095264 0.00010089015 8.9093024e-05 0.00012427548 8.946135e-05 8.584176e-05 0.00012877413 7.7253986e-05
0.00010258526 9.134974e-05 0.000102814614 9.3321854e-05 0.00010834932 9.847087e-05 0.00012648557 0.000115588045
0.00011928917 9.589737e-05 0.00011509396 0.00010326351 0.00011839112 0.000120321325 0.00010931149 0.000107901666

conv2.weight f4 [32, 32, 3]
00000000: db89 323d fc73 81bd e02a 8cbd c05e 29bc
00000010: a98f 8a3d 6beb c4bd 3dc7 af3d 79a4 2e3d
00000020: d8b7 933c ebc4 e0bd dfe3 4bbd cdc8 29bc
00000030: db6c c3bd 563b 9bbd 63d2 ff3c 3769 01bb
00000040: 4dc9 6ebd 7058 57bc df2b cdbd 2548 7dbd
00000050: cf64 d3bd f311 f13d 7382 12bd 0261 babd
00000060: 9d63 9b3c 4857 68bd 7f2d c53c e785 88bd
00000070: 403f a6bc 9404 093d 8a56 00be 6d0c 26bc
00000080: 641f f23a b723 9b3d a85d 00bd 2aec c23c
00000090: bd95 88bc ab78 24bd 60a6 9cbd d24d 3fbd
000000a0: c337 853d 0d53 5fbd 532f 893d e5a5 d7bb
000000b0: 3f0a 3fbd 6e35 523d 1a67 863d 8ed8 80bd
000000c0: 9823 a9bd f263 79bd c1e9 97bd 6f12 92bd
000000d0: a90f 573d a805 583d 4fb2 523d 1d5c 02bc
000000e0: 1289 8abc 3307 d33d 91cc 153d c8df 2dbe
000000f0: 49b7 a9bd b512 d23c 1080 50bd 7622 97bc
00000100: 970c 563c 5670 483d ef52 8dbd 2b4e 76bc
00000110: 4612 c53c 17c7 93bd 4c3e 1e3d d582 883b
00000120: 1a77 90bb fe71 f63d f2da bebc 8adf 8cbd
00000130: 0423 07bd 87f5 8dbc 3c9b df3b 9f6f 003d
00000140: 0051 eabc c918 c1bd b7dc b0bd 4c43 a13d
00000150: 66c0 3a3d 6127 3a3d 077b 843a f618 2dbe
00000160: 45a9 47bd d8ed 91bc 45ac 6c3d 7c2a e23c
00000170: 4c56 19be 2b3b 04bd 8f26 e03d 02c6 87bc
00000180: edff 1c3c 9101 c5bd 7417 d4bd 64d0 203d
00000190: 9670 81bd 8e0d ddbd 20ec 2ebd c9f4 2cbd
000001a0: 286f d53c fa97 b0bd e800 3a3d f218 1dbb
000001b0: 65bb a5bc ed26 6fbd c220 d53d eff2 3cbd
000001c0: d891 583d 704a 06bd e53b b53d df7e 343d
000001d0: 1052 553d 29f9 27bb 1c57 033c 5c8c 57bd
000001e0: f007 eebb 937b 9c3a b5d7 c63d 5931 5e3d
000001f0: 7d85 a5bd 1e03 c73d cf2c 50bc b6af 2ebd
00000200: e747 edbd 9cb9 53bb 439a 96bd 6277 02bd
00000210: 55eb 213d 7fff 903d ea44 e7bd 4332 c83d
00000220: 3b48 053e e955 7b3d eb39 81bd 0794 6fbd
00000230: 9ba7 003c 00bc e73d 5784 2b3d b199 f13d
00000240: 27a7 003d b298 8d3d 13da 683d fa56 943d
00000250: 2f18 643d 183e cd3d 2301 553d 233a 4dbd
00000260: 57da 623c 497b 2b3d 069b 0b3e 2f35 b2bd
00000270: 36a5 b03c ca17 9bbd 3a1c bcbd 3ebd 39bd
00000280: c990 29bc 83ef c83c b435 e43d 3706 a03d
00000290: 7ad4 fb3c 359e b43c 9fc9 89bd fed6 7f3d
000002a0: b847 753d bbf5 1c3d 09c4 a4bd 709a d3bc
000002b0: 865f a93d 8f8d e63c 08da 95bc d861 f3bd
000002c0: f52d b4bc 56b3 b63c 563f c4bd feb9 4fbd
000002d0: abad 8c3d a0bc d7bc cc87 3dbc caec 9bbc
000002e0: d837 a73d 0d56 c6bc 79d0 973d 4651 e9bc
000002f0: f56c 313d a0b1 17bd 307c d53d a27f ffbc
00000300: 2ad1 353d e095 0a3d 4e32 0abe 33a1 8fbd
00000310: 01fc 33bd 1856 5dbd 7579 69bd c865 f83c
00000320: ae1e f5bd 575c e7bd 9650 4bbd 5f5b acbd
00000330: 5866 9dbd 7d6f 303d 18d4 0fbd 09e2 9f3d
00000340: ed48 10be 623c f13b 34cb 3bbc b354 533c
00000350: 3bda 49bc f06f 393c 55f6 4f3d 7d8b eabd
00000360: 278d ed3b 9e98 a03c 3daf 9f3d 78cc a83d
00000370: f1f7 7fbc fc81 5cbd 5c5f bbbb 04ed 9dbd
00000380: bd3f 723d a85b a43d 15d5 9e3d 2afa 8bbd
00000390: fca3 1cbc ee11 803d d40f 86bd c833 7ebd
000003a0: 790e 1cbd 41dc 4ebb 595f 703d 3b66 0abd
000003b0: 3fa8 513c 4214 a53d f6e8 433c 115f 0a3d
000003c0: f326 363d df5c a6bc a5df edba 3c3a 58bc
000003d0: 1e8d e3bc 929f 22be c36b 503c 23a7 e13d
000003e0: 7c12 213d 983a 8b3d 5ebc fb3b 6d79 c53d
000003f0: f650 d3bd e493 4a3a ea2b 7abd ed22 e33d
0.0435885 -0.063209504 -0.06844115 -0.010337532 0.06765682 -0.09615215 0.085829236 0.042637322
0.018032 -0.10975059 -0.04977786 -0.010362816 -0.09542247 -0.07579677 0.03122825 -0.001974655
-0.058297444 -0.013143644 -0.10018133 -0.06183638 -0.10321962 0.11771002 -0.035768937 -0.09100534
0.018968398 -0.056723863 0.024069546 -0.06666165 -0.020293832 0.03345163 -0.12533012 -0.0101347985
0.001847249 0.075751714 -0.031339318 0.023794252 -0.016672963 -0.04015414 -0.07648921 -0.046705075
0.06504776 -0.054522563 0.066984795 -0.0065810555 -0.04664063 0.051320486 0.06562634 -0.062913045
-0.08258742 -0.06088633 -0.07417632 -0.07132422 0.05250517 0.05273977 0.05143958 -0.007956532
-0.016911063 0.103041075 0.036572043 -0.16979897 -0.08286912 0.025643686 -0.05090338 -0.01844905
0.013064525 0.048935257 -0.06900584 -0.015033285 0.024056565 -0.07215708 0.03863363 0.004165987
-0.0044087293 0.12033461 -0.02329776 -0.06878574 -0.032992378 -0.01732899 0.0068239253 0.03135645
-0.028603077 -0.094285555 -0.08635848 0.07874164 0.04559364 0.04544771 0.0010107466 -0.16904053
-0.048745412 -0.017813608 0.057781477 0.027608149 -0.14974326 -0.03228299 0.109448545 -0.01657391
0.009582502 -0.096194394 -0.10356036 0.039261237 -0.06320302 -0.10793601 -0.042705655 -0.042225633
0.02605398 -0.08622737 0.04541102 -0.0023971167 -0.020230958 -0.058386732 0.10406639 -0.046130117
0.052873462 -0.032785833 0.088493146 0.044066306 0.052080214 -0.0025630689 0.008016374 -0.05262409
-0.00726413 0.0011938683 0.097091116 0.05424628 -0.080821015 0.097173914 -0.012705996 -0.04264804
-0.1158598 -0.0032306677 -0.07353642 -0.031852134 0.03953107 0.07079982 -0.11292441 0.09775212
0.13015835 0.061361227 -0.06309875 -0.05849078 0.00785246 0.11315155 0.041874256 0.117968924
0.03140941 0.0691389 0.056848597 0.07243152 0.055687126 0.10021609 0.052003037 -0.05010427
0.013846002 0.04186562 0.13633355 -0.0870155 0.021563154 -0.07572897 -0.09185071 -0.04534649
-0.010349461 0.02452827 0.111430556 0.078136854 0.030740965 0.022048095 -0.06727909 0.062460892
0.05988285 0.038320284 -0.08045203 -0.025830477 0.08270173 0.028143672 -0.018292442 -0.118838966
-0.02199457 0.02230231 -0.09582393 -0.050714485 0.06869062 -0.02633506 -0.011568021 -0.019033808
0.08164948 -0.024210954 0.0741281 -0.028481137 0.0433168 -0.03703463 0.104240775 -0.03118879
0.044388928 0.03383434 -0.13495752 -0.07013168 -0.0439415 -0.054037184 -0.057000596 0.03032197
-0.11968742 -0.11296909 -0.0496374 -0.08415865 -0.07685536 0.043075074 -0.035114378 0.07806785
-0.14090319 0.0073619345 -0.011462022 0.012898612 -0.012320097 0.011318192 0.05077203 -0.114523865
0.0072494927 0.019604024 0.07797096 0.08242124 -0.015623079 -0.0538349 -0.005718155 -0.07711223
0.059142817 0.080252945 0.07755486 -0.068348244 -0.009560581 0.0625342 -0.06545988 -0.0620611
-0.03809974 -0.0031564387 0.05868468 -0.0337889 0.012796461 0.080605045 0.011957398 0.03378207
0.04447074 -0.020307956 -0.0018148316 -0.013197478 -0.02777725 -0.15881184 0.012721005 0.11018207
0.03932427 0.06798285 0.007682367 0.09642301 -0.103181764 0.0007727726 -0.061077036 0.11090646

conv2.bias f4 [32]
00000000: 1f85 f5bc d733 2d3d 6bcc 143d e3fd 053d
00000010: cc49 853d 61d5 19bd 95ba 333d b538 b43c
00000020: 8b34 c33d 7d51 693d 1893 803d 7022 d23c
00000030: 4fb9 b4bd 57a2 73bc 70cd b13d 5c0f d33b
00000040: eb8f adbc 7c76 95bd 8fba ff3d 1324 883d
00000050: 9fc9 ae3d 4906 c13d 942f cd3c ecc3 1f3d
00000060: 4901 45bd 5d25 243c 2e31 5a3d fb1f 3abd
00000070: 4838 be3d b8cd abbc 64ac 6a3d 3604 953d
-0.029970704 0.042285766 0.03632776 0.03271283 0.06508216 -0.03755701 0.04387911 0.021999696
0.09531506 0.05696248 0.06278056 0.025651187 -0.08824407 -0.014870248 0.08681762 0.00644104
-0.02118679 -0.0729799 0.12486755 0.066475056 0.0853455 0.09425027 0.025047101 0.039005205
-0.04809693 0.010018674 0.053269558 -0.045440655 0.092880785 -0.020972118 0.05729331 0.07276194

bn2.weight f4 [32]
00000000: 19a7 843f e76e 6f3f b8d8 833f da9b 8c3f
00000010: e7f3 8a3f f1b8 813f 7390 853f 0228 783f
00000020: b1c0 7f3f 992e 7b3f 03bd 873f beb2 703f
00000030: bc8c 823f 8c27 853f da62 863f d971 833f
00000040: e63e 823f 681c 813f 0c09 7a3f 0caa 763f
00000050: 781f 813f 81a0 833f 11f4 7e3f 9925 813f
00000060: e377 723f 6c1e 803f ae9c 7e3f 0125 783f
00000070: adb5 7e3f ea14 873f e34c 873f cfef 813f
1.0363494 0.935286 1.0300512 1.0985062 1.0855683 1.0134565 1.0434707 0.9693605
0.999034 0.9811798 1.0604557 0.9402274 1.0199199 1.0402694 1.0498917 1.0269119
1.0175445 1.0086794 0.97670054 0.9635322 1.0087729 1.0283357 0.99591166 1.0089599
0.9471418 1.0009284 0.99457824 0.96931463 0.99495965 1.0553257 1.0570339 1.0151309

bn2.bias f4 [32]
00000000: f0a6 46bd 8634 8cbd 1596 e5bc 2e85 843c
00000010: 52cc e73b 8697 fbbc d614 063d 3183 86bc
00000020: eb7b 41bd 318b aabd 43c7 d43b 11cf 8bbd
00000030: e46e 6d3c 5b8e a23d e46c bdbc 60ba 03bd
00000040: c870 01bd 9da1 80bd 7a90 843d 7fb1 86bd
00000050: b675 aebd 1b7a e0bc cf01 2ebd 6230 2dbc
00000060: f308 b3bd ebb4 303d 7444 0cbd 1adb d0bd
00000070: ee03 4abd 6795 ac3b 7d2a db3d e808 09bc
-0.048499048 -0.068459556 -0.028025666 0.016176786 0.0070739174 -0.0307119 0.032734714 -0.016419979
-0.047237318 -0.0832733 0.0064934804 -0.06826604 0.01449177 0.079373084 -0.023123212 -0.032160163
-0.031601697 -0.06280825 0.06472869 -0.065768234 -0.08518545 -0.027401974 -0.042482194 -0.010570617
-0.08741941 0.043141287 -0.03424497 -0.1019804 -0.049320154 0.0052668336 0.10701463 -0.00836394

bn2.running_mean f4 [32]
00000000: 0933 63bf 233e ca3e e235 9abe e654 93be
00000010: e62a d3be 5b04 9cbe 5891 e8be f81d b5be
00000020: d8a3 d2bd 91fe 10bf 8851 15bf 8ed0 3c3e
00000030: 2d6a c4be 56ee 85be 4e60 0eb9 bea7 dbbe
00000040: 02a7 89be 4093 28bf 89f1 ccbc c89c 3fbd
00000050: eafc ab3f ce15 aebd 62df a4be d259 4d3e
00000060: 946f 483f 9ec4 2abe bd84 e43e fc3b 21bf
00000070: fa03 21be 52a9 64bd 4205 8c3e dd24 e23e
-0.8874975 0.39500532 -0.30119234 -0.2877571 -0.41243666 -0.30472073 -0.45423388 -0.35374427
-0.10285157 -0.5663844 -0.5832753 0.18438932 -0.38362256 -0.26158398 -0.00013578052 -0.42901415
-0.2688523 -0.65849686 -0.025017517 -0.046780378 1.3436558 -0.08500253 -0.32201678 0.20053795
0.78295255 -0.16676566 0.4463252 -0.62982154 -0.15724173 -0.05582554 0.2734776 0.4416875

bn2.running_var f4 [32]
00000000: b925 a03e 3f6b 543e 55fe 543e 527e 803e
00000010: 1093 563e 07c6 403e 2194 883e 02ab 7f3e
00000020: 6717 663e 3a8d 9e3e 66d7 963e 4ea4 533e
00000030: dfd3 703e 6976 353e 1f55 0b3e 996f 773e
00000040: 9d80 613e dda3 833e 3400 213e e6e7 473e
00000050: 6086 1c3f 8a92 2d3e a1b0 a83e c989 803e
00000060: 988f b23e d9c4 363e cb76 9d3e feae 8d3e
00000070: 0fb8 493e 2e7e 5a3e 95c0 323e 5030 323e
0.3127878 0.20744036 0.20800145 0.25096375 0.20954537 0.18825541 0.26675513 0.24967578
0.22469865 0.30967122 0.2946121 0.20668146 0.23518322 0.17720951 0.1360669 0.24163665
0.22021718 0.25710955 0.15722734 0.19522056 0.6114254 0.16950431 0.32947257 0.25105122
0.34875178 0.17848529 0.30754694 0.2767257 0.19699119 0.21337196 0.17456277 0.17401242

conv3.weight f4 [64, 32, 3]
00000000: 3376 c4bd de00 a7bd 95f8 c43b 25a9 923d
00000010: 2df0 a4bd f131 98bc 84b6 a0bd 8ac0 3ebd
00000020: 3eee a33c a4ae b53c 535f 223d 44bd b1bb
00000030: 72b9 e0bd 962c 12be 9957 34be 12b8 073e
00000040: c802 81bc a4f6 e83d 20dc 46be 9a99 b6bd
00000050: aa92 8b3d d4f8 b9bd cb4a d5bd 4035 8f3d
00000060: 9f11 383d d178 02be d9c7 f23d 0e53 213d
00000070: 626f febd d033 f63c d042 01bc 048f 91bd
00000080: 952e 883d 59c5 053e 4c79 c13c b6f7 b43d
00000090: 7b29 c5bc d198 d2bd f28e b03d 4483 8bbd
000000a0: d507 ad3c 2f04 c6bd f071 743d 3b55 aeba
000000b0: 6433 163e 3a7a 13bd 44a0 52bd 6bc1 24bd
000000c0: 97ab ce3c d818 913d 5161 5ebd 1bb6 db3d
000000d0: 352b dbbb 7fc7 8cbd 6dad 4c3d 2c48 cabd
000000e0: 6542 50bd cedd 90ba 1a9b f0bd 2b3e 10bc
000000f0: a58b 44bd 7dcc 093d 57e1 13be 7d2f 8dbd
00000100: e0bd 343d 1ddd ecbc 47e9 07bd 838b 68bd
00000110: ae66 ee3d 3ad7 fe3d b7f1 823c 4111 ec3d
00000120: bafd 473d d05c 853d 144a 5b3d 9009 c3bc
00000130: 901f 48bd c834 643b 5372 00bd 19ee 7abd
00000140: bcac 043d ce6a 83bd e319 f5ba d767 15bc
00000150: 2370 03bd a9e8 3bbd 02f9 86bd cfb4 7f3d
00000160: 9192 1e3d 1159 8c3d 7a6c cc3c 561a 63bd
00000170: ce38 abbc 1b60 f43c 83d4 59bd 2c5c 5fbd
00000180: 3dc7 fbbc d005 663d 194c 253d 1216 c13c
00000190: b2ab a7bd 6ae8 1cba cb95 223d 9478 0fbe
000001a0: ca5c 083d 88f2 f0bd deea e93c 0409 44be
000001b0: 352d acbd 72e0 04be f205 a7bd 5489 a43d
000001c0: d8bb 463d e802 a23d d0c9 cabd ec30 00be
000001d0: e973 233d e70a 28bd 1f5c 913d b67a 2ebd
000001e0: 991d f33c 3943 073d a70a 4f3d 7495 063e
000001f0: b61a 913c 5732 e63c 2535 32bc f5ca a1b9
00000200: 472f 29bd 5f2e 17bd 68bf 0ebd 2047 4abd
00000210: 01d3 e33c 795a 46bd b68a eabd 25d2 71bc
00000220: 71f4 08bb ac21 003d 36f3 ed3c 4b82 043d
00000230: 8bbf 46bd ace5 893d a918 223c a54f 5a3c
00000240: 8450 8f3d 4b50 373c f689 793d 43e5 e1bc
00000250: 9c77 21be 9b2c b3bd c92c db3d 90c6 07bd
00000260: 63a8 da3c df17 283d 3e34 753d f63d e9bd
00000270: 84e1 bfbd e777 9dbd 192c bebd e364 acbd
00000280: a064 3ebd a898 dbbb 53e6 cb3c eacd e03b
00000290: fe4e d8bb 618e e63d 08c8 ddbb 6de8 ce3d
000002a0: 0f1e 723c 906d 99bc 7f64 18bc 8fba 923d
000002b0: 6b27 26bd 5c33 a8bd 655d 523d 84d9 b0bd
000002c0: 33b8 2abe 51cb b0bd 1e17 a13c 57da 683d
000002d0: cc02 cbbc 3869 58bd 7836 4f3d 35e5 b73b
000002e0: ac77 473d 41e7 c539 35da ff3b be7f 88bd
000002f0: 6f54 b2bd 3d84 23bc d4b7 9a3c b01f c8bb
00000300: da6b a53d f545 8dbc fea3 f3bd 271e ab3d
00000310: 8ade b7bd bea7 03be 172f 963d e066 54bd
00000320: b9f3 bcbc 9646 613d e527 13be 4817 c73d
00000330: 83d7 de3c c2c7 c63d e1b5 dc3d b1fe b33c
00000340: ca4f 0cbc 5194 3c3d d034 4b3d 6704 a6bc
00000350: 08f1 0a3d 6cd0 e73b ffd4 96bd 066f 07be
00000360: a6e6 e53c bb1e a2bd 9864 9e3d 1be1 3d3c
00000370: f757 023d b343 103c 6df9 9bbd 2c55 5e3d
00000380: a85e 1e3c e5a1 043d a4ed 39bd 2605 c2bd
00000390: 8e26 e33c aedb 143c e305 c83d bd1d 533d
000003a0: c51d 2bbc 9361 bebd cb08 403d e8e2 123d
000003b0: b572 c63d 5fd2 303d 7ac6 5dbd 9650 26bd
000003c0: dc90 4b3d a7fa 423d ed6d 9abd cd2f de3c
000003d0: 271a 33bd ef1f 5cbd abd8 f43c 250f 3cbd
000003e0: 21ec 90bd ccb3 473b e0ba 91bc d356 843c
000003f0: 639f b8bd e15c 243d af0c 1dbd 61e6 e53d
-0.09592857 -0.08154462 0.0060110786 0.07161168 -0.080536224 -0.018578501 -0.07847312 -0.04657034
0.020011064 0.022178002 0.03964169 -0.0054241735 -0.10972871 -0.1427482 -0.17611541 0.13253811
-0.015748397 0.11375168 -0.19419909 -0.08916016 0.06815083 -0.09080663 -0.10414656 0.069925785
0.04493868 -0.127414 0.11854524 0.039385848 -0.12423588 0.030054003 -0.0078894645 -0.07107356
0.0664951 0.13063563 0.02361741 0.088363096 -0.024067631 -0.10283054 0.08621015 -0.06812146
0.021121899 -0.09668767 0.05967897 -0.0013300547 0.14668041 -0.036005236 -0.051422372 -0.04022352
0.025228305 0.07084817 -0.054292027 0.10728093 -0.0066885003 -0.06873988 0.04997008 -0.09877047
-0.05084457 -0.0011052431 -0.11748333 -0.0088038845 -0.047984738 0.03364228 -0.14441429 -0.06893823
0.04412639 -0.028914029 -0.033181455 -0.056773674 0.11640678 0.12443395 0.0159844 0.115267284
0.048825957 0.06511843 0.053537443 -0.02380827 -0.048858225 0.00348215 -0.031359028 -0.061262224
0.032391295 -0.06416856 -0.0018699731 -0.009118996 -0.032089364 -0.04587618 -0.06590463 0.062428292
0.038713995 0.068529256 0.02495407 -0.055445038 -0.02090111 0.029830983 -0.053181183 -0.05453126
-0.030734653 0.056157887 0.040355776 0.023570094 -0.08187045 -0.000598556 0.039693635 -0.1401084
0.033291616 -0.11765009 0.028554376 -0.19144064 -0.0840706 -0.12976244 -0.08155431 0.08034006
0.048518986 0.079107106 -0.09901774 -0.12518662 0.039905462 -0.041026022 0.07097649 -0.042597495
0.0296772 0.033023093 0.05054727 0.1314295 0.017712932 0.028100176 -0.010876928 -0.00030859528
-0.041304853 -0.036909457 -0.034850508 -0.049384236 0.027810575 -0.048426125 -0.11452238 -0.014759575
-0.0020897652 0.031282112 0.029046636 0.03235082 -0.048522513 0.067332596 0.009893575 0.013324653
0.06997779 0.011188577 0.060922585 -0.02757514 -0.15768284 -0.08748742 0.107019015 -0.03314835
0.026691621 0.04103839 0.059864275 -0.11388771 -0.093691856 -0.07688885 -0.09285755 -0.0841768
-0.046482682 -0.0067015477 0.0248901 0.0068604844 -0.0066012135 0.11257625 -0.0067682303 0.101029254
0.014777674 -0.018729001 -0.009301304 0.071644895 -0.040564936 -0.08212921 0.0513586 -0.08635238
-0.16671829 -0.086325295 0.019664343 0.05684885 -0.024781607 -0.05283472 0.050589055 0.0056120404
0.048698112 0.00037747066 0.0078079947 -0.0666499 -0.08707511 -0.0099802585 0.018886484 -0.006107293
0.08077212 -0.017245272 -0.118965134 0.083553605 -0.08977993 -0.12856957 0.073332004 -0.05185592
-0.023065435 0.054998957 -0.14370687 0.097212374 0.027202373 0.097060695 0.10776878 0.021972032
-0.008563945 0.046039883 0.049610913 -0.020265771 0.03392127 0.0070744064 -0.073648445 -0.13225946
0.028064083 -0.079160176 0.077340305 0.011589314 0.03182217 0.008805203 -0.076159336 0.054280445
0.0096661225 0.032380957 -0.045392647 -0.09473638 0.027728345 0.009085579 0.09766748 0.051542033
-0.010444109 -0.092959546 0.046883386 0.035860926 0.096898474 0.043169376 -0.05414436 -0.040604196
0.049698696 0.047602322 -0.07540498 0.027122403 -0.043726113 -0.05374139 0.029888472 -0.04591288
-0.07076288 0.0030472158 -0.017789304 0.016154682 -0.090147756 0.04012764 -0.038342174 0.11225582

conv3.bias f4 [64]
00000000: d708 6c3d 804c 403d a456 3b3d 4b35 efbd
00000010: df89 92bc fceb 0bbd fab3 d2ba 5b0e db3c
00000020: b0e7 b63d 77ef 81bd b6dc 413d 1761 8b3c
00000030: 6ad8 6d3d 8dac e2bc a8b1 95bd 54eb acbd
00000040: c6df c8bc dc63 713d da76 b33c 2cc0 553d
00000050: d867 aebd 6059 04bd d7df 033d 6309 763c
00000060: 43a8 1f3c 3784 b0bc 971b 273d e7a9 993d
00000070: 53df c23c 9473 b93d cd4b 013e d9b3 8f3c
00000080: 177f c4bd ef70 543d 459b a6bb 5b52 113a
00000090: 36dd a63d c93c babc f49c c23c 7f14 5e3c
000000a0: c913 e7bd 053c 963d c5cc 0bbd 9470 783c
000000b0: 648c d83d a4e6 6c3c 2d14 1ebd 652c 5ebd
000000c0: c587 843d 052a bcbc b6b7 303b 7b13 d2bb
000000d0: 51b2 2dbd 25cb 9cbd bd46 13bd eac4 ac3d
000000e0: 2c57 30bd d052 abbd 145a 4ebd cf3c 88bd
000000f0: a5c6 7d3d 4a3f 2fbd fce6 593d fbdd c5bd
0.057625618 0.046947956 0.045736924 -0.11680087 -0.017888008 -0.0341606 -0.0016075366 0.026740244
0.0893091 -0.063445024 0.047329627 0.01701407 0.058067717 -0.02767017 -0.07309276 -0.08443323
-0.024520766 0.058933124 0.021907259 0.052185223 -0.085159004 -0.032311797 0.032195892 0.015016886
0.009744707 -0.02154742 0.040797796 0.075031094 0.02378813 0.09055248 0.12626572 0.017541813
-0.09594553 0.051865514 -0.0050844275 0.0005543583 0.081476614 -0.022734063 0.023756482 0.013554691
-0.112830706 0.073356666 -0.03413083 0.0151635595 0.105736524 0.014459286 -0.03859346 -0.054241557
0.064712085 -0.022969255 0.002696497 -0.0064110137 -0.042406384 -0.07655934 -0.035956133 0.08435996
-0.043051884 -0.083654046 -0.050378874 -0.06652223 0.06195702 -0.042784967 0.0531988 -0.0966148

bn3.weight f4 [64]
00000000: 5622 803f b8c4 7f3f 7970 793f 185e 803f
00000010: 7720 823f df52 773f aca3 6c3f 9c00 863f
00000020: 32b9 823f ac32 8c3f bb9e 7d3f 9214 693f
00000030: c85b 8b3f e898 7e3f 99f8 803f 2691 653f
00000040: e7fd 7e3f e147 723f f0ef 7c3f e9c0 803f
00000050: ef79 7b3f b047 883f dd49 893f e66c 823f
00000060: e37c 7f3f d594 713f f48f 7f3f f9ad 7a3f
00000070: 17e1 853f 29f2 883f aa0e 863f 3cd8 6a3f
00000080: b13b 773f 1c45 7c3f 5c5e 853f 8afd 873f
00000090: 8d1c 843f 6db4 823f 4eb6 763f 4240 853f
000000a0: 78f6 7e3f ffad 803f 8245 6e3f f5fe 613f
000000b0: 44c2 8b3f 42b3 8c3f fc5f 813f 6a78 8b3f
000000c0: 82b9 813f 782d 743f 9a00 853f 5832 6d3f
000000d0: 9988 843f c8d7 833f 6113 6f3f abc6 883f
000000e0: 1ad3 733f 36b4 873f 7a43 853f 32fa 863f
000000f0: 7232 863f 5c72 6c3f a482 773f 0239 823f
1.0010478 0.99909544 0.97437245 1.0028715 1.0166157 0.96610826 0.92437243 1.0468936
1.0212767 1.0952964 0.9907033 0.9104701 1.0887384 0.99452066 1.0075866 0.89674604
0.99606174 0.9464093 0.98803616 1.0058872 0.9823293 1.0646877 1.0725666 1.0189483
0.99799937 0.94367725 0.9982903 0.9792171 1.0459317 1.0698901 1.0473225 0.917362
0.96575457 0.9854295 1.0419421 1.0624249 1.0321213 1.0211312 0.96371925 1.0410235
0.9959483 1.0053099 0.9307481 0.8827966 1.091866 1.0992205 1.0107417 1.0896122
1.0134737 0.9538188 1.0390809 0.92654943 1.0354186 1.0300226 0.93388945 1.0685629
0.9524399 1.0601871 1.0411217 1.0545104 1.0484145 0.92362 0.96683717 1.0173647

bn3.bias f4 [64]
00000000: 01a8 b9bd 76b9 44bd d673 98bd ac20 33bd
00000010: e070 95bc f4aa 00be fa82 bbbd 4247 21be
00000020: 722b 2fbd 6c83 9cbd a631 0abe e8b6 14be
00000030: 20ad d0bd cefd a0bd f1b8 9abd 4fe4 e9bd
00000040: 3cee 83bb 165e a3bd 1fb9 acbd 0be2 6cbd
00000050: 926a 193d c961 debc 8d6b 93bd be69 a4bd
00000060: 9e35 c53c 9956 51be a83f e3bd b294 e6bd
00000070: 08a4 1dbc 0b5c b8bd 737e e13b 1ecb 51bd
00000080: b2b6 03be fdd5 46bc 772b 1c3d 2710 d93a
00000090: 28c8 73bb ab06 6bbd cbad abbd c7fd 25bd
000000a0: 8a96 c4bd f868 bfbd cb87 b4bd ed03 bebd
000000b0: eca7 7abc 5b23 15be a6b3 61bd 7bc5 f1bd
000000c0: e130 b9bd 29d3 a7bd ce9b 05bd 424d 85bc
000000d0: 89f1 bfbd af5e 03bc 64d7 1dbd c657 5b3d
000000e0: fa8c 10be f295 51bd fd1a 61bd 20b7 48bd
000000f0: 6454 b2bb 7a04 08be 4dbd 9d3c 862f babd
-0.09065247 -0.04802843 -0.07443969 -0.04373233 -0.0182423 -0.12565213 -0.09155841 -0.15749839
-0.042766042 -0.07642254 -0.13495502 -0.14522898 -0.10189271 -0.078609094 -0.07554806 -0.114204995
-0.0040262025 -0.0797693 -0.084337465 -0.05783276 0.03745515 -0.027146237 -0.07198248 -0.08027981
0.024073418 -0.2044319 -0.11096126 -0.1125883 -0.009621628 -0.09001931 0.006881529 -0.0512191
-0.12862661 -0.01213598 0.03812739 0.00165606 -0.003719816 -0.057379406 -0.08382758 -0.040525224
-0.095990255 -0.09346193 -0.08814963 -0.092780925 -0.015298825 -0.14564268 -0.055102967 -0.118052445
-0.09042526 -0.081945725 -0.03261929 -0.016272191 -0.09372241 -0.00801818 -0.03853549 0.053550504
-0.14116278 -0.05116839 -0.05495738 -0.049002767 -0.005442189 -0.13282958 0.019255305 -0.090910956

bn3.running_mean f4 [64]
00000000: 3c98 00bf 5743 22bf d0dd 3bbf fdd1 91be
00000010: ff08 343d d2f8 ef3d 8997 0c3f c6cc 9ebe
00000020: be85 51be a7a4 7cbf 351c 46bf 4300 3c3f
00000030: 0fe7 3a3c 0405 81bf f13b d6be 16b5 d1be
00000040: c4b3 84bf 7721 43be 0092 0fbf 36a3 103e
00000050: 0160 68be 6838 f03d ef01 67be af46 7fbf
00000060: 761a 443d 1fb5 63bf 37ae 57bf 485e 6a3e
00000070: 2c6b 59bf 2df5 8abf ae53 7abf 020d 92be
00000080: 0fec e7be 88b5 57be 221b 60bf f42d 73be
00000090: d022 32bf df5a a2bd d3a9 15bf 113b 50bf
000000a0: b9d4 20bf f03d bcbe 624c 54be 3877 6abf
000000b0: 6c1a 2cbf 8357 77be 2a7f 63bf 7fb0 f6be
000000c0: 2854 55bf cfe6 4dbe 2dd3 7cbf da90 a63e
000000d0: 9a6c a3be 26fe c2be 5968 323f 39cf 6cbf
000000e0: ecba ffbe 90a7 c5be 2ed0 5cbf e317 17bf
000000f0: 9f74 5bbc 1f27 093d 0708 afbe 6b02 f7be
-0.5023229 -0.63384 -0.73385334 -0.2848052 0.04395389 0.117173806 0.54918724 -0.31015605
-0.20461175 -0.9868874 -0.7738679 0.734379 0.011407628 -1.0079656 -0.41842607 -0.4095847
-1.036736 -0.19055735 -0.56082153 0.1412476 -0.22692873 0.11729509 -0.22559331 -0.9971723
0.047876798 -0.88948244 -0.84250206 0.22887528 -0.84929156 -1.0856072 -0.97783935 -0.2852555
-0.45297286 -0.21065342 -0.875414 -0.23747998 -0.6958437 -0.079274885 -0.58462256 -0.8134013
-0.6282459 -0.36766005 -0.20732263 -0.91588163 -0.67227817 -0.24154477 -0.8886591 -0.4818153
-0.8333154 -0.20107578 -0.9875973 0.32532388 -0.31918794 -0.38084525 0.6969047 -0.92503697
-0.49947298 -0.38604403 -0.86255157 -0.59020823 -0.013394504 0.033484574 -0.34185812 -0.48244032

bn3.running_var f4 [64]
00000000: d288 a93e c018 443e be2e d23e 68c7 263e
00000010: b832 6b3e fb7c 4f3e 120c d53e 91c1 7f3e
00000020: 8001 503e e783 703e 132a 333e 2e25 9a3e
00000030: 5e98 a13e 1dc1 c23e a0e3 213e d763 c73e
00000040: eaab 543e a4d1 5e3e e2d7 913e 8aba 433e
00000050: 5874 8b3e d7a3 943e 11c6 4a3e 22fe 913e
00000060: 8abb 843e 2b2a d73e 3a0d e33e e6e7 823e
00000070: 4be5 523e 44b0 c83e 2956 a73e aecd 733e
00000080: 1ffe c23e 165b 7c3e 10ba 0a3f 3c8c 303e
00000090: fc5c e53e b38c 913e 11a8 2f3e bcba b13e
000000a0: faea 4a3e b336 2e3e b426 1e3e 5423 b33e
000000b0: efdc 993e a1d9 863e ab8c 973e f6bc 753e
000000c0: fd5f 373e a578 6a3e 5ba9 da3e 2cef 163e
000000d0: 846a 353e da09 5e3e 3042 2b3e fea2 813e
000000e0: cd1a 9b3e d369 7c3e 4cf7 483e 5a5e 8c3e
000000f0: 15dd 913e f969 643e 9821 9a3e e3ec 853e
0.33112198 0.19150066 0.41051286 0.16287005 0.22968566 0.2026252 0.4161077 0.24976183
0.20313072 0.23487817 0.17496519 0.3010649 0.3156156 0.3803796 0.15809488 0.3894336
0.20768705 0.21759659 0.28485018 0.19114128 0.272372 0.2903125 0.19802119 0.285142
0.2592433 0.4202436 0.4434603 0.2556755 0.20595281 0.3919698 0.32682922 0.2380893
0.38084504 0.24644122 0.5419016 0.17240995 0.44797504 0.28427657 0.17153956 0.3471278
0.19816199 0.17013054 0.15444452 0.3498789 0.3005137 0.26337913 0.2959951 0.23997864
0.1790771 0.22897585 0.42707333 0.14739674 0.17716414 0.21683446 0.16724467 0.25319666
0.30293885 0.24649744 0.19625586 0.27415735 0.28488985 0.2230605 0.30103755 0.26157293

conv4.weight f4 [64, 64, 3]
00000000: 1dd9 3cbd e2e8 46bd 7c8b 3e3c 3504 54bd
00000010: 8012 84bb 5185 b33b 02f9 78bd dd50 50bd
00000020: 511a 2f3c d546 e9bb df18 833d 900a 413d
00000030: b83a 57bc 6f1f 00bd 31b6 bbbd fc40 0ebd
00000040: daf0 abbc 1f23 0bbc c170 163d ce9a 233c
00000050: 404e 25bd ccc9 f4bc c262 cfbc 46c4 6bba
00000060: 625c b4bb 65c7 5fbd 9d13 7dbd d89c 91bc
00000070: 217e 42bc 8e04 3abd 0420 84bc 1244 ddbd
00000080: 982a 86bc f0a1 dabd 9a26 32bd c383 da3c
00000090: ae13 e5bc 5950 4fbd 0307 5dbd a426 b6bb
000000a0: 5fe5 a53c 2e78 c6bc 9e8c 963c 5691 84bd
000000b0: fc72 27bd 39f8 75bd 125b 8bbc f32d afbd
000000c0: 71be 6d3d dc47 0d3e 66fb fd3b 911c 41bd
000000d0: ffc0 62bc 8248 8f3d 5546 babd af5d 97bd
000000e0: ed7c e7bc a124 f93d 5bcf 9a3c 9f68 04bd
000000f0: 84c0 453c 6b3d 5a3d 93ce 8f3d aa79 3f3d
00000100: 8237 f0bc 3c2c f03c 36e1 2b3d 46e2 b23c
00000110: 7d5e 163c c291 85bd 5af2 94bc 54e2 ccbd
00000120: e594 d43d d9a3 ae3d c02a 193d a482 61bd
00000130: 604e 363b fc41 9e3c 741a d53c a98d edbc
00000140: e30d 4f3d 20c7 043e cd28 d73d e14b e03d
00000150: 3775 4bbd a772 62bd c0cb e3bc 8262 803d
00000160: 984f 48bd 9a1e 103d d21e 90bd 99ae f73c
00000170: 7858 d7bc 69ae 35bc 2b9a 55bd 2159 2f3d
00000180: 4dda 5f3d 6e70 873d fdc5 aa3c e077 03bd
00000190: d764 2bbd 892b 3d3c 13a3 8a3c 589b 5d3c
000001a0: e906 bc3c 22e2 9e3d 8fd7 943d 25d6 713d
000001b0: aedb 05bd 1d3f 393d 8a21 a3bd 5edd efbc
000001c0: dab7 42bd ff8a 07bd db79 2b3d 20bc a13d
000001d0: 7208 c8bd 4887 0dbd c6e1 6b3d 3a5b 17bd
000001e0: 9525 3e3c 87ec a1bc 90dd 843b 3a04 55bd
000001f0: 8180 19bd 7e47 a8bb 9908 c13c 139b 173d
00000200: 033a 153d 8b02 9dbc 502f a0bd 0575 9dbb
00000210: 97f6 87bd 6eb3 503d 2740 de3c 4953 8f3c
00000220: fef0 b63b b8a9 0c3d c605 a3bc 6ccc 993d
00000230: 63f5 a63d e9d8 0e3e b9bb bf3d 1609 88bb
00000240: 8e94 aabd 2862 41bd 0010 a6bd 8945 013d
00000250: ba05 b23d 5d96 8ebc 68b2 973c 48e9 403d
00000260: a3c2 d83d 9f05 c6b9 3ace c63b dfa2 353b
00000270: 000f 0b3d 9450 9d3d bb32 e23d 3e64 b23c
00000280: 997a d2bc c91b 9abc 8a95 613b 96d3 cf3c
00000290: 7e10 9ebc 3ac2 e93c b31d 443c f405 10bd
000002a0: 9549 58bd c9d6 d1bc 2238 843c 9df9 7a3c
000002b0: 7bbb ec3c bddb 053d f09a 2a3d 1ec3 113c
000002c0: 1e02 b33d 82be 0abc dee5 bdbd 29bb fcba
000002d0: 307a 263d 582c fdbb 6ba6 dc3d d135 093d
000002e0: 6008 8dba 54a9 0ebd 3327 273d 1290 7f3d
000002f0: 8802 ab3d 710f f03d f8f5 c43d 6b36 ce3d
00000300: 8267 163d be5c 743c 53a2 dd3c c912 1abc
00000310: 9363 cb3b 7086 ecbc 6817 72bd 9255 b03d
00000320: 34b1 d3ba 6b62 38bc 1652 fdbc fbc9 c63c
00000330: dac5 9e3d b3f8 843d a5e3 b93d a6ae 163e
00000340: 4f25 9b3d 772a a43d fc79 f53c 142e 12bd
00000350: 3833 253d ec9a 3d3d 5f20 55bd 09ab 0b3e
00000360: 925d d33c 436f aebc 1f4b 2b3a 7c28 3ebd
00000370: 3d3f a1bd 7be2 aebd e525 443d fa68 99bc
00000380: bbb8 20bd 5a85 a43d 8b9c 863d 2f02 173d
00000390: fa57 263d c166 72bd 1a10 393d f712 79bd
000003a0: 7cce 7e3c 4140 993c 5f79 04bd 213c 97bd
000003b0: 3a7a d4bc 1a37 ddbc 86e4 c6bc 9db6 163d
000003c0: b2f2 09bd baed 83bd cc71 413c 534c a1bd
000003d0: fc57 02bc 2ecc 2ebd daf6 d1bb bdc9 02bd
000003e0: 55c1 8fbd de2d 913d 3676 49bd 122c 693d
000003f0: c8e9 ac3c a164 62bc f97d 94bd d0ac 7d3d
-0.046105493 -0.048561938 0.011629935 -0.051761825 -0.0040305257 0.005478539 -0.060784347 -0.050858367
0.010687427 -0.0071190395 0.06401228 0.047129214 -0.013136558 -0.031279977 -0.0916561 -0.034729943
-0.02098887 -0.00849226 0.036728624 0.009985639 -0.04035783 -0.02988138 -0.025315646 -0.00089937856
-0.005504177 -0.054633517 -0.061786283 -0.017774984 -0.011870892 -0.0454145 -0.016128547 -0.10803999
-0.016377732 -0.106754184 -0.043493845 0.026674157 -0.027963486 -0.050613735 -0.053961765 -0.0055588055
0.020250974 -0.024227228 0.018377598 -0.06473033 -0.040881142 -0.060051177 -0.0170112 -0.08553686
0.058042947 0.13796943 0.0077509163 -0.047146384 -0.013839959 0.06996252 -0.09095446 -0.073909156
-0.028257811 0.121651895 0.018897703 -0.032326337 0.012069825 0.05328123 0.07021823 0.046746887
-0.029323343 0.029317968 0.041962825 0.021836411 0.009177801 -0.06521942 -0.018181968 -0.10004106
0.10379962 0.08527345 0.037394285 -0.05505623 0.0027817711 0.019318573 0.02601359 -0.028998213
0.050550353 0.12966585 0.10505829 0.10951973 -0.04967233 -0.055285122 -0.027807117 0.06268789
-0.04890403 0.035185434 -0.070371285 0.030234622 -0.026287302 -0.011088946 -0.05214898 0.04280961
0.054651547 0.06613241 0.020846361 -0.032096744 -0.041844215 0.011546024 0.016923463 0.013525806
0.022952514 0.07757975 0.07267677 0.059042115 -0.032680206 0.045226205 -0.079653814 -0.02928036
-0.047538616 -0.03309154 0.041864257 0.0789721 -0.09767236 -0.034552842 0.05758836 -0.036952235
0.01160564 -0.019766105 0.0040547326 -0.052005984 -0.037476066 -0.0051354757 0.02356367 0.037013125
0.036432277 -0.019166252 -0.07821524 -0.0048052096 -0.0663883 0.050952367 0.0271302 0.017495768
0.0055829277 0.034341544 -0.019900214 0.075096935 0.081522726 0.13949932 0.09361977 -0.0041514738
-0.08329116 -0.04721275 -0.081085205 0.031560455 0.086924985 -0.017405683 0.018517688 0.047097474
0.10583999 -0.0003776969 0.0060670646 0.0027715487 0.033949852 0.07681385 0.11044832 0.021776315
-0.025693225 -0.018812077 0.0034421408 0.025369447 -0.019294973 0.028534997 0.0119699715 -0.035161927
-0.05280455 -0.025615113 0.016140047 0.0153183015 0.028897991 0.032680262 0.041651666 0.008896617
0.08740638 -0.008468272 -0.09272359 -0.0019281852 0.04064387 -0.0077262335 0.10773929 0.03349859
-0.0010759942 -0.034829453 0.040808868 0.062393256 0.08350092 0.11721695 0.09617227 0.10068973
0.036719806 0.01491469 0.027054941 -0.009403893 0.0062069385 -0.028872699 -0.059104353 0.08610071
-0.0016150833 -0.011253933 -0.03092293 0.024266234 0.07752581 0.06492748 0.09076623 0.1471506
0.075754754 0.08015912 0.029965393 -0.035688475 0.04033205 0.046290323 -0.052032825 0.13639463
0.025801454 -0.021293288 0.0006534326 -0.046425328 -0.0787339 -0.085392915 0.0478877 -0.018726815
-0.039238673 0.08033247 0.06572827 0.036867317 0.040611245 -0.059180025 0.04518137 -0.060809102
0.015552159 0.018707396 -0.03234231 -0.073845156 -0.025937188 -0.027003814 -0.02427889 0.036795247
-0.033678718 -0.06441827 0.011806916 -0.07875886 -0.007955547 -0.04267519 -0.006407601 -0.031930674
-0.07019297 0.070888266 -0.049185 0.056926794 0.02110757 -0.013817937 -0.0725059 0.061932385

conv4.bias f4 [64]
00000000: 3603 913d 1008 1c3d c8eb 45bd 1ff3 873c
00000010: 67f5 d9ba 1f33 143d c913 d63a eb6d b637
00000020: 5697 05bd e517 d0bb 3bca 8ebc 66d7 5bbd
00000030: e147 91bc 611a 483d 7c9f e53c cedc 6fbd
00000040: 81ce 913d 26dd 65bd 7cc8 5abd b302 0ebd
00000050: 19b4 22bd 4bab 983d 421f cd3d fc52 9ebd
00000060: 07b4 043d f936 2ebd 381a 9d3c 1197 abbc
00000070: 0c7c 9e3c 3d5d 93bd d1bc 84bc 732b e3bc
00000080: c330 833d d830 3fbd de2c 6dbd 0198 8d3d
00000090: 5019 e1bc 5b96 1a3d 1fac c33d cab8 dd3d
000000a0: 5b59 b53b 16aa 473c fbc2 a7bc 1e65 1bbd
000000b0: a4fd 483d b244 923d 484f 92bd 92a7 85bd
000000c0: 7b45 2fbe c2be 42bc 049e cd3d cfd0 be3d
000000d0: 468c 04bd 6389 ee3d cd1e e6bc 2aad cc3d
000000e0: 00ca 86bc 3f83 1b3d 352a bebc 31db b23a
000000f0: 8ab8 033d 6b7f cabc e5c3 053d 2beb ca3a
0.070806906 0.038093626 -0.04832056 0.016595421 -0.0016628922 0.036181565 0.0016332801 2.1747275e-05
-0.03261503 -0.0063505047 -0.017430415 -0.053672217 -0.01773447 0.048853282 0.02803015 -0.058560185
0.071194656 -0.056119107 -0.053413853 -0.034670543 -0.039722536 0.074545465 0.100157276 -0.07730672
0.03239825 -0.042532895 0.019177541 -0.020946058 0.01934626 -0.07195518 -0.016203316 -0.02773068
0.06405785 -0.04667744 -0.057904117 0.06913758 -0.02747789 0.037741046 0.09554314 0.10826261
0.0055343336 0.012186548 -0.020478716 -0.03793823 0.049070016 0.07142009 -0.07144028 -0.06526102
-0.17116348 -0.0118863005 0.10039905 0.09317171 -0.032360338 0.11647298 -0.028090859 0.09993966
-0.016453743 0.037966963 -0.023213485 0.0013645646 0.032158412 -0.02471896 0.032657523 0.0015481462

bn4.weight f4 [64]
00000000: 8ab6 aa3f ddaa ac3f b933 ae3f 671e aa3f
00000010: 9914 aa3f e80b ad3f 772b b33f d4f7 af3f
00000020: 1a37 a83f 7824 af3f 3b70 ae3f 2630 b13f
00000030: 55c7 b23f 4342 b23f 8d88 b33f bc1f ab3f
00000040: f0e9 b63f 5a0d b03f 0ea4 b13f 6b42 b03f
00000050: 0087 b43f 79fb b43f a001 b23f 4489 b33f
00000060: 4134 a63f 2d0d b83f bed6 ad3f dcaf b33f
00000070: 2c04 b53f 4465 af3f 4e16 ae3f 1373 b13f
00000080: 9faa ad3f d2ab b03f 36fb a83f a611 af3f
00000090: a004 b73f c6fe b23f 168f a83f f3e6 a73f
000000a0: e6ea b63f 3296 ad3f dadd aa3f a19d af3f
000000b0: eb6f ab3f ce05 b33f 1785 ae3f dab1 ad3f
000000c0: d85d b83f d604 b13f 7e6f b33f a164 b93f
000000d0: 0e43 b23f 1935 b73f e01f a43f 81af ad3f
000000e0: 0402 aa3f 7c58 aa3f 8f1a ac3f d2c4 ab3f
000000f0: 8d28 b33f 3dcf b33f 7e58 ac3f 4d4f b13f
1.3336957 1.3489643 1.3609535 1.3290528 1.3287536 1.3519258 1.399764 1.3747506
1.3141816 1.3683004 1.3628 1.3842819 1.3967081 1.3926471 1.4026047 1.336906
1.4290142 1.3754075 1.387819 1.3770269 1.4103699 1.4139243 1.3906746 1.4026265
1.2984697 1.4379021 1.3581159 1.4038043 1.4141898 1.3702779 1.3600557 1.3863243
1.3567694 1.3802435 1.3201663 1.3677261 1.4298286 1.3984001 1.3168666 1.3117355
1.4290435 1.3561461 1.3348954 1.371998 1.339353 1.3986146 1.3634366 1.3569901
1.4403639 1.3829601 1.40184 1.4483835 1.3926713 1.4313079 1.2822227 1.3569185
1.3281865 1.3308253 1.3445605 1.341944 1.399675 1.4047619 1.3464506 1.3852326

bn4.bias f4 [64]
00000000: dc73 c83d eedf fc3d bbb3 2b3e db29 113e
00000010: c4e9 a83d 0405 133e c4f5 453e ef4d fb3d
00000020: 320b 093e 12d3 2b3e 66d1 193e 16a0 1b3e
00000030: e03b 113e 6424 c73d 0e4d 3c3e a9bb 1a3e
00000040: a194 373e b34b f73d 3fc3 1d3e 2968 2a3e
00000050: d850 003e b9e0 063e af0a 0d3e 8391 383e
00000060: b3c8 8e3d 522f 5a3e 6ac4 423e 2734 683e
00000070: a917 5f3e c600 3a3e 757a 2f3e 999d c33d
00000080: 6b6b c33d 3e47 163e f32e 193e d5e4 db3d
00000090: d424 f33d 17cd fe3d 49d4 d83d 02fa e73d
000000a0: 531a 153e 5db8 2b3e 366e bb3d 0a0c 383e
000000b0: 20d5 b73d bf3b 1c3e 889e 153e 2327 3d3e
000000c0: 3eb2 563e 1753 0c3e f913 0b3e 17e1 343e
000000d0: c24d 2a3e 9929 f23d 67ee 4b3d 8479 093e
000000e0: ddb7 2f3e 16ad db3d cc2b 293e 093c 0d3e
000000f0: 9d2f 343e 678b 063e 8b64 f93d 6e82 2d3e
0.097877234 0.12347399 0.1676778 0.14176123 0.08247712 0.14357382 0.19332033 0.12270724
0.13383177 0.16779736 0.15021285 0.15197787 0.14182997 0.09723738 0.18388769 0.15110649
0.17927791 0.12074985 0.15406512 0.16641296 0.1253084 0.13171662 0.13773607 0.18024258
0.06971874 0.21307114 0.19020239 0.22676145 0.2178637 0.18164358 0.17136557 0.09551544
0.09541973 0.14675614 0.14959316 0.107370056 0.11872259 0.124414615 0.10587365 0.11326982
0.14560823 0.16769548 0.091518804 0.17973343 0.08976197 0.15257166 0.14611256 0.1847196
0.20966431 0.13703571 0.13581838 0.1766399 0.16631225 0.118243404 0.049787905 0.13425261
0.17159982 0.10726373 0.16520613 0.13792433 0.17596288 0.13139115 0.1217738 0.16944286

bn4.running_mean f4 [64]
00000000: 134a 2f3f 4314 ae3e 78fb 6abf 4c53 703f
00000010: 024c f73e 20c5 efbe be3a 793e 9370 333f
00000020: 0e06 d53d bb56 cbbd 9b24 b03e b710 893e
00000030: 92a9 183e ae6c 853f 5a22 b13d df47 cf3d
00000040: 77c8 963f 1b59 393f 286d 123f 8d0a 61be
00000050: 5929 793f 9bb9 5e3f a782 b73e 51fc 0abf
00000060: 3dc7 373e fcad 83bf a91d 90bf aa59 00bf
00000070: cf01 ebbd 1a48 04be f005 0ebf 2cda 593e
00000080: cf56 aa3e f8d4 283f 7fb5 aebd 421c 6f3f
00000090: b157 613f 85f2 8b3e 1665 2e3f 54d6 803f
000000a0: a193 293f b5bc a8bd c7de 103f 49e2 aebd
000000b0: aad5 a03f edb8 713f 686e 53be 1966 903c
000000c0: 022a 69bf a63d 7a3f 54a8 923f 1790 803f
000000d0: 102d 273f 412a 533f 38ac 083f 420d 453f
000000e0: 8b7c 043f 8546 9b3f 52a6 ddbe 5007 e13d
000000f0: 9287 63be 1ac0 903f 9b40 103f a397 1ebf
0.68472403 0.33999833 -0.9178996 0.938771 0.48300177 -0.46830082 0.24338815 0.7009365
0.104015455 -0.09928652 0.34402928 0.26770565 0.14908436 1.0423791 0.0864913 0.1012113
1.1779927 0.7240159 0.5719781 -0.21976681 0.97328717 0.8700196 0.35841867 -0.54291254
0.17947097 -1.0287471 -1.1259052 -0.50136817 -0.11474954 -0.1291813 -0.5547781 0.21274632
0.33269355 0.65949965 -0.085307114 0.93402493 0.8802443 0.27333465 0.68122995 1.0065408
0.6624089 -0.08239118 0.5658993 -0.08539254 1.2565205 0.944228 -0.20647585 0.017626809
-0.91079724 0.9775032 1.145762 1.0043973 0.65303135 0.8248635 0.53387785 0.76973355
0.5175254 1.2130896 -0.43290955 0.10987723 -0.22219685 1.1308625 0.5634858 -0.6195013

bn4.running_var f4 [64]
00000000: e6a3 9f3e f3f2 923e 7516 5b3e 1502 9b3e
00000010: a73e 593e 265b 8b3e aa04 273e cb58 8f3e
00000020: 1016 873e be6e 6f3e ec7a 4d3e b6d9 423e
00000030: f498 4a3e 6623 9d3e 2307 3c3e abe5 5e3e
00000040: e46b 623e a2fb 473e 41b3 883e 288b 873e
00000050: 1a2a c03e 9389 ad3e 8bff 703e c8c1 6e3e
00000060: 21e1 453e c44d 6c3e 37d6 573e 4113 723e
00000070: c569 393e 0ac1 803e 33bf 6e3e 252c 9b3e
00000080: 4822 963e b33d 843e 0ac4 3a3e 84a8 883e
00000090: 21d9 7d3e 58d9 b03e 3cd9 393e 9352 953e
000000a0: 2cd2 803e af91 823e 7eb0 4c3e d1ee 8a3e
000000b0: 98b2 833e 08da 613e 0cf6 473e 7f44 b53e
000000c0: 500a 3f3e a573 923e de3b 7b3e 99d7 503e
000000d0: bc09 883e ef41 bd3e 1070 a03e d3f7 7e3e
000000e0: cc22 593e f817 6d3e 831d f13e e939 973e
000000f0: 6c66 5f3e 9c46 9c3e 3b50 6c3e 4694 8c3e
0.31179732 0.2870098 0.21395285 0.30275026 0.21215306 0.27217978 0.16310373 0.2799743
0.2638402 0.23382089 0.20066422 0.19028363 0.1978491 0.3069107 0.18362097 0.21767299
0.2211147 0.19529584 0.2669926 0.26473355 0.3753212 0.33894023 0.23534982 0.23316109
0.19324161 0.2307654 0.2107781 0.23640157 0.18106754 0.25147277 0.23315124 0.30307117
0.2932303 0.25828323 0.18238845 0.26691067 0.2478986 0.3454082 0.18149275 0.29164562
0.25160348 0.25501773 0.19989201 0.27135327 0.25722194 0.22055829 0.19527453 0.3540382
0.18656278 0.28603855 0.24534556 0.20394744 0.26569927 0.36964366 0.31335497 0.24899225
0.2120468 0.23153675 0.47092828 0.2953637 0.21816415 0.3052262 0.2307748 0.27456874
