trys/grande_clasi.ckpt (torch, 112358 bytes, 26 tensors)

conv1.weight f4 [32, 1, 80]
000000 f7 21 89 bd 32 f3 08 3d 60 97 86 bc 5c a3 81 3d
       -0.066959314 0.033435054 -0.016429603 0.063299865
000010 10 8a e1 3d 91 82 a7 3c ed 41 be 3d 82 2d 5b bd
       0.110126615 0.020448001 0.09289918 -0.053510197
000020 e8 5b 44 3d f9 6c ad bd 6f 9d b5 bd 4d 8f 32 3d
       0.04793921 -0.084680505 -0.08867919 0.043593694
000030 87 dc 76 3d d5 56 29 bd c3 15 24 3d 98 37 c9 bc
       0.060268905 -0.041342575 0.040059816 -0.024562642
000040 21 e3 0c bd 42 7f 9a bc fd 28 5f 3d 72 a5 3d bd
       -0.034396295 -0.01885951 0.05448245 -0.04630036
000050 f8 d6 f6 bc 1f 4e ce bc 8a 96 da 3c 2f b9 e5 bd
       -0.030131802 -0.025183735 0.02668311 -0.112169616
000060 4e 87 38 bd 4d 52 9f bd a1 67 d8 3c 52 d0 6f 3d
       -0.04505091 -0.077793695 0.026416602 0.05854828
000070 b8 a4 36 3d 0f 81 ad bd 4d 3c f7 bd 1d 7e c4 bc
       0.04459068 -0.084718816 -0.12072048 -0.023985917
000080 fd 91 8f 3d 7b 88 2d 3d 11 fe f3 bc 9f 69 8f 3c
       0.07010267 0.042366486 -0.029784234 0.017506419
000090 c7 fb 95 bd f8 3a 59 bc 76 4c 29 3d ed 9a 07 3c
       -0.07323413 -0.013258688 0.041332684 0.008276683
0000a0 35 91 33 3d 61 12 47 bd fc ec 2e 3c 8b 59 9d bd
       0.043839652 -0.048601512 0.010676619 -0.076830946
0000b0 d2 10 b6 3c a3 f4 21 bd db 55 b0 3c 3d d6 01 be
       0.022224817 -0.039539944 0.021525314 -0.12679382
0000c0 7c 54 32 3d eb fb 14 bc 7d 41 23 3d c4 5e 38 3d
       0.0435376 -0.009093265 0.039857376 0.04501225
0000d0 2f 29 77 bd 43 a9 ac 3d 0b 88 93 ba c1 0c ca 3d
       -0.06034201 0.084307216 -0.0011255754 0.09865714
0000e0 73 35 1a 3b 2e 70 9e 3d 51 f0 22 3d 9a d1 3d bb
       0.0023530393 0.0773624 0.039779965 -0.0028964044
0000f0 55 af 09 3d 0f 07 ab bd 5b 51 91 3d 4a 5e 5e bc
       0.033614475 -0.08350956 0.070955954 -0.013572285
000100 2a 19 a4 bd d9 c4 3c ba 0b ea 33 3c 1e 15 8d 3c
       -0.08012612 -0.00072009634 0.010981093 0.017221984
000110 94 b9 de bd 24 d0 2b 3e 20 af 97 bc 86 54 ec 3c
       -0.1087524 0.16778618 -0.018516123 0.028848898
000120 ea 5c 57 ba 75 cd c3 bd 95 fe dd 3d 0d cc 1b 3d
       -0.00082154444 -0.09560672 0.10839573 0.038036395
000130 55 5b 4e 3e ee 84 3a 3d 14 d0 8f bd 5c cc 01 bd
       0.20152028 0.045536928 -0.0702211 -0.031689033
000140 86 b1 8a 3c fe ea a9 bc ca 05 29 3d ae 11 a1 bd
       0.016930353 -0.020741936 0.041265287 -0.078647
000150 2e 5e e4 bd 34 35 f3 3c 5b 8e 03 bc 2a bd 03 be
       -0.11150776 0.029688455 -0.008029546 -0.12865129
000160 99 68 03 3e 06 81 40 be 63 d6 c0 3d ad 5a b3 bd
       0.1283287 -0.18799219 0.09415891 -0.087575294
000170 d6 77 ad 3d 9b 9a bf bd 10 2a a3 3b 2c 41 c8 3d
       0.084701225 -0.093556605 0.0049793795 0.097780555
000180 93 05 fa bc c2 98 91 bd c3 9f 09 3e a1 ee a9 bb
       -0.030520236 -0.07109214 0.1343985 -0.0051859175
000190 3e bd 5e 3c 54 33 a7 bc 99 81 74 3c 8e 34 5e bd
       0.013594924 -0.020410217 0.014923477 -0.05424934
0001a0 f0 ff c7 3c 8c 0a 06 bc a5 ae 73 3d b6 1d d3 bc
       0.024414033 -0.0081812255 0.059492726 -0.025771003
0001b0 fa f0 40 bc 68 2b 30 bd bd 71 99 bb 24 4e 2a bd
       -0.011776203 -0.043010145 -0.004682748 -0.041578427
0001c0 53 f0 d0 3d ef 32 e2 bd 12 94 c9 3d 7e 7e 01 be
       0.10202088 -0.11044871 0.09842695 -0.12645909
0001d0 e9 f7 d6 3d 14 56 43 bd ff 54 28 3d cf 77 c4 3c
       0.10496504 -0.047689512 0.041096684 0.02398291
0001e0 29 b5 8f 3a a4 b4 27 3c c7 87 e4 bd aa a4 26 3e
       0.0010964024 0.010235939 -0.1115871 0.16273752
0001f0 0e e5 de bd 34 7f 83 3d 9d ca 64 3d 70 f7 6f bc
       -0.108835325 0.064207464 0.05585729 -0.014646396
000200 b9 a8 6b bd 6e ad 9b 3d eb 02 24 3d ac 67 6d bd
       -0.057533953 0.076014385 0.040041845 -0.057960197
000210 e1 c0 2e 3d 96 0a a4 bc dd b4 08 bd 3c bb 82 bd
       0.042664412 -0.020024579 -0.03337561 -0.063833684
000220 7a c5 f3 3c 03 21 c4 39 2a 9c c7 bd 90 22 d5 bd
       0.02975725 0.0003740863 -0.09746583 -0.10406983
000230 83 6f 0a bd ba 7d 90 bc 9c 7b 22 3d c2 e5 92 bd
       -0.033797752 -0.017638076 0.039668664 -0.07172729
000240 de b2 33 bc 91 21 ce 3c 93 44 3b 3b 1b ef 6b 3d
       -0.010967938 0.02516249 0.002857481 0.057601076
000250 3a 6b 93 3d 24 6c 6b 3d 2d c6 84 bd 56 7f 09 3e
       0.07198186 0.057476178 -0.064831115 0.13427481
000260 28 52 c2 ba ee c2 4f 3d 3f df 09 3e fa 5c d2 bd
       -0.001482551 0.05072301 0.13464068 -0.1027164
000270 5b b0 83 3d 72 c8 4e 3d 97 eb 21 bd 3f 94 26 3d
       0.064301215 0.05048413 -0.039531317 0.040668722
000280 c0 58 4e bd dc 7c d1 bd 3d f3 a1 3c 5c b7 cd 3a
       -0.050377607 -0.10228893 0.019769305 0.0015694904
000290 d3 74 e7 bd 0c 62 93 bd 3a 5b e0 bd 89 bf b5 bd
       -0.11301579 -0.07196435 -0.109549 -0.08874423
0002a0 7b 8e 25 3c 23 94 b3 bc 36 04 08 be b9 53 20 bd
       0.010104771 -0.021921223 -0.13282856 -0.039142344
0002b0 68 79 3d 3c 96 2f 0a bd 92 7c 62 bc 5e 25 df bc
       0.01156459 -0.033736788 -0.013823645 -0.027239498
0002c0 9d b5 cd bd 90 ca 67 bc 16 1e f7 3d 3e 8c 56 3d
       -0.100444056 -0.014147416 0.12066285 0.05237984
0002d0 c3 d7 27 bc 49 7d c7 bc c8 51 1c bd 85 43 23 3b
       -0.010244313 -0.024351733 -0.03816393 0.002491207
0002e0 aa f4 fc 3c 6b fd a8 3c 7f 26 06 3e 94 56 d1 3d
       0.030878384 0.020628652 0.13100623 0.102215916
0002f0 4e 3e 88 bd 6f ee bc 3d 02 89 e3 3d 42 08 28 3d
       -0.06652509 0.09225165 0.111101165 0.0410235
000300 cb 80 00 3c 46 2c 90 bd 38 b6 10 3d cc b2 2a 3e
       0.007843207 -0.070396945 0.035330027 0.16669768
000310 83 97 09 3d b0 b6 da bd 02 81 27 3e 07 75 f9 3d
       0.03359176 -0.10679376 0.16357806 0.12180524
000320 72 51 59 bd d5 62 99 bd 7f 33 fd bc 82 a2 9f bb
       -0.053056188 -0.07489554 -0.030908344 -0.0048716674
000330 2a 72 58 bc 38 9c 9b 3d 96 30 aa 3d f5 bb 69 bc
       -0.013210813 0.07598156 0.08310048 -0.014266004
000340 62 0a a8 3d 29 74 b7 3d 99 6d 80 3d 07 4b f9 bd
       0.08205105 0.08957703 0.06270904 -0.121725135
000350 d3 b0 94 bd 4d db b2 bc 4b 2e ab 3d 60 ca e1 3c
       -0.07260289 -0.021833086 0.08358439 0.02756232
000360 c0 5b c0 3c 35 3e 8b 3d f5 db 9c 3d 43 b8 29 bd
       0.02348125 0.067989744 0.07659141 -0.04143549
000370 ee 9e 86 bd c8 6e 3b bb f6 00 96 3c cb 87 27 bd
       -0.06573282 -0.0028599966 0.018311005 -0.040900987
000380 b0 2b 5f bd 0d c4 89 3d d4 be 59 bc 74 29 88 3d
       -0.054485023 0.06726847 -0.013290126 0.066485316
000390 a9 00 7b bd bf 46 b9 bd d0 13 af 3c 87 52 d7 3c
       -0.061279926 -0.09046697 0.021371752 0.02628447
0003a0 c3 0b 9a bd 83 4f 12 bd 14 1e d7 bc 31 93 a0 3b
       -0.075217746 -0.03572036 -0.02625946 0.004900359
0003b0 20 48 c9 3d 5c 95 6e 3d 43 c0 cb bd 1f 93 65 bd
       0.0982821 0.05824791 -0.099487804 -0.05604851
0003c0 cd 21 9a bd 75 b5 75 3d 7a 9b 84 3c 52 e9 3b 3d
       -0.07525978 0.059987504 0.016187418 0.04587681
0003d0 a9 5c 90 3c 74 50 b9 bd 2b b2 96 bd c1 fa e0 bd
       0.017622309 -0.09048548 -0.073582016 -0.109853275
0003e0 c3 ba 06 bd d5 10 45 3d e7 ad d0 bc 43 c0 a1 3b
       -0.032892954 0.048111755 -0.025473548 0.0049362495
0003f0 75 21 b6 bd 0f e6 9c bc 82 81 43 bd ae 77 dd bc
       -0.088931 -0.01915267 -0.04773093 -0.027034607

conv1.bias f4 [32]
000000 89 70 59 bd cb e3 32 be e4 88 f9 bd d6 d9 18 3c
       -0.053085838 -0.17469709 -0.12184313 0.00932928
000010 76 8b 6a 3d 78 ba e0 3d 76 c0 14 3e e3 d2 9f bd
       0.057261907 0.10973066 0.14526543 -0.07803895
000020 23 6e e5 3d 8b f9 98 3c 86 b7 09 3d 4c fd f4 bc
       0.112026475 0.018673679 0.033622287 -0.029905938
000030 13 c5 70 bc 17 6b 56 3b 8f 5e 90 bd 4a d0 dd bd
       -0.014695424 0.003271764 -0.070492856 -0.108307436
000040 23 1d 31 bb 63 9a a9 3d 58 20 dd bc 9e 09 5a bd
       -0.0027025423 0.082814 -0.026992962 -0.053231828
000050 01 0a ad 3d f7 20 99 3c ff 81 41 3d 6b b7 43 bd
       0.08449174 0.018692477 0.047243115 -0.047782343
000060 f7 f5 3e 3d 99 bf b7 bd bd b5 d4 3d de 54 5c bd
       0.04662129 -0.08972091 0.10386226 -0.053791873
000070 89 17 ad 3c 55 cc fc bc 02 9e cd bd ae 31 a1 3d
       0.021129386 -0.030859152 -0.10039903 0.07870804

bn1.weight f4 [32]
000000 52 33 78 3f c7 1a 81 3f ab aa 80 3f 63 a0 8b 3f
       0.9695331 1.0086297 1.0052084 1.0908321
000010 6b ce 71 3f 1a 3a 78 3f 88 22 83 3f a8 e3 84 3f
       0.94455594 0.96963656 1.0244913 1.0381975
000020 8e cf 7a 3f b1 fa 82 3f b9 a0 7a 3f 85 e3 84 3f
       0.97972953 1.0232755 0.97901493 1.0381933
000030 2e ba 80 3f ec 7b 78 3f ab ee 80 3f b3 41 82 3f
       1.0056818 0.9706409 1.0072836 1.01763
000040 3c f6 81 3f a0 8c 83 3f 54 85 7d 3f 55 c6 88 3f
       1.015327 1.027729 0.9903157 1.0685526
000050 0b c4 7e 3f 99 29 82 3f e0 d3 7f 3f 11 e8 83 3f
       0.9951789 1.0168945 0.9993267 1.0305196
000060 99 2d 7c 3f 76 af 7d 3f 71 eb 80 3f 17 c7 81 3f
       0.98507077 0.9909586 1.0071851 1.0138882
000070 0e 30 79 3f a5 4b 7a 3f 42 49 72 3f d9 e3 82 3f
       0.9733895 0.97771674 0.9464303 1.0225784

bn1.bias f4 [32]
000000 86 68 67 bd 99 51 3e bd b6 d2 04 bc bd da 0b bc
       -0.056496166 -0.046464536 -0.008106878 -0.008536038
000010 98 2e 2e 3d a4 9b 8a bc 89 e5 19 bd 03 e9 8b 3c
       0.042524904 -0.016919918 -0.037572417 0.017078882
000020 ba 24 07 3c 51 54 91 bd 02 30 de bb 9e fd 02 bd
       0.008248502 -0.0709616 -0.0067806253 -0.03198015
000030 53 4c 95 3c c7 c3 92 3c cb 9c f4 bc 42 8d 83 bd
       0.01822487 0.01791562 -0.029859921 -0.06423427
000040 4a 43 ce bc c1 88 fa 3b 83 88 8d bd d7 08 88 bb
       -0.02517857 0.007645697 -0.06910803 -0.0041514444
000050 1e 84 5a 3d 4b 54 36 3c 71 c6 8b 3c 2b b8 59 3b
       0.053348653 0.011128495 0.017062398 0.0033221345
000060 e4 06 ed bd 06 61 f8 3c 8d 84 8d 3c 51 7a 60 3c
       -0.1157358 0.030319702 0.01727512 0.0137010375
000070 f5 f3 a4 bd bd 14 38 bd df 37 fc 3c 09 da a4 bc
       -0.080543436 -0.044941653 0.03078836 -0.020123499

bn1.running_mean f4 [32]
000000 ac 47 37 bd 39 8e 33 be 77 3e fd bd 26 01 41 3c
       -0.044746086 -0.17534722 -0.1236543 0.011780059
000010 ec 5c 78 3d 52 1e e2 3d 0a 2b 09 3e 71 63 9c bd
       0.060635492 0.110409394 0.13395324 -0.076361544
000020 7f 87 dd 3d f7 67 ba 3c 30 d0 b9 3c e2 f5 e4 bc
       0.108168595 0.022754652 0.02268228 -0.027949277
000030 aa 33 d1 bb 31 8b b2 bb 3d fd a8 bd e4 b1 f1 bd
       -0.0063843327 -0.005448722 -0.08251426 -0.11801508
000040 05 85 25 bc 18 e7 a9 3d e2 01 86 bc 13 fe 53 bd
       -0.010102515 0.08296031 -0.01635832 -0.051755976
000050 25 d1 b9 3d 9e e5 ea bb 0c 80 19 3d de fd 3b bd
       0.09073094 -0.007168486 0.03747563 -0.045896403
000060 a7 04 42 3d d3 d9 c2 bd 87 dd e4 3d c3 a6 80 bd
       0.047367718 -0.09514203 0.111750655 -0.06281807
000070 5e 59 a9 3c 35 69 ca bb ac e3 d5 bd 8f 06 95 3d
       0.020672496 -0.0061770924 -0.104438156 0.072766416

bn1.running_var f4 [32]
000000 d5 92 35 39 9b 9d 25 38 3f d5 8a 38 7e 64 e8 38
       0.00017316204 3.9485847e-05 6.620073e-05 0.0001108134
000010 93 17 8b 38 d2 33 20 38 df ae 93 39 9a b8 3f 38
       6.6324275e-05 3.8195234e-05 0.00028168314 4.5709872e-05
000020 f5 7c a3 38 7f 07 94 38 5f 11 87 39 bc c5 82 38
       7.795721e-05 7.058586e-05 0.0002576215 6.235714e-05
000030 17 d3 0c 39 d4 49 3e 39 d1 3e b2 39 e7 58 7d 39
       0.00013430078 0.00018147315 0.00033997608 0.00024161079
000040 dd 9e 27 39 20 6b 9d 38 fc fa 7c 39 3e 29 80 38
       0.00015985542 7.506297e-05 0.00024126092 6.1111976e-05
000050 db 3f 02 39 6a 3c 9e 3a 4f 14 64 39 7b ba 89 38
       0.00012421554 0.0012072448 0.0002175134 6.567404e-05
000060 f9 5c 65 38 fc d1 b6 38 de 28 0b 39 f8 9f 4f 39
       5.4684442e-05 8.717549e-05 0.00013271297 0.00019800651
000070 59 fa 3a 38 a1 fa 84 3a d1 64 8e 38 52 84 e6 38
       4.457901e-05 0.0010145494 6.789866e-05 0.00010991901

conv2.weight f4 [32, 32, 3]
000000 1c 2a 1f 3d d6 94 85 bd 08 2f 98 bd 4d 1a 82 bc
       0.038858518 -0.06522529 -0.074308455 -0.015881682
000010 a7 90 87 3d 37 e5 af bd 5b 3d a2 3d 7f 34 15 3d
       0.06619387 -0.08588641 0.07921859 0.036427017
000020 01 9b 36 3c 35 8c d6 bd 8f b7 53 bd c0 f2 9c bc
       0.011145354 -0.10475961 -0.051688727 -0.019158721
000030 eb 8b ca bd 89 35 90 bd f0 6a 4a 3d 34 10 6b bb
       -0.098899685 -0.07041461 0.04941839 -0.0035867812
000040 60 1f 48 bd 8c d2 4d bc 98 2a cc bd 40 e5 6a bd
       -0.048858047 -0.012562405 -0.099690616 -0.057347536
000050 0f b4 cf bd 30 d6 e8 3d ef ce 24 bd 9a cd ab bd
       -0.10141765 0.11368978 -0.04023641 -0.08388825
000060 5c fc 92 3c 09 9c 5b bd 8f 2c d5 3c d0 a0 75 bd
       0.0179426 -0.053615604 0.026022224 -0.059967816
000070 bb 10 f2 bb 95 02 4c 3d b8 d8 fe bd ff 97 6b bc
       -0.0073872483 0.04980715 -0.124436796 -0.0143795
000080 06 22 6c bb 43 fd 62 3d 1d 5c f1 bc 64 89 81 3c
       -0.0036031022 0.05541731 -0.029462868 0.015812583
000090 be 11 b3 bc d6 d4 5d bd 8f d1 9c bd 86 f1 59 bd
       -0.021859046 -0.054158054 -0.07657158 -0.05320885
0000a0 fb 21 54 3d 2f e5 35 bd 05 95 8c 3d 0c 31 47 3b
       0.05179022 -0.04440802 0.06864361 0.0030394224
0000b0 eb 21 23 bd 40 c0 5a 3d 11 2a 69 3d f3 f0 9d bd
       -0.03982727 0.053406 0.056924883 -0.07711973
0000c0 94 47 cf bd de 7d 81 bd a4 12 82 bd e8 62 a0 bd
       -0.10121074 -0.063228354 -0.06351212 -0.07831365
0000d0 b6 b0 67 3d 1e be 2a 3d 1b 41 4c 3d 3f 36 3c bc
       0.05656501 0.041685216 0.049866777 -0.011487543
0000e0 1f 00 89 bc b9 6b df 3d c0 8c 0c 3d a1 c7 2c be
       -0.01672369 0.10909218 0.034313917 -0.16873027
0000f0 18 3c db bd f0 e4 05 3b 66 77 73 bd 4a 46 01 bd
       -0.10704821 0.0020430647 -0.05944004 -0.031561173
000100 10 d0 74 3c b1 d8 40 3d 25 c1 72 bd a9 7e 95 bc
       0.014942184 0.047081653 -0.05926623 -0.018248873
000110 c5 10 b0 3c 4e 81 af bd 2e 41 07 3d 06 d1 ff 3b
       0.021492371 -0.08569585 0.033021145 0.0078069
000120 39 48 08 3c 62 87 ee 3d 11 5b 88 bc 97 c4 aa bd
       0.0083180005 0.11646916 -0.016644986 -0.08338278
000130 96 4e 2a bd c3 ad 9f bc 61 33 61 3c f2 23 16 3d
       -0.04157885 -0.019492036 0.01374516 0.036655374
000140 d5 67 aa bc 03 1a ba bd 41 e9 b6 bd 28 74 aa 3d
       -0.020801464 -0.090869926 -0.089312084 0.08322936
000150 21 9f 38 3d b9 08 2f 3d e2 d8 80 3b 63 83 2c be
       0.045073632 0.042732928 0.0039321044 -0.16846995
000160 8a 5e 5f bd 72 d0 f5 bb 34 75 55 3d 1c 7c cf 3c
       -0.05453352 -0.0075016553 0.052113727 0.025327735
000170 07 82 1a be 7c 7f 0b bd a0 2b c1 3d 6b cb 83 bc
       -0.15088664 -0.034057125 0.09432149 -0.016088208
000180 ee 0a 4a 3a 32 f2 d6 bd 1c c7 d9 bd 6e 00 13 3d
       0.0007707317 -0.10495414 -0.1063368 0.03588908
000190 a4 9a 93 bd f2 57 c2 bd 47 2c 28 bd b6 78 fe bc
       -0.0720723 -0.094894305 -0.04105785 -0.031063419
0001a0 e6 d9 25 3d 64 82 ac bd f0 13 3b 3d 3f e8 57 3c
       0.040491007 -0.084233075 0.04567331 0.01317793
0001b0 71 9d 3e bc 4f a0 70 bd ce c4 ba 3d 1c df 39 bd
       -0.011634217 -0.058746632 0.09119569 -0.04537879
0001c0 36 21 25 3d 1b 75 4a bd 5c 98 c7 3d 9c 0c 22 3d
       0.040314876 -0.049428087 0.09745857 0.039562806
0001d0 db 77 4a 3d aa 92 8d ba 5a 21 a8 bb ac 48 4b bd
       0.04943071 -0.0010801156 -0.005130929 -0.049629852
0001e0 71 3e bf bb 94 e6 19 bb f6 8e c3 3d 40 08 67 3d
       -0.005836301 -0.0023483383 0.09548752 0.056404352
0001f0 31 61 a8 bd a1 1a cf 3d c0 c0 8f bc e5 c8 51 bd
       -0.08221663 0.10112501 -0.017547965 -0.05121698
000200 36 12 fa bd 68 2d ee 3b ed 4e 91 bd 12 76 28 bd
       -0.12210505 0.0072685964 -0.07095132 -0.041128226
000210 85 fe 31 3d b9 f6 ac 3d 07 8f 01 be 6d c7 c7 3d
       0.04345562 0.08445496 -0.12652217 0.09754834
000220 4b 8c fe 3d 2e c0 52 3d 82 25 89 bd d2 1c 8b bd
       0.124291025 0.051452808 -0.06696607 -0.067926064
000230 c3 75 47 bb 2f 11 d8 3d b6 ad d8 3c 3e a5 ed 3d
       -0.0030435182 0.105501525 0.02645002 0.11603783
000240 9a 62 03 3d 3d 3f 7c 3d 50 fb 3c 3d d5 dc 9e 3d
       0.032076456 0.061583746 0.046138108 0.07756964
000250 40 9a 4b 3d 44 d8 96 3d 6b 5f 38 3d 64 21 51 bd
       0.04970765 0.07365468 0.045012873 -0.051057234
000260 8e e5 52 3c ca 94 3f 3d 48 ab 04 3e ec 50 bb bd
       0.012872113 0.046772756 0.12955964 -0.09146294
000270 b9 18 28 3b 27 ae a3 bd 47 0d d7 bd 71 37 36 bd
       0.0025649501 -0.07992201 -0.10500579 -0.044486467
000280 ab 3c 58 bb 31 85 88 3c ff d5 f2 3d ae 80 8f 3d
       -0.0032995145 0.016665073 0.11857223 0.070069656
000290 3c b5 b4 3c ca 24 e3 3b d2 9c 84 bd 37 80 56 3d
       0.022059076 0.006931876 -0.064752236 0.05236837
0002a0 b7 28 85 3d 59 6d bf 3c ad cb b0 bd dd 8f ae bc
       0.06501906 0.02336757 -0.08632598 -0.021308834
0002b0 e9 54 97 3d b0 6d 0f 3d c8 0e 64 bc 6b a6 fc bd
       0.07389242 0.035016716 -0.01391954 -0.12336429
0002c0 39 fe 08 bd c4 3d 59 3c 4c d2 b1 bd 00 7a 56 bd
       -0.03344557 0.013259355 -0.08682689 -0.052362442
0002d0 6e af 61 3d 42 ea dd bc 28 2a e6 bb 3d ea b3 bc
       0.055098943 -0.027089242 -0.0070240684 -0.02196228
0002e0 8d c9 a8 3d e3 55 ae bc f5 1f 98 3d 51 f1 f7 bc
       0.08241568 -0.021281188 0.0742797 -0.030266436
0002f0 11 6f 63 3d 27 ed 1a bd 0a ba f0 3d fa 4d 08 bd
       0.055525843 -0.037823822 0.11754234 -0.03327749
000300 b4 fe 42 3d 0b 49 3b 3d 4e 30 00 be 35 bb 94 bd
       0.047606185 0.045723956 -0.12518427 -0.072622694
000310 77 8f 2a bd 25 a7 56 bd c0 d3 68 bd a1 a1 02 3d
       -0.041640725 -0.052405495 -0.056842566 0.031892423
000320 87 8d f5 bd 64 80 ef bd 69 7b 33 bd 18 b2 b6 bd
       -0.11989885 -0.116944104 -0.043818865 -0.089206874
000330 c2 05 9f bd 4a e3 f9 3c 53 94 ff bc 69 a2 a3 3d
       -0.0776477 0.030503888 -0.031198656 0.07989962
000340 0a 0f 13 be e9 3c 1c 3c c5 ce 6a bc e4 62 2b 3c
       -0.14361206 0.0095360065 -0.014331524 0.010460589
000350 2f dd a7 bc 07 94 0b 3c 5f c1 35 3d a5 6b f6 bd
       -0.02049121 0.008519179 0.044373866 -0.1203225
000360 83 7d 15 b9 c9 a7 a8 3c 9c 47 a7 3d 13 09 9e 3d
       -0.00014256504 0.020587819 0.08167955 0.077165745
000370 a8 45 ab bc bd 9a 5a bd 6e 71 bd bb 2a 47 9c bd
       -0.020907238 -0.053370226 -0.005781344 -0.07630761
000380 09 e6 6e 3d 95 e7 9e 3d f4 a7 a4 3d 0c ec 93 bd
       0.058324847 0.077590145 0.08039847 -0.07222757
000390 68 f1 96 bc 6d 5c 76 3d ca e8 84 bd d9 1b 83 bd
       -0.018425658 0.060146738 -0.064897135 -0.06401796
0003a0 6c 1f 29 bd b8 b7 8c bb 0c a9 59 3d 2a 44 e3 bc
       -0.04128973 -0.004294362 0.05313973 -0.027742464
0003b0 62 54 0a 3c dd 0e a3 3d 1c f6 98 3b 31 b6 04 3d
       0.00844297 0.07961819 0.0046680104 0.032400314
0003c0 f5 a1 4d 3d ae 5f d1 bc 17 60 38 3b 53 77 9d bc
       0.050203282 -0.025558319 0.0028133446 -0.019221937
0003d0 59 05 f5 bc b1 34 20 be 71 b0 f7 3c 9f 1f c9 3d
       -0.029909777 -0.156451 0.030235501 0.09820484
0003e0 a7 20 4d 3d 63 85 7f 3d 3f 86 63 bb 19 8f ab 3d
       0.050079968 0.062383067 -0.0034717468 0.08376903
0003f0 8c 16 fa bd 83 35 fd 3b 75 60 4b bd e9 6a d5 3d
       -0.12211332 0.0077273264 -0.049652535 0.10420782

conv2.bias f4 [32]
000000 cc 83 ff bc aa f1 38 3d 9a 09 0e 3d 90 4d f9 3c
       -0.031190775 0.045152344 0.034677126 0.030432492
000010 ee 9d 97 3d 81 87 20 bd 8d 0b 35 3d 55 92 63 3c
       0.074031696 -0.039191727 0.04420047 0.013889869
000020 6f c9 c1 3d 36 02 5f 3d 72 19 80 3d 13 b0 09 3d
       0.094622485 0.054445468 0.06254853 0.033615183
000030 19 d0 b7 bd 02 ec 8a bc d7 07 a6 3d 3a c7 0d 3c
       -0.08975238 -0.01695824 0.08106964 0.008653456
000040 fb 02 b3 bc 17 5e 8b bd 3f 28 05 3e 21 da 95 3d
       -0.021852007 -0.068050556 0.13003634 0.073169954
000050 4f 82 af 3d 16 ce ca 3d 0d 2b 02 3d d9 ab 17 3d
       0.08569776 0.09902589 0.031779338 0.03702912
000060 f1 20 5a bd e5 c6 30 3c eb 7f 4a 3d b7 b3 49 bd
       -0.05325407 0.010789608 0.0494384 -0.049243655
000070 fc e6 cb 3d 7d 52 d2 bc 71 5f 6c 3d 1e d8 91 3d
       0.09956166 -0.0256741 0.057708208 0.07121299

bn2.weight f4 [32]
000000 c5 e5 83 3f f2 c4 70 3f 51 18 84 3f 5a df 8b 3f
       1.0304495 0.94050515 1.0319921 1.0927536
000010 bc b6 8a 3f ba ca 82 3f a0 41 86 3f d4 01 7a 3f
       1.0837016 1.0218117 1.0488777 0.9765904
000020 12 ce 7b 3f 66 dd 7b 3f 49 10 87 3f 02 8b 6e 3f
       0.98361313 0.983847 1.0551845 0.9318086
000030 41 49 82 3f 4b 9c 86 3f fe 76 87 3f 58 2c 82 3f
       1.0178605 1.0516447 1.0583189 1.0169783
000040 ca e4 80 3f 07 8e 81 3f a6 65 77 3f 90 4a 74 3f
       1.0069821 1.0121468 0.9663948 0.95426273
000050 38 fa 81 3f 2e 6d 83 3f a3 17 7f 3f ab 0c 80 3f
       1.0154486 1.0267694 0.9964544 1.0003866
000060 62 0b 72 3f 31 72 7d 3f 2f 09 81 3f fd 09 7c 3f
       0.9454862 0.9900237 1.0080928 0.9845274
000070 4c 53 7a 3f 21 9e 85 3f a2 80 88 3f bd f4 80 3f
       0.9778335 1.0438882 1.0664256 1.0074688

bn2.bias f4 [32]
000000 c6 c1 41 bd 5b 29 57 bd 9a 8a d6 bc e9 55 f7 3b
       -0.047303937 -0.052529674 -0.026189137 0.007548083
000010 e4 8a 8b 3b 68 3e c3 bc dd 8a 1c 3d a3 10 3a bc
       0.0042585004 -0.023833469 0.038218368 -0.011356506
000020 33 7f 54 bd 2e c8 97 bd 3d b2 e6 39 f3 3f 93 bd
       -0.05187912 -0.07411228 0.00044001816 -0.07189932
000030 ed 56 25 3c 0f 33 b4 3d c7 3c 9c bc 8d 1d 05 bd
       0.0100915255 0.08798801 -0.01907195 -0.032498885
000040 90 63 0c bd 6e 86 81 bd 5f 12 6f 3d 0c 02 a7 bd
       -0.034274638 -0.063244686 0.05836713 -0.08154687
000050 46 41 9f bd b1 74 d6 bc 8b 72 34 bd fb e7 95 bc
       -0.07776122 -0.02617869 -0.04405455 -0.018299093
000060 21 e3 a1 bd a9 8c 03 3d e2 e6 ca bc fb 1b c2 bd
       -0.079046495 0.032116566 -0.024768297 -0.09477993
000070 64 7e 8f bd b6 bf 22 bc 15 19 02 3e 95 4b ee bb
       -0.07006529 -0.009933403 0.1270488 -0.0072721937

bn2.running_mean f4 [32]
000000 4f 06 4d bf 64 b3 10 3e 30 eb 77 be 93 89 45 be
       -0.8008775 0.14130932 -0.2421081 -0.19290762
000010 7f c9 a2 be 7d 9b 66 be 09 13 b4 be 74 85 a0 be
       -0.31794354 -0.22520252 -0.35170773 -0.31351817
000020 47 dd a4 bd 6b a9 f1 be 00 e1 e7 be 7c 34 7f 3e
       -0.08050018 -0.47199568 -0.4528885 0.24922365
000030 3b f5 b6 be 05 d6 a6 be d6 b0 04 bd ff 71 ca be
       -0.3573397 -0.3258516 -0.032395206 -0.39540097
000040 f3 09 a4 be e9 60 03 bf 6b b4 01 bd 63 1b 95 3d
       -0.3203884 -0.5131975 -0.0316662 0.07280614
000050 9b 5e 7a 3f 0a bf cc bd 50 e7 b6 be 02 a8 a1 3e
       0.97800606 -0.09997375 -0.35723352 0.31573492
000060 69 b6 11 3f ce 11 55 be de 6c 39 3e 9a 74 ef be
       0.5691896 -0.20807573 0.18107936 -0.46768647
000070 7e 36 44 be e6 8d cd bd 6b 0c b8 3d 03 db ab 3e
       -0.19161412 -0.100368306 0.089867435 0.3356553

bn2.running_var f4 [32]
000000 e9 b9 8c 3e 17 91 cf 3e c6 47 e8 3e 9d 26 31 3e
       0.27485588 0.40540382 0.4536726 0.17299886
000010 67 c8 54 3e a0 d1 9b 3e 6e 11 81 3e 05 08 74 3e
       0.20779572 0.3043337 0.2520861 0.23831184
000020 4c 76 1c 3e cc 6e 61 3e 55 7c d6 3e 42 ce 45 3e
       0.15279502 0.22014922 0.41891733 0.19316962
000030 ce d4 0e 3e 6e 7a 26 3e 10 87 4f 3e e2 de 21 3e
       0.13948366 0.1625764 0.20266366 0.1580768
000040 08 ee 71 3e 3b 44 92 3e ce 85 96 3e be b6 49 3e
       0.23625958 0.2856768 0.2939896 0.19698617
000050 76 eb d7 3e 05 84 1d 3e 18 79 5d 3e b2 dd 8a 3e
       0.4217183 0.15382393 0.21628225 0.27122265
000060 6e d2 85 3e ad b3 8f 3e d6 8a d9 3e fb 14 93 3e
       0.26137108 0.2806677 0.42488736 0.28726944
000070 93 bd 56 3e 61 5d 24 3e fa bd 3a 3e b2 50 11 3e
       0.20970754 0.16051246 0.18236533 0.14190939

conv3.weight f4 [64, 32, 3]
000000 58 f0 cd bd 07 a7 aa bd d4 cb f0 ba 26 4a a1 3d
       -0.100556076 -0.08332639 -0.0018371292 0.07875471
000010 62 60 95 bd 35 03 47 bc ef ba ae bd f9 7b ff bc
       -0.07293774 -0.012146761 -0.085317485 -0.031187044
000020 e7 19 48 3c f8 c9 b9 3c 0e 0c 59 3d d3 4f 85 bc
       0.012213207 0.022679314 0.052990012 -0.016273415
000030 3e 15 ee bd 86 58 17 be 02 87 32 be 3a 7c 0a 3e
       -0.116251454 -0.14779863 -0.17434314 0.13523951
000040 88 38 8b bc 55 87 ed 3d 92 55 49 be 30 33 d2 bd
       -0.01699473 0.11598078 -0.19661549 -0.102636695
000050 7c 2f 88 3d 62 cb a6 bd 25 fb e9 bd c3 3a 8e 3d
       0.06649682 -0.08144261 -0.11424855 0.06944802
000060 6a 76 3f 3d 01 cf f8 bd fd d4 dc 3d 6a 2f 50 3d
       0.046743788 -0.12148858 0.10782812 0.050826468
000070 fd 96 f4 bd 34 7c 14 3d cd ed e9 ba 8f 53 a2 bd
       -0.11942861 0.03625126 -0.0017847359 -0.07926094
000080 28 a5 82 3d 8f a7 01 3e d7 9c 04 3d f6 5f 93 3d
       0.06379157 0.12661575 0.032376137 0.071960375
000090 7a 7f c3 bc 67 c2 e9 bd ef 84 96 3d a8 bf 82 bd
       -0.023864496 -0.114140324 0.07349574 -0.06384212
0000a0 18 52 c9 3c 62 ff af bd 6a 38 71 3d 51 cc 3d 3c
       0.024575278 -0.08593632 0.05889169 0.011584357
0000b0 96 72 1f 3e 64 18 42 bd 57 dd 66 bd 39 94 3a bd
       0.15571055 -0.047386542 -0.05636343 -0.045551512
0000c0 4a b4 80 3c 6e 57 85 3d b1 a5 5a bd 29 96 be 3d
       0.015710969 0.065108165 -0.053380672 0.093059845
0000d0 c4 f6 d3 ba 13 89 8b bd 20 fa 41 3d a0 b1 d1 bd
       -0.0016171564 -0.06813254 0.04735768 -0.102389574
0000e0 67 c5 7c bd d7 70 06 ba 7a 4b d8 bd b7 94 72 3c
       -0.061711695 -0.0005128509 -0.10561271 0.014805964
0000f0 4f 27 40 bd 08 34 01 3d c6 a1 11 be 5c 53 9f bd
       -0.046912488 0.03154376 -0.14221868 -0.077795714
000100 a2 8d 32 3d 48 64 7a bc 63 df 1a bd 1e 03 81 bd
       0.043592103 -0.015282698 -0.037810694 -0.06299423
000110 3f ac da 3d 13 56 01 3e b4 f8 63 3c 84 e0 de 3d
       0.106773846 0.12630491 0.013914276 0.10882667
000120 6d 43 5d 3d 15 b5 83 3d d5 e2 6d 3d 82 18 ad b8
       0.05401938 0.06431023 0.058077652 -8.253848e-05
000130 4c 6f 22 bd 1b ae d5 3b 81 2a 19 bd 0b 80 76 bd
       -0.039656922 0.006520999 -0.03739405 -0.060180705
000140 f2 b5 b9 3c 88 6d a9 bd 40 9a ce bb 19 3f a0 bc
       0.022669766 -0.082728446 -0.006305009 -0.019561337
000150 9d e4 19 bd da e9 13 bd 84 6f af bd 4e 35 85 3d
       -0.03757154 -0.03611169 -0.08566192 0.06504308
000160 c4 c2 34 3d 44 e8 74 3d 7a c3 f1 3c 10 62 4e bd
       0.044131055 0.05979182 0.029512156 -0.05038649
000170 03 8d c2 bc 55 5e 0f 3d ae 06 3a bd 10 e4 54 bd
       -0.02374888 0.03500207 -0.045416526 -0.05197531
000180 ef e5 1b bd 7b da 81 3d 35 08 1b 3d e2 54 a1 3c
       -0.03806108 0.063405 0.037849624 0.019693796
000190 30 14 a4 bd 81 d0 26 3c dd c6 28 3d 2f 9d 10 be
       -0.08011663 0.010181547 0.041205276 -0.14122461
0001a0 96 0a b7 3c ac 6b ce bd 1f 9a 1f 3d 21 65 37 be
       0.022343915 -0.100791305 0.03896534 -0.17909671
0001b0 ab 93 a6 bd c6 f9 00 be cb e6 9b bd 1c db ab 3d
       -0.08133634 -0.12595281 -0.0761238 0.08391401
0001c0 0a f7 36 3d 8d 2c a3 3d e6 eb ba bd fa 50 13 be
       0.04466919 0.07967482 -0.09127025 -0.14386359
0001d0 6c 99 42 3d 7c 14 37 bd f4 c9 a9 3d a7 96 60 bd
       0.047509596 -0.04469727 0.082904726 -0.054831173
0001e0 9b c4 d1 3c 55 8d 05 3d 72 f0 39 3d a0 85 04 3e
       0.025606444 0.032605488 0.045395322 0.12941599
0001f0 b5 f7 76 3c a4 db f6 3c 76 33 51 bc 6d ca 06 ba
       0.015073706 0.03013403 -0.012768617 -0.0005141858
000200 74 84 4a bd f1 86 44 bd c9 de 0b bd f9 47 45 bd
       -0.049442723 -0.047980253 -0.03414801 -0.04816434
000210 39 51 73 3c 85 5f 80 bd fa af e0 bd 5d 15 00 bc
       0.014850908 -0.06268219 -0.10971065 -0.007817593
000220 cd 16 c4 3b 0d d4 25 3d b2 59 e7 3c 6d aa 09 3d
       0.0059841634 0.04048543 0.028241012 0.033609796
000230 07 14 45 bd 82 02 66 3d 98 e3 39 3c 89 11 1f 3c
       -0.048114803 0.056154735 0.0113457665 0.009708771
000240 33 29 97 3d d4 5b 2d 3c 48 7e 42 3d b5 b8 ee bc
       0.07380905 0.010580976 0.047483712 -0.02914081
000250 8a d2 2d be f8 7a ad bd a8 2f c2 3d f8 66 68 bc
       -0.16974846 -0.0847072 0.09481746 -0.014184706
000260 41 14 17 3d 8d 86 59 3d 1b 71 6d 3d aa 17 cf bd
       0.03688455 0.053106833 0.057969194 -0.101119354
000270 3d c1 bb bd 99 74 99 bd 2d 9b ae bd 6c 03 ae bd
       -0.09167717 -0.07492942 -0.08525691 -0.084967464
000280 30 8d 27 bd 5d e3 6b bc 0a b2 c0 3c 7f e6 ae bb
       -0.04090613 -0.014397469 0.023522396 -0.005337536
000290 c4 8e 22 3b 2c a8 da 3d 11 44 7c bc a9 61 df 3d
       0.0024804333 0.106766075 -0.015397088 0.10907299
0002a0 f6 35 82 3c 15 29 4b bc 0b 5d 3a bb 00 db ad 3d
       0.015894871 -0.012399931 -0.0028436806 0.084890366
0002b0 d7 ee ed bc 8c 3d a8 bd 89 ec 47 3d 2b 19 b5 bd
       -0.029044552 -0.08214864 0.048809562 -0.08842691
0002c0 b8 f8 28 be c4 d8 a3 bd 54 5b 8a 3c f5 97 7b 3d
       -0.16501129 -0.08000329 0.016889252 0.061424214
0002d0 75 b5 e9 bc 41 a4 5b bd 56 fa 59 3d 4e 6b 0e 3c
       -0.028528908 -0.05362344 0.053217255 0.008692576
0002e0 d1 fa 45 3d d4 31 2f 3c 26 e9 cc 3a fa 29 97 bd
       0.0483349 0.010693032 0.0015633448 -0.07381053
0002f0 cd e0 b8 bd 7e 37 2e bc fe 20 b4 3c ba 45 ab 3a
       -0.09027252 -0.010633348 0.021988388 0.0013067045
000300 56 6b 9a 3d 2b 7b 9b bc f1 46 ec bd 53 32 9e 3d
       0.07540004 -0.01897963 -0.115369685 0.07724442
000310 5c 3e c1 bd 24 8d 10 be b0 96 ae 3d 35 11 dc bc
       -0.09435722 -0.14116341 0.08524835 -0.026863674
000320 4e a5 be bc 39 34 6f 3d 9c 9e 0f be 98 85 bf 3d
       -0.023272183 0.058399413 -0.14025348 0.09351653
000330 94 6a 9b 3c 63 af c4 3d 68 8b db 3d fa 63 e6 3c
       0.018971719 0.09603765 0.10719949 0.028123844
000340 7e 61 87 bc f1 73 15 3d 67 9a 74 3d 9f 44 8a bc
       -0.01652598 0.036487523 0.059717562 -0.016878424
000350 40 fa 1a 3d ec ab 33 3b 28 9d 9d bd 7e 11 04 be
       0.037836313 0.0027415706 -0.07695991 -0.12897298
000360 58 76 9f 3c c3 92 9e bd 89 6c 83 3d fe a9 32 3c
       0.01946561 -0.07742836 0.06417186 0.010904787
000370 c9 8a 15 3d 1f 77 60 3c 03 fd 9c bd f1 0c 68 3d
       0.03650931 0.013700276 -0.07665446 0.056652967
000380 78 5b a3 3c e7 bd 14 3d 5b e3 38 bd bf 6c b3 bd
       0.019941077 0.036313917 -0.045138698 -0.08760976
000390 74 63 c2 3c 3e 68 05 3c 19 9d d4 3d 7a 5c 57 3d
       0.023729064 0.008142529 0.103815265 0.052578427
0003a0 17 6a 2f bc ca 87 cd bd 21 ef 17 3d 49 01 39 3d
       -0.010706446 -0.10035665 0.037093285 0.04516724
0003b0 4e 98 b5 3d 44 84 11 3d 6c 9d 74 bd 3e c4 16 bd
       0.088669404 0.03552653 -0.05972044 -0.036808245
0003c0 b5 ba 41 3d eb c9 5d 3d 5b d8 8b bd 4e 77 bb 3c
       0.0472972 0.054147642 -0.06828376 0.022884037
0003d0 0f 21 20 bd 43 4e 34 bd c0 f7 a0 3c c9 1e 6a bd
       -0.039094027 -0.04401995 0.019649386 -0.057158265
0003e0 93 21 b1 bd 0e a0 33 3b 82 9b 94 bc e8 e6 d8 3c
       -0.08648982 0.0027408632 -0.018140558 0.026477292
0003f0 ba 8e ca bd 88 f6 28 3d 96 f1 3b bd 5d 9b ef 3d
       -0.09890504 0.041250736 -0.04588469 0.11699555

conv3.bias f4 [64]
000000 62 7c 70 3d 1f 82 36 3d 26 eb 29 3d 6d f1 e3 bd
       0.05871237 0.044557687 0.04148402 -0.11130033
000010 3c 93 a8 bc e6 6a df bc 2d 39 8f 3a 86 e9 00 3d
       -0.02057802 -0.027272653 0.0010927074 0.031472705
000020 88 c6 b5 3d 69 54 52 bd a3 8c 35 3d a3 61 77 3c
       0.088757575 -0.05135003 0.044323575 0.015098962
000030 d4 1a 72 3d f4 64 cd bc af 74 8c bd af 46 ab bd
       0.059107617 -0.025072552 -0.06858193 -0.08363091
000040 98 7b bf bc 0d e0 6c 3d 2f d2 a9 3c f3 c6 5f 3d
       -0.023374364 0.05783086 0.020730106 0.054633092
000050 ef ca a8 bd 17 3f 05 bd d5 6e f6 3c 94 e5 64 3c
       -0.082418315 -0.03253087 0.030082146 0.013970751
000060 1e e4 0b 3c 21 e1 6b bc be 42 0f 3d b5 22 9a 3d
       0.008538274 -0.014396937 0.03497576 0.07526151
000070 b1 47 9c 3c ea 1d b9 3d 6e 21 01 3e 72 7b 26 3c
       0.019077154 0.09038909 0.12610409 0.010161268
000080 3a 55 c5 bd 2e f5 3c 3d e9 63 96 bb 55 69 c7 ba
       -0.09635396 0.04613226 -0.004589547 -0.0015213887
000090 02 48 ab 3d 9b df 8c bc 2d 54 fe 3c 8e f1 ac 3c
       0.08363344 -0.017196467 0.031045998 0.021111276
0000a0 d3 dc e7 bd 7e fb 91 3d 5b 85 0a bd 9f 65 83 3c
       -0.11321416 0.071280465 -0.033818584 0.016039668
0000b0 b7 e4 e6 3d 13 6d 77 3c 3e 98 17 bd 50 18 61 bd
       0.11274093 0.015101689 -0.037010424 -0.054954827
0000c0 7f c7 80 3d 7c 99 aa bc 7f 65 98 b9 61 4d a6 bb
       0.06288051 -0.02082514 -0.0002906732 -0.0050751423
0000d0 38 cd 2b bd 77 22 9a bd 56 8f 12 bd 4e 8f b3 3d
       -0.04194376 -0.07526105 -0.035781227 0.087675676
0000e0 3b 0e 12 bd 61 5d 9b bd 37 47 5a bd 50 49 86 bd
       -0.035658102 -0.0758617 -0.053290572 -0.06556952
0000f0 fb af 76 3d 12 f6 2f bd 83 38 57 3d 22 b5 cf bd
       0.06022642 -0.04295928 0.05254413 -0.1014197

bn3.weight f4 [64]
000000 8d 9a 80 3f d3 72 7f 3f 21 1f 7b 3f cf 92 80 3f
       1.0047165 0.9978458 0.98094374 1.0044802
000010 9c bb 81 3f 09 61 75 3f 31 4b 6d 3f 4d 22 86 3f
       1.0135379 0.9585119 0.9269286 1.0479218
000020 06 d7 82 3f 65 7e 8b 3f 10 91 7e 3f b2 57 6b 3f
       1.022187 1.0897948 0.994401 0.9193069
000030 68 56 8b 3f da 18 7f 3f fd 4e 81 3f c2 8f 66 3f
       1.0885744 0.99647295 1.010223 0.90063107
000040 4a 36 7a 3f b8 2a 72 3f b5 92 7b 3f 08 38 80 3f
       0.9773909 0.94596434 0.9827073 1.0017099
000050 d5 93 7a 3f 2d 93 89 3f 3c 95 89 3f a4 ba 82 3f
       0.97881824 1.074804 1.0748668 1.0213208
000060 7a 89 80 3f 56 56 73 3f 8f 7d 81 3f e3 33 79 3f
       1.0041955 0.95053613 1.0116442 0.973448
000070 67 74 86 3f e7 1f 89 3f 41 ac 87 3f 1d f9 6a 3f
       1.0504273 1.0712861 1.0599443 0.91786367
000080 20 89 74 3f 09 2f 7c 3f 46 24 85 3f 9d 1f 8a 3f
       0.95521736 0.9850927 1.0401695 1.0790898
000090 ff 1b 84 3f 60 1a 83 3f b6 ff 75 3f a3 3c 85 3f
       1.0321044 1.0242424 0.9609331 1.040913
0000a0 7f 02 80 3f ab 1c 81 3f 8d 01 6e 3f 18 42 61 3f
       1.0000762 1.0086874 0.92971116 0.87991476
0000b0 4a 8e 8c 3f 95 e3 8d 3f cb 2f 82 3f 2e a3 88 3f
       1.0980923 1.1085078 1.0170835 1.0674798
0000c0 93 18 81 3f ee 48 6f 3f 7f 8a 84 3f 1b a7 6b 3f
       1.0085624 0.93470657 1.0354766 0.9205186
0000d0 33 68 83 3f e4 2f 84 3f 18 92 6c 3f 43 96 87 3f
       1.0266174 1.0327115 0.9241042 1.0592731
0000e0 4e a8 71 3f 63 ae 85 3f 48 fa 85 3f c2 c4 86 3f
       0.9439744 1.0443844 1.0467005 1.0528796
0000f0 1a e5 84 3f 58 af 6b 3f de c7 78 3f 04 0c 83 3f
       1.0382416 0.9206443 0.97179973 1.0238042

bn3.bias f4 [64]
000000 0e c3 ba bd a3 37 32 bd c9 30 95 bd 3c df 29 bd
       -0.09119235 -0.04351009 -0.07284696 -0.04147266
000010 be f0 9f bc 00 ea 00 be f7 a5 b0 bd 17 b2 19 be
       -0.019523975 -0.12589264 -0.08625405 -0.15009342
000020 42 30 35 bd c6 49 8f bd 86 7d fc bd c7 ef 0f be
       -0.044235475 -0.06996493 -0.12328629 -0.14056312
000030 4e 22 da bd 85 9c 9e bd e5 0c 95 bd 3b ea f3 bd
       -0.10651074 -0.077446975 -0.0727785 -0.1190991
000040 00 ac bb bb 83 c3 95 bd b1 af a4 bd 90 47 75 bd
       -0.005727291 -0.073126815 -0.08041323 -0.0598827
000050 14 3b 19 3d 56 f6 ae bc dd bf 78 bd f0 a6 a4 bd
       0.037409857 -0.021357697 -0.06072985 -0.08039653
000060 63 e2 97 3c 6d 03 4d be 10 dc ca bd 9b 8b cc bd
       0.018540567 -0.20020838 -0.09905255 -0.09987565
000070 7e 69 64 bc 8a 33 b3 bd 07 ac fe 3b 06 73 65 bd
       -0.013941167 -0.08750065 0.007771972 -0.056017898
000080 9e f3 10 be 58 01 c6 bb e1 6a 07 3d b9 8d 5e ba
       -0.14155433 -0.0060426407 0.033060912 -0.0008489746
000090 35 a4 67 3a 43 aa 60 bd 01 79 a0 bd 6c a2 14 bd
       0.00088364194 -0.054849874 -0.0783558 -0.03628771
0000a0 b7 2b c4 bd 15 10 c5 bd dc 8a ac bd df d7 be bd
       -0.095786504 -0.09622208 -0.08424923 -0.09318518
0000b0 6f f1 21 bc 77 af 0e be b8 43 58 bd 9b ab ec bd
       -0.009884222 -0.13934122 -0.052798957 -0.11556169
0000c0 e7 d4 be bd b6 69 c3 bd e4 d2 ea bc f5 a2 99 bc
       -0.09317952 -0.09541647 -0.028665014 -0.018754462
0000d0 99 d9 b6 bd f6 68 51 bc 66 32 1d bd 41 5a 75 3d
       -0.08928222 -0.012781372 -0.03837814 0.059900526
0000e0 8d 70 1b be 7d e6 82 bd e9 1a 43 bd ab 5c 39 bd
       -0.15179653 -0.063916184 -0.047633085 -0.04525439
0000f0 be 37 e4 ba 72 1a ea bd 18 20 bb 3c 69 9b a5 bd
       -0.0017411632 -0.11430825 0.022842452 -0.08086283

bn3.running_mean f4 [64]
000000 a9 bb b8 be 8b 01 d3 be 4d ef 10 bf 11 bc 95 be
       -0.36080673 -0.41212115 -0.56615144 -0.29245046
000010 41 bc 5c 3d 32 c1 f9 3c cc 37 fc 3e 8a 8d c8 be
       0.05389047 0.03048763 0.4926132 -0.39170486
000020 8b ab 78 bd 0f ad 38 bf 0f 1e 0b bf 59 35 f0 3e
       -0.06071047 -0.72139066 -0.5434274 0.469157
000030 33 8b 2d 3d fe ee 59 bf e8 00 a4 be bd 6c 82 be
       0.04236908 -0.851303 -0.3203194 -0.25473586
000040 52 af 42 bf 5f 3a 03 be cd 09 02 bf 24 67 22 3d
       -0.7604877 -0.12815236 -0.50796205 0.039649144
000050 76 1d 80 be d7 62 16 3d 89 6b 4f be 06 e0 35 bf
       -0.25022477 0.036715355 -0.20255865 -0.7104496
000060 12 7f 81 3d 4e 08 3b bf c9 13 32 bf 35 7a 3f 3e
       0.06323065 -0.73059547 -0.6956144 0.18698962
000070 f5 59 19 bf 15 97 37 bf 8d ac 41 bf c6 53 6e be
       -0.5990289 -0.7171491 -0.75653917 -0.23274145
000080 55 54 e8 be db 16 d8 bd 92 c1 28 bf 6f 49 4a be
       -0.4537684 -0.10551234 -0.65920365 -0.19754575
000090 7c 94 0b bf 28 d5 9b bd 2e c1 08 bf 10 5d 1e bf
       -0.54523444 -0.07609016 -0.5341977 -0.6186075
0000a0 88 c1 02 bf 0a 96 8c be 9c ef 71 be d9 14 35 bf
       -0.51076555 -0.2745822 -0.2362656 -0.70734936
0000b0 94 c7 cb be 51 35 49 be a3 a3 2f bf bd 3d ae be
       -0.39800704 -0.19649245 -0.68609065 -0.34031478
0000c0 c5 05 0f bf 06 2e 8d be d2 c9 4b bf 1f 04 3b 3e
       -0.5586818 -0.27574176 -0.7960483 0.18263291
0000d0 0f 39 84 be be 6d b8 be 20 c6 fb 3e cc cf 13 bf
       -0.25824782 -0.36021227 0.49174595 -0.5773895
0000e0 4d fc ec be 5b d4 d4 be 7b 19 17 bf 03 1a da be
       -0.4628624 -0.41568264 -0.59023255 -0.4259797
0000f0 dc be 83 bd 5d 2e a5 3c 0e 8d 64 be da a1 b6 be
       -0.06432888 0.02016371 -0.22319433 -0.35670358

bn3.running_var f4 [64]
000000 88 ba e0 3e 22 24 5d 3e c3 35 66 3e 31 f9 33 3e
       0.43892312 0.21595815 0.22481446 0.17575528
000010 8c 83 21 3e 7f 6f 45 3e 35 07 bf 3e 99 f0 91 3e
       0.15772837 0.19280814 0.37310186 0.28503874
000020 0d 7c 5e 3e e0 75 87 3e 7d 1f 48 3e e0 67 10 3f
       0.21727009 0.2645712 0.19543262 0.564085
000030 2e 16 43 3e f5 f7 96 3e 2c 78 84 3e af 59 bf 3e
       0.1905143 0.2948605 0.25872934 0.3737311
000040 15 29 27 3e 6b 9f d5 3e 8c a2 66 3e 0f cb ac 3e
       0.16324265 0.4172319 0.22522944 0.3374867
000050 06 6f 8c 3e 4e 62 82 3e 0a bb b7 3e d6 f8 81 3e
       0.27428454 0.25465626 0.35884887 0.2538516
000060 f1 e7 11 3e 76 f1 51 3e ed 75 38 3e 65 a7 1f 3e
       0.14248635 0.20502266 0.18013735 0.155912
000070 1c 4d db 3e c5 3b 95 3e ca 70 d2 3e 20 2e 94 3e
       0.42832267 0.29147163 0.41101676 0.2894144
000080 8b a6 69 3e c2 c5 38 3e 4c ae 1a 3f 76 f0 ab 3e
       0.22817437 0.18044189 0.60422206 0.33581895
000090 4b 6f a4 3e 01 e1 ad 3e 3d ba 20 3f 5f ee 36 3e
       0.3211616 0.33960727 0.6278418 0.17864369
0000a0 48 bc 43 3e b2 5b c0 3e 27 af ba 3e a8 fb 5a 3e
       0.19114792 0.37569958 0.36461756 0.21385062
0000b0 17 b8 90 3e d6 8b 24 3e 15 12 62 3e 8e 28 33 3e
       0.2826545 0.16068968 0.2207721 0.17495939
0000c0 85 a8 0c 3e 54 7e 59 3e ed fb af 3e 7c 1e a2 3e
       0.1373616 0.21239597 0.34371892 0.31663883
0000d0 a8 7a 46 3e c1 9f 1b 3e c9 27 0b 3f bf bd 38 3e
       0.19382727 0.1519766 0.5435758 0.18041132
0000e0 f8 b7 4a 3e 49 b2 0c 3e b6 a0 7d 3e 9e 93 c3 3e
       0.19796741 0.13739885 0.24768338 0.3819856
0000f0 f6 96 89 3e c4 0f eb 3d 6d 85 52 3e 7c ca 4e 3e
       0.26872987 0.114776164 0.2055871 0.20194429

conv4.weight f4 [64, 64, 3]
000000 39 2b 54 bd d0 c3 75 bd ca 2e 00 3c 56 f5 66 bd
       -0.051799033 -0.060001194 0.007823655 -0.056386314
000010 2e 01 6b bc 87 fd 41 bb b2 cf 6e bd fb c8 1e bd
       -0.014343543 -0.0029600577 -0.058303542 -0.03876589
000020 71 72 29 3c 68 ca 93 bc e8 1f 45 3d 6b 2a 3a 3d
       0.010342226 -0.01804085 0.04812613 0.04545061
000030 72 8b c1 bc 90 7a 41 bd 49 86 a5 bd b1 03 0b bd
       -0.023626063 -0.047236025 -0.080822535 -0.033939067
000040 70 80 51 bc 00 1c 32 bc db 3c 02 3d d0 0f 85 3a
       -0.01278697 -0.0108709335 0.031796318 0.0010151807
000050 93 84 30 bd 2a 2b 34 bd 14 68 02 bd 67 b8 d5 bb
       -0.043095183 -0.043986477 -0.031837538 -0.0065222266
000060 0d d1 c1 bb 92 f0 80 bd 9d 00 a2 bd 1c 18 8b bc
       -0.0059148134 -0.06295885 -0.07910273 -0.01697927
000070 40 5d 34 bc 4e 46 22 bd 73 4a c6 bb 0a cf f1 bd
       -0.011008561 -0.03961783 -0.0060513555 -0.11807068
000080 ae 23 d5 bb 45 ae f2 bd b5 e7 21 bd 74 72 4c 3c
       -0.0065044975 -0.118496455 -0.039527614 0.01247846
000090 45 2e d0 bc 70 0d 65 bd 53 ce 39 bd 1f b5 42 bb
       -0.025412688 -0.055921018 -0.04536278 -0.0029710007
0000a0 1b ee 86 3c 3b af e5 bc 8f 0d 98 3c be 69 90 bd
       0.01647096 -0.028037658 0.018561153 -0.07051419
0000b0 4b 96 d6 bc 34 63 77 bd a6 62 4b bc 9b 37 bd bd
       -0.026194712 -0.06039734 -0.012413656 -0.092391215
0000c0 8b 92 07 3d c5 2c f8 3d e4 5a f7 3b 99 00 22 bd
       0.03309874 0.12117914 0.007548677 -0.03955135
0000d0 ef b0 72 bc c9 b7 9c 3d 41 05 a6 bd cf 93 91 bd
       -0.014812692 0.07652242 -0.08106471 -0.071082704
0000e0 5c 42 d1 bc db 43 e4 3d 8f 67 2e 3c a4 92 fe bc
       -0.025544338 0.11145755 0.0106448075 -0.031075783
0000f0 e2 aa 97 3c 7b 7c 4f 3d 56 3a 9e 3d 13 ef 4f 3d
       0.0185141 0.050655823 0.077259704 0.05076511
000100 b1 3c bd bc 2b 67 c6 3c 20 21 2e 3d 94 c0 90 3c
       -0.023100229 0.024219116 0.04251206 0.017669953
000110 ef 92 d8 b5 7f d9 a2 bd 0f f8 59 bc d0 54 ed bd
       -1.6136017e-06 -0.0795164 -0.013303771 -0.11588442
000120 d0 36 e2 3d 88 f3 b4 3d 6d 79 50 3d b6 70 7e bd
       0.11045611 0.088355124 0.05089705 -0.06211921
000130 d0 2a 85 39 ef b3 bd 3b 71 eb 00 3d 44 93 a4 bc
       0.00025399635 0.005789272 0.031474534 -0.020089753
000140 9f db 8b 3d f4 2d f7 3d 20 21 c6 3d 73 73 c3 3d
       0.06828999 0.12069312 0.09674287 0.095435046
000150 d8 77 32 bd d6 e4 45 bd 07 1f b6 bc 1e a8 90 3d
       -0.043571323 -0.048313938 -0.022231592 0.07063316
000160 bd 20 34 bd cf 2d 23 3d 06 42 b0 bd 57 d6 17 3d
       -0.043976534 0.03983861 -0.08606343 0.037069645
000170 62 0f 28 bd f8 9e 08 bb 5d 9d 3a bd 76 16 43 3d
       -0.041030295 -0.0020846706 -0.04556023 0.047628842
000180 fe 4d 5c 3d b1 8b 55 3d cc 26 5f 3c 67 4a 17 bd
       0.053785317 0.052135173 0.01362009 -0.03693619
000190 27 b0 f5 bc 94 91 81 bb ec ad a3 3c a8 f0 5f 3c
       -0.029991223 -0.003954122 0.019980393 0.013668217
0001a0 a1 3f db 3c 8c fa 90 3d e2 90 aa 3d 0b 38 44 3d
       0.026763739 0.07079038 0.083284155 0.04790501
0001b0 d3 aa 1b bd 53 20 3a 3d a0 cf 98 bd 16 d6 fa bc
       -0.038004708 0.045440983 -0.07461476 -0.030619662
0001c0 3d 25 29 bd d9 a6 db bc 07 39 b7 3c e8 fd 7e 3d
       -0.04129528 -0.026812958 0.02236606 0.062253863
0001d0 2a 5e cf bd b2 5f c8 bc 9d a0 81 3d 8c 89 ef bc
       -0.10125382 -0.024459694 0.06329463 -0.029240392
0001e0 88 34 3c 3b 46 c6 22 bd cf 72 68 bc 08 db 77 bd
       0.0028717835 -0.03973987 -0.014187529 -0.06051162
0001f0 0b 92 4e bd df ca 10 bc 06 f0 a2 3c b0 71 14 3d
       -0.050432246 -0.008837431 0.019889843 0.036241233
000200 70 0f 1b 3d 1a b9 83 bc b7 45 9d bd ff 62 bd 38
       0.03785652 -0.016079474 -0.07679313 9.030662e-05
000210 6f 34 96 bd a1 b4 69 3d 7a a4 b4 3c c5 bb b9 3c
       -0.0733422 0.057057027 0.022051085 0.022672543
000220 74 f7 90 3c 94 3a 09 3d a8 f7 8a bc 21 a2 9d 3d
       0.01769612 0.03350313 -0.016963795 0.07696939
000230 8f f4 ac 3d ba 85 0d 3e f6 2f a7 3d ea fb f2 3b
       0.08445083 0.13820544 0.08163445 0.0074152844
000240 c6 42 b9 bd 51 2e d2 bc 3d 47 b9 bd a7 44 14 3d
       -0.09045939 -0.025656851 -0.09046791 0.036198284
000250 c1 c1 b9 3d 10 05 4a bc bd 99 f7 3a 36 5d 1a 3d
       0.09070159 -0.012330309 0.0018890422 0.03768655
000260 12 4e b7 3d 4b e9 4a bc 25 31 95 bb 9e 98 0b bb
       0.089504376 -0.012384723 -0.0045529776 -0.0021300684
000270 7d 29 ef 3c 33 65 78 3d 34 91 ba 3d aa 69 9c 3a
       0.029194588 0.060643386 0.091097265 0.0011933346
000280 02 ad 6f bc e2 90 d2 bc f2 47 ac 3b 6d 38 fc 3c
       -0.014628651 -0.025703851 0.0052576 0.030788625
000290 c1 9e c2 bc e8 43 90 3c 42 e0 ef bb b1 34 c0 bc
       -0.02375734 0.017610505 -0.007320435 -0.023462625
0002a0 36 e4 81 bd e5 db be bc 5c 9b 9f 3b 58 c4 c1 bb
       -0.06342356 -0.023298213 0.004870815 -0.0059132986
0002b0 3d 41 ff 3c 5e 98 d6 3c 14 03 58 3d f1 b3 61 3c
       0.031159038 0.026195701 0.05273731 0.0137758115
0002c0 e5 57 be 3d 06 e5 f9 bc a3 61 bb bd d3 a6 81 bc
       0.09294108 -0.030504715 -0.09149482 -0.015826618
0002d0 50 95 e7 3c 36 0e 8f 3b cc 85 c4 3d 36 45 11 3d
       0.02826944 0.0043657077 0.09595832 0.035466395
0002e0 ad 3f 30 bb 29 22 04 bd 6d 7a 5e 3d 29 7e 98 3d
       -0.0026893422 -0.03225914 0.054315973 0.07445938
0002f0 58 6f b7 3d 87 39 fe 3d 1c 45 d6 3d 95 86 db 3d
       0.08956784 0.12413316 0.104624 0.10719029
000300 22 7f 1a 3d a1 28 ba 3c 51 fb fb 3c fc a5 ee 3a
       0.0377189 0.022724451 0.030759485 0.0018207426
000310 b7 b2 82 3b 31 24 bc bc 2e 3e 44 bd b3 c7 9f 3d
       0.0039885896 -0.022966476 -0.04791086 0.078017615
000320 20 6c 36 ba e4 02 5b bc 02 db 18 bd 80 f7 5b 3c
       -0.0006958861 -0.013367388 -0.037318237 0.013425708
000330 28 01 a7 3d 90 59 a9 3d 47 ae c4 3d 0a 4b 0b 3e
       0.081545174 0.08269036 0.09603553 0.13602844
000340 fa 55 80 3d cf 77 b0 3d bd e8 d8 3c fc 65 06 bd
       0.06266399 0.08616602 0.026478166 -0.032812104
000350 4a de 22 3d 2a 39 5b 3d 6a f6 06 bd 2b c6 f4 3d
       0.039762773 0.053521313 -0.032949843 0.1195186
000360 08 f0 96 3c 55 ce 02 bd 6e ca 5b 3c fe 89 01 bd
       0.018425003 -0.031935055 0.013414962 -0.03162574
000370 8a 8c 8a bd d2 f8 a8 bd ab 93 20 3d af a0 81 bc
       -0.06765087 -0.08250584 0.039203327 -0.01582369
000380 3f 3c 53 bd c4 90 b0 3d 5e 99 72 3d f5 8a 81 3d
       -0.051571127 0.08621362 0.059228294 0.06325332
000390 b7 75 21 3d 98 af 38 bd 23 2f 79 3d dd c0 87 bd
       0.039418902 -0.045089334 0.06083597 -0.066285826
0003a0 99 34 d1 3b 05 5c 8b 3c 20 80 13 bd 59 e7 79 bd
       0.006384444 0.017011652 -0.03601086 -0.061011646
0003b0 8a 7b 3b bd ff d4 c6 bc e3 cc cb bc 31 d7 18 3d
       -0.045772113 -0.024271486 -0.024877971 0.037314598
0003c0 51 87 82 bc 44 3f 59 bd d3 8c d2 3c 09 1a a6 bd
       -0.015933665 -0.05303885 0.025701916 -0.081104346
0003d0 40 ca 1b bc a4 de 41 bd b2 7f 4b bc 26 1d 1a bd
       -0.009508669 -0.047331467 -0.012420582 -0.037625454
0003e0 5b 3b 9a bd 14 80 90 3d 5a 11 13 bd d4 6e 60 3d
       -0.075308524 0.07055679 -0.03590522 0.054793194
0003f0 46 5e c6 ba d2 7a f3 bc 90 30 b3 bd 61 92 81 3d
       -0.0015134297 -0.029721651 -0.08749497 0.06326748

conv4.bias f4 [64]
000000 f2 ed 8a 3d 7e 33 1a 3d 61 97 46 bd a6 12 86 3c
       0.06783666 0.037646763 -0.04848421 0.016366314
000010 fb 29 40 3b c0 93 08 3d e4 51 3a 3a cc cc d6 3a
       0.0029321897 0.03334403 0.00071075396 0.0016387939
000020 3a 2f 04 bd bf 8b da bb bf 95 57 bc 9d 0f 62 bd
       -0.0322716 -0.006669491 -0.013158261 -0.05519067
000030 be ab a4 bc 83 67 3a 3d a3 fa ef 3c 6e 5b 79 bd
       -0.020101424 0.045508873 0.029294318 -0.06087821
000040 df 58 90 3d 7e bc 6d bd c3 52 5f bd 52 06 0e bd
       0.07048201 -0.05804109 -0.054522287 -0.034673996
000050 d5 0c 27 bd 48 3f 95 3d 51 f6 c8 3d 7a f7 a4 bd
       -0.040783722 0.072874606 0.09812606 -0.08055015
000060 c3 50 07 3d 99 b2 4e bd 76 9e 9c 3c 0e 47 da bc
       0.033036005 -0.050463293 0.019118529 -0.02664521
000070 9c 33 ac 3c 2d d2 94 bd d6 ef 9e bc c2 7c ec bc
       0.021020703 -0.0726665 -0.019401472 -0.028868083
000080 ea 83 90 3d b6 c5 38 bd 38 bd 7f bd a9 b6 97 3d
       0.070564106 -0.045110427 -0.062436312 0.074078865
000090 b4 ee c1 bc d2 b6 12 3d cc da c5 3d 97 a3 df 3d
       -0.023673393 0.035818882 0.09660873 0.10919874
0000a0 da 4d cf 3b a1 a8 16 3c 41 1e a7 bc 05 ca 24 bd
       0.0063264193 0.009195478 -0.020400168 -0.040231723
0000b0 80 f3 42 3d c7 3d 91 3d 98 f1 96 bd 6f ed 8e bd
       0.0475955 0.07091861 -0.07370299 -0.069788806
0000c0 13 0b 31 be 97 a6 2a bc 05 da ce 3d 4e a8 c9 3d
       -0.1728938 -0.010415695 0.10100178 0.09846555
0000d0 42 81 0a bd 31 cf e9 3d d6 a0 ee bc bf 74 d5 3d
       -0.033814676 0.11416472 -0.029129427 0.10422658
0000e0 4c 83 69 bc 30 f3 f6 3c 99 0f f0 bc 55 9f 2b 3b
       -0.014252495 0.030145258 -0.029304313 0.0026187499
0000f0 d1 c6 e2 3c 2e cf b9 bc 87 f9 08 3d 8e 1e cf bb
       0.027682694 -0.022681799 0.033441093 -0.006320781

bn4.weight f4 [64]
000000 17 a6 ab 3f c8 7d ad 3f fc be ae 3f d2 40 aa 3f
       1.3410062 1.355401 1.3652034 1.3301032
000010 cb 24 aa 3f 57 81 ae 3f 20 db b3 3f cf 4d b0 3f
       1.3292478 1.3633221 1.4051247 1.3773745
000020 37 1b aa 3f bb 09 b0 3f f8 89 ae 3f 7a eb b1 3f
       1.3289555 1.375297 1.3635855 1.3899987
000030 3e bf b2 3f 38 6a b2 3f 35 64 b4 3f b4 0c ac 3f
       1.3964612 1.3938665 1.4093081 1.3441377
000040 2e 56 b7 3f 87 1d b0 3f f9 37 b2 3f 5e f1 b0 3f
       1.4323175 1.3759011 1.3923331 1.382366
000050 01 9d b5 3f 6f c4 b5 3f 4f 5f b3 3f e3 d8 b3 3f
       1.4188539 1.4200572 1.4013461 1.4050564
000060 1e a3 a6 3f 4f ab b9 3f 3e 7d ae 3f e3 89 b4 3f
       1.301853 1.4505404 1.3631971 1.410458
000070 ff 22 b5 3f 42 9d b0 3f fe 2b ae 3f f6 85 b2 3f
       1.4151305 1.3797991 1.3607175 1.3947132
000080 18 f8 ad 3f 18 73 b1 3f 4f 2a a9 3f 87 6f b0 3f
       1.3591337 1.3863249 1.3216037 1.3784035
000090 28 19 b8 3f 4b 9b b4 3f 3a d1 a8 3f 85 8e a8 3f
       1.4382677 1.4109892 1.3188851 1.3168494
0000a0 4b 77 b7 3f ef 36 ae 3f e6 2b ab 3f 14 84 b0 3f
       1.433328 1.3610514 1.3372772 1.3790307
0000b0 b9 a8 ab 3f fd 28 b4 3f 1f 00 af 3f 6a f8 ae 3f
       1.3410865 1.4075009 1.3671912 1.366956
0000c0 a7 de b9 3f 74 69 b1 3f fe ae b4 3f 15 6a ba 3f
       1.4521073 1.3860307 1.4115903 1.4563624
0000d0 16 13 b4 3f b1 56 b8 3f 8a 0e a4 3f 75 9d ae 3f
       1.4068325 1.4401456 1.2816937 1.3641802
0000e0 fd 5e ab 3f 39 69 aa 3f b5 8a ad 3f 92 af ac 3f
       1.3388363 1.3313361 1.3557955 1.349108
0000f0 0f e5 b3 3f 59 11 b5 3f b0 e1 ad 3f 86 80 b2 3f
       1.4054278 1.4145919 1.3584499 1.3945472
