trys/grande_clasi.ckpt (torch, 103142 bytes, 26 tensors)

conv1.weight f4 [32, 1, 8]
00000000: 1e48 753d d3c6 7dbe dc36 acbe b3e2 abbe
00000010: dce6 9d3e 36df f6bd 10f2 b33e 2f6a 7b3e
00000020: 65cb 9a3e dd4e 983e 9582 69bb 08d0 ac3e
00000030: f354 79bd 3d64 323e 114b 60bd 6b64 b03e
00000040: 21ec 3c3e cd7f f2bd ca34 963d 77e8 6b3e
00000050: ca6a 6abd e7f2 3abd e917 41be 08d7 b7be
00000060: c0fa 0a3e 5e92 493e 0d43 2ebe b82f 81be
00000070: 593c 91bd 7c31 7f3e 82b5 b4be 6a04 953e
00000080: 2212 01be 8876 963c 348a fa3d 3152 cfbd
00000090: 1e48 aa3e 93f9 d6bd e836 b4bd 2046 783d
000000a0: 94a0 a7bd fb7a 00be 4eef 94be 72be 8a3e
000000b0: c97e 263e f10a b23d f09b 48bd 3e84 a63e
000000c0: 61a7 783e 79e0 afbc 18bc 87be c1a4 26be
000000d0: 91b2 72bd 96b1 6a3e 95fa 68be a916 a1be
000000e0: dd07 3dbd 3069 783e ef10 b2be a242 bd3e
000000f0: 86b7 57bd c6e8 2a3e b2d1 9ebd ed61 68be
00000100: 7034 9c3d 277b c6bd 965f bb3e 4103 0cbe
00000110: 955a f0bd 6e49 ed3d 9708 893e f25a df3c
00000120: ab81 ce3d 2a8b f8bc 362b 903d 18d2 a2be
00000130: 11d4 793e c4ff cbbd 0293 543e ea9c 17be
00000140: 437b 39be 76b3 ea3d a3be 30be aa25 1cbe
00000150: fa1e 2bbf 393c a6be 63aa 58bd 2896 753e
00000160: 733f d83e 3b25 1f3e 6677 d03b d39f fcbb
00000170: f398 363e 70e3 813e 6a38 95be 3024 9fbe
00000180: d197 9a3b 7a7d 763e 5582 263e 1e23 cebd
00000190: 6fb2 a7be 14d2 8cbe 022c 4a3e 2b4f 003e
000001a0: 4bd9 3abe 588e a8bd bcd8 1e3d 193b 44be
000001b0: a9ce 643e ccef c63d 176c 8bbe b142 bfbe
000001c0: a9a2 b33e e5fa 4dbe 0033 2abe 35fd df3d
000001d0: e24e 0bbe 6f9f 163e 06da 863d 2345 3bbe
000001e0: fda1 aabe c7ce 7a3c f183 463a 48bc f2bd
000001f0: af02 6c3e a818 473e a939 a23e 2d6e 8dbd
00000200: f503 13bd ee8f 85be ca1c b03e f1de 523d
00000210: f1fa 70be 3204 803e dcac 9b3d d063 53be
00000220: 4ccd 933e 4df2 243d 0a4e 6c3e 942d e43c
00000230: d058 a7be a949 ddbc 87b8 9dbe 3b0f d7bd
00000240: b912 853e 4b3d 293d 1add cfbe 9439 853d
00000250: e69a 933e af7e 123d c360 4ebd a12a 4ebe
00000260: f0c8 31be b9aa 1cbe c42a 28be ac46 61bd
00000270: ff7b ecbd e7bf ea3d 1da2 4e3e 0922 ad3e
00000280: 7774 5ebe 930b 29be d57f a03d 4b15 2a3e
00000290: 3279 4c3e e1f7 8d3e 3da3 b5bd fcfa 72be
000002a0: 8229 443e 0f08 83be 8ddc 2c3e bdae 82bd
000002b0: 2724 4c3e 4012 d3be 3d85 823e 01f0 db3c
000002c0: dece ad3e 873a ffbd 06f9 b33d 2860 75be
000002d0: 1e34 bdbe d532 23be ece5 573e c674 563e
000002e0: 23cb 5ebe 0253 b93e 943c d0bc dcfb 60be
000002f0: 951d 9ebb ba1e bf3b 4a30 6b3e 6f3f 0abe
00000300: a58c 82be 0bab 7b3e b23a 14bd 63a8 18be
00000310: a657 10be 30af 883e afcd 6c3c e3b8 a6bc
00000320: 0327 e0bd a5fc 79be 27fd 443e f6f2 b53e
00000330: d05e 7e3d 7df1 92be 8d6a 57be 3d80 e83d
00000340: 7572 803e 9574 7c3e 3253 2c3e be18 85bd
00000350: 9fc6 4cbe 5274 b93d 3c3e b6bd db04 143e
00000360: 03b9 f8bd e6fb 7b3e 3491 b3bd cbd9 8fbe
00000370: c433 373e 2735 1ebe 982c a5be bba5 3dbe
00000380: 84fc 34bd 6d3c 9a3e ea4c ab3e 5546 8fbd
00000390: 3da7 20be baf7 96be b33d 2dbe cfc2 193e
000003a0: 60d2 a03e a0f2 583e d8ce 693e 454a 8fbd
000003b0: ab73 b5bb 6ba9 5ebd 2bb3 53be e05a cbbe
000003c0: 137f a73e 42fc ed3c 84b1 823e 058e 593d
000003d0: 85ca 68be 349f 7bbd 067e ae3e 98da 8dbe
000003e0: 021b 20be 411b 0abe e2cf 79bc f5a6 0abd
000003f0: aae8 ad3e a026 b0bd b4fe efbe 4de7 acbe
0.05988323 -0.24782877 -0.33635604 -0.33571395 0.30840194 -0.12054293 0.35145617 0.24552225
0.30233303 0.29747668 -0.0035630811 0.33752465 -0.06087203 0.1742105 -0.05475909 0.34451613
0.18449451 -0.11840782 0.073342875 0.23037897 -0.05723075 -0.045641806 -0.18856777 -0.35906243
0.13572216 0.19684741 -0.17017765 -0.2523172 -0.070915885 0.2492122 -0.3529473 0.2910493
-0.12604573 0.018367067 0.122333914 -0.10123099 0.33258146 -0.10496821 -0.08799535 0.06061375
-0.08184925 -0.12546913 -0.29088825 0.27098423 0.16259302 0.08693493 -0.04897684 0.32522768
0.242826 -0.021469342 -0.26510692 -0.16273786 -0.059252325 0.22919306 -0.2275184 -0.314626
-0.046150077 0.24258876 -0.34778544 0.369649 -0.052665256 0.16690359 -0.0775484 -0.22693606
0.07627189 -0.09691458 0.36596364 -0.13673116 -0.11736027 0.11586271 0.26764366 0.027265046
0.10083326 -0.030339796 0.07039492 -0.31800914 0.24397303 -0.09960893 0.20759204 -0.14805952
-0.18113427 0.11460011 -0.17260222 -0.15248743 -0.6684414 -0.3246782 -0.05289687 0.23983061
0.42235908 0.15541546 0.0063618897 -0.007709482 0.17831783 0.25368834 -0.29144603 -0.31082296
0.004717805 0.24071303 0.16260655 -0.10065292 -0.32753322 -0.27504027 0.1974335 0.125302
-0.18246953 -0.08230275 0.038780913 -0.19163169 0.2234446 0.097137064 -0.27230904 -0.3735557
0.35085037 -0.2011524 -0.16621017 0.10936967 -0.1360431 0.14709257 0.065845534 -0.18288092
-0.33326712 0.015308089 0.00075727614 -0.11852318 0.23047899 0.19443 0.31684616 -0.0690578
-0.035892446 -0.26086372 0.34396964 0.051482145 -0.23533227 0.250032 0.0760133 -0.20643544
0.28867567 0.04027014 0.23076645 0.027853765 -0.32684946 -0.027012663 -0.30804846 -0.10500952
0.25990847 0.04131822 -0.40598375 0.06505123 0.28829116 0.035765346 -0.050385248 -0.20133449
-0.17361808 -0.152995 -0.16422564 -0.05499904 -0.11547088 0.11462384 0.20179029 0.3381503
-0.21724115 -0.16508321 0.07836882 0.16609685 0.19968107 0.2772818 -0.08869026 -0.23728555
0.19156459 -0.25592086 0.16881008 -0.06380985 0.19935666 -0.4122486 0.25492278 0.026847841
0.3394689 -0.12462335 0.08787732 -0.23962462 -0.36953825 -0.1593736 0.21083802 0.20942983
-0.21757178 0.36196142 -0.02541951 -0.21971077 -0.004825304 0.0058325203 0.2296764 -0.1350076
-0.25497928 0.24576966 -0.03618879 -0.14907984 -0.14095935 0.26696157 0.014453336 -0.020351833
-0.10944941 -0.24412782 0.19237195 0.35536927 0.06210214 -0.28699866 -0.2103674 0.113525845
0.25087324 0.24653848 0.16828611 -0.0649886 -0.19997643 0.090553895 -0.08898589 0.14454977
-0.12144663 0.2460781 -0.0876793 -0.2809585 0.17890841 -0.15449964 -0.32260585 -0.18520252
-0.04418613 0.30124226 0.33457118 -0.06995837 -0.15688796 -0.29485875 -0.16918068 0.1501572
0.31410503 0.21186304 0.22832811 -0.06996588 -0.0055374703 -0.05436079 -0.20673816 -0.3971777
0.32714137 0.02905095 0.2552606 0.053113956 -0.22733505 -0.061431125 0.34080523 -0.27705836
-0.15635303 -0.13486959 -0.015247317 -0.03385063 0.3396657 -0.08601117 -0.4687401 -0.33770218

conv1.bias f4 [32]
00000000: 8e44 603e 3963 803d fc9f 983d ff9e 71be
00000010: 4779 7abe e543 b7be 89f0 61be 9d7c 843e
00000020: c8d6 62be f33a 3a3e 6954 efbd 017b 5ebe
00000030: b10a 873d 21d3 813e aa50 5c3d c274 72be
00000040: abdd c0be b3cc a1be 41b2 8b3e 38a8 2c3e
00000050: 86c5 8bbe 1f7c 103e 7989 fc3d f2ba 143d
00000060: 2476 6fbd 85eb 933d 188a 9dbe f2c3 20bd
00000070: 71bc 9dbe 0aa8 493e 9889 ef3d 5e0e 9c3d
0.21901152 0.06268925 0.074523896 -0.23595808 -0.24460326 -0.35793987 -0.22064413 0.25876322
-0.22152245 0.1818655 -0.11686022 -0.2172661 0.06593836 0.2535639 0.053787865 -0.23677352
-0.3766912 -0.31601486 0.27284434 0.16861045 -0.27299136 0.14109848 0.12330908 0.036311097
-0.058462277 0.07222656 -0.3076942 -0.039249368 -0.30807832 0.19693008 0.11696166 0.07619928

bn1.weight f4 [32]
00000000: ea76 823f cab4 813f 981b 763f 45f4 813f
00000010: f9cb 7b3f 3235 883f c3e1 6b3f 828b 833f
00000020: 42de 823f ad6e 7c3f a2d4 6d3f c678 6f3f
00000030: aa3b 793f b42b 713f e128 8b3f 69dc 7d3f
00000040: a101 843f 2d7a 803f f7e5 793f cc27 7c3f
00000050: 7105 813f 37da 7c3f e2f3 7e3f e1d7 7e3f
00000060: 64e3 663f 1d52 8d3f 9800 753f 69cb 713f
00000070: 0657 823f f9d2 853f 54f9 733f 9583 753f
1.019254 1.0133297 0.96135855 1.015267 0.9835811 1.0641234 0.9214136 1.027695
1.0224078 0.9860638 0.92902577 0.9354366 0.97356665 0.9420731 1.087185 0.99164444
1.0312997 1.0037285 0.97616524 0.98498225 1.0079786 0.9877047 0.99590886 0.99548155
0.9019072 1.1040684 0.9570403 0.94451004 1.0182807 1.0455009 0.9530232 0.95903903

bn1.bias f4 [32]
00000000: 9ffb 11bd fa4d ff3d 5524 d63c 70f8 a73b
00000010: f710 a43d 5828 d63b c57c 93bc 4d0b 5e3d
00000020: 0f0b 5dbd 9f7a 92bb 3438 dcbd 4c0d 46bd
00000030: 2d5c 153e 7148 15be 1d18 123c 56e1 383e
00000040: a967 a63d aff9 d83d df52 b63c c3a0 f53e
00000050: ba43 c6bc 3dfa 033e 135c 74bc 6637 993b
00000060: 79e7 0f3e cb73 4a3e 10fc 233e da34 d8bd
00000070: 63a0 03bc b569 b13e 33c3 debd 7c6f 11bd
-0.035640355 0.12466045 0.026140371 0.0051260516 0.08011048 0.006535571 -0.01800383 0.054209996
-0.053965624 -0.004470184 -0.107529074 -0.048352525 0.14585944 -0.14578415 0.008916882 0.18054709
0.0812524 0.10594498 0.022256313 0.47974214 -0.024202216 0.12888427 -0.01491453 0.0046757935
0.14053144 0.19770734 0.16014123 -0.10556956 -0.008033845 0.3465096 -0.10877075 -0.03550671

bn1.running_mean f4 [32]
00000000: 1811 363e a20f 6d3f a17d ddbd b86f 66be
00000010: cc78 35be 86aa 29be 259d 16bf ee2b 8f3e
00000020: 8f03 cb3d 81ff 4d3e d8cf 61bf e771 433d
00000030: 7733 b63d 2f2c 68be 7300 273d 26ba b6bd
00000040: fc50 c8be 85a2 dbbe 3fae 973e 8163 273e
00000050: 491e 89be bbfd 5a3e 6278 c93d cab1 133d
00000060: 6254 d8bd b0a5 cdbb c77b 4c3d 0190 02bf
00000070: e1ed 8dbe dd4d 543e 75b2 cc3e 0696 febe
0.17779958 0.9260198 -0.108149774 -0.22503555 -0.17721862 -0.16568956 -0.58833534 0.27963203
0.09912788 0.20116998 -0.8820777 0.047716048 0.08896535 -0.22673105 0.040771913 -0.08922224
-0.39124286 -0.4289743 0.29625127 0.16346551 -0.26780918 0.21385853 0.09837414 0.036058225
-0.1056297 -0.006275855 0.04992273 -0.5100098 -0.2772055 0.20732827 0.39979902 -0.49723834

bn1.running_var f4 [32]
00000000: 96c8 313d f9ec 853e 9d48 f33c f4ae ae3c
00000010: a25f 1c3c fad5 ff3c 9eea 833d 5083 953c
00000020: d8be 3c3d e3d6 2c3c 41bd 753e 4625 583d
00000030: e7da cf3c 5f28 c53d c676 583c f1e3 f23c
00000040: 5e1f 803c f074 f83c ebcc a23c 350b bb3c
00000050: 0205 c93c 04b5 903c 7691 0a3d 526e 573c
00000060: 4638 3e3c de92 db3c 1a21 6d3d 431e b83d
00000070: b09f f83c 93cd 053d 81ce 413d 5fd0 0f3e
0.043404184 0.26157358 0.02969771 0.021323659 0.009544285 0.031229962 0.06441234 0.018251091
0.04608044 0.01054928 0.23997976 0.05276992 0.025372935 0.09626841 0.013211912 0.029649707
0.015639957 0.030329198 0.019873103 0.022832492 0.02453852 0.01766444 0.03383013 0.013148861
0.011610096 0.02680343 0.057892896 0.08990147 0.030349582 0.032666754 0.047316078 0.14044331

conv2.weight f4 [32, 32, 3]
00000000: 7311 1dbd 7957 cb3d 4430 c2bd 6491 aeba
00000010: dbee 1ebe 9605 8cbd c5ee 24bd 8a28 18bd
00000020: eced ecbc 1ec3 06be b847 7bbd bca3 ddbc
00000030: df37 2e3d b1f0 45bd 4172 bfbd 694e 43bd
00000040: 3b2e 933c 5fb2 8abd a525 89bd 7320 e8bd
00000050: 7429 9abd ac9b 2ebd 3910 c9bd aa7c a93c
00000060: 7a48 61bd e8e5 643c a33f 04be c595 e63c
00000070: 048a 62bd 13df 6b3c 49da e2bd 50bf e0bd
00000080: a086 29be b9c5 48bd 4521 cdbb dcd7 e33d
00000090: 218e 103e cf71 233d 6b3c a43c cc38 ebbd
000000a0: e091 07bd e950 3dbe 7707 833c 5d43 1fbd
000000b0: 3323 073d 28d9 23bb a3a7 9cbd d689 af3c
000000c0: 2c96 b73d fb01 d9bc 0dd6 74bd c4e2 db3c
000000d0: 7e33 303d 9aac 59bd efa7 6f3d 6171 c5bd
000000e0: b6bd 2c3e 94b2 e5bd c2f0 ae3d f618 11bd
000000f0: fcbc 8e3d 19ca c53d 95c5 773d 20fe 963d
00000100: 975a ab3d 635c 1abd 66b4 693d 6aed 2fbd
00000110: 5f61 493d 7ab3 d7bd 8fe1 babb 5fb7 77bc
00000120: 3481 78ba 38a3 d2bd e3dd 3ab9 44cf 45bc
00000130: bee5 cb3d 8f5d 683c 46c7 a7bd c855 a3bb
00000140: 7854 db3c 13ae 313a 232f 45be e9fb 37be
00000150: 0f94 1ebd eb4e a8bd ffab f2bc bc14 863d
00000160: 1424 123c 531f 2b3d 2716 a63d 2552 0dbd
00000170: e2f7 7f3d 822f b3bd cd50 d73c 00e2 9fbd
00000180: 1be8 09bd 8ac2 b03c e7bc 69bc c45f 823d
00000190: be91 5b3d 1702 4c3e 3b64 933d 23aa 103e
000001a0: d672 cbba 9da7 88bd 031f a5bd 6617 463d
000001b0: 2576 4dbd 325f 57be 37f0 d33c b5a0 87bd
000001c0: 3d55 eebd 7add 823d c566 883c b6a0 b8bc
000001d0: 6b67 3b3d 52a5 04bd 43f7 bdbc 89ff d53d
000001e0: 2078 82bd a9a1 32bd ba78 bb3d d7d6 aa3c
000001f0: b1cd 8fbd c2d1 c23b 1721 993d bc3f a63b
00000200: ce5c 15bd a906 87bd ba58 0bbd 0aab 923d
00000210: e7bf a4bd 9e71 70bc c244 81bd 23fa a63c
00000220: a914 373d d66d 7dbd 4b97 d9bd 39e5 1ebe
00000230: 1e7f 03be d6c7 d93d ebf3 a73d 548f 413c
00000240: fd25 56bc f853 3cbe 1262 82bc 9475 6b3d
00000250: 5554 243d 285b 0a3d e0c0 04bd 8794 f4bd
00000260: 1922 12be c86f 63bc 0116 a1bc 61a1 053d
00000270: 0b67 eb3d febc d13d 72bb 3c3d 8cbc ce3d
00000280: 3aba c4bc f639 3e3d cc67 b43d bda6 863d
00000290: 1617 aa3d d2e2 1ebd a1b2 37be 0f06 c3bd
000002a0: bbab f7bd 448a 14be 2d37 7bbd 4522 a4bd
000002b0: 0428 09be 1c6d 02be 2137 4b3a 9e75 5bbd
000002c0: 706b 0a3e e1f9 18bc 4471 06bd 8b5b e1bd
000002d0: 2b68 54bc 5e55 523d 37db 273d 9a76 883c
000002e0: 3a28 7b3d d13a 5abd 2dda bd3c 24c1 9dbd
000002f0: 04dd 95bd 7fb6 d6bd 38d7 ae3c b8e9 923d
00000300: ac48 9b3d a1ac 4abc 8ecb d0bc c8d4 e3bb
00000310: 0d01 0cbe 697f a53d cf43 0ebe 5f0d 10be
00000320: 0502 babd 1cba 473d 618b dc3d 39c4 afbc
00000330: fe11 d5bc f45d 38be 9df5 cbbd 1822 e03d
00000340: ac33 2ebd e8d6 91bc cf3a f1bb 1b6f d23b
00000350: 44b6 013d 9b03 cfbd 8ad5 71bd fb6a adbd
00000360: df5b a93d 0e1e 653c b338 04bd e844 0a3d
00000370: 9d9c ea3d 7982 6dbd a484 b23b 15a9 88bd
00000380: f1cc 83bd 1997 83bd 853f 93bd 1bc1 f7bc
00000390: 7331 853c d39e cd3d f83b 7d3c aa85 82bd
000003a0: b79e 5d3c d8a4 b03c 549d 063e 5a5e e43d
000003b0: 3014 0c3c d4ba e9bc ab99 efbd 966d 78bd
000003c0: a5de 8e3d ffa0 11be 5e9d 84bd c6af c0bd
000003d0: a88e 5a3d d808 47bd c601 983c 195a c1bd
000003e0: 1092 073d 37d4 583d ff37 f83d 0922 513d
000003f0: a0e3 4dbd bc32 9fbc 1632 12bd f5ec 62bd
-0.03834672 0.099287935 -0.09481862 -0.0013318476 -0.15520804 -0.06837003 -0.04026677 -0.037148036
-0.028922044 -0.13160369 -0.061347693 -0.027055614 0.04253375 -0.048325244 -0.09347964 -0.0476822
0.01796638 -0.06772303 -0.06696633 -0.11334314 -0.07527438 -0.04262893 -0.09817547 0.020689327
-0.05500076 0.01397083 -0.129149 0.028147588 -0.055307403 0.014396447 -0.11076791 -0.1097399
-0.16555262 -0.049016688 -0.0062600696 0.11125156 0.14116718 0.03990346 0.02004834 -0.114854425
-0.0330981 -0.18487896 0.01599477 -0.038882602 0.032992553 -0.0025001261 -0.07649162 0.02142803
0.0896419 -0.026490202 -0.059774447 0.026841529 0.043017857 -0.05314312 0.058509763 -0.09640766
0.16869244 -0.11215702 0.08542015 -0.035424195 0.0696964 0.09657688 0.060491163 0.07372689
0.08366888 -0.037685763 0.057056807 -0.042951025 0.049165126 -0.10532279 -0.005703158 -0.015119403
-0.0009479702 -0.10285038 -0.00017821002 -0.012073342 0.09955929 0.014182462 -0.08192305 -0.004984591
0.026773676 0.0006777953 -0.19256262 -0.1796719 -0.03871542 -0.082181774 -0.02962303 0.065469235
0.0089197345 0.04177792 0.08109694 -0.034502167 0.06249226 -0.08749296 0.026283646 -0.07806778
-0.03366862 0.021577138 -0.014266229 0.06365922 0.053605787 0.19922672 0.07196852 0.14127402
-0.0015521895 -0.06672595 -0.08062556 0.04836216 -0.0501615 -0.21032408 0.02587138 -0.06622449
-0.11637352 0.063898996 0.016650567 -0.02253757 0.045752924 -0.032384224 -0.023189193 0.1044913
-0.06370568 -0.043611202 0.09153886 0.020854397 -0.070216544 0.0059454152 0.074770145 0.0050735157
-0.03646546 -0.06593067 -0.034020163 0.07161529 -0.08044415 -0.014675526 -0.06311943 0.020382946
0.044697437 -0.061872326 -0.1062456 -0.15517129 -0.1284146 0.10633819 0.082008205 0.011813957
-0.013070581 -0.18391407 -0.015915904 0.057485178 0.040119488 0.03377834 -0.032410502 -0.11942392
-0.1427082 -0.013881631 -0.019663813 0.032624606 0.11494263 0.102411255 0.0460772 0.10094556
-0.024014581 0.046441995 0.0880886 0.065747716 0.083051845 -0.03879053 -0.17939235 -0.0952264
-0.12093302 -0.14505869 -0.061331917 -0.08014349 -0.13394171 -0.12736934 0.00077520503 -0.053578965
0.13517547 -0.0093369195 -0.032822862 -0.110037886 -0.012964289 0.051350944 0.040980544 0.016658116
0.06131766 -0.053278748 0.023175323 -0.07702854 -0.07317546 -0.10484027 0.021342859 0.071734846
0.075822204 -0.0123702595 -0.025487687 -0.0069528557 -0.13672276 0.08080942 -0.13893054 -0.140676
-0.090824164 0.048761472 0.10768772 -0.021455871 -0.026009556 -0.1800459 -0.099589564 0.10944003
-0.042529747 -0.01780267 -0.007361747 0.006421936 0.031667963 -0.101081096 -0.059041537 -0.084676705
0.08269476 0.013984216 -0.032280635 0.03375712 0.11455653 -0.057985757 0.005447941 -0.06672875
-0.06435574 -0.06425304 -0.0718985 -0.030243447 0.01625893 0.10040059 0.015456192 -0.06373151
0.01352661 0.021562979 0.13145953 0.11150809 0.008549735 -0.02853147 -0.11699232 -0.060651384
0.0697606 -0.14221571 -0.06475328 -0.09408526 0.053358704 -0.04859242 0.018555533 -0.09441013
0.03309828 0.05293676 0.121200554 0.05105785 -0.05026591 -0.019433372 -0.035692297 -0.05540176

conv2.bias f4 [32]
00000000: 54e3 c03c 7cab 86bd ec30 3c3d 3b36 0d3c
00000010: 5476 2fbd 79d7 91bd 2e08 aebd 8011 f3bb
00000020: c892 063d 24d1 65bd 9e77 663d 548c c73d
00000030: 65d0 9c3d 4c98 d1bd 0341 883d f2a9 a23d
00000040: db1d d7bd a59d a0bd 9ce6 8dbd 2735 6d3d
00000050: fe55 b83d e0a6 a8bd 9ad8 a03d 7894 513d
00000060: ed37 8e3d 6177 a8bd 7a58 adbd 41b8 c2bc
00000070: 62d1 993d ba69 e5bd 6e99 52bd 4d02 b7bc
0.023545898 -0.06575677 0.045945093 0.008618887 -0.042837456 -0.07121176 -0.08497654 -0.0074178576
0.032854825 -0.056107655 0.05626642 0.09743562 0.076569356 -0.102341264 0.06653025 0.07942571
-0.10503741 -0.07842568 -0.06928751 0.05791202 0.09000777 -0.08234954 0.078538135 0.05116698
0.06944261 -0.08225895 -0.08464141 -0.0237695 0.0751064 -0.11201806 -0.051415853 -0.022339964

bn2.weight f4 [32]
00000000: 4846 893f af9b 813f a742 893f 0fd8 823f
00000010: 314f 873f 3f5f 823f 5f95 653f 0cff 833f
00000020: 218a 893f 4e37 773f f3eb 813f 799b 823f
00000030: 1895 803f c97b 713f ce82 863f 358d 873f
00000040: b175 8b3f 9d41 743f 0286 873f b3cb 653f
00000050: c312 783f bd03 833f 8322 6b3f 05e7 8c3f
00000060: 1202 773f 29ef 7d3f 35ed 7e3f 7611 853f
00000070: 6e5b 873f 5478 863f bf77 863f a45e 813f
1.0724573 1.0125636 1.0723466 1.0222186 1.0571042 1.0185317 0.8968105 1.0312209
1.0745279 0.96568763 1.0150131 1.0203696 1.00455 0.94329506 1.0508668 1.0589968
1.0895292 0.9541262 1.0587771 0.89763945 0.9690363 1.0235516 0.91849536 1.1008002
0.96487534 0.99193054 0.995807 1.0395954 1.0574777 1.0505471 1.0505294 1.0107007

bn2.bias f4 [32]
00000000: 434f 9bbd 9fdd fabd 82cd cebd 5876 04be
00000010: 553a c6bd 4680 06bd 2b63 d1bd 6ec1 283e
00000020: 3d7c 2fbc 9ad7 02be 288d 9dbd 75e1 12bd
00000030: bca1 6fbd 60c4 113d c9de dabd 5eba 14bd
00000040: 7391 65bd 1e6b fabd 6238 11be e1f6 eabd
00000050: 5939 8dbd 6eaf c4bd 153d 2cbd ca82 f6bb
00000060: b863 07be c68b f9bd e799 bfbd 2e33 a43a
00000070: 3b18 223c 7aec fcbd 5a97 2abe 0087 21be
-0.07583477 -0.12249302 -0.10097791 -0.1293577 -0.09679095 -0.032837175 -0.10223993 0.16480038
-0.010710773 -0.12777558 -0.07692939 -0.035859544 -0.05850385 0.03558767 -0.10687024 -0.036310546
-0.056046914 -0.12227462 -0.14181665 -0.1147287 -0.06895704 -0.09603773 -0.04205044 -0.0075229155
-0.13221633 -0.12184863 -0.093555264 0.001252746 0.009893472 -0.12349792 -0.16659299 -0.15774155

bn2.running_mean f4 [32]
00000000: cdc7 2fbf 0a4f 39bf 25e6 19be 379a 41bf
00000010: ea60 12bf 0af5 53bf 7df7 703e aa91 a7be
00000020: defc a8be 90e9 99be c636 0ebf 2e59 27be
00000030: 321a 613f 8203 fd3e c023 5fbf ded6 e5bd
00000040: 06c7 e1be e24d 8dbe 0843 04bf 568c d73e
00000050: 7de4 aa3f c47d b1be adf9 7cbe 1a58 c7be
00000060: 2631 f3be 43ed 18bf 41d7 07bf 19cc d1be
00000070: 7542 b8be 71af 0cbf 0da8 15bf 7236 22bf
-0.68664247 -0.7238623 -0.150292 -0.7562594 -0.5717913 -0.82795775 0.2353191 -0.3272832
-0.33005422 -0.30061007 -0.5555233 -0.16342613 0.87930596 0.4941674 -0.87163925 -0.11222623
-0.44097155 -0.27598482 -0.5166478 0.42099255 1.3350979 -0.34666264 -0.24704619 -0.38934404
-0.47498435 -0.5973703 -0.53062826 -0.40976027 -0.35988203 -0.549552 -0.5845955 -0.63364327

bn2.running_var f4 [32]
00000000: 15bb 2f3f 3ce2 d53e c488 af3e 86c1 2c3f
00000010: ee77 913e 63eb 043f 8f9c b43f 1716 963e
00000020: 7912 053f e869 323f fbf1 433f 8064 693e
00000030: 1642 223f 96f5 e73e bbd7 8c3f 040b 9c3e
00000040: ab20 f83e fb38 7c3e 58f3 293f ce97 9c3e
00000050: f53d 833f 8903 883e 630b 0e3f 1d86 ff3e
00000060: 6f99 0f3f 0569 c03e 5320 923e 8448 fb3e
00000070: c7f8 e73e 1958 f03e 622f 613f dccd d03e
0.6864484 0.41774166 0.3428403 0.67482793 0.28411812 0.5192167 1.4110278 0.29313728
0.5198131 0.6969285 0.7654111 0.22792244 0.6338209 0.45304555 1.1003336 0.30477154
0.48462424 0.24631111 0.6638694 0.30584568 1.0253283 0.26565197 0.55486125 0.49907008
0.56093496 0.37580124 0.28540286 0.49078763 0.4530699 0.46942213 0.87962925 0.40782058

conv3.weight f4 [64, 32, 3]
00000000: fb70 a3bd 132d 23bd 5ccf 09bd 9fe7 d43d
00000010: 140b e53d 6ad5 333e 991e f73c 1d5d 94bc
00000020: 8e49 33bc e18b cf3d 9303 8dbb ab60 953d
00000030: 044a e13d 3aad 98bd 7da5 a5bd e751 9a3c
00000040: c79b 983d 7fed 983c d72b 8fbd 1197 93bd
00000050: 70ce 62bd 1cca a9bd e87e d9bc 6407 d6bc
00000060: 8b57 273d cc7c 51bb 47a7 a3ba 3de1 b7bd
00000070: b5ef a0bd bf28 993b d34c bfbd 74c1 18be
00000080: 1752 e6bd 7f3f 81bd 91ab d2bc 0c71 0dbc
00000090: f395 bb3c b014 9d3d 0ee1 da3d b7e4 053d
000000a0: 3581 9abd a3de c33c 0d29 1c3d 79f5 a7bd
000000b0: 61df 82bd e961 be3d 55a6 6fb9 902d 58bd
000000c0: 1f46 3e3d 5ebb 933d 9df7 23bc 5169 82bd
000000d0: b2d4 0abe b52f 4cbd 3501 39bc 19a5 c0bd
000000e0: b562 62bd c665 b0bd 9ad8 e0bc 8be1 c3bd
000000f0: f771 57bd f6ba 0abe efaf 39be ad40 1dbd
00000100: 9e58 17bd 4c11 843d 51ee fc3b adb5 1bbd
00000110: ade4 d4bd e0fb 4ebc f8a9 933c f6e2 d6bd
00000120: d82c b7bd bf4a 9cbd 1e4a 09bd 4535 a7bb
00000130: 0a32 c83b 1f60 373d e8d1 45bd 32b9 78bd
00000140: 8073 e73c bb81 16be b890 61be b057 f9bc
00000150: c6de 093d a4e5 42bc bdec 6a3d 2947 75bd
00000160: 4f83 94bd e6ca 093d c3a6 32bd a0dd 15be
00000170: e664 3cbe 6f23 eebc 38d9 ac3c 80ce a03d
00000180: c29a a33d 55b9 0fbe 452f 6f3d 94d4 ac3c
00000190: 16e2 6bbd bfb5 8f3c e664 bcbd 1670 4dbd
000001a0: 76e1 e03d 74e4 423d 4ec1 bdbd 67d6 ab3c
000001b0: abc3 d7bd 89af 613d 049b 86bc e073 093e
000001c0: 7be4 2f3d bd77 493c edf1 0cbe 0b68 27bd
000001d0: b08d 87bb 8b96 a13d b6b1 523d 57bc 43bd
000001e0: 2f74 a33c faa7 abbd 1f6e 2a3d b308 eebd
000001f0: 4e56 8cbd 4141 ac3c fda9 92bd 1352 333c
00000200: dcdf 66bd 3bca c5bd 3d48 8cbb f803 60be
00000210: 54f7 dc3d ce94 773d f74d 71bd 4af5 c6bd
00000220: 80e8 b1bd 6c6d 09be abbf bebc 8907 af3d
00000230: 598b 27bb 47f8 15be 64db 883c 9ca0 953c
00000240: f7b5 ffbc fc24 1cbd f2e0 063d 2cb8 ba3d
00000250: b389 7ebd 2ba0 0cbd 6ce0 1abe e801 45bd
00000260: a8ec a2bd dee6 ab3c 5d6d ca3d 7943 11be
00000270: 6637 7c3d a301 aa3d 742b 133d 989e e53d
00000280: 8d3c 703d 1664 1f3d 2980 663d eac7 6bbd
00000290: 3875 2dbe e0a7 22bd cf70 0c3d 6230 cebd
000002a0: a5b4 a13d 4477 aebd 881a 06bd 3c0a 45bd
000002b0: 8d2b b9bd 029e 06be efdb d63d 7ad3 5fbd
000002c0: 0945 f53d d625 5ebd fcf3 a03c 2132 b6bd
000002d0: 8f66 c2bc e652 9a3d af59 55bb 100c f0bc
000002e0: a8fc 58bd 0030 7ebd 7289 0abe 72dc 8ebd
000002f0: bf17 a5bc 29c9 a23d 6da3 ab3d bcce f1bc
00000300: 1186 81bc 0fd8 8bba f99a 983d 2561 493d
00000310: aacb 283d 7deb f6bd c197 d7bd 97c3 4abe
00000320: 9f31 973d 97a2 ad3d 5b22 08bd 9ecc f53c
00000330: 7d7b 54bd bd45 073e 9641 613d 8171 cc3d
00000340: 84f0 c0bd c707 0cbe 4a74 49bd 9c22 68bd
00000350: c9d2 96bd 20d6 18be 904a de3c ac7c cb3d
00000360: 81d0 c5bd 32e4 903c 4365 9abd f8f5 23bd
00000370: 544f 403d 2737 8d3d 1131 223d c4a8 ce3d
00000380: 73b9 d9bc 01c1 96bc 39d0 a13d 7e7e e13d
00000390: a916 923d 7f4b 94bd 2a04 b7bd dac8 bfbd
000003a0: d983 0e3d 69d2 073d f48e 4b3d cc10 2a3d
000003b0: 3669 a0bd db48 253d 2220 a13d 6881 e73d
000003c0: 5785 dcbd 4181 a2bd f01d 893d 4495 92bd
000003d0: e76b aebd 3bda 063e 408e 81bd b454 aab9
000003e0: 19ff 33bd e219 a5bd ee28 96bd 137d deba
000003f0: 51f7 16bd 66ba 1cbd 3759 64bd 1f1e b53c
-0.07980534 -0.039837908 -0.03364502 0.10395741 0.111837536 0.1756188 0.030165957 -0.018110806
-0.01094283 0.10134102 -0.0043034046 0.072938286 0.110004455 -0.07454915 -0.08088205 0.018837882
0.07451587 0.018667934 -0.06990784 -0.07206548 -0.055372655 -0.082905024 -0.026549771 -0.026126571
0.04085497 -0.0031965254 -0.0012485766 -0.08978508 -0.078582205 0.0046740468 -0.09340825 -0.14917547
-0.11246126 -0.06310939 -0.025716575 -0.0086329095 0.02289865 0.076699615 0.10687457 0.032688823
-0.075441755 0.023909872 0.038125087 -0.08201117 -0.063902624 0.09296019 -0.0002285478 -0.052777827
0.04645359 0.07213472 -0.010007766 -0.06367744 -0.135577 -0.049850184 -0.011291792 -0.0940649
-0.055269916 -0.08613162 -0.027447034 -0.09564503 -0.05259892 -0.13547882 -0.1813352 -0.038391758
-0.036949746 0.064486116 0.007718839 -0.038015056 -0.10395179 -0.012633294 0.018025383 -0.10492508
-0.089441 -0.07631444 -0.03351795 -0.005102786 0.0061094807 0.044769403 -0.048295885 -0.06072349
0.028253317 -0.14697926 -0.22027862 -0.03043732 0.03365972 -0.011895571 0.057354677 -0.059882317
-0.072516076 0.033640765 -0.043616068 -0.14635324 -0.18397865 -0.02906963 0.021099672 0.07851887
0.07988502 -0.14035542 0.05839469 0.021097459 -0.05758866 0.017542718 -0.09198932 -0.05015572
0.10980503 0.04758115 -0.092653856 0.020976258 -0.105353676 0.055099044 -0.01643134 0.13423109
0.042942505 0.012296614 -0.13764162 -0.040870707 -0.0041367635 0.07890042 0.05143901 -0.047787037
0.019952862 -0.08381648 0.041608926 -0.11622753 -0.06852399 0.02102721 -0.07161329 0.010944861
-0.056365833 -0.09657713 -0.0042810724 -0.21876514 0.107893616 0.060444646 -0.058912244 -0.09714754
-0.08686924 -0.13420647 -0.023284754 0.08546359 -0.0025565235 -0.14645492 0.016706176 0.018265061
-0.031214697 -0.03812121 0.03292937 0.09117159 -0.06214304 -0.034332436 -0.15124673 -0.04809752
-0.07955295 0.02098411 0.09884141 -0.14185895 0.06157627 0.083010934 0.035930112 0.1121189
0.058651496 0.03891381 0.056274567 -0.0575637 -0.16939247 -0.03971088 0.03428727 -0.10067822
0.07895783 -0.08518842 -0.032740146 -0.048105463 -0.0904151 -0.13146213 0.10491168 -0.05464504
0.11976058 -0.054235302 0.01964759 -0.0889628 -0.023730544 0.07535343 -0.0032554676 -0.029302627
-0.052975327 -0.062057495 -0.13528994 -0.0697564 -0.020152925 0.079485245 0.0838078 -0.029517524
-0.015810998 -0.0010669249 0.07451434 0.04916491 0.041209854 -0.120566346 -0.10526992 -0.19801174
0.07382511 0.08478277 -0.03323589 0.030004796 -0.05187558 0.13210197 0.05499419 0.09982587
-0.09420875 -0.13674842 -0.049183168 -0.05667363 -0.07364423 -0.14925432 0.027135164 0.09935889
-0.096589096 0.017686937 -0.075388454 -0.040029496 0.046950653 0.06895285 0.039597575 0.10090783
-0.026577687 -0.018402578 0.079010434 0.110104546 0.07133228 -0.07240962 -0.08936341 -0.09364481
0.03479371 0.033159647 0.049696878 0.041519925 -0.078325674 0.040352684 0.07867457 0.11303979
-0.1076762 -0.079348095 0.06695163 -0.071573764 -0.085166745 0.13169186 -0.0632596 -0.00032488036
-0.043944452 -0.080615774 -0.073320255 -0.0016974531 -0.036856953 -0.0382637 -0.055749144 0.02210909

conv3.bias f4 [64]
00000000: 742b c33c 4521 ec3c 649e c3bb 75ac f13c
00000010: 82e1 813d 4abc 103d b2d3 c83d 2c73 8c3d
00000020: 646d 5dbc 71ae b63d 8026 c7bc 492e 8fbd
00000030: 1e27 58bd 44df a4bc 568c 2cba 7bf1 453c
00000040: 2e0e 983d 33ec 913a 2197 b6bd 22fe 5f3d
00000050: f461 cbbc 2540 c63c 7478 d1bc dec9 0a3d
00000060: 0232 1dbe 021b a03d 5644 b6ba 7aa4 b73d
00000070: c62e 323c ee10 b4bb 1173 c1bd 168e 983d
00000080: 2d83 f9bc 01a3 9b3d 445c 40bd e60b bebd
00000090: 906c 2abd e8a2 9abc 9806 93bd c084 8abd
000000a0: 0e9b ccbd 8198 3f3d a023 43bd 7020 0e3d
000000b0: a5bc 263c c31e a6bc be5f bebd a06a 2fbc
000000c0: 47be fc3b b9ba 1cbd 8d60 453d d083 a1bd
000000d0: 2d8d b93d f50d 80bd 93aa 0f3d fed9 56ba
000000e0: 8e04 2d3d bb81 153d 7e68 183d 334e b1bd
000000f0: 5eac d9bd 1d0e 97bc d0d0 b73d 9f5f d4bc
0.023824431 0.028824458 -0.0059698094 0.02950118 0.0634184 0.035335816 0.09806003 0.06857905
-0.01351485 0.08919991 -0.02431035 -0.0699125 -0.05277168 -0.020125993 -0.0006582191 0.012081499
0.074245796 0.0011133015 -0.08915544 0.05468572 -0.024826981 0.024200508 -0.025570132 0.03388392
-0.15351108 0.07817651 -0.0013905864 0.08966918 0.0108754095 -0.0054951822 -0.09445775 0.07448976
-0.030458057 0.0759945 -0.04696299 -0.09279613 -0.04160744 -0.018876508 -0.07178992 -0.06763601
-0.09990512 0.0467763 -0.047641397 0.034698904 0.010176812 -0.02027834 -0.09295605 -0.010706574
0.0077131125 -0.03826401 0.04818778 -0.07886469 0.0906013 -0.06252662 0.03507478 -0.00081959355
0.04224067 0.036500674 0.037209027 -0.086574934 -0.106285796 -0.018439347 0.08975375 -0.025924502

bn3.weight f4 [64]
00000000: 5741 823f 0ad0 673f 2333 893f d341 773f
00000010: a4a2 733f 0741 863f 5ced 813f 9991 493f
00000020: 158d 773f cbd1 763f a08e 803f 6eeb 833f
00000030: d016 783f d111 923f 6fbf 803f 021c 7f3f
00000040: 581b 863f c4d2 853f c731 773f bc22 4b3f
00000050: ae71 813f 8a32 833f 7595 863f c7ec 7f3f
00000060: 3d94 7a3f 5438 7a3f 4b74 763f 69a3 693f
00000070: 6784 593f a1fe 803f 98ca 5e3f 4f11 733f
00000080: 9b2e 873f dca1 7d3f dff5 883f d3f5 763f
00000090: 5128 873f eb66 883f 5037 843f e544 673f
000000a0: bb58 653f d912 7a3f b076 813f 2401 8b3f
000000b0: 9b4f 803f e302 823f 29f1 853f 3b77 863f
000000c0: e8cc 833f f3bb 7e3f 5fe6 853f 9544 8c3f
000000d0: 7709 803f edd5 803f c9e5 763f f104 7e3f
000000e0: a6d6 7e3f 6b06 663f e39d 643f 7f29 843f
000000f0: ac3e 6f3f 895e 6b3f f956 733f e684 833f
1.017619 0.9055182 1.0718731 0.96584815 0.95170045 1.0488595 1.0150561 0.7873779
0.9669965 0.9641387 1.0043526 1.0306222 0.9690981 1.1411687 1.0058421 0.9965211
1.0477095 1.0454946 0.9656033 0.79349875 1.0112817 1.0249798 1.0514361 0.9997067
0.97882444 0.977422 0.962712 0.9126497 0.84967655 1.0077707 0.87027884 0.94948286
1.0561098 0.990751 1.0700034 0.9646885 1.0559179 1.0656408 1.032938 0.903395
0.89588517 0.9768501 1.0114346 1.0859723 1.0024294 1.0157131 1.0464221 1.0505136
1.0296907 0.9950554 1.0460929 1.095843 1.0002888 1.0065285 0.96444374 0.9922629
0.9954628 0.89853543 0.89303416 1.0325164 0.93455005 0.91941124 0.95054585 1.0274932

bn3.bias f4 [64]
00000000: 2629 37be 45a7 9ebe cf92 50be 5225 46be
00000010: 1389 a9bd d0dc 00be feb0 49be 3bf2 5dbe
00000020: 1167 51be f742 06be 84bb 1cbe c6a0 86bd
00000030: 0dab 53be 7762 38be 62bf 35be 8205 cbbd
00000040: 4947 14be 3e3d 48bd 161e 27be 368e 51be
00000050: d2c6 90bd 0f76 66be 2c7f aebd 08a9 3abe
00000060: 0736 45be e7e3 45be 7bf7 07be 36d6 55be
00000070: e64c 98be d930 fcbd 381a f3bd ff83 37be
00000080: 9632 00be 4759 9cbd 8a8c c6be e067 77be
00000090: a205 eabc 072b 1abe 106f 34be 20a7 6fbe
000000a0: 7d98 08be 736d f9bd 96ef 54be 3400 94be
000000b0: e4ac 82be f857 91bd 8bf2 22be ae6b 50be
000000c0: 1698 88be e0b6 12be 8311 95bd 7117 08be
000000d0: e856 36bd de77 19be e1ca 30be c40f 13be
000000e0: 4dd9 d2bd def4 90be 7385 3dbe 1ea3 e6bc
000000f0: 7856 cebd 128e d2bd 2ada 0bbe 8e12 85be
-0.1788679 -0.30986992 -0.20368503 -0.19350174 -0.08278098 -0.12584233 -0.19696423 -0.21674435
-0.20449473 -0.13111483 -0.15305907 -0.06573634 -0.2067072 -0.18006311 -0.17748788 -0.0991316
-0.14480318 -0.04888653 -0.1632007 -0.20464405 -0.07069172 -0.22505973 -0.0852035 -0.18228543
-0.19258891 -0.19325219 -0.13278 -0.20882496 -0.2974617 -0.123140045 -0.11870235 -0.17921446
-0.12519297 -0.07634216 -0.38779098 -0.24160719 -0.028567139 -0.15055476 -0.17620492 -0.23403597
-0.1333942 -0.12179079 -0.2079452 -0.28906405 -0.2552253 -0.07096857 -0.15912835 -0.20353577
-0.26678532 -0.14327574 -0.07278731 -0.13290192 -0.044516474 -0.14987132 -0.17264892 -0.14361483
-0.10295353 -0.2831182 -0.18507938 -0.028153952 -0.10075086 -0.10281004 -0.13657442 -0.2599072

bn3.running_mean f4 [64]
00000000: 8046 86bf 0385 2cbf e28f 6dbe 7b33 02bf
00000010: e8ff af3d b564 96be 6712 ffbe fa57 05be
00000020: ef5f a2be 7fc7 64be c041 a0bf d764 c5bf
00000030: b007 04bf ee0f 0bbf 352a 7abf 531b c1bf
00000040: 688e 1b3f 7d22 90be b97e 6b3e 50e3 15be
00000050: 4e7f c1bf 46a1 96bf 0ca9 37bf bb6a 8dbe
00000060: b430 b6bf 3f64 dabd 265b 1c3f 251c 74be
00000070: 5384 5abf dd1d 19bf cb22 9ebe 3f86 8a3e
00000080: 296f 00bf 05e7 a5be bfc7 d3be e2e1 cbbe
00000090: ed6c ecbe 7322 02bf 62ae 19bf 0488 aebb
000000a0: 3d6c 273f d161 63bf 8ee5 4abf 24a7 d7be
000000b0: e89b 013f da65 1ebf 9f5c d0be 1ccc f93d
000000c0: 2680 70bf 3d79 d1be 1148 a0be 2861 04bf
000000d0: 13ca 7fbf 7e58 fdbf e437 87bb 1d31 5fbf
000000e0: 72ea 7abe bd89 323e 07b4 b13d 8fd0 41bf
000000f0: b50a c3be d7ef 8bbe d8f7 cabd 0f45 5dbf
-1.0490265 -0.6739046 -0.23199418 -0.508598 0.08593732 -0.29373708 -0.49818727 -0.13021842
-0.31713817 -0.22341727 -1.2520065 -1.5421399 -0.5157423 -0.5432118 -0.9772065 -1.5086464
0.6076417 -0.28151312 0.2299756 -0.14637494 -1.5116975 -1.1767967 -0.7174232 -0.2762049
-1.4233613 -0.10663652 0.6107658 -0.23838861 -0.8535816 -0.5981119 -0.3088592 0.27055547
-0.50169617 -0.32402816 -0.41363332 -0.39820772 -0.46176854 -0.50833815 -0.6003171 -0.005326273
0.65399534 -0.8882113 -0.7925652 -0.42119706 0.5062852 -0.61874163 -0.40695664 0.12197134
-0.9394554 -0.4091281 -0.31304982 -0.5171075 -0.99917716 -1.9792631 -0.0041265357 -0.87184316
-0.24503496 0.17435355 0.086769156 -0.7570886 -0.38094106 -0.2733142 -0.09910554 -0.864335

bn3.running_var f4 [64]
00000000: bba7 023f 7336 6e3e 6ee2 9b3e 2ca2 023f
00000010: b479 953e bfc8 db3e 3c3c ae3e b0d5 333f
00000020: 826b ac3e e7ec c23e bb94 ee3e 7bf5 f63e
00000030: a1eb 353e 7148 ec3e 7b7f 143f b699 1f3f
00000040: 9f39 a03e 9b2d a23e 1a38 ab3e 403e f43e
00000050: 2659 d73e 3b1f 053f adc7 b53e dd5e 753e
00000060: edd1 b33e de5d b33e c75a a43e 2a19 da3e
00000070: 14dc b33e 245c db3e ea2b 7e3e 0eea b23e
00000080: b028 953e f712 a93e ac33 583e 1507 113f
00000090: 78b5 f33e 304e 803e 506e 8c3e 26b4 893e
000000a0: 5e28 9d3e d69e 5a3e ef9c a33e e625 aa3e
000000b0: 1f47 a53e e1b5 e73e faee 633e 47d7 cd3e
000000c0: 7de9 a33e d2b1 9f3e 9676 bf3e 2b7d 963e
000000d0: a58c 9f3e 1e89 f93e e9e5 aa3e de78 343f
000000e0: e5e2 0f3f e70a 843e b248 6d3e 6d7c c83e
000000f0: 8869 bf3e 35ff a93e 0b2a 873e 5d98 963e
0.51037186 0.23262958 0.3044619 0.51028705 0.29194415 0.42926595 0.3403033 0.70247936
0.33675772 0.38071367 0.46597847 0.48234162 0.17765667 0.46149018 0.5800702 0.6234392
0.3129396 0.3167542 0.3344124 0.47703743 0.42060202 0.5200078 0.35503903 0.23961969
0.35121098 0.35032552 0.32100508 0.42597324 0.35128844 0.42843735 0.2482144 0.34944195
0.29132605 0.33022282 0.21113461 0.5665143 0.47599387 0.25059652 0.27427912 0.26895255
0.3069486 0.21349654 0.31955668 0.3323204 0.32280824 0.4525595 0.22259131 0.40203306
0.32014075 0.31190354 0.3739516 0.2939237 0.3116199 0.48737425 0.33378533 0.7049693
0.5620559 0.25789568 0.23172262 0.3915743 0.373852 0.3320252 0.26399264 0.2941312

conv4.weight f4 [64, 64, 3]
00000000: 20d2 f4bb c029 77bd 2c69 32bd 5a86 fd3b
00000010: 4120 6d3d ed55 173d 7090 22bc c30f 8d3c
00000020: d624 59bd fa1c 4abd 64ea 23be 3d8f 9abd
00000030: b416 fa3d 6bc3 e53d 4a85 4c3d a1b1 e43b
00000040: 13b1 b43c ff78 773d 48d3 0abd 443a cebd
00000050: 4386 32bd 1f0f 113c dcac d3bb c8d0 96bd
00000060: 0783 8dbd 4bf8 12bc c6c6 b53c a3c2 80bd
00000070: 30ab ae3d 17b3 ff3a 0781 04ba e8c9 3ebd
00000080: 96a9 76bd 7c5c 93bc cfeb 333d b6ea 4e3d
00000090: df1a 2a3d f688 3d3a 6188 2b3d 8e37 d7bc
000000a0: afb8 ddbc ddbe 48bd ad17 373e 627a 423e
000000b0: e8a6 033e f72b 2ebd 322b 043d 39c3 36bc
000000c0: 42c6 1c3e fc11 a13d e056 983d d608 9b3d
000000d0: fc0b 063d ec36 193d d8ed 1a3c c224 d03d
000000e0: 96e8 0c3d c5a9 3b3d a4d4 83bb 0916 25bd
000000f0: 7310 b03d 7d80 9d3d 4083 e83d f398 a2bd
00000100: 8467 15be 01d0 4fbc 91a4 5bba f97e 50bd
00000110: 4c86 5dbd b811 333c 6238 66bc d806 9dbc
00000120: cfad 71bc 158b 1b3d 781f 4abb 4121 b53d
00000130: 39a6 3a3c f900 a93d e3a0 113d bfde 5e3b
00000140: 28e8 17bd 94c1 d73c c106 19bd b429 113d
00000150: 11c1 3e3d 8406 963d 8243 973d fca8 2d3d
00000160: 805c 64bd acd8 2bbd 830e 7d3d 53b3 1e3d
00000170: 2bc9 0abd 5d38 9c3c 7cee 8dbd 5421 f13b
00000180: 9b13 6f3c 53c9 b53d e750 f93c 226d 813d
00000190: 995e f73d 14e9 1c3d 612b 013d bbe7 bebc
000001a0: 9680 2139 72d6 48bc 3b29 89bb 8ef7 6dbd
000001b0: 9976 7fbd 9d31 843c 7f1a 903c 1e94 a03c
000001c0: 7ce8 e6bb 0dcf dcbc 6afe 563d 4043 b23d
000001d0: b6ed 943d c043 56b9 b749 343c d0c8 923d
000001e0: 3e74 fdbc 270f a03c c57a 4ebc a390 993d
000001f0: d6e7 9d3d 3ab6 2b3d 6217 b0bc 2e9a 37bb
00000200: 067d dd3c 17d2 b5bd 2fba 0cbe 1228 a6bd
00000210: 762f 203e 6a68 1a3e 0938 f93d 9eb2 4bbd
00000220: 3882 89bd 470e e8bc 98aa c8bd ec55 b8bd
00000230: f30a 8dbd 56c6 b43d d930 2fbd a084 a2bd
00000240: c061 aabb a4ee 11bd 68c3 4cbc 9c64 263d
00000250: bec2 9b3c adbd 163d 2751 7f3c afb4 d9bc
00000260: ee50 eb3c 99bc b2bd 5338 0bbe acf9 c6bd
00000270: ee51 433d 1d86 013e e878 cc3d 1d4a af3d
00000280: ffda f63d e337 b83d 63d6 9bbc e00c 82bd
00000290: 122b 7fbd 44e3 95bd 525b a23b ed55 4cbd
000002a0: 7f7f 92bd edee 063d 70db d3bb 916c 993d
000002b0: 5748 f73a fde9 883d fdd0 6ebd 20c1 2cbc
000002c0: db2d a13b 8167 d1bc fe6e 18bd c7db 88bd
000002d0: 2090 993c 1c1c 1bbd 89a0 5cbc 4f9a ab3c
000002e0: 1fde fb3b 9a74 153c ba4b 313b 657c 10be
000002f0: d963 08bd b71b 233e d77a 373e 9afe 213e
00000300: 28f4 c33d ffbd fdbb a9c9 b33d 48ce 293d
00000310: 04c0 c93c a0d2 123d 34e2 c43c 24f4 0a3d
00000320: ba1a df3b cf08 75bd 9624 a93d 42d1 2fbd
00000330: 8595 053d 5cf9 f93c df4b 0a3c 3cc7 d3bd
00000340: 9983 773d a048 f8bc a088 1bbd bdab f0bd
00000350: 5ef7 71bd aba2 9cbd 71dd 21bc 29d7 04bd
00000360: 77c3 26bd 9405 a8bc 0477 14bd 514b 23bc
00000370: 245a 83bd 73a2 443d 3c1d 74bc 8571 733d
00000380: 470e dcbc c783 133e ed67 783d 9938 1d3e
00000390: 32db bdbc a0d5 153d 416e 23bd cb1a 6ebc
000003a0: ec33 d6bb baaa c73c ee27 fe3d 8dcf 6a3c
000003b0: 3a22 053e 84d7 d2bd f42f b3bc 82ff 623c
000003c0: d4d9 d9bb 7a1c a73d f770 7e3d 152e edbd
000003d0: 733b b9bb ac33 8bbd 6b0a a43d 6bc7 293d
000003e0: 679c 2f3d 514e c03c 929c 263d 0a34 593c
000003f0: cd7f 563d c14e 8dbc 734b 633c af79 29bc
-0.007471338 -0.06034255 -0.04355733 0.007736963 0.057892088 0.03694718 -0.009922132 0.01721943
-0.053013645 -0.04934404 -0.16007382 -0.07546852 0.122113615 0.11218914 0.0499318 0.006979183
0.022057092 0.060418125 -0.0338929 -0.10069707 -0.043585073 0.008853703 -0.0064598154 -0.073640406
-0.06909757 -0.0089703305 0.02218951 -0.06287124 0.08528745 0.0019508329 -0.0005054627 -0.04657927
-0.060220324 -0.017988436 0.043926056 0.050516807 0.041529533 0.00072301866 0.041878108 -0.026271608
-0.027065603 -0.049010146 0.17880125 0.18991998 0.12856638 -0.042522397 0.032267757 -0.011154943
0.15310004 0.07864758 0.07438445 0.07570045 0.032726273 0.037405893 0.00945612 0.10163261
0.0344015 0.0458162 -0.0040231515 -0.040304217 0.085968874 0.07690523 0.11353159 -0.07939329
-0.1459027 -0.012683869 -0.00083787093 -0.05090234 -0.054083154 0.010929517 -0.014051529 -0.019168302
-0.014750912 0.037974436 -0.003084151 0.08844233 0.01139217 0.08252139 0.035553824 0.0034007279
-0.037086636 0.026337422 -0.037359957 0.03544016 0.04657084 0.073254615 0.07385923 0.042397484
-0.055752277 -0.04195468 0.061781418 0.038745236 -0.033883255 0.019069845 -0.06930253 0.0073587094
0.014592077 0.0887629 0.030434085 0.063196436 0.1207859 0.038308218 0.03153551 -0.023303857
0.00015402058 -0.012258159 -0.0041858233 -0.058097415 -0.062368963 0.016136939 0.01759076 0.019601878
-0.0070467573 -0.026954198 0.052488722 0.08704233 0.07271902 -0.00020433869 0.011003903 0.07167208
-0.030939218 0.019538475 -0.012602513 0.074982904 0.07710235 0.04192183 -0.021495525 -0.0028015482
0.027037155 -0.08877962 -0.13742898 -0.081131116 0.15643105 0.15078893 0.12168891 -0.04973089
-0.067142904 -0.02832712 -0.09798163 -0.09000763 -0.06886854 0.08826892 -0.042771194 -0.079354525
-0.005199641 -0.035627976 -0.01249776 0.040623292 0.019013759 0.036801983 0.015583313 -0.026575414
0.028725114 -0.087273784 -0.13595705 -0.0971559 0.047685556 0.12648816 0.099839985 0.08559058
0.12053489 0.089950345 -0.019023126 -0.06350112 -0.062296934 -0.07318738 0.004954734 -0.049886633
-0.07153224 0.0329427 -0.006465368 0.074914105 0.0018866163 0.06685255 -0.058304776 -0.010544091
0.0049187965 -0.02556205 -0.037215225 -0.06682544 0.018745482 -0.037868604 -0.013466009 0.020947604
0.007686391 0.009122038 0.0027053193 -0.14109953 -0.033298347 0.15928541 0.17917953 0.15819779
0.095680535 -0.0077435966 0.08778698 0.04145649 0.024627693 0.0358454 0.024033643 0.033924237
0.006808606 -0.059822854 0.08258931 -0.042924173 0.032613296 0.030514412 0.008440941 -0.10340735
0.060428236 -0.030308068 -0.037972093 -0.117515065 -0.0590738 -0.07648214 -0.009879456 -0.032431755
-0.040713754 -0.020510472 -0.036246315 -0.009966687 -0.06413677 0.048006486 -0.014899548 0.059434433
-0.026862277 0.14405738 0.060645986 0.15353622 -0.02317581 0.03658068 -0.03990007 -0.014532755
-0.0065369513 0.024373401 0.1240996 0.0143317105 0.13001338 -0.102950126 -0.021873452 0.013854863
-0.0066482816 0.08159728 0.06211945 -0.11581055 -0.005652839 -0.06796965 0.080097996 0.041449945
0.042873766 0.023474844 0.04067666 0.013257036 0.052367974 -0.017249467 0.013872969 -0.010343953

conv4.bias f4 [64]
00000000: ddc6 34bd f95c e8bc e842 973d 1f78 4a3d
00000010: 2cd5 263d 006b b23d af31 d5bc 6c0a 7bbd
00000020: 24ad a9bc 7a6d e7bd f3dc 1dbd 399e 8c3d
00000030: 1257 a63c fdde 233c bde1 7b3d fb16 b03c
00000040: 29b0 74bb 289d 133d fd70 84bd 8705 9e3c
00000050: 3a72 02bc 36d3 babc b34e 6ebb 8483 563d
00000060: 8e78 26bc 8186 f7bc 7549 f43c 08b5 6dbd
00000070: aaa9 04be e05b 213d 3466 893d 2585 eb3c
00000080: 118c 9dbc 841e 60bd 2ab2 6e3d b152 463d
00000090: 4dfd 593d b964 b3bc aa38 6cbb 5944 703d
000000a0: b66b 183d 9337 263d 35aa 86bd c385 b1bc
000000b0: 46f9 8dbc a38c cdbd 6030 603c 5dcc e7bc
000000c0: 7bb3 603d b5e5 9fbb a333 98bb 101f 5bbd
000000d0: 5de1 163c 1c47 de3d 5a0e 2f3d 75ab 2dbd
000000e0: bd58 3cbd 79db 4bbd b093 6c3d 72d4 05bb
000000f0: 79c0 08bc e7da 8c3d 5ec4 f03b 0ca1 4cbd
-0.044134963 -0.028364645 0.07385808 0.049430963 0.04073064 0.08711815 -0.026024668 -0.061289236
-0.020712443 -0.11300178 -0.03854079 0.06866116 0.02030519 0.010001895 0.061494578 0.021495333
-0.0037336445 0.036038548 -0.06466863 0.019289745 -0.007961804 -0.022805791 -0.0036362826 0.052371517
-0.010160578 -0.030215504 0.029820183 -0.058033973 -0.12955347 0.03939426 0.06708947 0.028750012
-0.019231828 -0.054716602 0.05827538 0.048418704 0.053220082 -0.021898614 -0.0036044517 0.05865893
0.037212096 0.040580343 -0.06575433 -0.021670228 -0.017330777 -0.1003659 0.0136834085 -0.02829569
0.054858666 -0.004879678 -0.0046448275 -0.05349642 0.009209004 0.10853407 0.042738296 -0.042399842
-0.045983065 -0.049769852 0.057758033 -0.0020420817 -0.00834667 0.0687769 0.0073476275 -0.049958274

bn4.weight f4 [64]
00000000: 157c b03f 628b c13f 8e83 c23f 33ec bb3f
00000010: 45ff b33f 56c4 a73f 2a73 c43f cf0c c33f
00000020: d30c b13f 7c69 c53f ad2d bd3f 09a7 b73f
00000030: 7ebc b53f 02da b93f 71e4 b93f 6891 b13f
00000040: 5810 b43f cac7 bf3f b19c c03f 50f0 bb3f
00000050: 0600 b63f 8fa8 c83f 7eaa b83f 6ac6 bd3f
00000060: 92f4 b63f 6885 b63f 98e6 c03f ba30 be3f
00000070: afb9 c03f 9d04 cb3f 394a b83f 8ffd b23f
00000080: 98bf c63f 2fb1 bb3f 21e9 bd3f 2a09 bb3f
00000090: 6d73 b03f a489 be3f d62e b53f ddfa c23f
000000a0: b9b2 bf3f 9569 b63f 832a b73f 300c c03f
000000b0: 1815 ba3f 7fa6 b63f 3a78 be3f c083 b33f
000000c0: a627 b73f 5870 b53f 5b74 bd3f 3602 c63f
000000d0: a65c bc3f cffa b63f 1cd8 c43f c178 ac3f
000000e0: 9a10 b23f a5e4 ba3f 0b2f be3f 2f70 be3f
000000f0: b7ed be3f c35e c63f 9c39 bb3f 22a1 c63f
1.3787867 1.5120661 1.5196397 1.4681457 1.4062277 1.3106792 1.5347645 1.5238284
1.3832039 1.5422816 1.4779564 1.434785 1.4198148 1.4519656 1.452284 1.38725
1.4067488 1.4982846 1.5047818 1.4682713 1.4218757 1.567644 1.442703 1.4826176
1.4293387 1.4259462 1.5070372 1.485862 1.5056666 1.5860783 1.4397651 1.398363
1.552722 1.4663447 1.483677 1.4612172 1.3785225 1.4885755 1.4154918 1.5232807
1.4976417 1.4250971 1.4309849 1.5003719 1.4537687 1.426956 1.488044 1.4024582
1.4308975 1.417491 1.4801134 1.5469425 1.4715774 1.4295291 1.5378451 1.3474351
1.3911316 1.4601027 1.4858106 1.4877986 1.4916295 1.5497669 1.4626956 1.5517924

bn4.bias f4 [64]
00000000: 125c 843d 98df 743e 92df 163e b42c 163e
00000010: 31f1 2d3e 6fe1 3f3e 516e 0e3e d8f6 683e
00000020: fdab 143e 645f 0b3e d39f 213e e6f4 3f3e
00000030: 4cca 243e 0bd9 d83d 32bb 0f3e 8f8c 783e
00000040: 6de0 933d 7a3d 1c3e 847f c13d c7f0 563e
00000050: e8fb 0c3e e6a4 8c3e c6a8 4e3e cbba 883e
00000060: 9a4c 443e ad9e e23d 2286 273e 6983 083e
00000070: e762 063e c42c 8c3e 1609 873e 5471 013e
00000080: bfea 543e 77a1 213e f7b0 273e 1c24 133e
00000090: 0564 d53d 0b26 0b3e e731 583d 8083 693e
000000a0: 7a3f 1e3e 0204 003e 9934 fd3d a8f3 d13d
000000b0: 4db9 853e ac86 e43d 6d52 863e 0a5c 443e
000000c0: 7d7d 203e c08a cc3d f661 543e 255f 3f3e
000000d0: 6b96 653e 1b89 733e c2fe 583e 32a2 823d
000000e0: d655 fb3d c25b 193e a61e 483e 0741 223e
000000f0: fa53 e83d 2e58 793e 19ba 6d3e 8fad 543e
0.064628735 0.23913419 0.14733723 0.1466549 0.16986538 0.1873834 0.1390927 0.22750413
0.14518733 0.13610607 0.15783624 0.18745765 0.16092795 0.10588273 0.14036253 0.24272369
0.0722054 0.15257826 0.0944815 0.20990287 0.1376797 0.27469558 0.2018157 0.26705012
0.19169846 0.11065421 0.16359761 0.13331379 0.13123666 0.27377903 0.2637412 0.12640887
0.20792674 0.1578425 0.163761 0.14369243 0.10419468 0.13588731 0.052781966 0.2280407
0.15453902 0.12501529 0.12363548 0.10251552 0.26117936 0.11158499 0.2623476 0.19175735
0.1567287 0.09987402 0.20740494 0.18688639 0.22420661 0.2378277 0.21190932 0.063785926
0.12272231 0.14976409 0.19542941 0.15845118 0.11344142 0.24350044 0.23215522 0.20769332

bn4.running_mean f4 [64]
00000000: 59f5 173f cac8 483e 9f0d 5b3c 3c8a dc3e
00000010: aecc d93e 3bb6 3ebf 8309 6d3f 7c04 6dbe
00000020: 0545 c43e 278f 9a3f 4854 9abd 5d5b d13d
00000030: 2959 3c3d 0a60 c03e 5469 f9bd 7676 9cbf
00000040: fc71 6a3f 0966 633f ae92 bb3e 109a 5ebd
00000050: 0898 d93e b24c ffbe 036b 07bf 0122 c4be
00000060: 1448 0cbe cce8 283e 2e65 55be 34d9 2f3f
00000070: f889 6f3f 5e26 40bf d615 0cbf bdb5 c03d
00000080: cb75 bd3e e2f5 283f 6c51 7b3d cf1b 263f
00000090: ebd7 533e dc45 3c3f 1323 8d3f f1e1 0cbf
000000a0: eba3 403f 9ed5 a43e 3195 183f 694a cd3e
000000b0: 7b21 79bf e4c3 0c3f 2bdc 5fbe 9676 6ebf
000000c0: 8f21 363e e056 1a3f 2f0d 873e 980a 683e
000000d0: 8647 54be defe c1be cfb7 2e3f 4d31 923e
000000e0: d54e 48be f219 da3e 7526 303f c146 823e
000000f0: ee0b 853f a39f 4abf d07a 2abe d05f d23e
0.59358746 0.19607845 0.013369947 0.43074214 0.4253897 -0.7449681 0.9259264 -0.23146242
0.38333908 1.2074937 -0.075356066 0.10222504 0.045983467 0.37573272 -0.12178293 -1.2223651
0.91580176 0.8882757 0.36635345 -0.054346144 0.42498803 -0.498632 -0.5289766 -0.38307193
-0.1369937 0.16495055 -0.20839378 0.686908 0.935699 -0.75058544 -0.5472082 0.09409664
0.3700393 0.6600019 0.061356947 0.6488618 0.20687835 0.73544097 1.1026329 -0.5503226
0.7525012 0.32194227 0.5960265 0.40095833 -0.9731671 0.54986405 -0.21861331 -0.931497
0.17786239 0.6028881 0.26377246 0.22660291 -0.20730409 -0.3788976 0.6824922 0.2855324
-0.19561322 0.4259792 0.6880868 0.25444606 1.0394266 -0.79149836 -0.16648412 0.41088724

bn4.running_var f4 [64]
00000000: 82db 663e 8be2 8c3e 26f0 493e 95b8 4f3e
00000010: a747 8b3e 6c93 823e c260 903e 12ab 453e
00000020: 5670 993e 3930 de3e 06f9 3a3e 91e3 343e
00000030: ad0b 853e 048b 563e 53d9 743e 23b6 843e
00000040: 0add 5e3e ad91 8e3e d13d 693e 0f25 5f3e
00000050: 71ce 493e 2dc3 493e d2df 2f3e 268b 613e
00000060: a761 433e 35b2 6c3e 6ed3 213e 86f8 523e
00000070: 074a b53e e740 5c3e eaf7 773e 6eee b03e
00000080: 3bf0 4c3e 365e 843e 9dea 4b3e 588a 563e
00000090: c4d0 853e 541a c53e 31a4 6b3e 1acb 773e
000000a0: 5fbf c03e 7996 5f3e a6e7 7e3e cb82 733e
000000b0: dad4 9b3e e15f 9a3e d962 563e 37b5 663e
000000c0: d21e 703e 876d 873e 3bb3 423e cbaa 273e
000000d0: 1b3d 4e3e 05e6 683e 6aee a03e b5e1 803e
000000e0: 3136 583e 06ac 7f3e d40f 753e aca5 c03e
000000f0: b809 833e c455 6a3e d398 543e e5a7 813e
0.22544673 0.2751659 0.19720516 0.20285256 0.27203104 0.255031 0.2819882 0.1930354
0.29968518 0.43396166 0.18259057 0.17664935 0.2598547 0.20951468 0.23911028 0.2592021
0.21764007 0.27845517 0.22777487 0.2179148 0.19707657 0.1970336 0.17175224 0.22025737
0.1908022 0.23114856 0.1580331 0.20602617 0.3540804 0.21509133 0.24215665 0.34556907
0.20013516 0.25853127 0.19913717 0.20951211 0.26135838 0.3849665 0.23011853 0.24198571
0.37646005 0.21834745 0.24893054 0.23780362 0.3043583 0.30151275 0.20936145 0.22530065
0.23449257 0.2645075 0.19013683 0.16373746 0.20140497 0.22743995 0.31431895 0.251722
0.21114422 0.24967965 0.23931819 0.37626398 0.25593352 0.2288428 0.20761423 0.25323406
