trys/model_grande_2.ckpt (torch, 128418 bytes, 11 tensors)

encoder.conv1.weight f4 [64, 1, 8]
000000 87 6b 85 be 33 fb 95 bd 60 f7 8c 3e ef 35 b0 3e
       -0.260586 -0.07323303 0.27532482 0.34416148
000010 b6 89 85 3e dc 64 21 3d 1b a7 33 be cc b9 1e 3e
       0.26081628 0.039402828 -0.17544214 0.15500563
000020 d2 75 da bc 4b e1 ae be 92 41 51 3c c4 c1 24 3e
       -0.02666751 -0.3415626 0.012771981 0.1608954
000030 76 3d b3 3e 24 89 94 3e b4 26 96 3e 83 c1 9d 3e
       0.35007828 0.2901088 0.29326403 0.308117
000040 65 ac 19 be 7c 1c b2 3d fb 22 4a be c0 87 99 be
       -0.1500717 0.08696839 -0.19739906 -0.29986382
000050 59 62 88 be ec 58 18 3e 70 f5 80 bd 16 ed 69 be
       -0.26637533 0.14877671 -0.062968135 -0.22844347
000060 bf e1 a8 3e c1 8e 8f 3e e0 36 ba 3e c2 af a4 3e
       0.3298473 0.280386 0.3636999 0.32165343
000070 e0 6a 95 be e6 9b 1a bf 19 ac f6 bd 66 72 cd be
       -0.29183102 -0.6039413 -0.12044544 -0.40126342
000080 21 67 19 3e 3a 63 89 3d d9 92 35 bd 60 72 de bd
       0.14980747 0.06708379 -0.044329498 -0.10861659
000090 67 bf fa bc 29 99 af 3e fd 7d 59 3d 07 2f 28 3d
       -0.030608846 0.3429654 0.053098667 0.041060474
0000a0 0b 27 0a 3f da fe 2f 3e 0f dc a5 3e da a9 cb 3e
       0.53965825 0.17187062 0.32394454 0.39778024
0000b0 9b 3a 3d bc e6 d1 f7 bb 68 7c 11 bf e4 b4 de be
       -0.011549617 -0.0075628636 -0.56830454 -0.43497384
0000c0 70 8c 5c 3f 5f 55 54 3f ba 8c 05 3f e3 1b 3b 3b
       0.8615179 0.82942766 0.52167857 0.0028550557
0000d0 f6 2c d7 be 1b f4 55 bf 49 5c eb be 4b d1 ca be
       -0.4202649 -0.835756 -0.45968845 -0.39612803
0000e0 0e 83 b8 3e 06 76 3e be 8c 19 0c 3d 35 9b d4 be
       0.36037487 -0.1859971 0.03420405 -0.41524664
0000f0 32 64 3d 3d 01 bc 74 be 62 60 37 3e dc 12 1f be
       0.04623813 -0.23899843 0.17907861 -0.15534538
000100 2e 27 84 3e 3f da 38 be e8 ae b6 be a7 ce 91 bd
       0.25811142 -0.18052004 -0.35680318 -0.07119494
000110 d4 3c c0 bd 5f 25 1b be 34 96 82 be ac cf 10 3e
       -0.09386602 -0.15150975 -0.2550522 0.1414172
000120 3e dc 15 3e d8 51 bb 3e 89 ac e4 3b c8 3b a9 bd
       0.14634797 0.3658588 0.0069785756 -0.082633555
000130 46 89 29 be e3 ba 64 3e 3b c7 93 be b2 87 a9 3e
       -0.16556272 0.22336917 -0.28862938 0.3311134
000140 40 0b b4 3d c4 f1 aa 3e a1 06 ca 3e ef 3b 87 bd
       0.08791208 0.33387578 0.39458182 -0.06603228
000150 37 a0 34 3e 40 8b b3 bd b9 8d a5 3c 3e 9a 83 3e
       0.17639242 -0.08766794 0.02020918 0.25703615
000160 c6 94 02 3e 11 f6 2e bb ea 8f e3 3c 3d 74 a4 be
       0.12752065 -0.002669696 0.027778585 -0.32119933
000170 0e ae 59 be 6e 57 c2 be 2f ad ca bd 92 41 a1 bd
       -0.21257803 -0.3795733 -0.098963134 -0.07873835
000180 d4 b0 92 3d 45 43 8f be a6 60 2d be 38 75 5b be
       0.071626335 -0.2798101 -0.169314 -0.21431434
000190 43 b5 e9 bd 3f ad ae be c3 30 64 be 58 4e 8f 3e
       -0.11411526 -0.3411655 -0.22284226 0.2798946
0001a0 d1 20 79 3e 9d ee 75 3e 44 c6 a8 bd 92 53 65 be
       0.24328925 0.24016805 -0.08240941 -0.22395161
0001b0 32 49 c2 3d f0 1d 27 3e ce 41 95 3d c3 35 2b 3e
       0.09486617 0.16320014 0.07287942 0.16719727
0001c0 d1 93 91 be e7 d6 9e 3e e5 41 ce bd 65 b4 d0 3e
       -0.28433087 0.31023332 -0.10071162 0.4076263
0001d0 5c f9 b0 3e f4 b8 ba 3e c7 2e d9 3d 14 52 0b be
       0.34565246 0.36469233 0.10604625 -0.13605529
0001e0 da 18 6e be 9a fe 00 be 40 02 d3 bd c1 92 82 be
       -0.23251668 -0.12597123 -0.103031635 -0.2550259
0001f0 9c 1e 57 bb 36 3f ae 3e fc 99 2e 3e a6 69 97 3e
       -0.003282464 0.340326 0.17050928 0.2957279
000200 dc aa 98 bd 8e ba 90 be e5 8f cb be e4 d9 b8 be
       -0.07454464 -0.2826733 -0.3975822 -0.36103737
000210 6b d0 a1 be 3f 32 dd 3e 49 50 8f 3e 08 f3 ec 3e
       -0.31604323 0.43202397 0.2799094 0.46279168
000220 e1 b5 68 be 6f 28 25 be 93 90 48 3e 06 c4 8f 3e
       -0.22725631 -0.16128705 0.195864 0.28079242
000230 e6 f6 78 3d f6 3a bb 3d b7 99 37 3e 77 31 03 3e
       0.060782336 0.09142105 0.17929731 0.12811838
000240 51 90 ae be 5a ae 90 be 9f 2a 8e be 2f 85 16 be
       -0.3409448 -0.2825802 -0.27766892 -0.14699243
000250 3e 28 cc bd 97 03 2d 3e 25 c6 81 bc 1c f1 ac be
       -0.09968613 0.168959 -0.015841553 -0.33777702
000260 55 8c 0d be 47 fd 68 3e 98 9c 22 3e 4b 42 f3 3e
       -0.13823064 0.22752868 0.15880048 0.47511515
000270 40 4a 44 3c 91 54 bb bc 35 91 8e 3c 3d 35 52 be
       0.011980593 -0.022867473 0.017403224 -0.20528121
000280 36 2c 12 be 15 4d 9c be 57 b0 73 bd 63 99 c3 3e
       -0.14274678 -0.3052756 -0.059494343 0.38202962
000290 66 d0 b8 3e f6 e9 ca bd 29 d4 04 3d c4 e1 9d 3d
       0.36096495 -0.09907906 0.032428894 0.07709077
0002a0 0a 25 bd bc 1e 10 08 be 64 e1 bb 3d b2 cf 7f 3e
       -0.02308895 -0.13287398 0.09173849 0.24981573
0002b0 ba 57 0b 3e 30 77 09 bd ea d9 ac 3e f6 a9 69 be
       0.13607684 -0.03356093 0.33760005 -0.22818741
0002c0 42 b1 8a be b3 e1 1b be 0a 08 7a be af 35 ec bd
       -0.27088362 -0.15222816 -0.24417129 -0.11533677
0002d0 e2 71 54 be b9 4c 86 3d 49 c1 b8 bb 21 83 53 3e
       -0.20746568 0.065576024 -0.0056382758 0.2065549
0002e0 be 56 39 3e 62 ea 8f 3e 1e e4 e0 3d 50 da 87 3e
       0.18099496 0.28108507 0.1098101 0.26533747
0002f0 8e a1 96 3e cf 0b 7b 3e 72 83 b5 bd c5 72 9f be
       0.2942013 0.24516223 -0.08862962 -0.3114225
000300 cb 57 51 be c6 19 40 be 5c 5c e1 bd 42 0f d0 3c
       -0.20443647 -0.18759832 -0.11003944 0.0253979
000310 cf 90 89 be 34 52 df bd 8d b2 ee 3d 33 b6 25 be
       -0.26868293 -0.10904351 0.116551496 -0.16182785
000320 ed 8a 21 be 5a ec 89 3e 48 d5 a4 3e 8b 1a a6 bd
       -0.15775652 0.26938134 0.3219397 -0.081105314
000330 27 57 b6 3e a1 b0 93 3e 2f 12 5e be b8 34 05 3e
       0.35613367 0.28845695 -0.21686624 0.13008392
000340 8b 64 f7 bd 18 94 a8 be 23 f1 96 be a3 ee 8c be
       -0.12079724 -0.32925487 -0.29480848 -0.27525815
000350 39 45 44 be 0c f5 b3 be 0e 6a 37 3e 38 00 b6 3e
       -0.19167031 -0.35147893 0.1791155 0.35547042
000360 95 6b 5a 3d e4 30 ed 3c 63 56 45 be 86 37 51 3e
       0.053325254 0.028953977 -0.19271235 0.20431337
000370 d7 55 74 3e 06 82 b7 bb ee 76 34 3c cd 37 4d 3e
       0.2386087 -0.005600217 0.011014683 0.20040818
000380 34 e0 ae 3e 87 84 26 3e 8d 4c be be ce 0a 6f be
       0.34155428 0.16261493 -0.3716778 -0.23343965
000390 89 6d b1 be a6 ae 05 be 61 b1 76 be dd e1 a1 3e
       -0.3465388 -0.13054904 -0.24091102 0.31617633
0003a0 fd 0f 91 be b5 8f 38 3e 01 f3 ab be a4 24 87 be
       -0.2833251 0.1802357 -0.33583835 -0.26395142
0003b0 1c 4f 9d be 4c 44 42 3e a8 95 8c 3e 22 92 80 3e
       -0.30724418 0.18971366 0.2745793 0.2511149
0003c0 80 5c fa bd b7 d9 9e 3e 64 fe d5 bd 3b 7b 03 be
       -0.12224674 0.31025478 -0.10448912 -0.12839977
0003d0 84 1a 9c be 2c 36 97 be fe 29 20 be d6 13 a4 3d
       -0.3048898 -0.29533517 -0.15641019 0.08011596
0003e0 62 22 80 be cd d3 d6 3c 14 60 88 3e 77 b3 cf 3e
       -0.25026232 0.026224041 0.26635802 0.40566608
0003f0 ea ec ca 3e 8c 28 b0 3d 1d 32 5a be 6b aa f5 3d
       0.39633876 0.08601484 -0.21308179 0.11995395

encoder.conv1.bias f4 [64]
000000 9a 1c a0 3e 1a 80 a0 3d d6 6b 31 bc db 8b 06 3c
       0.3127182 0.078369334 -0.010828933 0.008212055
000010 74 68 b3 3d f6 7c 36 bd 97 dc 9c 3d 74 f4 41 3c
       0.08760157 -0.044552766 0.07659262 0.011838067
000020 cd da 4c be 13 c0 d3 3b ce fb 4f be 1d bb d9 3d
       -0.20005341 0.006462106 -0.203109 0.10631392
000030 78 60 eb 3d ee ee 4a 3d e7 1a 0c be ef f0 15 bc
       0.11493009 0.049544267 -0.13682137 -0.009151681
000040 87 e6 72 3d 2d 59 e4 3d ad 98 49 3d 9e 5e cb 3d
       0.05930188 0.111498214 0.04921787 0.09930156
000050 04 69 02 3e c6 42 87 3e 76 9b 82 3d 47 06 1e 3e
       0.12735373 0.26418132 0.06377308 0.15432082
000060 af 95 03 3e 3b 68 a6 bd c5 61 12 be 2c e9 49 be
       0.12850069 -0.08125349 -0.14295109 -0.19717854
000070 5a c9 2b 3e 7e 6b ca b9 c0 b9 ac 3d f0 ae ef bd
       0.16776028 -0.0003860853 0.084338665 -0.117032886
000080 0b 27 1d 3d 1b 59 c1 bc 0c 26 b1 bd bc e4 92 be
       0.038367312 -0.02360206 -0.08649835 -0.28690135
000090 e2 4f 2f 3e f7 36 95 3e da 8d db 3d 65 3f bf 3d
       0.17120317 0.29143497 0.107204154 0.093382634
0000a0 be fe ac 3d b1 51 b6 bd 59 e8 06 bd 28 57 7c bc
       0.08447026 -0.089023 -0.032936428 -0.015401639
0000b0 a6 14 4d 3e c8 69 18 3e 82 97 6c be 0e b3 b3 3b
       0.20027408 0.14884102 -0.2310467 0.0054839915
0000c0 f4 87 09 be 97 c7 c8 bd 77 79 c9 3c c5 8b 86 3e
       -0.13430768 -0.09803694 0.024594052 0.2627851
0000d0 45 41 de bc 65 cb b8 3e 2e bf 0f 3e e3 3c f9 bd
       -0.027130732 0.36092678 0.14037773 -0.12169816
0000e0 60 ec 0f bd 7e d0 93 be 0d 25 8e bd a3 ec 87 be
       -0.035137534 -0.28870004 -0.069406606 -0.26547727
0000f0 ce f0 75 3e 83 08 86 3e ef c4 b1 3e 52 d1 b5 be
       0.24017641 0.2617837 0.3472056 -0.3551126

encoder.conv2.weight f4 [32, 64, 6]
000000 0c 08 05 3d 26 9d 12 3d 36 ad b5 3c 8a 6a 58 bd
       0.032478377 0.0357944 0.02217732 -0.05283598
000010 25 9c 2c 3d f7 8d cb 3c 14 5e 25 3d 09 47 eb bb
       0.0421411 0.024847968 0.040372923 -0.007180099
000020 10 26 e6 bc a4 4f 6f bd 01 a9 6a 3d 1c 6a fd 3b
       -0.028094321 -0.05842556 0.05729008 0.0077335965
000030 72 54 72 3d 14 f6 c6 3c dc fd 0c bc 44 6b aa 3d
       0.059162565 0.024287261 -0.008605447 0.083212405
000040 4f 69 d7 bc b4 8b 93 3c 55 5c f3 3c ed 0c 8b 3d
       -0.026295332 0.018010952 0.029707113 0.06789575
000050 7c 77 49 3e ff 99 3e 3d 93 d8 24 be 45 2d c0 3d
       0.19674486 0.04653358 -0.16098242 0.093836345
000060 f7 8d e4 3b 41 f7 4b 3d 40 b1 e2 3c 58 98 46 bd
       0.0069749313 0.049796347 0.02767241 -0.04848513
000070 60 77 7c 3d 3c ae 6c 3d 4c f4 81 3d c3 ba bc 3d
       0.061637282 0.05778335 0.06345424 0.092153095
000080 ed d8 0e 3e d3 18 46 bc a0 1a 87 3d 49 60 c8 3d
       0.13949938 -0.0120908795 0.06596875 0.0978399
000090 b2 bb 2a 3d 0c e1 10 3e bc 04 f4 3d 29 ce c5 3d
       0.041682906 0.14148349 0.119149655 0.096584626
0000a0 21 68 e4 3c 8c ac 0d 3e f4 bb e2 3c 9c a4 09 bd
       0.027881684 0.13835353 0.027677514 -0.03360425
0000b0 bf db 42 3d f5 8d 10 3e 91 c5 c7 bd ec c3 87 3d
       0.047572847 0.14116652 -0.0975448 0.06629166
0000c0 2d 25 89 3d 39 9b b1 3c 88 0b a8 3d d8 96 3b 3e
       0.06696544 0.021680461 0.082053244 0.18319261
0000d0 df f7 af bb 4f e0 b4 3d 3d 43 bf 3c 2d 90 16 3d
       -0.0053701247 0.08831846 0.023347491 0.03675859
0000e0 57 6b ad ba ad d3 5f 3c e2 33 ce bc a1 2b 02 3d
       -0.0013230842 0.013661307 -0.025171224 0.03177989
0000f0 b0 7d 1f 3d 92 ca c0 3d 40 5d 3f 3d 5e fd 94 bd
       0.038938224 0.09413637 0.04671979 -0.072748885
000100 bb ce 17 3c 1e 8e cd 3d 7a 0b 68 bb 49 4d 3e bd
       0.009265597 0.10036872 -0.0035407231 -0.046460424
000110 81 a2 0d bc 9c 90 f6 3d 14 f1 a1 b9 f0 c9 6b bc
       -0.008644701 0.12039301 -0.0003088793 -0.014391407
000120 30 33 cb 3c 19 b9 d0 3c 9d 67 45 3d b5 71 74 3d
       0.024804682 0.025478886 0.048194516 0.059678752
000130 a9 ab d4 bc f6 29 35 bb cd 73 10 ba b9 37 05 bc
       -0.02596076 -0.002764342 -0.000551042 -0.008130961
000140 fe 3b 15 3d bf 68 12 3d c3 a3 81 3c 4a ce 59 bc
       0.036434166 0.035744425 0.015825158 -0.013293812
000150 10 06 50 3d b5 26 f8 3d c0 67 9c 3d d9 1d d2 bd
       0.05078703 0.12116758 0.07636976 -0.10259599
000160 ad 65 13 3e 16 05 9a bc 21 3c 93 3d 7c 70 77 3d
       0.14394255 -0.018801253 0.07189203 0.060410008
000170 be 4f 02 be 0b ba fc 3c 1d a5 1d 3e b1 a2 b2 3c
       -0.12725732 0.030850431 0.15395017 0.021806093
000180 b9 3f c7 3d 8a c0 80 bd 3f df 83 3d 18 46 e9 3d
       0.09728951 -0.06286724 0.06439065 0.113903224
000190 d5 ed 11 bd ab ef cb 3d 27 0e 25 3d 4c e1 00 3c
       -0.035627205 0.099578224 0.0402967 0.007866215
0001a0 6d 9d 13 bd 34 7b 64 bb cf 59 27 3d f0 7c 75 bc
       -0.036038805 -0.0034863474 0.040857133 -0.014983401
0001b0 7b bf f4 bc 4c 4a d9 3c ca 14 94 3c 53 96 db 3d
       -0.029876461 0.026524685 0.01807632 0.107220314
0001c0 f3 f6 2c 3d af f7 f7 bc 5a e1 ed 3c 04 7c 4e 3d
       0.042227697 -0.030269472 0.02903812 0.05041124
0001d0 ed b4 e2 3c 37 3b 23 bd 53 84 fa bb 20 7c 98 bc
       0.027674163 -0.039851394 -0.007645169 -0.018613875
0001e0 a0 58 cd 3c 18 6d 99 3c 20 42 96 3d 55 15 de 3c
       0.025066674 0.018728778 0.07336831 0.027109781
0001f0 55 f6 24 3d b2 f1 0e 3c 3d 5d 10 bc 86 ab 99 3d
       0.040273983 0.008724617 -0.008811292 0.075034186
000200 4d 7c bb bc a3 a4 bd 3b 7e 5c a9 3c ee 95 05 3b
       -0.02288642 0.0057874485 0.020673987 0.0020383555
000210 62 3f df bb 1a ce ee bc 2e 40 02 bd f7 5d 69 3d
       -0.0068129757 -0.029151011 -0.031799488 0.056974377
000220 9a c0 cc 3c fc b9 c4 3c fb 7c ae bc 9b 59 49 3c
       0.024994183 0.024014466 -0.02129983 0.01228943
000230 b6 97 5c 3d d4 b2 6a bd e7 5f 15 bc 70 43 75 3d
       0.05385562 -0.05729945 -0.009117103 0.059878767
000240 fa 3e db 3c b7 bd 83 bc 4b e5 19 3d a1 d1 da 3c
       0.026763428 -0.016081674 0.037572186 0.026711287
000250 43 fa c3 bb 5a 33 1f 3d d8 db 10 bb 4b e1 0c 3e
       -0.0059807613 0.038867332 -0.0022103693 0.13757817
000260 bb 6d 26 3b c0 88 ef bd c3 97 a0 3d a9 ee a5 3c
       0.0025394994 -0.11696005 0.07841446 0.020255404
000270 a5 15 c9 3d 6d 98 62 3c b5 a8 df bc 34 d9 57 3e
       0.098185815 0.013830286 -0.027302125 0.2107895
000280 8c ae cd bb 48 17 13 bc 7d bb b4 bc 29 1f 51 bd
       -0.006276911 -0.008977719 -0.022062058 -0.051055107
000290 21 1b 20 bc 7c 36 0e bd 3f 46 8f 3c ee c2 02 bc
       -0.009772093 -0.03471993 0.01748955 -0.007981045
0002a0 ce 44 3e 3d b6 1b 26 bd 9b 84 9a bc 7f ca bd 3d
       0.046452336 -0.04055377 -0.01886206 0.09267139
0002b0 61 c6 e7 bc c0 f3 9d 3d 65 3b 3b 3d dc 3c a2 bd
       -0.028292837 0.07712507 0.04571094 -0.07921764
0002c0 aa aa 73 bd 7a fb 19 3e f8 75 83 3d f1 00 2f bd
       -0.05948893 0.15037337 0.06418985 -0.042725507
0002d0 9a 91 4f bd a5 6c 05 3d c8 95 8e 3d d2 06 15 3e
       -0.050675966 0.032574315 0.06962162 0.14553383
0002e0 e7 35 cd bd 3f 16 04 bb cb fa b7 b9 62 f3 14 3e
       -0.10020047 -0.0020154861 -0.00035091335 0.14545968
0002f0 83 ea 82 3d 29 d9 0d be 85 02 bf 3d 91 32 a3 bc
       0.06392386 -0.13852371 0.093266524 -0.019921573
000300 21 ee 03 bc 8b 8a 7a 3d c5 14 f9 3d 95 e5 4d 3c
       -0.00805238 0.06116728 0.121621646 0.012566944
000310 a6 c0 21 bd b5 47 a5 3d 4e a2 08 3d eb 8e 0d 3c
       -0.039490364 0.08070318 0.03335791 0.008640031
000320 2c 74 66 bc 79 f8 27 3e 73 2c a0 3d 0e 6f f6 3b
       -0.0140657835 0.16403379 0.07820978 0.007520563
000330 69 47 94 3d 8c 09 16 bd ed 7e 9a bc 4e 5c e7 3d
       0.07240183 -0.0366302 -0.018859351 0.112969026
000340 1d 1e 2a 3c 70 b9 d5 bc 94 0a 69 bd ba 5f 6e 3c
       0.010383156 -0.0260894 -0.056894854 0.01454919
000350 b2 df 79 3c 4a 99 14 bd 8c 1e ee 3c 2b 61 b8 bc
       0.015251087 -0.036279 0.0290673 -0.02250727
000360 20 5f 57 3b 8b 24 18 3d 51 4c 87 3b e8 07 7b 3d
       0.0032863095 0.037144225 0.0041289707 0.061286837
000370 6e e3 1c bc bb 4b 3d bb 1b 0c 3c bc 41 89 78 3d
       -0.009575708 -0.002888425 -0.011477496 0.06067777
000380 37 47 fb 3c db 21 b6 3c a5 24 59 3c f5 22 db 3a
       0.030673606 0.02223294 0.013253366 0.0016718792
000390 d4 29 c2 bc c5 8c 08 3c b2 0b 14 3d 28 c2 c3 bd
       -0.023701586 0.008334343 0.036143966 -0.09558517
0003a0 c1 9b 77 3d 4f 3f 4d 3d b9 59 a4 3c c4 0f 20 3d
       0.060451273 0.050109204 0.020062314 0.039077535
0003b0 f2 96 2e 3e f3 64 0a be 18 9b 80 3d 0a 3d bb 3d
       0.17049769 -0.13515072 0.06279582 0.09142502
0003c0 fa 7d 81 3c f4 24 64 3d 95 99 a2 3c 6d 0c da 3d
       0.01580714 0.055699304 0.019848624 0.10646901
0003d0 7b 03 45 bd c2 95 f0 3d f7 73 48 3d 0b f9 c8 3d
       -0.048099022 0.11747314 0.048938718 0.09813126
0003e0 49 c5 ac bd 67 a6 3f bd bc b4 d6 3d b3 27 62 3d
       -0.08436067 -0.046789553 0.10483691 0.05521364
0003f0 ce 15 71 3d 4c 9f 87 3d 5c cb 14 bd ef 99 3a 3d
       0.058858685 0.0662218 -0.03632675 0.04555696

encoder.conv2.bias f4 [32]
000000 90 ea 28 3d d3 d5 56 3d 58 ec 06 bd 25 36 49 3d
       0.04123932 0.052450012 -0.03294024 0.049123902
000010 4d 82 29 3d 77 03 12 bc 64 be 64 3d 72 b7 6a 3d
       0.04138403 -0.008911959 0.055845633 0.057303853
000020 9e 2c ad bc 40 0d 21 3d d9 2c 06 3d 05 36 8b 3c
       -0.02113944 0.039319277 0.032757614 0.016993532
000030 0d 44 68 3c f4 a1 a1 bc c7 60 7b 3c c0 3f e7 bb
       0.014176381 -0.019730546 0.015342898 -0.00705716
000040 da 56 d5 3c be ca d6 bb d7 1f 67 3d af 14 e6 3b
       0.02604239 -0.0065549305 0.05642685 0.0070215086
000050 87 c7 7c 3d 1e 78 06 3d 29 aa 03 bd 75 d5 6c 3d
       0.06171372 0.032829396 -0.0321447 0.057820756
000060 bb 08 82 bc 22 d2 5e 3d fc 66 9d 3b 51 94 fb 3b
       -0.015873304 0.054399617 0.0048035365 0.007677593
000070 95 cf 70 3d e1 5c 1e 3d dd 6b 30 3c b8 bc 23 3d
       0.058791716 0.038662795 0.010767904 0.039974898

encoder.conv3.weight f4 [16, 32, 5]
000000 e6 3b 89 bd 60 fe 70 bb 53 61 88 bc 33 1d b1 3d
       -0.06700878 -0.0036772713 -0.01664797 0.086481474
000010 7b 5b a2 3c 87 34 d0 bc b8 7c 81 bd 15 2a 89 3d
       0.019819012 -0.025415672 -0.06322616 0.0669748
000020 1a 41 95 bd 69 27 3e 3c 97 7b e8 bc bd b4 97 3d
       -0.07287808 0.011606076 -0.028379245 0.0740752
000030 50 bf b7 bb 8e 4c 01 be 88 99 c3 bd dd 54 22 bd
       -0.005607523 -0.1262686 -0.09550768 -0.039631713
000040 85 45 0c 3d 58 3c 99 bb 66 09 33 3d ec c6 59 3c
       0.034245986 -0.004676383 0.043710135 0.013292056
000050 cd d2 76 bd 2a ae 9c 3c 59 29 3e bd 09 9f c6 3d
       -0.06025963 0.019126017 -0.04642615 0.09698302
000060 0a d5 8d 3d 37 2d b3 3b e3 f4 73 3c d8 70 7b bd
       0.069253996 0.0054680365 0.0148899285 -0.061386913
000070 fc 92 27 bd fb d2 53 b9 93 c6 8a 3c 94 59 60 3d
       -0.04091166 -0.00020201124 0.01694039 0.05477293
000080 19 ec a1 bc 7f 1b 7c bd b4 18 61 3b 5c 3f 57 3d
       -0.0197659 -0.06154966 0.0034347 0.05255066
000090 01 dc e2 3c 04 91 a8 bc 29 3f 96 3d 85 ee 8a bd
       0.027692797 -0.020576961 0.073362656 -0.06783775
0000a0 b7 c2 94 bc 26 17 1d bd 60 a2 8a bc ce 50 06 bd
       -0.018159254 -0.038352154 -0.01692313 -0.032791905
0000b0 2f ac 92 3d ca 8c 8e 3d 94 65 80 bd b7 a8 08 bd
       0.07161748 0.06960447 -0.062693745 -0.033364024
0000c0 a0 3f fb 3c 36 84 97 3d ed 26 75 bc 82 50 85 bd
       0.030669987 0.07398264 -0.014962894 -0.06509496
0000d0 e4 7b 98 bd af 04 84 bd ce 41 06 3d 44 ac 45 bd
       -0.07445505 -0.06446206 0.0327776 -0.04825999
0000e0 f4 39 04 3c a7 4c 31 bd 20 9a 43 bd 29 7e 22 3d
       0.008070458 -0.043285992 -0.047754407 0.039671097
0000f0 f0 38 4d 3d bf 98 50 bc c1 f0 f6 3c 3a 5f bb bc
       0.050103128 -0.01273173 0.030144097 -0.022872556
000100 bb a7 a5 bd 2c 96 0d bb 03 0c a2 3d eb 30 f3 bc
       -0.08088633 -0.0021604402 0.07912447 -0.029686412
000110 9e e1 41 bd 72 b5 ac 3c f1 e2 b0 3b 9f c4 cf 3c
       -0.047334306 0.021082614 0.0053981473 0.02536231
000120 1a da ad 3d 31 a8 e6 3d 85 dc 05 3b bc c0 c7 bc
       0.08488865 0.11262549 0.002042563 -0.024383895
000130 d9 3a c5 3c 18 83 95 3d 03 84 54 bd 95 78 38 bd
       0.024075912 0.07300395 -0.05188371 -0.04503687
000140 ab 07 50 3d d4 a2 23 3d 1e 1d 9c 3d e4 52 8a 3d
       0.050788563 0.039950207 0.07622741 0.067540914
000150 07 95 5b 3d 4d 93 92 3d 4c ab bc 3c 21 bb 9d 3d
       0.05360892 0.07157002 0.0230309 0.07701708
000160 b6 05 7a 3d 2a bc ca ba 4e 72 8b 3d a5 5a 40 bd
       0.061040603 -0.0015467454 0.06808911 -0.046961445
000170 d0 f8 76 bd 38 3e d5 bb c3 6c 8b bd 38 d5 92 ba
       -0.06029588 -0.006507661 -0.06807854 -0.001120246
000180 0f ce 39 bd 29 d6 95 bd 3a 1b 3f bd 8e 9a 5f 3d
       -0.04536253 -0.073162384 -0.046656825 0.054590754
000190 d6 82 84 3d 2d a9 01 3d 4d 7e 75 3b 20 f5 8d 3d
       0.064702675 0.03165548 0.0037459314 0.069315195
0001a0 42 6a c9 3b 79 9d 9a ba c9 fc e8 3d dd 85 55 bd
       0.0061467 -0.0011796198 0.1137634 -0.052129615
0001b0 95 a9 42 3d 07 81 99 3d 15 d3 09 bb 1e 02 93 3d
       0.047525007 0.07495313 -0.0021030356 0.07178138
0001c0 e1 0b 8d 3c 84 96 19 3d e2 c3 60 bb 1d 3e 3e bd
       0.017217578 0.03749706 -0.0034296443 -0.046445955
0001d0 8f c2 1f 3d f0 9b 56 bb 8e 4c 88 bd 33 06 72 ba
       0.039003905 -0.0032746755 -0.06655227 -0.0009232491
0001e0 12 e7 0c bd 46 a7 55 3d a2 76 9e 3d f2 f7 ae 3c
       -0.034400053 0.052161478 0.07737471 0.021358464
0001f0 a6 8f 1a bd 47 e2 f4 bb ae 5c 55 3d 99 cf 70 3d
       -0.03773465 -0.0074732634 0.05209034 0.05879173
000200 47 3f 83 3d b5 10 a0 3d 40 20 2c bc 6f 45 98 bd
       0.064085536 0.078156866 -0.010505736 -0.074351184
000210 20 0a c5 bc c2 77 55 3d 57 73 70 bd 12 e7 5b 3d
       -0.02405268 0.052116163 -0.058703747 0.053687163
000220 e9 7b 89 bd 39 bf be 3c 67 4f 30 bd 3f be 22 bd
       -0.06713087 0.023284541 -0.043044474 -0.039732214
000230 55 70 ca 3d 81 c4 51 3d 8f d0 c8 3b c0 5c 34 3d
       0.09884707 0.05121279 0.0061283777 0.044033766
000240 43 2f 12 3c 09 fc 8e 3d cd 44 2e 3d 9f cc 46 3d
       0.008922401 0.06981666 0.042546082 0.048534986
000250 b8 1d cf 3c ec 48 7f 3d b7 ba 00 bc bb 78 6f bd
       0.025282726 0.062325403 -0.007857016 -0.058464747
000260 01 45 6e bc d7 40 f0 bc cd fd 6e bd 48 1a 46 bd
       -0.014542819 -0.029327793 -0.058347512 -0.048364908
000270 06 97 91 3d 69 42 e7 3c db 81 19 3d 6b d5 84 3d
       0.071088836 0.028229909 0.037477355 0.06486019
000280 af 40 be bd 1a 16 fd 3c e4 61 65 3c 80 90 ed 3c
       -0.09289681 0.030894328 0.01400039 0.028999567
000290 ff fe 36 3d ef 73 b5 bc 88 c4 8f bd b6 cc 79 bc
       0.044676777 -0.022150008 -0.07019907 -0.015246561
0002a0 e8 03 73 3d 6c 7a 79 bd 36 9d 2a ba 4e 0d ea bc
       0.059329897 -0.060907766 -0.00065084116 -0.028570797
0002b0 18 8a a6 bb 25 b2 a7 3c de e3 ba bc c4 d8 2c 3d
       -0.00508238 0.020470688 -0.022813734 0.04219891
0002c0 7f ea 01 3d a1 66 29 3d 5e 21 3d 3d 4f ec 10 bd
       0.031717774 0.04135764 0.0461744 -0.03538161
0002d0 50 8e 15 3d 5a 03 93 3d a6 6a e4 3b 64 eb 3d 3d
       0.036512673 0.07178374 0.0069707213 0.046367064
0002e0 ef 39 88 3d e5 a0 3d 3d 05 70 85 3d fd fe 62 3d
       0.06651675 0.04629602 0.06515507 0.055418957
0002f0 a4 61 3b 3c 62 dc 26 3d d3 f0 02 3d 73 e8 27 bd
       0.011436854 0.040737517 0.03196795 -0.040993165
000300 d8 91 44 3d c9 40 0c 3d 57 a6 30 bd 31 f4 d0 3c
       0.04799065 0.03424147 -0.043127384 0.025507065
000310 84 bb 28 3d 67 00 a9 bc 24 3b a6 3d f7 fc 21 3d
       0.041194454 -0.020630075 0.08116749 0.039547887
000320 5e b6 56 3d d5 21 87 3d 99 9d 2f 3c 22 0d b3 bd
       0.052420013 0.0659825 0.010718727 -0.08742739
000330 be 20 be 3b ee a5 e1 3b 4d 88 4b 3d 3e a7 3d 3d
       0.005802243 0.0068862354 0.049690533 0.046302073
000340 38 0a 5b bd 7c fc a5 3d d6 5b 9e 3d 7f 64 c4 bd
       -0.053476542 0.08104798 0.0773236 -0.095894806
000350 82 0b 18 bd ae 52 30 3d 93 15 bd 3d 1f 08 af 3d
       -0.03712035 0.0430476 0.092326306 0.08546471
000360 57 0d 93 bd 25 a9 9a bd 68 7e e6 bb 93 d8 58 bd
       -0.07180279 -0.07551793 -0.007034112 -0.052940916
000370 de 39 35 3c f1 47 f3 bc 23 bf fc bc 85 54 8c 3b
       0.01106116 -0.02969739 -0.03085286 0.0042825365
000380 e9 36 7b bd 5c 53 b7 bc 13 68 00 3d ed 03 90 bc
       -0.061331663 -0.022378616 0.031349253 -0.017579997
000390 4d ae a7 3c 88 b6 5c bd 0d 42 4a bd df 68 58 3d
       0.020468855 -0.053885013 -0.049379397 0.052834388
0003a0 06 4d cc 3d 7d dc 9f bc c1 c0 c4 ba 8e d1 bc bc
       0.099756286 -0.019514317 -0.0015011058 -0.023049142
0003b0 6d bb 9d 3d a3 cc cc ba 00 df 68 3d f1 ba de 3c
       0.07701764 -0.0015624951 0.056853294 0.02718875
0003c0 68 a9 a9 bd c7 40 0e 3c 7f 0d f7 3c 52 c0 26 3d
       -0.08284265 0.008682436 0.030157803 0.040710755
0003d0 6b 28 bd 3d 3f 6c 86 bc 5d 7e 04 3d 22 aa bf 3d
       0.09236225 -0.016409038 0.032347072 0.09358622
0003e0 38 f8 1c 3c 5a 9b a1 3a 05 f7 93 bc 7e 36 37 3d
       0.009580664 0.0012329624 -0.018062124 0.044729702
0003f0 77 39 6f bc ff 6f 2e 3d 35 80 b5 bc 7f b8 fc 3c
       -0.014601103 0.042587277 -0.02215586 0.030849693

encoder.conv3.bias f4 [16]
000000 0c 89 1a bd bb f8 51 bc e5 b6 32 bd 5c c4 7a 3b
       -0.037728354 -0.01281565 -0.043631453 0.0038264012
000010 0b 83 3b bd 15 6a 96 3d 66 9f 23 3d 6b 13 75 3d
       -0.04577927 0.07344452 0.039946936 0.05983297
000020 f8 5e a4 3d ca f1 2e 3d 6d 22 a0 bc 3f f6 05 3d
       0.08025926 0.042711057 -0.019547665 0.03270554
000030 63 8a 0a bd b9 05 87 bc 5b 9a 02 3c b8 0d ab bd
       -0.033823382 -0.016482221 0.0079713715 -0.08352226

decoder.deconv3.weight f4 [16, 32, 5]
000000 b8 83 98 3d c1 15 39 bc fc 73 99 3d 8c a1 b2 3c
       0.07446998 -0.01129669 0.074928254 0.021805547
000010 3e f8 28 3d 61 46 91 bd 56 51 9b 3d 60 72 be bd
       0.041252367 -0.07093502 0.07583873 -0.09299159
000020 f8 42 db 3c 6e 81 25 bc 70 61 e1 3c ed ae aa bd
       0.026765332 -0.010101659 0.027512282 -0.08334146
000030 63 ea 4d 3d 0c 58 68 bd 3f aa 69 bd 1e b5 a6 bc
       0.050272357 -0.056724593 -0.057047125 -0.020350035
000040 74 4c b2 3c 1d f9 e5 3c 4c 4d 37 3e e8 92 c5 3d
       0.021764971 0.028072888 0.1790058 0.09647161
000050 ee 36 b9 bb 16 8a 8a bd 1f 21 16 3c 6d c6 8c bc
       -0.0056523 -0.06764619 0.00916317 -0.01718446
000060 79 a7 5a 3d 92 4a 88 3c 68 09 2c bc 78 ec b7 3b
       0.05338237 0.01663712 -0.0105002895 0.005612906
000070 5b 1e 24 3b 56 90 32 bc 00 f0 da bd 0b 7a 37 3c
       0.0025042507 -0.01089867 -0.106903076 0.011198531
000080 62 d4 f4 bb bc 30 22 3c 2d 78 a5 bc d0 c4 94 3d
       -0.007471607 0.0098993145 -0.020198906 0.072641015
000090 33 49 0b bc dc 5f 0f bc ec 39 6c bc ed 05 83 bd
       -0.008501339 -0.008750882 -0.0144181065 -0.06397615
0000a0 bf 40 71 3b f2 6a cb 3b 69 54 8e 3d 85 54 43 bb
       0.0036812273 0.0062078172 0.06949694 -0.0029805016
0000b0 78 22 be 3c 0b 2e ba 3d da 76 4f 3d 0b 19 ea bc
       0.023209795 0.09090813 0.050650455 -0.028576395
0000c0 b1 49 bd bd f7 90 1a 3d 77 aa aa 3d 82 12 fe bb
       -0.09242571 0.037735905 0.08333295 -0.007753671
0000d0 cf 2e db 3c fe 5f a8 3d 46 25 6a bd 2d 53 f2 bc
       0.026755719 0.08221434 -0.057164453 -0.029580677
0000e0 13 20 9f bd 02 c3 a7 bd 42 40 90 bd a4 c6 00 3d
       -0.077697895 -0.08191492 -0.07043506 0.03143944
0000f0 cb 64 44 bd ee 1c 63 bd b7 fa 5e 3b e5 af ed bc
       -0.047947686 -0.05544751 0.003402395 -0.029014537
000100 4f 50 e0 3c 4c 7d d7 bc 8d c1 45 3d 76 ed 26 3d
       0.027382044 -0.026304863 0.048280288 0.040753804
000110 6b a6 7d 3d 9d ec 8f bd 71 7e 9d bc 7f 43 56 bc
       0.061926287 -0.07027552 -0.019225331 -0.013077616
000120 c0 08 56 3c 15 fb 35 3d 50 00 9e bd a4 a0 b9 bc
       0.01306361 0.044428904 -0.07714903 -0.022659607
000130 09 98 bb bd ec 34 67 bc b8 b9 18 bc 05 bb 11 bc
       -0.09159858 -0.014111739 -0.009321623 -0.008894687
000140 05 5a 0b bd 79 f2 ef bd 97 0f a9 bc 53 eb a3 3c
       -0.034021396 -0.1171617 -0.020637317 0.020009672
000150 75 d6 aa bd a9 8d 6a 3d e6 88 16 3e 53 e9 28 bd
       -0.08341686 0.057264004 0.1470066 -0.04123814
000160 69 8b 9e 3d 40 26 a2 3b 58 47 11 3d d8 57 3f bd
       0.07741434 0.0049484074 0.03546843 -0.046714634
000170 32 2e 77 3d 8d b8 a0 3d f3 d1 2c 3d 45 11 d6 bc
       0.06034679 0.078477 0.04219241 -0.026131282
000180 e3 84 0f 3d 35 5f ad 3d b0 13 4e 3a 30 7a 89 bd
       0.03503884 0.08465425 0.000786121 -0.067127585
000190 69 c7 61 3d 10 63 83 ba 23 f4 5d bd f9 c2 9e bc
       0.055121813 -0.001002403 -0.054187905 -0.01938008
0001a0 d9 cf 9b 3c 6b b5 69 3d d1 bd ba 3d f9 43 f9 3c
       0.019020008 0.05705778 0.09118236 0.03042792
0001b0 4b df aa 3c ca d7 e3 bd 9d c8 53 3d f8 87 d0 3c
       0.020858428 -0.11125143 0.05170499 0.02545546
0001c0 f5 8c 0d 3c 1f 9f b1 37 fb 74 5c bc 36 11 8b 3d
       0.008639564 2.117414e-05 -0.013455625 0.06790392
0001d0 cb 34 53 3d ba 36 37 3d 1f 16 9e bd 93 57 57 3d
       0.05156402 0.044729926 -0.07719063 0.05257375
0001e0 7c d2 4d bd 1a 97 77 bd 41 a2 c3 3d 17 52 cd 3c
       -0.05024956 -0.060446836 0.09552432 0.025063558
0001f0 39 7d 21 3d 16 55 50 3d 8b ff 87 3d 05 10 be bd
       0.039426062 0.050862394 0.06640538 -0.09280399
000200 17 8c 26 bd fb 39 5a bc f1 84 a4 bc a5 15 45 bd
       -0.040660944 -0.013319488 -0.020082923 -0.048116345
000210 1f 85 c5 3c 6f db 95 3d 10 ea fc 3c 5e 63 1a 3c
       0.024111329 0.07317244 0.030873328 0.009423105
000220 38 d5 7c 3d 54 1c 52 3d c5 ef 93 3d 65 8b 15 bd
       0.06172678 0.051296547 0.07223467 -0.03650989
000230 29 b2 69 3c f0 d9 ba 3c 34 8c b6 3d 21 24 92 bc
       0.014263668 0.022808999 0.089134604 -0.017839493
000240 1c c3 c8 bc a1 fd ef bc 1a 7a 61 bc ed 9c b8 bd
       -0.024507098 -0.029295744 -0.013762021 -0.09014306
000250 28 0b 45 bd 21 6b 5a 3c e0 d5 2b bd 78 03 06 3d
       -0.048106343 0.013331206 -0.041952014 0.03271815
000260 e4 d2 fb bc d5 b0 14 bd 74 81 74 3d 64 b8 64 bd
       -0.030740209 -0.036301453 0.05969377 -0.05583991
000270 09 cc bb bc 01 5e 6c bd b6 82 1b bb 72 68 16 bd
       -0.02292444 -0.057706837 -0.0023729033 -0.0367207
000280 1f 57 43 3d 94 93 12 bd 60 3d a0 bd 0a ea c7 bc
       0.047690507 -0.035785273 -0.07824206 -0.02440359
000290 47 90 71 3a 47 b4 39 bd 7a da 8e bd 3d bc 6a bd
       0.00092149194 -0.04533794 -0.06975265 -0.057308424
0002a0 79 81 64 bc 53 f1 b8 3c 0c 89 b0 3c 28 b0 45 3d
       -0.013946884 0.02257601 0.021549724 0.0482637
0002b0 d4 ac 88 bb 7e e7 c9 3c fc 58 69 ba a9 c7 fd 3c
       -0.0041709933 0.024646517 -0.00089015043 0.030978994
0002c0 f7 b0 15 3e 20 a5 3a 3c 7b 18 26 bd 9d 14 9a 3d
       0.14618288 0.011391908 -0.04055069 0.07523463
0002d0 e9 87 a4 3c 8f d0 b8 3a 08 49 93 3d 6c 00 aa 3c
       0.020084338 0.0014100241 0.07191664 0.020752154
0002e0 1c d8 51 bd 64 fc 5b bd 76 f0 e1 3c ea 10 94 3c
       -0.05123149 -0.053707495 0.027580481 0.018074472
0002f0 a1 02 19 3d 7c 84 89 3c 00 04 c4 3d ae a2 85 bd
       0.037356023 0.016786806 0.095710754 -0.06525169
000300 4b b6 08 3d 34 7e 00 3d 88 40 df bc 68 c5 31 bb
       0.033376973 0.031370357 -0.02725245 -0.002712572
000310 f6 d7 25 3c 56 eb db bd 9e 95 a7 3c 18 00 28 bd
       0.01012229 -0.10738246 0.020457085 -0.041015714
000320 c8 d7 84 3d c4 57 3a bd 39 24 54 3d 03 b9 82 3d
       0.064864695 -0.045493856 0.051792357 0.063829444
000330 2e 63 8e 3d 3c 36 fb 3d c0 e7 96 bc ba 94 8b 3b
       0.06952511 0.12266204 -0.018421054 0.004259673
000340 54 29 63 bd d2 b7 84 3b f8 b4 ee bd e8 85 81 3d
       -0.055459335 0.0040502334 -0.11655611 0.06324369
000350 0b be f3 ba f4 35 9e bd a2 10 9e 3d 57 29 b2 3d
       -0.0018596066 -0.077251345 0.07718016 0.08699291
000360 6c 5e 8d 3c 27 85 d6 3c 8f 34 a4 bd e0 c1 1c bd
       0.017256938 0.026186539 -0.08017837 -0.03827083
000370 45 27 54 3b a9 6f 39 3d 88 8f f2 bc 43 6e 3a bd
       0.003237204 0.045272503 -0.029609457 -0.04551531
000380 be ff a2 bd b9 e8 8d bd 23 92 c8 3d d5 fd 86 bd
       -0.07958935 -0.06929154 0.09793498 -0.06591383
000390 de 42 01 3d b7 2c 2f 3d be 23 9c bc 14 16 94 3d
       0.03155791 0.042767253 -0.019060012 0.072307736
0003a0 ca c1 1e bb 67 9b 88 bc e2 e2 85 bd 51 a3 14 3e
       -0.0024224394 -0.016675664 -0.06537415 0.14515425
0003b0 06 e7 02 bd 59 97 99 bd 36 25 08 3d 27 57 cf 3d
       -0.031958602 -0.074995704 0.033238612 0.10124045
0003c0 a1 bc a2 bc 44 56 bd bd 35 d1 61 bd 56 af 8b bb
       -0.019865336 -0.092449695 -0.055131156 -0.004262845
0003d0 d7 35 57 bd c4 e3 ab bc 4c 42 9f 3d d1 8b 5a 3b
       -0.05254158 -0.02098263 0.07776317 0.0033347497
0003e0 61 41 94 3d 5d 71 b6 3c 41 b7 f6 bc ce 22 da 3d
       0.072390325 0.022270853 -0.03011668 0.1065117
0003f0 0f fd 03 3c 76 67 c1 3b 3b 66 e9 3c 67 7a 59 3d
       0.008055939 0.005902226 0.02849113 0.053095248

decoder.deconv3.bias f4 [32]
000000 13 71 2d bd 92 19 5a 3c 4c 97 6d 3b 53 75 6e bd
       -0.042344164 0.0133117605 0.003625351 -0.058217358
000010 0e 29 85 3a d4 cd a2 3d 9e d5 c9 3b 18 77 dd 3c
       0.001015933 0.07949415 0.0061594984 0.027034327
000020 b8 01 07 bd f5 9e 56 3d 3d ad 28 bd 0b 68 58 3d
       -0.032960624 0.052397687 -0.041180838 0.052833598
000030 76 c3 13 3d f3 77 d7 ba 53 8a 36 bc d7 f6 85 3d
       0.036075078 -0.0016438946 -0.0111413775 0.065412216
000040 e2 76 a1 3c ca 75 2c bd e4 27 97 bd 54 bd b9 3c
       0.019710008 -0.04210452 -0.073806554 0.022673286
000050 a1 18 7f 3a f9 f9 ce bc 19 20 90 3d 1c 39 64 bd
       0.0009731148 -0.02526568 0.07037372 -0.055718526
000060 2e 7b aa bc 6f 70 a5 3d 53 b1 4b bd 4f 60 94 bd
       -0.02081069 0.08078086 -0.049729656 -0.07244932
000070 f1 c3 5f bc 7f cc 02 3d 84 41 28 bd d8 b1 7b 3d
       -0.013657556 0.031933304 -0.041078106 0.061448902

decoder.deconv2.weight f4 [32, 64, 6]
000000 f3 d7 27 bd ac 05 9c 3c 2b 93 a7 3c 4d 56 ce 3c
       -0.04097743 0.019045673 0.020455917 0.025187636
000010 da 15 47 3d c4 8e f6 bc cb ce 80 bb dc 7c 8e 3b
       0.048604824 -0.030097373 -0.0039309016 0.0043483805
000020 93 38 38 bd e6 2c 82 bc 23 fe 59 3d a2 f3 00 be
       -0.04497583 -0.01589055 0.05322088 -0.12592939
000030 de e8 9c 3d fa 19 5d bd e4 8c 96 ba 79 06 3a bd
       0.076616034 -0.05397985 -0.001148608 -0.04541633
000040 f1 ff 0f bc 26 b4 44 bc 8a 11 de 3b 94 7d 20 bd
       -0.0087890485 -0.012005841 0.006776993 -0.03918226
000050 a4 de a0 bd 80 2c f4 bc 82 d1 35 bb 6d e6 be bc
       -0.07854965 -0.029806376 -0.0027743285 -0.023303235
000060 4b 17 a9 3d 77 a2 af bd 43 76 22 bd e8 2f da bc
       0.08256396 -0.085759096 -0.039663564 -0.026634172
000070 84 61 02 3a dd 47 d7 bc e3 1e fb 3c 62 3c cf 3d
       0.00049736374 -0.026279384 0.030654376 0.10118939
000080 f7 33 ae bd c5 5f 3d 3c 6b 24 90 3d 78 a4 d6 b7
       -0.08506005 0.011558478 0.07038196 -2.5587375e-05
000090 cf 90 6d bd 42 06 68 bd a3 7b 86 bd ad 3a c2 3c
       -0.05799943 -0.056646593 -0.065665506 0.02370962
0000a0 ae 2f 2e bc 8b 33 46 3d 51 a0 96 bc 41 e3 04 3d
       -0.010631485 0.048389 -0.018386992 0.03244329
0000b0 9c 07 1e 3c 85 9e 16 bc 09 ad cb 3b 7b a9 2d 3d
       0.009645369 -0.009193067 0.0062156958 0.042397957
0000c0 0b 4c a1 bd af a1 58 3d 24 df c4 bc aa 48 22 bc
       -0.07875832 0.05288857 -0.024032183 -0.00990502
0000d0 40 7b 0c 3d 45 5e 86 bc f8 a3 71 bc 68 7c a2 bd
       0.034297228 -0.016402373 -0.014748566 -0.07933885
0000e0 40 5e 7c bb 3e 61 c9 bd 5f f0 03 bd 7d 45 bd bc
       -0.0038508326 -0.098330006 -0.032211658 -0.023104424
0000f0 0a fe e3 3c 76 8c 9b 3d e3 63 5a 3b 39 e3 41 bb
       0.027831096 0.0759515 0.0033323697 -0.0029584898
000100 81 d7 79 3d 05 90 da bc 63 b5 98 3c fd 23 98 3d
       0.060996536 -0.026680002 0.01864118 0.07428739
000110 17 0e 64 3c f6 96 9d 3c 4a f2 bf 3d e6 66 5e 3c
       0.013919375 0.019237023 0.09372385 0.013574338
000120 d7 7f 9a 3c 7e f5 b0 bd eb 93 c5 3b 23 eb 4b bd
       0.018859787 -0.08640574 0.006029596 -0.04978479
000130 60 0f 7f bc d2 93 38 3d e3 df 3c bc 22 2e 69 3c
       -0.0155676305 0.045062847 -0.011527988 0.01423219
000140 78 b1 04 bc 25 dc 2f bb ef 14 3a 3a 68 41 46 bd
       -0.0080989525 -0.0026834097 0.0007098456 -0.04840222
000150 56 5f a4 3d f4 5c b2 ba 27 84 43 3c 2d 2d 89 bd
       0.080259964 -0.0013608024 0.011933363 -0.0669807
000160 c3 79 75 bc f0 9e e0 bb 99 4b 49 3c 0d 1a e7 bd
       -0.014982644 -0.0068548843 0.01228609 -0.11284266
000170 dc a0 0c bd 0c f7 ab bc d2 b1 28 3b 29 90 34 3d
       -0.034333095 -0.020991825 0.0025740755 0.044082794
000180 a6 ad e2 bc 11 19 7d bc 17 73 5c bd 9a c8 36 bd
       -0.027670693 -0.015447871 -0.053820696 -0.044624902
000190 63 62 95 bc b7 bf e7 bc 35 f1 cd 3b f7 5a 69 bc
       -0.018235391 -0.028289659 0.0062848576 -0.014242879
0001a0 9f 08 2d 3d d3 d4 05 3d 77 1d 23 3d 58 ee 04 3d
       0.04224455 0.032673668 0.03982302 0.032453865
0001b0 cd 9d c0 3b ad 47 d7 bc 6f 18 fa bc 71 82 f6 bc
       0.0058781863 -0.026279295 -0.030529229 -0.030091496
0001c0 a2 ca c3 bc 89 ef 97 bb c2 14 be bc 20 eb 22 bd
       -0.023900334 -0.004636709 -0.023203257 -0.039775014
0001d0 e7 48 f1 3c 80 dc 23 bd 1b 21 6a bb c5 af 85 bd
       0.029453708 -0.040005207 -0.0035725299 -0.06527666
0001e0 62 3a 68 3d fa 84 5b 3d db 3e 06 3d f7 ff 7c bc
       0.056696303 0.053593613 0.032774787 -0.015441886
0001f0 b0 2e 67 3c a3 e1 ed 3c ae b0 8f 3b 95 f6 27 bd
       0.014110252 0.029038256 0.0043850755 -0.041006643
000200 0d 86 5b bc 39 96 2b ba dc c1 b2 bb 28 5c 11 3d
       -0.013398659 -0.0006545517 -0.0054552387 0.035488278
000210 0f 0b ff bc ae 73 02 3d 72 f8 a0 3d 29 82 26 bd
       -0.031133203 0.031848602 0.07859887 -0.040651474
000220 c9 29 07 3c 1f 10 a8 3c cb 00 fc 3c 68 00 97 3c
       0.008249708 0.0205155 0.030762097 0.01843281
000230 a5 53 36 bd 4f ac b7 3d 37 b8 9f 3c 65 ac b1 bc
       -0.044513363 0.08968412 0.01949702 -0.02168865
000240 04 10 0f 3c 55 1a 82 bc fd da 8b bd f4 5e a4 bd
       0.008731846 -0.015881697 -0.06828878 -0.08025923
000250 38 ed 38 bd 35 80 24 3d 59 a9 23 bc 1b 27 73 bd
       -0.045148104 0.04016133 -0.009989106 -0.059363466
000260 0d c6 02 bd a7 9d e6 3b a0 23 4e bd 85 ce 01 bd
       -0.031927157 0.0070378366 -0.050326943 -0.031691093
000270 cb be 82 ba 10 62 e3 3c 45 26 6e 3d 94 f0 45 3d
       -0.0009975074 0.02775672 0.058141965 0.048325136
000280 bf 71 0a bd 98 5b 47 bd b6 6a 47 3d 2e 70 ba bd
       -0.033799883 -0.048671335 0.04868575 -0.09103428
000290 62 da af bc 4e 1d 71 bc 43 6f 92 3b 76 6e 1c 3c
       -0.021466438 -0.014716459 0.00446883 0.00954782
0002a0 2b 37 22 3d d7 33 22 3d 27 d3 80 3d 2b 81 8d 3a
       0.039603394 0.03960022 0.06290274 0.0010795941
0002b0 10 28 ee 3c 73 71 b1 bc da 51 00 3d 2f 5c ca 3a
       0.029071838 -0.021660542 0.03132806 0.001543885
0002c0 c9 d2 88 bd 18 34 93 bd 02 9d 5f bc bd c0 1a bc
       -0.06680829 -0.071876705 -0.013648273 -0.009445366
0002d0 f5 82 84 bc a1 07 1e bd e9 63 4a bd da 21 15 3c
       -0.016175726 -0.038581494 -0.049411688 0.009102309
0002e0 6e 6d 2c 3c 6a 8f 0c bb aa 60 92 3d 82 36 0a bd
       0.010524137 -0.0021447786 0.071473435 -0.03374339
0002f0 a1 05 9f bc c9 f9 66 bc d3 29 12 bc 6d 2a 85 3c
       -0.019411864 -0.014097639 -0.0089211045 0.016255582
000300 a3 de 69 3d 9e a1 61 bb b6 c1 27 3d d5 b1 ad bb
       0.05709709 -0.0034428607 0.04095622 -0.0053007402
000310 47 c3 49 3d 42 92 ba bb 38 81 b2 3c 88 1e e3 3c
       0.049258497 -0.005693705 0.021790132 0.02772452
000320 05 fa 49 3d d8 1d 34 bb 26 40 ab 3c 06 af 2e bc
       0.049310703 -0.0027483609 0.020904612 -0.010661846
000330 77 02 2d 3c e2 16 11 3d 21 77 d0 bc 77 c7 8b 3d
       0.01055967 0.035422213 -0.02544743 0.06825154
000340 b1 13 9f bc a3 1c 4a 3c 66 30 97 bc 33 45 cc bc
       -0.01941857 0.012335929 -0.018455695 -0.02493534
000350 ea 30 2a 3d 61 ef ae 3c de bc e2 bb 21 2e e5 bc
       0.041550554 0.02135438 -0.0069194874 -0.027976098
000360 b4 d8 05 3d 4f 02 8f 3b 32 58 74 3b 99 c0 74 bd
       0.032677367 0.004364289 0.0037284014 -0.059753988
000370 38 83 1f 3d e3 83 27 3d e3 2a 1c bd 70 03 74 3c
       0.0389435 0.04089726 -0.038126837 0.014893398
000380 2b ad 64 3d f2 d1 0e 3d d7 2a f5 bb 4c aa 01 3d
       0.05582921 0.03486819 -0.0074819135 0.03165655
000390 56 4d ca 3c 54 a9 a0 3c 13 45 2b 3d 54 dc 1d 3c
       0.02469508 0.019611992 0.04181392 0.00963505
0003a0 7e 8a 92 3d 47 e1 c8 3b d1 30 81 bc 3c b7 58 bd
       0.071553215 0.006130371 -0.015770348 -0.05290912
0003b0 e5 78 cc bc 9f 5e 47 bd 4c 44 3a 3c ff 14 08 3d
       -0.02495999 -0.048674222 0.011368822 0.03322315
0003c0 b9 9a 82 3a 11 f2 81 3c 39 9a 34 bc 80 21 4e 3d
       0.0009964324 0.015862497 -0.011023098 0.050324917
0003d0 db f1 25 bd fe ed a4 3b aa 6f 30 3d 62 06 cd 3d
       -0.040513854 0.0050332537 0.04307524 0.10010983
0003e0 60 c6 43 3c 02 0d 12 3d e2 a2 86 3b b5 d9 af 3b
       0.011949152 0.035656936 0.0041087726 0.005366529
0003f0 5f 2d 8a 3a 48 d9 e9 bc 25 0c f7 bc e1 30 c3 3c
       0.0010542086 -0.02854599 -0.030157158 0.023827018

decoder.deconv2.bias f4 [64]
000000 5c a5 10 3b e1 73 a5 bc 13 bf 85 3c 5c 18 35 bc
       0.0022071218 -0.020196857 0.016326463 -0.011053171
000010 3f b1 a2 bb 38 d4 2e 3d bd ce 15 bd 81 f7 00 3d
       -0.004964977 0.042682856 -0.036574114 0.031486038
000020 d1 58 40 3d ef 97 c8 bc f0 32 e9 3c 4f f5 e0 3a
       0.046959702 -0.02448651 0.028466672 0.0017162951
000030 5a cc 21 3c 90 72 e5 3b 7a a0 89 37 14 e5 f3 bc
       0.009875381 0.0070021823 1.64064e-05 -0.029772319
000040 45 dd c9 3a 6c 22 91 3c b4 a5 02 bd 81 95 99 3c
       0.0015401026 0.017716609 -0.031896308 0.018748047
000050 7c fe 1f 3d 29 af 82 3c ca 5e 26 3c 44 fb a3 bc
       0.039061055 0.015952663 0.010154435 -0.020017274
000060 3b e4 33 bc 6e 5e 02 3c d6 51 4a 3b e8 2f 27 bd
       -0.010979707 0.007957084 0.0030871532 -0.04081717
000070 60 7c d8 3c d2 18 05 3d 8e df 68 bd dd f3 97 3c
       0.026426494 0.032494374 -0.056853823 0.0185489
000080 df 01 4d bd aa 07 7b 3c 95 9c 21 3c 17 7f 45 bb
       -0.050050613 0.0153216515 0.009863992 -0.0030135566
000090 b9 f0 42 bc 12 59 a9 bb 05 f6 de 3c ee 74 5b bc
       -0.011898213 -0.0051680887 0.02721692 -0.013394577
0000a0 05 d7 10 3d ff c4 37 3d af cc 6a bc 5c c4 e4 3c
       0.03536131 0.044865604 -0.014331027 0.027925663
0000b0 f9 83 b5 ba bd 60 8c 3b cd bb 8b bd 83 d8 93 3c
       -0.0013848535 0.004283993 -0.068229295 0.018047577
0000c0 57 d2 26 3d 39 5b e4 3c 89 e8 78 bc ba 25 0d bd
       0.04072794 0.02787553 -0.015192159 -0.034459807
0000d0 d2 0f a6 3b df 7d 81 3c 75 23 31 bb ed 11 ff bc
       0.005067804 0.01580709 -0.002702919 -0.031136477
0000e0 40 db f9 3c 4b 0c 45 3d 3f 63 40 bd 33 ac de 3c
       0.030500054 0.048107427 -0.04696965 0.02718172
0000f0 a6 f4 a0 3c cc 58 2d bd 14 9b 15 3b 84 02 d8 bb
       0.019647907 -0.04232101 0.002282803 -0.0065920968

decoder.deconv1.weight f4 [64, 1, 8]
000000 45 23 85 3d cc 1c 18 be 51 2d 5d 3e 0b d1 4a 3b
       0.06500868 -0.14854735 0.21599318 0.0030947353
000010 ac e5 92 bc 71 71 2a 3e e9 67 95 3e f9 06 a5 be
       -0.017931782 0.16644837 0.2918084 -0.32231882
000020 b8 5b 56 bd 62 ea bd 3d be 23 23 3e 09 db 7f 3e
       -0.052333564 0.092732206 0.15931603 0.24985899
000030 c1 66 00 be f5 19 c5 be 9b 44 9a be 34 e4 4b 3d
       -0.12539198 -0.38496366 -0.30130467 0.04977818
000040 0b 69 a3 3e d7 42 d8 bd 15 0d 51 be 9f 31 5a be
       0.3191608 -0.10559624 -0.20415147 -0.21307991
000050 bd 81 a5 be 20 dc dd 3c 93 17 90 3e 37 8a 3a bd
       -0.32325545 0.027082503 0.28142986 -0.04554197
000060 ad ca 27 3c b4 e8 8d bc 25 f0 df bd 08 3d 90 be
       0.010241193 -0.017322876 -0.10934476 -0.28171563
000070 d0 ea f3 bd 56 f2 50 3e e0 67 af be eb f4 ab be
       -0.11910021 0.20404944 -0.34258938 -0.33585295
000080 f1 f8 21 3e 62 ba a6 be cb b3 48 bd 80 f7 a5 be
       0.1581762 -0.32564074 -0.04899959 -0.3241539
000090 9d bf a0 be 36 fb df be 18 0c e6 bd 9c 3b 3d 3e
       -0.3139619 -0.43746346 -0.112327754 0.1847977
0000a0 65 ea 83 bd e1 a9 7d 3e 86 7c 3f 3e e1 35 c5 3c
       -0.064411916 0.24771835 0.18699846 0.024073543
0000b0 a0 11 ff bc aa 64 5c 3d f0 84 09 bd be 22 7f be
       -0.031136334 0.05380694 -0.033574045 -0.24915597
0000c0 6c 7a cc bd 83 5b 2a bc ff 33 7e be 45 69 64 be
       -0.099842876 -0.010397795 -0.24824522 -0.22305782
0000d0 fc 71 96 be de d8 84 bd 4d c1 8e 3d 61 bc ca bd
       -0.29383838 -0.06486677 0.06970463 -0.09899212
0000e0 58 22 91 3d fa 5c 4d be f9 4c 33 bc 1c 91 71 bc
       0.07086629 -0.20054999 -0.010943645 -0.014744069
0000f0 5c 18 9a 3e 62 a4 28 3e c0 4e 41 3e bb e0 96 3e
       0.3009671 0.16468957 0.18877697 0.2946833
000100 72 7e 3a be c8 c7 1d 3b 92 d2 cf bd 92 da ad 3e
       -0.18212298 0.0024075378 -0.10147585 0.33955818
000110 7a 80 9b bd a9 32 57 ba 11 a0 43 be e4 58 a2 bd
       -0.07592864 -0.0008209148 -0.19104029 -0.07927111
000120 be 8a 5b 3c 34 96 b0 be fc fa ff 3c 37 21 60 3c
       0.013399778 -0.34489596 0.031247608 0.013679794
000130 cc 8e 8b be 16 5f 96 be 64 66 62 bd e5 55 a1 3e
       -0.27257383 -0.2936942 -0.05527343 0.31510845
000140 50 d1 35 3e 9e 98 87 3d 0c 61 b9 3e f2 f8 df 3d
       0.17755628 0.06620906 0.36206853 0.109361544
000150 f6 8b 57 3e d5 04 a3 bd c6 f3 82 be 98 60 a9 be
       0.21049485 -0.07959906 -0.2557661 -0.33081508
000160 4e da 48 3e b1 62 2b bc cb 53 73 3e 64 36 58 3e
       0.19614527 -0.010460542 0.23762433 0.21114498
000170 01 1b 0a be c9 ca db bd 73 8e a2 bd 58 b6 cb bd
       -0.13486864 -0.107320376 -0.07937326 -0.09946889
000180 26 ab 9e be 2a 84 8f 3e 7b 7e a2 be 24 d1 86 bc
       -0.3098995 0.2803052 -0.31737122 -0.016457148
000190 de 83 22 be bf 94 a6 be a1 6d 26 be ec 25 5e 3e
       -0.15870616 -0.3253536 -0.16252758 0.21694154
0001a0 a9 9a 7f 3e 5b 5f cb bd 9a d4 f1 bd ac 87 85 3e
       0.24961342 -0.09930297 -0.11808129 0.26080072
0001b0 21 ff 88 3d 27 c3 a7 be bc af 17 be be 85 82 be
       0.06689287 -0.32766077 -0.14813131 -0.25492662
0001c0 9a 84 bf be 06 f4 9d bc 02 89 80 be 3b ec b4 3b
       -0.37405854 -0.019281399 -0.2510453 0.005521325
0001d0 ea 32 ae be 73 41 e7 bc 04 b2 a1 3e 6e c5 f6 3d
       -0.3402322 -0.02822945 0.31581128 0.120493755
0001e0 d5 30 61 bd 0f 3f 7a 3d 30 0f 9e be b6 28 a0 be
       -0.05497821 0.061095294 -0.30870962 -0.3128106
0001f0 4d 17 86 be 56 76 6f be 96 e2 b6 bb 76 2a 98 be
       -0.26189652 -0.23384985 -0.0055812104 -0.29719895
000200 ab 97 fa 3d ab fa 4d be 29 88 e1 bd e8 ad bc bd
       0.122359596 -0.20115153 -0.110122986 -0.092128575
000210 dc fb 30 be 7b 5c af be 66 d8 79 3b e7 81 8e be
       -0.17283577 -0.34250244 0.0038123368 -0.27833483
000220 d5 0d ab 3e b6 5a 1a be 62 eb c4 3d 31 50 44 3d
       0.3340899 -0.15073666 0.09615208 0.04792804
000230 3a a8 20 bc 56 75 75 3e ab ee 57 3d e1 51 a8 3e
       -0.009805733 0.23970541 0.052717846 0.3287497
000240 64 8c ec 3d 7c 6a b1 3d 84 06 21 be 0a 6f f2 bd
       0.11550215 0.086628884 -0.15725142 -0.11837585
000250 4b bd 57 3d 1e 79 91 3e fd 2f 9d be 21 ec 50 3e
       0.05267076 0.28412718 -0.30700675 0.20402576
000260 88 7e 47 3e 8f 44 4b bd 50 d0 88 b9 8e 86 80 be
       0.19481862 -0.04962593 -0.00026095146 -0.25102657
000270 1c 1a be be 8c 72 06 be d5 47 45 3e 23 45 47 bd
       -0.37129295 -0.13129634 0.19265683 -0.04864992
000280 d6 5c 8c 3e d2 83 81 3b ae fe 12 3d a0 88 bc 3e
       0.27414578 0.003952482 0.035887413 0.36822987
000290 fd 6b 86 3d 8b d9 9d 3d c5 6f b3 3e 90 54 3e be
       0.06563566 0.07707509 0.3504621 -0.18586946
0002a0 2e be 02 bd 15 0d 53 bd 51 15 8d bd 06 b0 25 bd
       -0.03191965 -0.051526148 -0.068888314 -0.040451072
0002b0 79 48 e8 3d 5d 5a 8b 3e f6 5f 56 be 08 d0 74 3e
       0.11341948 0.2721738 -0.20935044 0.23907483
0002c0 f4 e2 62 3e 95 ea 17 3d 0e b5 ec bd f3 29 1f 3e
       0.22156888 0.03708895 -0.11557971 0.15543346
0002d0 36 e4 2c 3d b3 98 4e be a5 23 68 3e a0 74 50 3e
       0.042209826 -0.20175438 0.22669847 0.20356989
0002e0 c5 43 11 be 74 24 3a 3e 8e 8f b8 3e 9d 49 9b 3e
       -0.14186008 0.18177968 0.36047024 0.303296
0002f0 3f ea 38 bd d6 f2 8e be f1 c0 b3 be cd 71 9a 3e
       -0.04514527 -0.27919644 -0.3510814 0.30164948
000300 eb 84 43 be 3a 32 c6 3d 8f 73 42 be 5a 33 9f be
       -0.19093673 0.09677549 -0.18989395 -0.31093866
000310 9d 48 5b 3e f4 96 e3 bd 5d 87 20 3e 97 42 38 be
       0.21414419 -0.111127764 0.15676637 -0.17994152
000320 71 7d b1 be 2c 85 18 be 59 66 92 3d de ea 5e 3e
       -0.34666017 -0.14894551 0.071484275 0.21769282
000330 8a 11 d1 3d 0f db 45 be 6f 20 b5 be b3 5a 2d 3e
       0.102084234 -0.19321845 -0.35376307 0.1692913
000340 22 40 26 3e b7 e4 d6 3d 97 1e 7e 3e a8 33 47 3d
       0.16235402 0.10492843 0.24816357 0.048633248
000350 cf 9a a5 bd ea e7 bc 3e 2e 2a 28 3e 1c 37 7f 3d
       -0.08086168 0.36895686 0.1642234 0.062308416
000360 0b b5 cb 3d d2 56 ce 3d 6c fe 67 be fd 28 85 bd
       0.099466406 0.100751534 -0.22655648 -0.065019585
000370 65 ac c6 be 2c 39 5a 3d c6 78 ae bd da 1c 38 3d
       -0.38803402 0.05327718 -0.085191295 0.04494939
000380 e9 1d 8d bd 8b 47 a2 3e 2f 4e 9a be 0f 98 c0 3e
       -0.068904705 0.31695208 -0.30137774 0.37616012
000390 09 9e 89 3e fc 27 a0 3e 59 2d e4 3d 84 0e ba 3e
       0.26878384 0.31280506 0.11141462 0.363392
0003a0 55 74 a5 bd 35 5e c9 bc 08 64 56 3c d9 b8 29 be
       -0.08078829 -0.024581054 0.013085373 -0.1657442
0003b0 d9 e1 84 be 83 0d 8f 3e ba d3 6f be 00 a3 c0 3d
       -0.25953558 0.27939996 -0.23420611 0.0940609
0003c0 31 1d 72 be 3d b4 27 bd a7 7e bd 3d cc ee 4a 3e
       -0.23643948 -0.040943373 0.09252673 0.19817656
0003d0 c3 51 86 bd 0f 53 79 bd 73 e9 35 bd ba f0 15 3e
       -0.065585636 -0.060870226 -0.044412088 0.14642611
0003e0 fe 12 8d 3e b0 82 25 3e 34 df 8d be a6 b3 41 be
       0.27553552 0.16163135 -0.27709353 -0.18916187
0003f0 ed 78 5c 3e 11 5b 9d 3d 59 d7 a9 be 3a 83 3a bd
       0.21530505 0.07683385 -0.3317211 -0.045535304
