trys/normal_clasi.ckpt (torch, 112358 bytes, 26 tensors)

conv1.weight f4 [32, 1, 80]
000000 d8 56 5b bd ea 9e 5c 3d 7b 1f 24 bb 62 19 71 3c
       -0.053549618 0.05386249 -0.0025043178 0.014715524
000010 4e 78 b8 3d 00 ae a9 3c 34 42 04 3e e8 ff 7d bc
       0.09007321 0.020712852 0.1291588 -0.015502907
000020 b6 31 c1 3c 17 ac 02 be 13 18 e1 bd 7a f4 94 3d
       0.023583274 -0.1276096 -0.1099092 0.07273193
000030 06 d1 03 3d 80 1e 1b bc 3a 77 60 3d 96 ea a6 bb
       0.032181762 -0.009467721 0.054801203 -0.005093883
000040 2a 18 41 bd d4 81 8f bc a5 ec 97 3d fd 27 d1 bc
       -0.047142185 -0.017517962 0.07418183 -0.025531763
000050 f9 f6 1f 3c df 7e c1 ba a7 e6 80 3d 37 e5 8c bd
       0.009763473 -0.0014762542 0.062939934 -0.06879657
000060 59 70 9e bc 51 78 3e bc e8 8d 27 3d a2 b3 28 3d
       -0.01934068 -0.011625365 0.040906817 0.041186936
000070 7e 70 d1 3c 1f 28 df bd e3 b8 9d bd 70 07 2d bd
       0.025566336 -0.10896324 -0.0770128 -0.04224342
000080 76 51 75 3d 65 7b a7 3d 8c b1 e7 3c 31 0a 8c 39
       0.05989214 0.081778325 0.028282903 0.00026710474
000090 0b 64 b3 bd 37 83 c4 3c bb f6 1c 3d 15 c9 03 3c
       -0.08759316 0.02398835 0.038321238 0.008043547
0000a0 5b f7 9c 3d c4 8e b8 bb aa 57 c0 bb 1d 55 c0 bd
       0.07664367 -0.0056322534 -0.0058698254 -0.09391234
0000b0 47 79 27 3d cc 9b 04 bd d2 93 a2 bc 0a 78 c7 bd
       0.040887143 -0.032375142 -0.019845877 -0.097396925
0000c0 72 00 3d 3d ab 56 ae 3c 5e df 6b 3c 42 81 96 3d
       0.046143003 0.02128156 0.014396517 0.07348873
0000d0 5f f9 16 bd 49 2a 99 3d 77 3a 9c ba 17 53 61 3d
       -0.036858913 0.074787684 -0.0011919279 0.05501088
0000e0 aa 0b 47 bd 0e fc 6d 3d 6c bd b2 3d 70 1a de bc
       -0.048595108 0.058101706 0.087275356 -0.027112216
0000f0 57 e3 7a ba c6 68 a7 bd e6 df c8 3d f1 f2 2d 3d
       -0.00095706194 -0.08174281 0.0980833 0.042468015
000100 a3 6e 1a bc c0 6d c8 3c 6f 7c 3b 3d fa 8a b2 3b
       -0.009425792 0.024466395 0.045772966 0.005448696
000110 b0 b3 e1 bd 06 75 b0 3d 1a b7 1c bc 04 6a 2b 3b
       -0.11020601 0.086160704 -0.009565139 0.002615572
000120 f2 cd e9 3c 6f d3 c0 bd b2 b9 ea 3d 70 cd b0 3d
       0.028540585 -0.09415328 0.114612 0.08632934
000130 15 54 30 3e 01 38 9b 3c b5 ad f0 ba 0e 50 56 bd
       0.17219575 0.018947603 -0.0018362316 -0.05232244
000140 da 79 0c bd d7 1a 3e bb b9 66 2e 3d a4 3c 8f bd
       -0.034295894 -0.0029007697 0.042578433 -0.06993988
000150 41 70 c1 bd 3b e8 de 3c 92 be fe bc 20 14 b3 bd
       -0.09445239 0.027210345 -0.03109673 -0.08744073
000160 59 eb 00 3e 59 53 1b be 74 7a a8 3d 0f 05 bc bd
       0.12589778 -0.15168513 0.08226481 -0.09180652
000170 01 d8 b8 3d 50 b9 b3 bd c7 5d 81 3c f9 71 ec 3d
       0.090255745 -0.0877558 0.015791787 0.11545176
000180 6c 29 14 bd d0 be be bd 72 6d 0f 3e 5b ca d8 3a
       -0.036172315 -0.09313738 0.14006594 0.0016539799
000190 35 94 3c bc 32 72 52 bd ff 29 1a 3d 1b a8 8e bd
       -0.011509945 -0.051378436 0.037637707 -0.06965657
0001a0 35 8f 91 3c 5b 59 22 bc a0 a1 a1 3d 80 d0 d9 bc
       0.017768482 -0.009908999 0.07892156 -0.026588678
0001b0 e2 68 21 bd a6 ec d0 bc 9f a4 1f bd 50 91 62 bd
       -0.039406665 -0.025503468 -0.038975354 -0.055314362
0001c0 27 a5 0a 3e d8 69 be bd a3 84 bc 3d 90 e8 c2 bd
       0.13539563 -0.09297532 0.09204986 -0.09517014
0001d0 9d 5b bc 3d cd 6d 98 bd e3 f1 79 3c 72 75 0d 3d
       0.09197161 -0.07442818 0.015255424 0.034535833
0001e0 be fc ed 3a 01 55 45 3c 71 aa db bd 2a 48 0f 3e
       0.0018156988 0.012044192 -0.107258685 0.13992372
0001f0 68 e8 ec bd 69 a3 36 3d 6e 5b 9a 3d 10 fb c6 3a
       -0.115677655 0.044589434 0.0753697 0.0015181024
000200 3a bb 5b bd 80 61 ea 3d 79 22 b4 3c cc 4f 44 bd
       -0.05364535 0.11444378 0.021989094 -0.047927663
000210 ff 13 2f 3d 8e 74 00 3d 80 55 38 bd 3f 14 79 bd
       0.04274368 0.031361155 -0.045003414 -0.060810324
000220 1b 0c 32 3d b2 c2 94 3c 5e 1e af bd 60 78 a5 bd
       0.043468576 0.018159244 -0.08550714 -0.080796
000230 18 3b 63 bc 46 e7 27 bc 4f 38 33 3d 99 1d a9 bd
       -0.0138690695 -0.010248011 0.043754872 -0.082575984
000240 86 21 13 3c 47 27 88 3d f8 07 e1 3c 05 ff 0b 3d
       0.008980161 0.066481166 0.02746962 0.034178752
000250 4a 06 00 3d ab bf 8f 3d f9 04 b4 bb 28 5d b7 3d
       0.031255998 0.0701898 -0.005493757 0.08953315
000260 7e e6 78 3b 6f 16 12 3d 57 61 f2 3d 63 d5 07 be
       0.003797918 0.035665926 0.11834972 -0.13264994
000270 be cf 91 3d e2 16 22 3d f9 53 ae bd 14 40 d4 3c
       0.07119702 0.039572604 -0.0851211 0.025909461
000280 41 67 f3 bd 69 9c 9b bd 9d b2 ec 3c 27 7d 9a bc
       -0.118849285 -0.07598192 0.028893763 -0.018858505
000290 e0 31 e6 bd 7a ed 83 bd e0 67 c5 bd a0 4a c8 bd
       -0.11239982 -0.064417794 -0.09638953 -0.097798586
0002a0 99 82 01 3d c7 7d 29 3b 4e 7e cb bd f4 88 84 bd
       0.03161869 0.0025862323 -0.099362 -0.06471434
0002b0 4a 91 2a bc 3c 21 3f bd 3f 47 12 bd 83 58 24 bd
       -0.010410616 -0.046662554 -0.035712477 -0.040123474
0002c0 5d e1 b4 bd e7 61 3c 3d a2 da f2 3d c4 12 8a 3d
       -0.08832047 0.045991804 0.11858107 0.067418605
0002d0 da 0c 4a bc d7 76 bf bc f3 e2 24 bd d9 91 2d bc
       -0.012332166 -0.023372097 -0.0402555 -0.010593855
0002e0 6e 0f 25 3d 66 77 17 3d ff bc ee 3d 25 81 df 3d
       0.040297918 0.0369791 0.11657142 0.10913304
0002f0 1a 95 06 bd f7 d9 dd 3d b2 ce 27 3d 55 f2 5e 3d
       -0.032857038 0.10832589 0.040968604 0.054430325
000300 6d 76 b7 ba 53 32 9f bc 69 da d9 3c 13 2e 07 3e
       -0.0013997086 -0.019433176 0.026593404 0.1320117
000310 1a 22 b7 3c 64 a1 a9 bd 5b dd 08 3e e9 77 ee 3d
       0.022355128 -0.08282736 0.1336569 0.11643965
000320 9f e3 ae bd d2 28 b3 bd 03 17 65 bd 99 f1 43 ba
       -0.08539509 -0.0874802 -0.05593015 -0.00074746605
000330 99 28 0e bc 9b c9 b5 3d 73 84 88 3d 79 54 5b bd
       -0.008676671 0.08876344 0.06665888 -0.053547356
000340 ce 37 8b 3d 62 f8 a5 3d 16 5b b8 3d 97 ff bf bd
       0.06797753 0.08104016 0.09001748 -0.09374922
000350 d1 de 7b bd 0f 21 77 bc da 8f 3f 3d 54 f3 99 3c
       -0.06149179 -0.015083565 0.046768047 0.018792786
000360 35 2f 84 3d df 3e 49 3d 60 7f b8 3d 4d c9 77 bd
       0.064543165 0.049132224 0.0900867 -0.06049471
000370 42 27 73 bd 78 85 2f 3c 31 52 17 3c 6a 50 10 bc
       -0.05936361 0.010712974 0.009235905 -0.008808235
000380 f7 e0 84 bd af 3a 5f 3d 8c 08 6e bd 47 6e 1b 3d
       -0.06488221 0.054499324 -0.05811362 0.037946966
000390 1e ba 8a bd 96 28 be bd 01 41 9d 3d 24 89 0f 3d
       -0.0677378 -0.09285085 0.07678414 0.035042897
0003a0 a5 2f 90 bd 7e b2 d2 bc 99 bc 76 ba 61 b5 bf 3b
       -0.070403375 -0.025719877 -0.00094122585 0.0058504795
0003b0 b4 f7 a3 3d c9 0e ae 3d e6 2b 54 bd 36 98 e9 bc
       0.0800623 0.08498914 -0.051799677 -0.028514963
0003c0 5d 22 2f bd ab 0e c7 3c ab c1 b6 3c b4 c9 73 3d
       -0.04275738 0.024298986 0.022309145 0.05951853
0003d0 6f d1 ca 3c db 7c 8c bd 95 04 b4 bd 43 70 f3 bd
       0.024758069 -0.06859752 -0.087899365 -0.118866466
0003e0 76 b6 53 bd 22 7a ae 3d 0e 2c dc 3a 9a 12 87 3c
       -0.05168768 0.08519389 0.0016797797 0.016488362
0003f0 8a 62 b1 bd d2 40 3a bc 43 de 0d bd 9a c6 cc bc
       -0.08661373 -0.011367993 -0.034635793 -0.024997044

conv1.bias f4 [32]
000000 a8 ac 0b bd c1 8f f3 bd 06 da df bd e2 f4 d4 3c
       -0.034100205 -0.11892653 -0.109302565 0.025995675
000010 f7 7d f1 3d e2 06 f3 3d d3 a1 cb 3d 55 2f 6c bd
       0.11791604 0.11866547 0.09942975 -0.057662327
000020 94 2b be 3d 25 d4 84 3c 55 d9 67 3c 49 9d a6 bc
       0.092856556 0.01621444 0.014150937 -0.020338671
000030 df c6 c8 3c f1 f9 ba bc 83 18 71 bd 61 39 b2 bd
       0.024508892 -0.02282426 -0.058861267 -0.087023504
000040 dd 5d 63 3c 9b b6 88 3d e9 05 b5 bc fb c1 af bd
       0.013877359 0.06675454 -0.022097545 -0.08581921
000050 76 3c c6 3d f1 65 62 3c 30 ca a7 3d 39 9b 91 bd
       0.09679501 0.01381825 0.08192861 -0.071096845
000060 7f a5 4c 3d 05 d8 d1 bd b4 99 c9 3d 76 6c a8 bc
       0.049962517 -0.102462806 0.0984377 -0.02055953
000070 a0 d8 bc 3c 55 65 d7 bc 70 2c a0 bd b2 d2 92 3d
       0.023052514 -0.026293436 -0.07820976 0.07169093

bn1.weight f4 [32]
000000 b5 55 7d 3f 74 ce 80 3f b8 e0 7f 3f 1b f4 81 3f
       0.98958904 1.0063004 0.9995227 1.015262
000010 ec 2a 71 3f 75 e6 7d 3f 30 e6 88 3f f4 47 7f 3f
       0.9420612 0.99179775 1.0695248 0.99719167
000020 ac fb 77 3f 10 1c 7d 3f a4 9e 80 3f c2 89 84 3f
       0.96868396 0.98870945 1.0048413 1.035454
000030 7a c7 7e 3f e3 13 7e 3f c5 da 82 3f 2e c0 83 3f
       0.9952313 0.99249095 1.0223013 1.0293024
000040 15 db 82 3f fe 2a 83 3f 2c 64 7e 3f 0a 99 8b 3f
       1.0223109 1.0247495 0.993716 1.0906079
000050 8c 15 80 3f 68 5a 84 3f a1 aa 83 3f 05 1b 7e 3f
       1.0006576 1.034009 1.0286447 0.9925998
000060 65 fc 7d 3f 20 d7 80 3f 04 9f 7c 3f 52 ff 82 3f
       0.9921325 1.0065651 0.9868014 1.0234168
000070 de 7e 79 3f b9 56 7b 3f 1e fa 75 3f 6b 3b 85 3f
       0.9745921 0.98179203 0.96084774 1.0408758

bn1.bias f4 [32]
000000 a7 44 1e bd 23 b4 48 bd 04 b2 18 bd d9 5d b7 3c
       -0.03863969 -0.048999917 -0.037279144 0.022383617
000010 32 fc ce bc e9 23 1d 3d 30 15 d9 bc 68 21 9b 3c
       -0.02526674 0.038364325 -0.02649936 0.018936828
000020 77 a7 93 bb ef b7 ab bd d1 93 03 3b a5 15 77 bb
       -0.0045060473 -0.08384692 0.002007712 -0.003770211
000030 19 dd 69 3b a3 b1 39 bc 48 a1 d0 bc 88 03 c8 bc
       0.0035684763 -0.011333856 -0.02546753 -0.024415746
000040 be a2 75 3b 22 4d 0a bd 65 2b 09 bd 69 df 01 3d
       0.0037481035 -0.033764966 -0.03348865 0.0317072
000050 2c 4f a8 3c df 71 db 3c 86 c8 a7 bb 07 a9 07 3c
       0.020545565 0.026787696 -0.00512034 0.008280045
000060 e0 57 13 bd 9f 9b c4 bc 38 19 1a 3d f6 0f d2 bb
       -0.035972476 -0.023999987 0.037621707 -0.006410594
000070 a0 11 4b bd 57 82 3f 3c 04 49 0d bd 9d 1b c5 3a
       -0.049577355 0.01168879 -0.03449346 0.0015038137

bn1.running_mean f4 [32]
000000 a1 42 b6 bc 69 9b f1 bd e1 ab df bd 66 21 ea 3c
       -0.022248568 -0.1179722 -0.10921455 0.028580379
000010 2f 8f ef 3d 0e 2e fe 3d 7b 09 b7 3d 27 20 71 bd
       0.11697232 0.12411128 0.08937355 -0.058868553
000020 d6 70 c3 3d 95 6c 88 3c 4e de f1 3b bc 31 d2 bc
       0.09543006 0.016653338 0.007381237 -0.02565848
000030 59 6d 0c 3d 4f f6 09 bd 3e 3e 8b bd 57 51 bc bd
       0.03428397 -0.033682164 -0.06798981 -0.09195202
000040 6c 83 4d 3b 70 83 7b 3d be 88 97 bc 01 19 b9 bd
       0.003135885 0.061404645 -0.018497821 -0.09037972
000050 b3 e1 d4 3d b0 25 c5 b8 ab 67 93 3d 69 18 8e bd
       0.10394611 -9.400712e-05 0.071975075 -0.069382496
000060 20 96 6c 3d b8 24 e1 bd 3a 44 d3 3d 37 95 e5 bc
       0.057760358 -0.10993332 0.103157476 -0.028025253
000070 0e 8a d4 3c 6e 61 7c bc d5 7b 9e bd ad 08 86 3d
       0.025944736 -0.015404088 -0.07738463 0.065446235

bn1.running_var f4 [32]
000000 b6 d1 8c 39 ff 68 bb 37 3c 8d f8 37 0b bb 71 38
       0.00026859128 2.234103e-05 2.9629671e-05 5.7633075e-05
000010 70 cb c8 37 17 6d 86 38 d6 f4 81 39 cc 48 ff 37
       2.393659e-05 6.4099375e-05 0.00024787214 3.0432268e-05
000020 b7 4e 45 38 6b b8 d8 37 d5 44 1e 39 6b 77 c6 38
       4.704177e-05 2.5835083e-05 0.00015093696 9.463619e-05
000030 1d d2 3e 39 18 3a a1 39 6b 6c 88 39 5f 3a a2 38
       0.00018198085 0.00030751596 0.0002602072 7.7356344e-05
000040 74 58 80 39 7a 59 8e 38 00 bd aa 38 1a c4 92 38
       0.00024479965 6.787754e-05 8.141436e-05 6.998349e-05
000050 52 f7 e0 38 8a 53 cf 39 26 f3 98 39 86 49 5a 38
       0.00010727219 0.00039544358 0.0002917286 5.2043724e-05
000060 c2 fb 0f 39 4e 07 0d 39 1c 79 4d 38 fa e9 17 39
       0.0001373133 0.00013449529 4.89886e-05 0.00014487645
000070 87 10 ba 37 3c dc bb 39 76 e2 de 37 43 36 00 39
       2.2180624e-05 0.00035831507 2.6569916e-05 0.00012227245

conv2.weight f4 [32, 32, 3]
000000 08 c4 95 3c 75 ad 8d bd 51 5a 87 bd 17 27 f3 3b
       0.018281952 -0.0691785 -0.06609023 0.0074204314
000010 b0 b2 0a 3d 02 2f cd bd 43 54 a6 3d e8 c4 87 3d
       0.033861816 -0.10018732 0.081215404 0.06629354
000020 d5 08 18 3d 73 6b b8 bd 99 42 94 bd 6d 97 7e bc
       0.037117798 -0.09004869 -0.07239265 -0.015539032
000030 cc 47 b2 bd 7b e9 94 bd e6 a5 c2 3c 0d 0d 10 bd
       -0.087051004 -0.07271095 0.023760747 -0.035168696
000040 6a ea fb bc e8 20 62 bb 99 0f 90 bd 44 28 04 be
       -0.030751426 -0.0034504477 -0.07034225 -0.12905985
000050 58 15 b7 bd bf e9 ba 3d e5 68 38 bd 42 9d c6 bd
       -0.08939618 0.09126615 -0.04502191 -0.09697963
000060 83 43 fd 3c ce f8 ca bc a6 fe ac 3c f7 4f ae bd
       0.030915981 -0.024776842 0.02111752 -0.08511346
000070 50 57 3e ba d8 ec 0d 3d 7e 44 de bd 99 fc 8f 3b
       -0.00072609354 0.0346497 -0.108529076 0.0043941257
000080 93 e2 af 3b 6c 08 37 3d 82 91 27 bd 36 60 4d 3d
       0.005367586 0.044685766 -0.04091025 0.050140582
000090 59 73 f9 bc a7 cd 9d bd 75 37 a2 bd fd 0c 3e bc
       -0.03045051 -0.07705241 -0.07920734 -0.011599776
0000a0 83 ec 7f 3d df a2 09 3c 4a bd 74 3d 1a 21 40 bc
       0.062481415 0.008400648 0.059750833 -0.011726642
0000b0 40 60 bc bd a6 1d 99 3d 13 92 5e 3d 04 2e cd bd
       -0.09198046 0.07476358 0.054338526 -0.100185424
0000c0 f3 83 c6 bd 73 d7 19 bd 9e 57 a3 bd 29 ef eb bd
       -0.09693136 -0.037558984 -0.07975696 -0.115202256
0000d0 1d 0d c0 3d db 92 4d 3c 4c 6a 91 3d 50 3a 36 bd
       0.09377501 0.01254722 0.07100353 -0.044489205
0000e0 c8 c6 f6 bc 82 36 9d 3d 92 24 b8 3b 98 06 e1 bd
       -0.030124083 0.07676412 0.005619594 -0.10987586
0000f0 ad 22 01 be be 75 44 39 b3 10 8c bd db 7a 74 bc
       -0.12610884 0.00018735879 -0.068391226 -0.014921869
000100 75 17 4b 3c 76 24 39 3d a7 ef 3c bd b2 31 c3 3b
       0.012395729 0.045200787 -0.046126988 0.005956852
000110 dc 3f 02 3c c0 ab e1 bd cc d2 75 3c 86 d1 c9 bb
       0.007949796 -0.11019087 0.015003871 -0.0061590103
000120 ef 6a 19 bc f7 d7 b4 3d fb 92 c4 bb f2 52 49 bd
       -0.009363874 0.088302545 -0.0059989667 -0.04915137
000130 9a f1 c6 bd 36 94 61 3c a0 5d 8f 3c 45 16 26 3d
       -0.097140506 0.013768246 0.017500699 0.04054858
000140 56 82 42 3c 49 95 89 bd 0e bd d3 bd 3d d0 78 3d
       0.011871895 -0.06717927 -0.10338794 0.060745467
000150 69 a1 25 3d 3e 0d 0b 3d a1 1f 0c bd ba 72 ed bd
       0.040437136 0.033948176 -0.03420985 -0.11594148
000160 17 6f 28 bd 77 de 6b 3c 3f 5f 1c 3d 0b 8b 54 3d
       -0.04112157 0.0143963015 0.03817677 0.051890414
000170 da f2 c7 bd 61 c7 96 3b 79 83 54 3d 99 aa 86 bc
       -0.09763117 0.0046014045 0.051883195 -0.01643877
000180 d4 53 1a 3d 99 75 cf bd f8 46 fa bd 3b 51 77 3d
       0.0376776 -0.10129852 -0.122205675 0.0603802
000190 0c f3 40 bd 66 6b af bd 64 3b b7 3c 86 59 aa bc
       -0.047106788 -0.085654065 0.022367187 -0.020794641
0001a0 15 0b 3c 3d fd ae 94 bd 0d ba 66 3d bc 41 fa bb
       0.045909006 -0.07259939 0.056329776 -0.0076372307
0001b0 88 7e 28 bc ec 25 61 bd 42 89 bf 3d d3 90 cd bd
       -0.010284074 -0.054967806 0.09352352 -0.10037389
0001c0 1e 7f 72 3d 18 52 9f bd 29 f2 9b 3d 0e 13 f6 3c
       0.05920326 -0.0777933 0.07614548 0.030038383
0001d0 70 86 4f 3d e3 1a e2 3c 66 bd c1 3b 68 d1 9a 3c
       0.05066532 0.027600711 0.0059124706 0.01889868
0001e0 37 6b 97 3c aa 63 43 bc 69 a7 86 3d bf be cc 3c
       0.018483741 -0.011925617 0.065749 0.024993299
0001f0 8d d0 81 bd c4 19 92 3d eb f4 90 bc 6d 1f 82 bd
       -0.06338606 0.07133821 -0.017694911 -0.0635365
000200 0a 44 c7 bd 22 66 33 3d be 68 6a bd a5 89 81 bd
       -0.09729774 0.043798573 -0.057228796 -0.06325082
000210 f9 96 b4 bb b1 cb 8c 3d d4 ff b7 bd e5 d0 9c 3d
       -0.0055111614 0.068747886 -0.08984342 0.07657031
000220 81 b1 e6 3d 52 89 54 3d a1 b2 c6 bd 23 fc 88 bd
       0.11264325 0.05188877 -0.097020395 -0.06688716
000230 3d ae c3 bc f4 9d 74 3d c2 6f af bc 45 5c 28 3d
       -0.023886794 0.05972095 -0.021415595 0.04110362
000240 e2 3c 11 3c cc 6d 86 3d 47 5a bc 3d 70 df 83 3d
       0.008864613 0.06563911 0.091969065 0.06439102
000250 31 21 5b 3d e7 e4 d2 3d 68 ad b7 3c 36 e3 30 bd
       0.05349845 0.10297566 0.022421554 -0.043185435
000260 c4 07 d2 3c 8c d5 06 3e 4f 95 0a 3e 41 5d 18 bd
       0.025638469 0.13167399 0.13533519 -0.03719831
000270 6c 73 cc 3a 12 e6 a9 bd 01 52 a3 bd 4e 3d 41 bd
       0.0015598363 -0.082958356 -0.079746254 -0.047177605
000280 32 f9 2b bc 12 fd 49 3d f5 71 fc 3d 54 c1 3d 3d
       -0.0104964245 0.049313612 0.12326423 0.04632695
000290 1b a3 bf 3d 35 36 52 bc 5e ed 6e bd ae 0e 0a 3d
       0.09357282 -0.012830307 -0.05833184 0.033705406
0002a0 91 8c 0a 3d 1b d6 93 ba 3f 18 87 bd 1c a5 42 bd
       0.03382546 -0.0011279018 -0.065964215 -0.04752074
0002b0 25 ef 92 3d fa 5c 23 bc 62 8f e5 bb 44 93 d0 bd
       0.071745194 -0.009970898 -0.007005618 -0.10184339
0002c0 67 cc 92 bd 66 a9 04 3b 09 16 1b bd f7 bb 4f 3c
       -0.07167893 0.002024257 -0.03786281 0.012679092
0002d0 8a ce 58 3d 10 d9 b4 3b 5a a8 03 3d d0 f8 14 bd
       0.052931346 0.00551904 0.032142974 -0.0363701
0002e0 9c 08 80 3d c3 fd 16 3a cb 8b 74 3d 07 fd 08 3d
       0.06251642 0.00057598593 0.05970363 0.03344443
0002f0 31 34 46 3d 33 07 3b bd 46 20 d6 3d bf 8b c9 bd
       0.048389617 -0.045661163 0.104553744 -0.098411076
000300 38 61 85 3d 7d 12 39 3d 87 29 fc bd ad 32 5a bd
       0.06512684 0.045183647 -0.12312608 -0.053270984
000310 ee fb 25 bd fe 03 2d bd 5e ab 4b bd 1d b2 a1 3d
       -0.040523462 -0.042240135 -0.049723975 0.078953005
000320 b5 54 b9 bd 3a 91 9f bd 82 6e 88 bb fd 48 4c bd
       -0.0904936 -0.07791372 -0.004163564 -0.049874295
000330 34 e7 a5 bd e4 12 05 3d 36 49 8a bc 77 6a a7 3d
       -0.08100739 0.03248872 -0.016880613 0.081746034
000340 62 c7 e2 bd c5 2a d4 3c 73 b6 84 bc 14 70 50 bc
       -0.110731855 0.0258993 -0.01620028 -0.012722034
000350 98 4e a0 bc fa 98 4d 3d 6b 97 8d 3d d4 eb be bd
       -0.019568726 0.050194718 0.06913646 -0.093223244
000360 8b b5 5f 3b 11 4a ef 3c 71 d8 a6 3d 4b 2e a9 3d
       0.0034135308 0.029210122 0.08146752 0.08260783
000370 17 f8 7d bc 60 d8 65 bd 75 ce b8 bc 65 67 9a bd
       -0.015501044 -0.056114554 -0.022559384 -0.07539252
000380 de e5 92 3d b5 d6 79 3d 46 62 a7 3d 16 6c 83 bd
       0.0717275 0.060995776 0.08173041 -0.064171
000390 22 a7 e4 bc 96 e1 7a 3d 55 e0 94 bd d9 99 15 bd
       -0.027911726 0.06125029 -0.072693504 -0.036523674
0003a0 ef b1 2c bd 12 e2 90 bc 10 54 48 3d 5b 68 6b bd
       -0.04216188 -0.017685924 0.048908293 -0.057472568
0003b0 63 6c 89 bc 40 df df 3d eb 31 7f bc a7 e9 8a 3b
       -0.016775316 0.109312534 -0.015575866 0.0042392793
0003c0 ec 38 58 3d 7d 06 6f bc b3 f0 a0 3c 04 5e d5 3a
       0.05278866 -0.014588949 0.019646024 0.0016278629
0003d0 36 f0 46 3c 9f 98 f1 bd 33 8c 2b 3c 07 79 9c 3d
       0.012142232 -0.11796688 0.010470438 0.07640272
0003e0 cc 84 8f 3d c6 cc a9 3c 4c cc 88 3a 6b e0 97 3d
       0.07007751 0.020727526 0.0010436862 0.07415851
0003f0 46 cd d9 bd b2 77 06 3d 16 b8 1b bd 21 de 06 3e
       -0.10634856 0.032828994 -0.038017355 0.13170673

conv2.bias f4 [32]
000000 08 db 17 bd e5 c6 25 3d 58 51 cb 3c 8b ef fd 3c
       -0.03707412 0.040472884 0.024819061 0.030998012
000010 a9 8d 86 3d 49 56 9b bc 9d b3 f2 3c 4a 2d 86 3c
       0.06569988 -0.018962042 0.029626662 0.016379017
000020 1d 75 a3 3d 5a 11 3c 3d 7c b1 85 3d c4 84 12 3d
       0.07981322 0.045914985 0.06527993 0.035771146
000030 5c ab 96 bd de 98 f4 bc c6 f7 5f 3d be 8b f5 bb
       -0.07356903 -0.029858049 0.054679655 -0.007493465
000040 98 d0 07 bd d6 7c 9d bd 3b 47 db 3d 4c 5b 7c 3d
       -0.033157915 -0.07689826 0.107069455 0.061610505
000050 ba 6e a1 3d 05 78 d0 3d 91 e5 e6 3c 9a f6 31 3d
       0.078824475 0.10179142 0.028185638 0.04344807
000060 53 97 67 bd 49 b7 20 3c d2 25 16 3d 91 af 56 bd
       -0.0565408 0.009809324 0.036657162 -0.052413527
000070 ae b4 f8 3d 3f 37 9f bb ec 4d 2e 3d 1a 0f 28 3d
       0.12143837 -0.004858881 0.04255478 0.041030027

bn2.weight f4 [32]
000000 bf 77 84 3f 90 8a 75 3f 3e fe 82 3f 77 b1 87 3f
       1.0349044 0.95914555 1.0233839 1.0601033
000010 77 2e 83 3f 38 88 82 3f 99 07 87 3f dc db 7d 3f
       1.0248555 1.0197821 1.0549194 0.99163604
000020 89 ff 74 3f 33 8f 81 3f e2 b3 80 3f a3 15 75 3f
       0.95702416 1.0121826 1.0054896 0.9573614
000030 3a bb 80 3f 1c 62 81 3f 48 9f 84 3f d5 2b 86 3f
       1.0057137 1.0108066 1.0361109 1.0482126
000040 a9 d0 78 3f 22 a5 7e 3f df 93 7b 3f 28 c1 73 3f
       0.9719339 0.9947072 0.9827251 0.9521661
000050 3d 31 82 3f 02 a6 80 3f 1b ee 77 3f 2f 33 81 3f
       1.0171276 1.0050662 0.96847695 1.0093745
000060 c2 0c 79 3f 58 6f 83 3f a9 16 82 3f e3 27 7c 3f
       0.9728509 1.0268354 1.0163165 0.9849836
000070 c6 fd 74 3f 09 6b 84 3f 0c 36 86 3f 56 29 7f 3f
       0.9569973 1.0345165 1.0485244 0.9967245

bn2.bias f4 [32]
000000 9a 91 e7 bc a9 0b 0d bd 72 d7 ba bc bd e3 9f ba
       -0.02826767 -0.034434948 -0.02280781 -0.0012198609
000010 f6 14 ad 3c cb b2 eb bc 84 6f 3b 3d 1d 3c 14 bc
       0.021128159 -0.028771779 0.045760646 -0.009047535
000020 d5 93 02 bd cd 32 9f bc 41 b8 9c 3b 48 e0 82 bd
       -0.031879265 -0.019433403 0.004782707 -0.063904345
000030 d3 ca 99 3c 55 9a 28 3d de 2a 0b bc 53 e5 cd 3b
       0.018773472 0.041162807 -0.008494107 0.006283441
000040 1d f9 a0 3b 4d f8 89 bd d8 28 37 3c ce 4d 24 bd
       0.004912509 -0.06736813 0.0111791715 -0.040113263
000050 c6 67 8d bd b7 de 5a 3c 3f 27 94 bc 1c 4a 3d 3b
       -0.06904559 0.013358763 -0.01808512 0.0028883284
000060 03 cb 1d bd eb 2c 60 3c d6 fc 7c ba f5 b7 c4 bc
       -0.038523685 0.013682584 -0.00096507126 -0.024013499
000070 ab 64 2b bd ea bf 99 bc bf 5e 0c 3d 3f 34 3b bb
       -0.04184405 -0.01876827 0.034270044 -0.0028565077

bn2.running_mean f4 [32]
000000 25 38 47 bf f6 2b 51 3e df 68 7a 3d f2 e6 9f be
       -0.77820045 0.20426926 0.06113517 -0.31230885
000010 d8 a9 2d be e0 40 6f bd 59 61 ce be c0 96 9a be
       -0.16959321 -0.05841148 -0.40308645 -0.30193138
000020 cc cc 31 3d 08 36 e5 be 66 78 e7 be 73 19 4e 3f
       0.0434082 -0.44767785 -0.45209044 0.8050758
000030 5d bc a0 be c4 b0 e0 be dd 06 d2 bd 27 c7 fa be
       -0.3139371 -0.4388486 -0.10255215 -0.48980066
000040 4f 0b de be ec 1d d8 be 6b 34 8f bd a2 72 52 be
       -0.43368003 -0.4221033 -0.0699242 -0.20551541
000050 0d a1 9e 3f f6 b6 8c bd a5 c5 3c bf 9f fa 69 3e
       1.2392899 -0.068708345 -0.7373908 0.2284951
000060 bc a3 9e 3e 7c df a9 bd 4f 41 e3 3e 1d 49 b9 be
       0.30984294 -0.082945794 0.44385764 -0.36188594
000070 a8 22 1b bd 40 d9 35 3c 39 79 56 3d 0d 3d f9 3d
       -0.037874848 0.01109916 0.0523617 0.12169848

bn2.running_var f4 [32]
000000 c6 95 87 3e 6b a0 db 3e ca 59 91 3e 0a 65 55 3e
       0.26481456 0.42895827 0.28388816 0.20839325
000010 21 77 e4 3d a8 bb bd 3e 0e b4 3b 3e 2f 3b da 3e
       0.111555345 0.37057233 0.18330404 0.42623278
000020 df 0a 11 3e 51 c7 dd 3d 02 a4 3a 3e 41 18 da 3e
       0.14164303 0.10829032 0.18226627 0.4259663
000030 9c 56 97 3d 9d 22 d0 3d e3 c9 4b 3e a1 e6 2a 3e
       0.07389566 0.10162852 0.19901232 0.1668954
000040 0c 09 59 3e 54 e9 26 3e 01 cb a3 3e 3f 1d 37 3e
       0.21194857 0.16299945 0.31990817 0.1788225
000050 e1 1a 23 3e 10 4a 11 3e bf 2f 56 3e 4b 23 99 3e
       0.15928222 0.14188409 0.20916651 0.2990974
000060 fc 4b fc 3e 4a dd 3f 3e b1 08 6e 3e 5a 38 3f 3e
       0.4927672 0.18736759 0.23245503 0.1867384
000070 c8 c4 95 3d 3b 31 42 3e 19 82 c8 3d 4a 36 ad 3d
       0.07312924 0.18964092 0.09790439 0.084576204

conv3.weight f4 [64, 32, 3]
000000 0e 1a 87 bd 14 cf ea bc 09 86 bc 3d b1 3b d6 3d
       -0.065967664 -0.028663196 0.09205253 0.10460604
000010 fc 98 e3 bd 05 7b 99 3c 30 5a b2 bd a0 16 a7 bd
       -0.11113164 0.018735418 -0.08708608 -0.08158612
000020 4c be b3 bc 47 2d 0c bc 43 02 55 3d 39 44 7b bc
       -0.021941327 -0.008555717 0.05200411 -0.01533609
000030 76 55 0a be 58 77 cf bd 2a 1b df bd 0c 34 c1 3d
       -0.13509163 -0.10130185 -0.10893853 0.09433755
000040 e7 33 42 bd 5b 97 bf 3d 9f f7 b1 bd 6e 8e 15 bd
       -0.04741278 0.09355041 -0.08689808 -0.036512785
000050 23 37 ad 3d 92 5f 9e bd cf dc dc bd cf c5 85 3d
       0.08457782 -0.07733072 -0.107843034 0.065318696
000060 d4 b5 d9 3c 83 b3 60 bd ae de 63 3d bb 9f 92 3d
       0.02657596 -0.054858696 0.055632286 0.071593724
000070 0c af d8 bd 36 f7 3a 3d e1 e9 88 bb 2c 70 db bd
       -0.105802625 0.045645915 -0.004178271 -0.107147545
000080 aa 90 25 3d 71 57 89 3d 95 19 36 3d 45 8e 6f 3d
       0.040421166 0.06706131 0.04445799 0.05848529
000090 85 b7 5d 3b 44 e9 b5 bd 87 93 85 3d 89 84 cb bc
       0.003383131 -0.088823825 0.06522279 -0.024843471
0000a0 54 db 94 3c 2f 6d a0 bd 78 8d b5 3d d5 90 c3 3c
       0.01817099 -0.07833325 0.08864874 0.023872772
0000b0 45 97 32 3e bf 66 3d bd 69 c8 95 bd ec 6d 93 bd
       0.17440517 -0.046240564 -0.07313616 -0.071987
0000c0 00 fb b5 3c 56 9a 76 3d 75 41 6d bd 47 2e 9d 3d
       0.022214413 0.06020578 -0.057923753 0.07674842
0000d0 7b cc b3 bb d3 d7 c6 bc d5 05 43 3d bc e0 bf bd
       -0.0054870225 -0.024272835 0.047612984 -0.093690366
0000e0 8b 04 98 bd 19 6b 5b 3c 66 3b d4 bd f2 b2 bc 3c
       -0.074227415 0.013392233 -0.10362892 0.023034547
0000f0 8c dd bb bd b2 d4 d6 3c b6 5c 10 be dc 07 81 bc
       -0.09173116 0.026224468 -0.14097866 -0.015750818
000100 e9 58 9c 3d cd d0 2a 3c 6e b2 d8 bc 5b 20 ae bd
       0.07634146 0.010425759 -0.02645227 -0.08502265
000110 aa 28 9f 3d e5 f7 dd 3d 63 b5 72 3b d1 d6 90 3d
       0.07771428 0.10838298 0.0037034384 0.07072223
000120 c3 47 86 3d 32 19 98 3d 29 a8 96 3d 01 7e 3b 3d
       0.06556656 0.074266806 0.07356293 0.045774464
000130 d5 a1 2a bd b3 ed 41 3c 34 60 99 bd 8d c8 2a bd
       -0.04165824 0.011836457 -0.074890524 -0.041695166
000140 74 d5 2b 3d 09 9f c2 bd 0b 0d 3f bc ed e2 df bc
       0.04195161 -0.0950299 -0.0116608245 -0.027329886
000150 6b d0 43 bd 8c 9a ae bb 11 6e 8e bd f1 0d c0 3d
       -0.047806185 -0.005328482 -0.06954587 0.09377659
000160 bd b5 8c 3d 46 a3 b3 3d c8 1d 6f 3d 38 03 f7 bd
       0.06870601 0.08771376 0.05837801 -0.12061161
000170 0c d5 06 3d c4 5f 03 3d 22 d0 2d bd e1 7e 27 bd
       0.03291802 0.03207375 -0.04243482 -0.040892486
000180 64 b7 f1 bc f6 e8 e7 3c 62 d3 ed 3c 18 99 84 3d
       -0.029506393 0.028309327 0.02903146 0.06474513
000190 4f 0f 2b bd f9 7d 7e 3d 46 73 4a 3d 31 b0 e0 bd
       -0.041762646 0.062131856 0.04942634 -0.10971106
0001a0 2f 75 9b 3d 8e b5 5d bd d2 cd 16 3c 4d a1 1e be
       0.0759071 -0.054128222 0.009204345 -0.15491219
0001b0 e5 32 02 be e7 12 f1 bd 0d 27 83 bd 87 21 bd 3d
       -0.12714727 -0.117711835 -0.06403933 0.092349105
0001c0 e5 c3 52 3d b9 28 b4 3d 81 13 b7 bd 21 f7 b1 bd
       0.05145635 0.0879683 -0.08939267 -0.08689714
0001d0 ec fb 44 3d 49 96 4a bc 17 da 63 3d 6a ef f3 bc
       0.048091814 -0.012364932 0.05562791 -0.029777247
0001e0 6d 0e 18 3d b0 03 51 3d af fb 6b 3d 8f 3a 08 3e
       0.037123132 0.051028907 0.05761307 0.13303588
0001f0 2f 95 3a bc 36 09 24 3c 4f 6c 9b bc 72 12 07 bc
       -0.011388107 0.010011962 -0.018972544 -0.008244144
000200 a2 63 43 bd 2c 92 87 bd 97 2c da bc 81 7b 87 bd
       -0.04770244 -0.06619677 -0.02663259 -0.066153534
000210 06 dd af bc c7 fa 90 bd 9f 24 5c bd 5c f8 c3 3b
       -0.021467697 -0.07079082 -0.053745862 0.0059805345
000220 c5 93 ec 3a 9a 2f c6 3d 12 40 4a 3d 11 87 39 3d
       0.001804941 0.09677048 0.04937751 0.045294825
000230 e7 77 77 bc b4 15 88 3d 60 1d 7d bc 54 42 97 bc
       -0.015104271 0.066447645 -0.015448898 -0.018464245
000240 d6 68 b4 3d ee ba f9 3c 76 06 c0 3c 3e c5 40 bd
       0.08809058 0.030484643 0.02344058 -0.047063105
000250 0e 91 1b be f9 2a d4 bd 7d 0e 6f 3d 5c c0 b1 bc
       -0.15192053 -0.10359759 0.058363426 -0.02169817
000260 4b 88 60 3d 51 19 87 3c cb cb 7a 3d e6 f8 07 be
       0.05481748 0.016491564 0.06122951 -0.13278541
000270 df 1f aa bd 12 9a 76 bd 0b d1 9e bd bd 5f 84 bd
       -0.0830686 -0.060205527 -0.077547155 -0.06463573
000280 d0 24 27 bd 6d 5e bf 3b 98 3b 1a 3c 48 6a 1c bd
       -0.04080659 0.005840114 0.009413622 -0.038187295
000290 d1 21 e4 bc b1 9c aa 3d 20 f3 e5 3c 28 12 f1 3d
       -0.027848156 0.08330668 0.028070033 0.11771041
0002a0 92 29 e2 3c 9e 4c 76 bb 3e 13 2e 3c 5d c4 1a 3d
       0.027607713 -0.0037582288 0.010624705 0.037784923
0002b0 e3 c1 69 bc ba ab 8a bd d6 0d 45 3d ec d9 a7 bd
       -0.014267418 -0.067710355 0.048108898 -0.08195862
0002c0 0f d3 14 be cf 72 84 bd 29 79 70 3d 2a 02 da 3c
       -0.14533637 -0.064672105 0.058709297 0.02661236
0002d0 e3 b2 10 bd 44 df 01 bd 93 29 bf 3b c2 35 e6 bc
       -0.03532685 -0.031707063 0.0058338135 -0.028101806
0002e0 03 81 8c 3d 7a f9 2e 3d a7 00 71 bc e7 50 ce bd
       0.068605445 0.04271839 -0.014709628 -0.10074025
0002f0 10 97 59 bd 4e 53 c1 bb 04 68 23 3d 52 ce aa 3c
       -0.05312258 -0.0058998233 0.03989412 0.020850334
000300 5a 94 74 3d 72 14 b9 bc 43 fd d8 bd 97 bf 90 3d
       0.05971179 -0.022592757 -0.10595181 0.07067793
000310 f8 26 a9 bd f5 c6 00 be 80 82 b2 3d 9a 00 a3 bc
       -0.08259386 -0.12575896 0.08716297 -0.019897748
000320 ce d7 ef bc 93 70 ce 3c 09 c8 08 be 59 88 0f 3d
       -0.029277708 0.025200164 -0.13357557 0.03504214
000330 b3 f7 87 3d a3 69 d2 3d 65 8d fd 3d 7f 79 93 3c
       0.06639042 0.10274055 0.123804845 0.01800227
000340 44 76 11 bd d9 c5 c3 3c 7b da a0 3d 1f ef f8 3b
       -0.035513178 0.023898052 0.07854172 0.007596865
000350 51 3f 8e 3c 55 72 9a 3c 89 4e d6 bd ca ca 05 be
       0.017364176 0.018853346 -0.10464198 -0.13065639
000360 52 4b 1a 3d d8 7e 27 bd 11 b7 91 3d ba 4d 3b 3c
       0.037669487 -0.040892452 0.07114995 0.011432106
000370 93 24 e9 3c 31 83 d8 3c 65 9e 3e bd 56 0b eb 3c
       0.028459823 0.026429744 -0.046537776 0.028691929
000380 63 fb 30 3d 00 c6 b7 3d 7c ec 9c bc d5 e7 6c bd
       0.04320849 0.089733124 -0.019155733 -0.05783828
000390 d8 cf 83 3d e6 3a c5 bc 96 0a b6 3d f7 68 9b 3d
       0.064361274 -0.024075937 0.08888738 0.0758838
0003a0 c0 b5 93 bd be 7c 9b bd eb 8e 90 3d 03 58 b9 3d
       -0.072124004 -0.07592152 0.070585094 0.0904999
0003b0 12 f5 c2 3d 03 a6 4d 3d 3c a4 8a bd 26 e5 97 bc
       0.095194 0.05020715 -0.067696065 -0.018541884
0003c0 50 13 78 3d 92 4b 21 3d 9c 63 25 bd 50 75 ad 3c
       0.060565293 0.03937871 -0.040378198 0.021174103
0003d0 ad 52 32 bd 1a fd 72 bd 5e a6 96 3d 55 af ec bc
       -0.043535877 -0.059323408 0.07355951 -0.028892199
0003e0 b0 1d 75 bd cf 4e cc 3c 89 28 c8 ba 51 6e 15 3d
       -0.059842765 0.024939923 -0.001527087 0.03648216
0003f0 a9 17 bb bd b8 5c 93 3d 52 a5 2b bd 0e 26 80 3d
       -0.09135372 0.07195419 -0.04190571 0.06257258

conv3.bias f4 [64]
000000 6c ad 6f 3d 2a 02 5e 3d 4e 91 2e 3d f9 50 bf bd
       0.058514997 0.054201283 0.042619042 -0.09341616
000010 98 75 cd bc 88 bc 07 bd de 04 61 3c 1e 43 85 3c
       -0.025080487 -0.03313878 0.013734071 0.016267356
000020 a9 cc 88 3d 97 87 29 bd 4b 11 1d 3d fd 46 aa 3c
       0.06679661 -0.041389074 0.03834657 0.020785803
000030 ba a1 00 3d ee 28 0a bd 77 17 1c bd 47 33 bc bd
       0.031404234 -0.03373044 -0.038108315 -0.09189468
000040 b3 e0 a7 bc f3 ed 65 3d d0 49 da 3c f2 08 90 3d
       -0.020492887 0.05613513 0.026646525 0.07032956
000050 20 b7 b5 bd b7 18 e5 bc ba 4c 86 3b ba 47 60 bb
       -0.08872819 -0.027965887 0.004098502 -0.003422244
000060 17 e4 80 38 72 aa cd bc a0 af 06 3d 45 81 8b 3d
       6.146001e-05 -0.025105689 0.032882333 0.068117656
000070 45 b5 8c 3c b5 2a b3 3d 23 a3 d0 3d 7a 8f 7d 3c
       0.01717628 0.0874838 0.10187366 0.015476102
000080 3d 41 c9 bd d6 7d 6e 3d 37 27 6e bc cb 7e 9c bc
       -0.09826896 0.058225475 -0.014535717 -0.019103428
000090 d3 36 8a 3d 96 1d 6b bc 44 59 16 3d 9a d7 3e 3d
       0.06748738 -0.014350316 0.036706224 0.046592332
0000a0 7d 20 a9 bd ab 90 8b 3d 9d 0a f4 bc 6f ef 80 3c
       -0.0825815 0.068147026 -0.029790217 0.01573917
0000b0 e5 79 c2 3d c5 f6 c7 bb 1f d7 37 bd 65 83 9a bd
       0.09495906 -0.0061024153 -0.04488289 -0.07544593
0000c0 ab 76 2f 3d 85 30 f7 bc 8c fd 05 3c 12 02 94 bb
       0.04283778 -0.030174503 0.008178126 -0.0045168484
0000d0 3d 5b 36 bd c0 e2 ba bd e0 48 17 bd 53 9a a1 3d
       -0.044520605 -0.091252804 -0.036934733 0.07890763
0000e0 53 ee d4 bc 25 3d aa bd 67 b7 90 bd 81 6a 70 bd
       -0.025992548 -0.08312444 -0.07066231 -0.05869532
0000f0 7c 8a af 3d 8c 8d 49 bd 4c 0e 77 3d 78 c2 ae bd
       0.08571336 -0.049207255 0.06031637 -0.08533186

bn3.weight f4 [64]
000000 cc 8e 85 3f cd 27 7c 3f 7f 44 75 3f 9c a6 77 3f
       1.0434203 0.9849823 0.9580764 0.967386
000010 e8 5b 83 3f 25 e3 75 3f ea 40 75 3f 01 67 81 3f
       1.0262423 0.9604972 0.95802176 1.0109559
000020 e3 e8 81 3f 96 6d 88 3f cb d3 7a 3f 16 ba 6c 3f
       1.0149196 1.0658443 0.9797942 0.92471445
000030 c4 0c 8b 3f 1e ab 7e 3f 7c fb 80 3f 94 c5 6f 3f
       1.0863271 0.99479854 1.0076747 0.93660855
000040 1c 47 7e 3f be bd 7d 3f dd 5e 7d 3f d5 c9 82 3f
       0.99327254 0.9911765 0.98972875 1.0217844
000050 75 f9 7c 3f 29 9b 89 3f 15 e6 8a 3f 35 4a 82 3f
       0.9881814 1.0750476 1.0851465 1.0178896
000060 2f 7d 7d 3f 7d 00 77 3f 0b 60 83 3f 05 70 7e 3f
       0.9901914 0.9648512 1.0263685 0.9938968
000070 9c 1c 87 3f 88 75 87 3f 21 e1 85 3f 85 d3 6d 3f
       1.0555606 1.0582743 1.0459329 0.9290088
000080 d5 58 75 3f e6 e7 77 3f 69 64 84 3f 82 15 89 3f
       0.9583867 0.96838224 1.0343143 1.0709689
000090 58 39 83 3f 1f 2b 84 3f 42 65 76 3f 84 6f 85 3f
       1.0251875 1.032566 0.9624826 1.0424657
0000a0 82 c8 7a 3f 64 ed 85 3f 81 29 78 3f c4 0e 6c 3f
       0.979622 1.0463071 0.9693833 0.9221003
0000b0 b3 90 84 3f a2 01 89 3f 62 9d 79 3f d5 79 86 3f
       1.0356659 1.0703623 0.9750577 1.050593
0000c0 8b 76 80 3f 2a 2a 66 3f d4 36 84 3f a1 eb 74 3f
       1.0036176 0.8990809 1.0329232 0.9567204
0000d0 c4 09 84 3f 98 73 81 3f ca 99 73 3f 10 44 85 3f
       1.031548 1.0113401 0.9515654 1.0411396
0000e0 c9 70 70 3f 42 48 84 3f 21 46 83 3f 91 e1 82 3f
       0.93922096 1.0334551 1.0255777 1.0225087
0000f0 c2 75 7e 3f b5 cc 7d 3f 51 d5 73 3f de 4f 85 3f
       0.99398434 0.99140483 0.9524737 1.0414999

bn3.bias f4 [64]
000000 6b aa 59 bd bc a0 fd bc 19 72 8a bd c6 6e 81 3b
       -0.05314104 -0.030960433 -0.06760044 0.003949973
000010 ad bd 12 bb c6 6f 61 bd 61 ee 4a bd 9e b2 89 bd
       -0.0022390888 -0.055038236 -0.049543742 -0.06723522
000020 58 03 db bc 41 6d 17 bd 3c 55 13 bd 44 56 3f bd
       -0.026734993 -0.036969427 -0.035969958 -0.04671313
000030 9b 3e 8c bd 04 31 3c bd be 6a e1 bc 96 52 70 bd
       -0.068478785 -0.045945182 -0.027516719 -0.05867251
000040 45 d0 5f bb a0 84 0f bd 54 ac 88 bd 37 29 d3 bc
       -0.0034151238 -0.03503859 -0.06673494 -0.025776489
000050 71 fd e7 3c be 2d c5 3c 49 c9 b9 bc ef c1 06 bd
       0.028319092 0.024069663 -0.022678988 -0.032899793
000060 9d d7 a3 3c 8e 19 0f be 5d ac 89 bd e1 31 84 bd
       0.020000273 -0.13974592 -0.06722329 -0.06454826
000070 b9 61 bd 3b 88 67 8b bd ae bf 00 3d 82 ac f4 bb
       0.0057794717 -0.068068564 0.0314328 -0.0074668536
000080 28 f1 bf bd 50 5e f2 bc a9 f8 a4 3c 78 79 88 3c
       -0.09372169 -0.029585987 0.020138102 0.016659483
000090 28 4e dd bb 25 38 13 bc 0f 66 4f bd 8e aa 84 3c
       -0.0067537017 -0.008985554 -0.05063444 0.016194608
0000a0 46 f4 91 bd d1 41 51 bd f8 e3 54 bd ff a1 69 bd
       -0.071266696 -0.051088158 -0.05197522 -0.057039257
0000b0 8e 44 79 bc 7f 2d 99 bd 57 e9 bc bc 9f e8 4e bd
       -0.015214099 -0.07479381 -0.023060484 -0.050514814
0000c0 8b a5 77 bd 2f cc 1e bc f5 97 d1 bb 09 02 5b 3c
       -0.06046061 -0.009692236 -0.0063962885 0.013367184
0000d0 72 6f 42 bc 7b c1 94 bc 8a 42 37 bd a6 05 95 3d
       -0.011867391 -0.018158665 -0.04474119 0.07276468
0000e0 5a f5 02 bd ae 5b dd ba e1 3b 26 bd f9 af 0d bd
       -0.031972267 -0.0016888285 -0.04058445 -0.03459165
0000f0 ef 90 87 bc b8 4a 0d bd f1 9a 2c bc 68 39 8f bc
       -0.016548602 -0.034495085 -0.010534988 -0.017483428

bn3.running_mean f4 [64]
000000 35 ca 1d be a2 34 50 be 8c 2c 4b be 0e bc d5 bd
       -0.15409167 -0.20332578 -0.19841212 -0.10436259
000010 6e 12 14 be 49 bc cc bc 89 3b c2 3e b9 a4 28 be
       -0.14460155 -0.024992125 0.37936047 -0.16469087
000020 30 8e 8b bd 54 ab 55 bf a4 79 57 be f4 32 d1 3e
       -0.068142295 -0.8346455 -0.21042496 0.40859187
000030 dc b0 07 3e 68 3c f0 be e5 10 00 bf 43 4d 55 3b
       0.1325106 -0.46921086 -0.5002578 0.0032547272
000040 a2 37 25 bf 2a 7e 41 bd a3 61 c7 be a1 58 30 3e
       -0.64538014 -0.04723946 -0.38941678 0.17221309
000050 37 03 85 be 18 c0 f3 3d 04 15 92 be b7 e5 0c bf
       -0.25979015 0.11901873 -0.2853166 -0.5503802
000060 8a 29 44 3b b3 30 08 bf d1 a9 c5 be 90 50 47 3e
       0.0029931986 -0.5319931 -0.38606122 0.19464326
000070 36 97 e8 be a6 bc 55 bf 35 56 1c bf f0 f1 29 be
       -0.45427865 -0.8349098 -0.6106904 -0.16596198
000080 aa b7 bd bd 9a 0c 49 be e6 c1 ca be 9d 22 38 be
       -0.09263547 -0.19633713 -0.39601058 -0.17981954
000090 5b 4f da be 1b d0 84 bd 2b ab 81 bd 59 89 20 bf
       -0.42638668 -0.064850055 -0.06331476 -0.62709576
0000a0 a3 ec ce be ae 23 99 be 73 ae c0 bd e4 d8 06 3d
       -0.40414914 -0.29910034 -0.094082735 0.032921687
0000b0 e9 13 82 be 23 76 54 be ae 2f 14 bf dc de ad be
       -0.25405815 -0.2074819 -0.57885253 -0.3395909
0000c0 8b 34 b2 be e0 16 49 be 72 71 2f bf df 38 e2 3e
       -0.34805712 -0.19637632 -0.6853248 0.44184014
0000d0 49 af bc bd 7b fb 99 bd 30 89 33 3f 8c 70 ec be
       -0.092131205 -0.07518669 0.70131207 -0.46179616
0000e0 cf 00 1f be 99 9f af be bd 44 34 bf 8a 88 86 be
       -0.15527652 -0.3430145 -0.70417386 -0.26276046
0000f0 60 52 1a 3e e8 01 0c be 04 d5 c6 bd aa 6e b1 be
       0.15070486 -0.13672602 -0.09708598 -0.34654742

bn3.running_var f4 [64]
000000 7a 1e 21 3e 74 e8 a4 3d 60 52 b0 3d 99 9d 8b 3d
       0.15734282 0.080521494 0.08609462 0.06817169
000010 cb 82 72 3e 2b 01 cb 3d 1d 78 13 3e 88 84 cf 3d
       0.23682706 0.09912332 0.14401288 0.101327
000020 72 7f 60 3e f4 cb 2c 3e 27 83 cf 3d b6 48 07 3f
       0.21923617 0.16874677 0.10132437 0.52845323
000030 21 c1 f8 3d e6 e9 2f 3e 06 85 6f 3e 54 e5 c4 3e
       0.121462114 0.17179069 0.23390588 0.38456213
000040 84 c6 ff 3d f7 ba 28 3e 86 db 3d 3e ef ca 12 3e
       0.12489036 0.16477571 0.18540773 0.14335226
000050 1b 7d ff 3d 60 de c2 3d 56 29 0a 3e 81 99 5b 3e
       0.12475034 0.09515071 0.13492331 0.21445276
000060 60 97 1e 3e 60 0a c5 3d 35 df 0e 3e f8 78 c0 3d
       0.15487432 0.096211195 0.13952334 0.09398073
000070 47 75 37 3e 68 d8 e6 3d 4a 4d 8b 3e 9d 44 10 3f
       0.17915832 0.11271745 0.27207404 0.56354696
000080 a9 70 bf 3d a5 8a d8 3e ab bc c0 3d e2 b1 ec 3d
       0.0934766 0.42293277 0.094109856 0.11557366
000090 73 a4 ee 3d cb 17 ae 3e 36 f0 c9 3e cf 88 ce 3d
       0.1165246 0.34002528 0.3944108 0.10084688
0000a0 aa 1d 96 3d 96 5c 54 3e 9e 0c 74 3e af 9d 31 3f
       0.07329877 0.20738444 0.23832938 0.6938123
0000b0 22 76 26 3e f3 93 b5 3d c2 35 3c 3e 18 96 84 3d
       0.16256002 0.0886611 0.18379882 0.064739406
0000c0 5b 6e bd 3d 44 ca 8a 3e 64 47 48 3e 41 9f 12 3e
       0.09249564 0.2710744 0.19558483 0.14318563
0000d0 5e 47 2c 3e aa 58 e9 3d ed b2 9d 3e 58 e0 fd 3d
       0.168241 0.113938645 0.30800572 0.12396306
0000e0 fa 87 be 3e b7 c9 f8 3d ce 36 43 3e 00 16 0b 3e
       0.37213117 0.12147849 0.19063875 0.13582611
0000f0 a6 c6 3d 3e a6 f2 97 3e ea 24 4b 3e 93 a6 86 3d
       0.1853281 0.29677314 0.198383 0.0657474

conv4.weight f4 [64, 64, 3]
000000 71 e7 8e bd d8 5b 8a bd bf 5d 62 bc fc 5d fb bc
       -0.06977738 -0.06755799 -0.013816296 -0.030684464
000010 e4 7f 37 3c 29 da 50 bc ae f0 43 bd 83 58 46 bd
       0.011199925 -0.012747326 -0.047836952 -0.048424255
000020 84 5d 26 3c 37 d3 1a bc 9a b0 b6 3c c6 eb 5d 3d
       0.010154132 -0.009449772 0.022301007 0.05417993
000030 55 14 eb 3c fb c0 0e bd da a0 be bc ec 6b 51 bc
       0.028696219 -0.03485201 -0.02327006 -0.012782078
000040 9f 82 0d 3d 08 17 d8 3c 18 cb 02 3d a8 59 cb bc
       0.034548398 0.02637817 0.031931967 -0.024823025
000050 f5 15 7c bd 6a 5b 41 3c 9a bc c5 bc b5 3c 04 3c
       -0.061544377 0.01180158 -0.024137784 0.008071114
000060 26 cb ff 3c 8d 90 0f bd a1 8e 3d bd 48 85 fb bc
       0.031224798 -0.035049964 -0.0462786 -0.030703202
000070 2e 20 f9 3c ce 7a eb 3c 4f 0e 45 bc eb d0 7b bd
       0.030410852 0.028745081 -0.012027337 -0.061478537
000080 52 b0 60 3d ee 05 91 bd 3c 9f 86 3c 29 1c b4 3c
       0.054855652 -0.07081209 0.01643335 0.021986084
000090 45 63 2c bc f3 52 41 b8 2c 33 74 3c dd ab f1 3c
       -0.010521715 -4.609204e-05 0.014904778 0.029500896
0000a0 3d c2 7e 3d ad 22 e7 bc 33 00 d8 3c cc 6f 29 bd
       0.06219696 -0.028214777 0.026367282 -0.041366383
0000b0 a8 38 05 bd ad 2f 3e bd 25 bd 83 3c 2d 58 bb bd
       -0.032524735 -0.046432186 0.016081402 -0.091476776
0000c0 45 ce e8 3c c1 0d b1 3d 52 a4 68 3d 06 e0 45 bd
       0.02841867 0.086452015 0.056797333 -0.04830935
0000d0 e2 c0 c8 bb 6d 94 97 3d 7c 2f 86 bd 78 33 45 bd
       -0.006126509 0.07401357 -0.06552026 -0.048144788
0000e0 ac a5 fc 3a 29 bf a5 3d 13 5e 0b 3b b6 9d 7f bc
       0.0019275448 0.080931015 0.002126579 -0.015601566
0000f0 87 39 a1 3c 53 c5 82 3d 6e 59 9e 3d bd 5a b7 3d
       0.019680751 0.06385293 0.07731901 0.08952854
000100 3c eb cc 3c fd 8a e8 3c 89 65 53 3d b9 31 92 3d
       0.025014512 0.028386587 0.051610503 0.0713839
000110 6d cb d6 3c 01 50 04 bd 18 0d 0d 3d a7 e7 d7 bd
       0.026220048 -0.03230286 0.034436315 -0.10542231
000120 ec 0c a9 3d e1 01 a6 3d 54 55 23 3b b1 35 35 bd
       0.08254418 0.08105827 0.0024922686 -0.044240657
000130 4e 92 4e 3c a9 34 24 3d 74 39 6d 3d b9 91 cd 3b
       0.012608124 0.040089283 0.05791612 0.006273475
000140 52 9a 1d 3d fe 55 db 3d 89 3a 96 3d 3f 3b c0 3d
       0.03847725 0.10709761 0.073353834 0.093863
000150 42 93 ac bd 58 e6 4b bd 19 7f 1a bd c1 f8 3f 3d
       -0.08426525 -0.04978022 -0.037718866 0.04686809
000160 b7 26 67 bd 6a 93 39 3c 3b 58 b1 bd 02 0b 85 3d
       -0.056433406 0.01132665 -0.08659407 0.0649624
000170 10 e1 fe bc 79 b8 63 bc dd b4 a1 bd 29 a4 b5 3c
       -0.031113178 -0.013898962 -0.07895825 0.022173004
000180 df 0e 5e 3d 42 b2 25 3d a4 f4 df 3b c9 13 85 bd
       0.0542134 0.040453203 0.0068345834 -0.06497914
000190 dc 0a 37 bd d9 7b 51 bd 42 ae cf 3c 7a 7b da bc
       -0.04468809 -0.0511435 0.025351647 -0.026670206
0001a0 1f a5 b5 bb c7 57 8b 3d ee a7 2d 3a 2b 33 2f 3d
       -0.0055433656 0.068038516 0.000662445 0.042773407
0001b0 e7 99 5b bc 27 39 51 3d 51 56 5b bd 04 9b 12 bc
       -0.013403392 0.051079895 -0.053549115 -0.008948091
0001c0 bf b8 7f 3c 71 91 0b 3b b0 91 63 3d c4 ec 4f 3d
       0.015608012 0.0021296407 0.05555886 0.050762907
0001d0 7f cf 83 bd 13 c9 2e bd a9 15 98 3d 4f ad 08 3a
       -0.06436061 -0.042672228 0.07426006 0.0005213813
0001e0 f9 76 f9 bc a7 da cd bc ff 4a 63 bd db d5 25 bd
       -0.030452238 -0.025128676 -0.055491444 -0.04048715
0001f0 3b cc 4b bd ad 6c d7 bb 56 b8 55 bb a7 11 5c 3d
       -0.049755316 -0.0065742345 -0.0032611093 0.053727772
000200 34 96 7e 3c fd 0f 39 3d 79 64 85 bc 11 63 20 3d
       0.015538741 0.045181263 -0.01628326 0.039156977
000210 04 3d 51 bc f8 96 a6 3d f9 7e 25 3c 62 4d 21 3d
       -0.012770895 0.08134264 0.010101073 0.03938044
000220 6e 38 05 3d 0a e7 11 3d dd 3a c7 bc 58 45 65 3d
       0.03252452 0.035620727 -0.02432006 0.055974334
000230 84 df f7 3c 36 b7 ec 3d 02 50 8a 3d 60 a6 2a 3b
       0.030257948 0.11558382 0.067535415 0.0026039109
000240 00 ee 4b bd 5b 71 04 bc bf e8 2c bd 35 8a db 3c
       -0.04978752 -0.008083667 -0.04221415 0.0267993
000250 92 1b 5e 3d 15 3e df bc 96 0d 71 bc f7 27 e4 3c
       0.05422551 -0.027251283 -0.014712712 0.027851088
000260 2b 0e 8d 3d 5d 12 6f bc f8 ff 6c bb f6 3a 39 3c
       0.06887468 -0.0145917805 -0.0036163311 0.011305561
000270 0f 32 0d 3d a7 a1 8e 3d d9 7d 94 3d 72 86 e1 bc
       0.034471568 0.069644265 0.07250566 -0.027529929
000280 86 32 45 bd fe 6e ec bc 34 69 c9 3c c2 74 04 3d
       -0.048143886 -0.028861519 0.024586298 0.03233791
000290 b5 93 43 bb 64 66 41 3d 63 75 69 bc d2 99 46 3d
       -0.002984268 0.047216788 -0.014249179 0.04848654
0002a0 3f 91 83 bd 31 4a 4b bd ae 59 40 bd 50 ab de bc
       -0.06424188 -0.0496313 -0.046960525 -0.027181298
0002b0 1c ba 2d 3d b6 d6 0d 3d 0f 68 06 3d 7e 6b ff 3c
       0.042413816 0.034628592 0.03281408 0.031179186
0002c0 b9 85 a7 3d 03 ad b5 ba 2f e2 8d bc fc ee 9f ba
       0.081798024 -0.0013860766 -0.017319767 -0.001220196
0002d0 6f 30 ed bc 79 cb 1c bd 9f 94 58 bb 20 43 23 3c
       -0.028953759 -0.038279984 -0.003304757 0.009964734
0002e0 17 d5 c0 bc 4f f8 c5 bc 42 8a 3e 3d 24 06 a0 3d
       -0.02353911 -0.024166254 0.04651857 0.07813671
0002f0 32 6d 93 3d 08 1d 0f 3e 9e e1 20 3e 6f a6 b1 3d
       0.07198562 0.13975918 0.15711066 0.08674323
000300 a7 b2 8a 3d f9 e6 e4 3c d8 85 b1 3c e4 43 bb 3c
       0.067723565 0.027942168 0.021670267 0.022859521
000310 8b 00 4e 3d 52 28 c5 3c 85 c4 87 bd cc 5b 6f 3d
       0.050293487 0.024067078 -0.0662928 0.058437154
000320 31 24 8d 3d 3c 76 35 bd 9e 32 7d bc 45 1a 39 bc
       0.068916686 -0.04430221 -0.015453963 -0.011297767
000330 31 1d a1 3d b4 7f a1 3d b3 93 58 3d 86 93 77 3d
       0.07866896 0.078856856 0.052875232 0.060443424
000340 4c 12 7b 3d d1 c9 23 3c 89 87 87 3d be 74 d1 bc
       0.061296746 0.009996847 0.06617648 -0.025568362
000350 5c ba 65 3d 2c 68 8c bc 52 ef 3b bd c0 ad 03 3d
       0.05608593 -0.017139517 -0.04588253 0.032148123
000360 42 8e 5f 3c 59 c3 ad bc 97 95 b7 3d ec de bc bc
       0.013644757 -0.021211313 0.08964079 -0.023055516
000370 01 bf 99 bd d8 25 5c bd 83 8a 94 3d bb 6a 69 bc
       -0.07507134 -0.053747028 0.072529815 -0.014246638
000380 82 40 63 bd 62 cd 19 3d 74 27 34 3c 1e c2 32 3d
       -0.05548144 0.037549384 0.0109957345 0.043642156
000390 b5 a1 50 3d 56 aa 0f bd 2e 3b c7 3d 32 94 40 bd
       0.050935466 -0.035074554 0.097280845 -0.04701633
0003a0 f3 42 d0 bb 30 9c db 3c 9e cb d7 bb 9d 94 00 bd
       -0.006355637 0.026807874 -0.0065855524 -0.03139173
0003b0 1a 66 2c bd 43 6d 3e bc f4 17 99 bc 60 68 97 3d
       -0.04208956 -0.01162273 -0.01868818 0.07392955
0003c0 46 4c 17 3d 3b 3f 52 bd 61 5a 24 3d ac 44 58 bd
       0.036937974 -0.051329833 0.040125255 -0.052799866
0003d0 95 f1 98 3b 4e 40 eb bc 3f 04 8e 3d 37 6a e8 3a
       0.0046674707 -0.028717186 0.06934404 0.001773185
0003e0 bf 9a 30 bd e2 b1 5a 3d 84 6e 27 bd 14 c0 1c 3d
       -0.043116327 0.0533923 -0.04087688 0.038269117
0003f0 55 e2 84 3b 09 2b fc bc f0 d2 6d bd 72 81 06 3d
       0.004055301 -0.03078224 -0.058062494 0.032838292

conv4.bias f4 [64]
000000 a5 71 3e 3d cd e1 c9 3c 05 40 31 bc ea 11 04 3c
       0.0464951 0.024643803 -0.010818486 0.008060912
000010 e4 7c 3c bc 04 b6 4a 3d 31 d3 53 bc 6d 9f d2 bc
       -0.011504386 0.04948999 -0.01292877 -0.025710786
000020 55 9a c6 bc 13 47 41 bc d0 ee 59 3c 04 a8 42 bd
       -0.024243513 -0.011796731 0.013301566 -0.047523513
000030 97 0c 1c bc 54 cf d0 3b 91 e0 d2 3c ab 1a 30 bd
       -0.009524486 0.0063723717 0.025741847 -0.042994183
000040 6b 58 b5 3c a9 65 87 bd b1 dd 76 bd 91 d2 dc bb
       0.022136888 -0.06611187 -0.060270015 -0.0067389687
000050 82 7b 82 bd 8b a2 14 3d 41 82 88 3d 34 2e 29 bd
       -0.063712135 0.036287826 0.06665469 -0.04130383
000060 7b a0 50 3d c6 a8 08 3d 06 8b 3c 3d 5e 61 0c 3c
       0.050934296 0.03336408 0.04603102 0.008568136
000070 d7 c6 8c 3d de 97 23 bd 8b 51 51 3c 36 18 56 bc
       0.06873863 -0.039939754 0.012775789 -0.013067296
000080 c6 bf 45 3d bb 40 40 bd 7a fa 55 bd da 22 73 3d
       0.048278593 -0.04693673 -0.052240826 0.05935941
000090 37 a7 64 bd 14 93 ba 3c c5 8a ad 3d 16 5b a9 3d
       -0.05582353 0.02277521 0.08473734 0.082693264
0000a0 9a 90 03 bd 17 b3 2e 3d 7f 9a 43 bd f3 56 94 bc
       -0.032120325 0.042651262 -0.04775476 -0.018107867
0000b0 e9 cb d5 3b eb e1 0a 3d 36 96 4b bd be 11 6b bd
       0.006524552 0.03390686 -0.0497038 -0.057389967
0000c0 03 4b c8 bd 43 9d 26 bd 9e 0d 69 3d b0 6a 33 3d
       -0.09779932 -0.04067732 0.056897752 0.043802917
0000d0 4d 67 2f bd 9e c4 91 3d f2 f7 5e bd a6 0c 8a 3d
       -0.042823125 0.0711758 -0.054435678 0.06740694
0000e0 82 95 70 3a b8 73 64 bb 58 3e 6f bc 95 c4 83 3c
       0.0009177552 -0.0034859013 -0.014602266 0.016084949
0000f0 df 6f 6b 3d 74 3e 65 bd f2 96 13 3c a2 61 3b 3d
       0.057479735 -0.055967763 0.009008156 0.045747407

bn4.weight f4 [64]
000000 60 bd 96 3f ff bf 96 3f 73 65 96 3f ca 45 93 3f
       1.1776543 1.1777343 1.174971 1.1505673
000010 3d 6b 93 3f de b2 96 3f 2b 6a 99 3f 1e a7 99 3f
       1.1517102 1.1773336 1.1985525 1.2004125
000020 01 37 91 3f 49 1f 99 3f 5d 25 94 3f 19 b4 95 3f
       1.1344911 1.1962672 1.1573902 1.1695586
000030 ad 28 97 3f 77 13 9a 3f 6c cc 97 3f 2b 25 96 3f
       1.1809288 1.203719 1.185926 1.1730093
000040 4e b0 9c 3f 3f 14 96 3f 6a 56 99 3f 7d 4e 9a 3f
       1.2241304 1.1724929 1.1979496 1.2055203
000050 92 2c 9d 3f 52 f7 9e 3f 48 1c 98 3f 5e 93 9b 3f
       1.2279227 1.2419226 1.1883631 1.2154348
000060 3e 96 91 3f 09 1e 9b 3f 00 81 96 3f 89 8e 9b 3f
       1.1373975 1.2118541 1.1758118 1.2152873
000070 b8 4c 9c 3f b7 a8 99 3f 1e 5b 99 3f d1 be 97 3f
       1.2210913 1.2004613 1.1980932 1.1855108
000080 6b e0 98 3f 8d 37 97 3f 69 c4 93 3f 7e d0 9a 3f
       1.1943487 1.1813828 1.1544315 1.2094877
000090 69 58 9e 3f 56 09 9d 3f 3d 83 94 3f b2 6b 90 3f
       1.2370731 1.2268474 1.1602551 1.1282866
0000a0 17 6f 9b 3f 0f 5b 99 3f a8 bc 94 3f 82 5b 9b 3f
       1.2143277 1.1980914 1.1620073 1.2137301
0000b0 dc a7 92 3f 3e b8 9c 3f 66 97 98 3f 71 dc 99 3f
       1.1457477 1.2243726 1.1921203 1.2020398
0000c0 67 80 9d 3f cd 3d 9c 3f fa 13 9a 3f 86 1d 9d 3f
       1.230481 1.220636 1.2037346 1.2274635
0000d0 c6 62 98 3f 83 9d a0 3f 9d 51 90 3f 87 34 96 3f
       1.1905143 1.2548069 1.1274906 1.173478
0000e0 41 c6 95 3f 81 c1 90 3f 62 dd 96 3f e2 0e 91 3f
       1.1701127 1.1309053 1.1786311 1.1332667
0000f0 a3 67 99 3f b0 ac 9e 3f d9 49 97 3f 95 2d 99 3f
       1.1984752 1.239645 1.1819412 1.1967036
