trys/normal_clasi.ckpt (torch, 103142 bytes, 26 tensors)

conv1.weight f4 [32, 1, 8]
0.062036317 -0.24133421 -0.32601616 -0.32215694 0.32561347 -0.12606777 0.35084292 0.2545308
0.2978977 0.30730024 0.008547748 0.35249245 -0.050253436 0.16523802 -0.058438964 0.33039558
0.18329522 -0.12268115 0.0726165 0.23103204 -0.06278622 -0.0419328 -0.18723984 -0.35531908
0.13778701 0.20026737 -0.17556717 -0.2558867 -0.07502117 0.24609192 -0.35042092 0.28572085
-0.112446636 0.0119026005 0.12861457 -0.10844069 0.33748803 -0.09255278 -0.076045744 0.06883217
-0.07300988 -0.12898438 -0.28557533 0.2688093 0.15396401 0.06344582 -0.038831186 0.34083688
0.24267215 -0.02033028 -0.2638748 -0.1621681 -0.057211895 0.2240014 -0.23442619 -0.31424594
-0.03656844 0.24032518 -0.3494156 0.36403355 -0.057569917 0.1626394 -0.08986674 -0.2315229
0.056678157 -0.11076943 0.36261585 -0.13830563 -0.11239197 0.106294364 0.26824802 0.021906601
0.10014078 -0.024925098 0.074785866 -0.31749865 0.24475506 -0.10274516 0.2025233 -0.1463476
-0.17133778 0.118531294 -0.17623553 -0.15394257 -0.6215856 -0.32779747 -0.05164106 0.25242743
0.4430497 0.14754973 -0.00095078873 -0.008267458 0.18282633 0.26248825 -0.27519882 -0.2954542
0.017588248 0.25121492 0.17836908 -0.08942821 -0.30900145 -0.27721623 0.19676748 0.13121782
-0.17318456 -0.083228506 0.028569227 -0.20960404 0.22149022 0.09843694 -0.27244493 -0.35059866
0.35558814 -0.19989818 -0.1563759 0.11202628 -0.13172063 0.15292808 0.06675466 -0.17455718
-0.32179078 0.021394365 0.013255854 -0.10333861 0.24184524 0.21385619 0.3178729 -0.059930984
-0.038384587 -0.26447868 0.34803325 0.06354978 -0.22507861 0.2467462 0.083509944 -0.20131321
0.28641668 0.03838597 0.23236507 0.022504902 -0.3293184 -0.025290946 -0.3047357 -0.107251
0.27050883 0.04835474 -0.39509812 0.07583278 0.2948273 0.044798065 -0.04531088 -0.19573341
-0.16667032 -0.14611593 -0.16078407 -0.056023203 -0.11883636 0.118838474 0.20419337 0.33926994
-0.22253463 -0.17110395 0.0766416 0.15973154 0.19152164 0.27653515 -0.09583892 -0.23481154
0.19067413 -0.25462636 0.1781238 -0.064644456 0.19429855 -0.4129459 0.2500167 0.028514285
0.34254602 -0.122041926 0.094755605 -0.22830275 -0.3631253 -0.15395203 0.2180083 0.21858472
-0.21751255 0.35848138 -0.026529487 -0.22651303 0.00068293884 0.006841469 0.23109946 -0.12657379
-0.25042886 0.24934013 -0.0408598 -0.14806536 -0.14550048 0.26254556 0.017445704 -0.0136811435
-0.10360352 -0.24748771 0.19045985 0.35784328 0.06279404 -0.28728867 -0.20233165 0.11410609
0.252866 0.25891945 0.16518657 -0.05883782 -0.19124965 0.09096428 -0.08318015 0.15388295
-0.10759278 0.24717651 -0.08397117 -0.28062734 0.17308646 -0.15597457 -0.32979825 -0.19150874
-0.04908932 0.29834178 0.32541636 -0.07910107 -0.15165472 -0.29923263 -0.17763878 0.14381294
0.3154288 0.21657132 0.23703182 -0.06987763 -0.003063994 -0.036142394 -0.20378636 -0.3903799
0.33468795 0.016225584 0.26247662 0.050850373 -0.20746914 -0.045841042 0.35441956 -0.27094138
-0.1738038 -0.12861422 -0.008183663 -0.054276027 0.33342677 -0.08671871 -0.47174764 -0.33804572
00000000: cb19 7e3d 5120 77be 97eb a6be c1f1 a4be
00000010: cfb6 a63e e917 01be afa1 b33e dc51 823e
00000020: 0c86 983e 7556 9d3e db0b 0c3c e479 b43e
00000030: 8cd6 4dbd 2834 293e b25d 6fbd 9c29 a93e
00000040: beb1 3b3e 4140 fbbd f6b7 943d aa93 6c3e
00000050: 1096 80bd bac1 2bbd cdbb 3fbe 62ec b5be
00000060: 0a18 0d3e e412 4d3e e1c7 33be 9503 83be
00000070: b3a4 99bd 85ff 7b3e 5f6a b3be 014a 923e
00000080: 6c4a e6bd 2003 433c 8ab3 033e 2716 debd
00000090: 3bcb ac3e 508c bdbd dfbd 9bbd e1f7 8c3d
000000a0: 3486 95bd 7b14 04be ee36 92be 5fa1 893e
000000b0: bea8 1d3e e2ef 813d 730d 1fbd 2c82 ae3e
000000c0: 0c7f 783e b08b a6bc 991a 87be 650f 26be
000000d0: 0557 6abd 9f60 653e 6b0d 70be d8e4 a0be
000000e0: cac8 15bd ce17 763e 9ae6 b2be 9b62 ba3e
000000f0: 6fce 6bbd f18a 263e 0e0c b8bd 5714 6dbe
00000100: 5b27 683d 15db e2bd c9a8 b93e fe9f 0dbe
00000110: c32d e6bd dcb0 d93d ce57 893e 7975 b33c
00000120: 9c16 cd3d b82f ccbc 5529 993d 2f8f a2be
00000130: 12a1 7a3e 0e6c d2bd 4562 4f3e 25dc 15be
00000140: 2c73 2fbe 89c0 f23d 1677 34be 1fa3 1dbe
00000150: 3c20 1fbf 12d5 a7be 9385 53bd 2b3e 813e
00000160: 69d7 e23e 4717 173e 5a3e 79ba 3b74 07bc
00000170: d336 3b3e dc64 863e dce6 8cbe c645 97be
00000180: 3b15 903c 3e9f 803e 62a6 363e 2326 b7bd
00000190: 7035 9ebe 49ef 8dbe 6a7d 493e f75d 063e
000001a0: 4b57 31be b573 aabd 030a ea3c 71a2 56be
000001b0: 55ce 623e 4e99 c93d e77d 8bbe ab81 b3be
000001c0: a60f b63e 1cb2 4cbe 0121 20be 096e e53d
000001d0: c6e1 06be 2e99 1c3e abb6 883d 1ebf 32be
000001e0: c3c1 a4be 3c43 af3c 152f 593c 31a3 d3bd
000001f0: 47a6 773e 1efd 5a3e 3dc0 a23e 317a 75bd
00000200: 2839 1dbd c069 87be 6a31 b23e 6326 823d
00000210: 027b 66be 09ab 7c3e 4307 ab3d 0d25 4ebe
00000220: 35a5 923e 9b3a 1d3d 1cf1 6d3e 335c b83c
00000230: 6c9c a8be f52e cfbc 5106 9cbe 6aa6 dbbd
00000240: 2280 8a3e 9f0f 463d 4d4a cabe 374e 9b3d
00000250: 9bf3 963e 2d7e 373d e797 39bd 576e 48be
00000260: a0ab 2abe 6a9f 15be 94a4 24be 9678 65bd
00000270: 7a60 f3bd 9661 f33d 1118 513e cab4 ad3e
00000280: 1ee0 63be e035 2fbe 45f6 9c3d aa90 233e
00000290: 401e 443e 0496 8d3e 3247 c4bd 7072 70be
000002a0: 1440 433e 635e 82be 1666 363e 5064 84bd
000002b0: 33f6 463e a56d d3be 3002 803e ca96 e93c
000002c0: 3162 af3e 1ef1 f9bd 3a0f c23d 32c8 69be
000002d0: 8feb b9be 9aa5 1dbe 913d 5f3e acd4 5f3e
000002e0: 9cbb 5ebe df8a b73e 5e54 d9bc 08f3 67be
000002f0: 4007 333a 672e e03b 56a5 6c3e 8f9c 01be
00000300: 3638 80be 0553 7f3e 9b5c 27bd 729e 17be
00000310: 14fe 14be 5f6c 863e 4bea 8e3c e026 60bc
00000320: 152e d4bd 6b6d 7dbe e807 433e 3c37 b73e
00000330: 299a 803d 8017 93be 0730 4fbe 74b0 e93d
00000340: a777 813e 1791 843e ab26 293e edff 70bd
00000350: f3d6 43be 7b4b ba3d 5b5a aabd 7e93 1d3e
00000360: 9a59 dcbd d71b 7d3e 14f9 abbd 63ae 8fbe
00000370: 943d 313e ccb7 1fbe 51db a8be de1a 44be
00000380: e211 49bd 41c0 983e f99c a63e beff a1bd
00000390: 604b 1bbe 0535 99be f1e6 35be b343 133e
000003a0: e27f a13e dfc4 5d3e 78b8 723e 011c 8fbd
000003b0: 4acd 48bb 0c0a 14bd 5fad 50be e0df c7be
000003c0: 385c ab3e 84eb 843c 5663 863e 7b48 503d
000003d0: ca72 54be d1c3 3bbd 7b76 b53e d4b8 8abe
000003e0: a0f9 31be 72b3 03be c514 06bc 8a50 5ebd
000003f0: eab6 aa3e 9499 b1bd e888 f1be 5414 adbe

conv1.bias f4 [32]
0.218 0.08908626 0.07708734 -0.25186244 -0.23506863 -0.37259415 -0.22603758 0.24924912
-0.22804801 0.17721973 -0.109028056 -0.21329844 0.06823758 0.26064125 0.022471838 -0.2169942
-0.35468525 -0.3110981 0.26124972 0.17502177 -0.28196922 0.14480035 0.12609209 0.03341612
-0.030942239 0.084394604 -0.29656577 -0.04695477 -0.30847728 0.18517965 0.1253254 0.046145808
00000000: 643b 5f3e db72 b63d f8df 9d3d 1df4 80be
00000010: d5b5 70be a9c4 bebe 6576 67be 293b 7f3e
00000020: 6b85 69be 1779 353e 1a4a dfbd e86a 5abe
00000030: 25c0 8b3d c572 853e dc16 b83c ba33 5ebe
00000040: 4e99 b5be 4048 9fbe 86c2 853e e838 333e
00000050: 455e 90be 8b46 143e 491e 013e 57df 083d
00000060: 947a fdbc 14d7 ac3d 78d7 97be a553 40bd
00000070: bcf0 9dbe bc9f 3d3e 4d55 003e 6303 3d3d

bn1.weight f4 [32]
1.0232815 1.0164297 0.95667255 1.0134071 0.98153293 1.0630021 0.91941786 1.0208441
1.031842 0.98648745 0.93852836 0.9495966 0.9665873 0.95192116 1.0903246 0.991455
1.0216888 1.0026134 0.9732119 0.97505933 1.0110297 0.9886036 0.99610996 0.99810374
0.9097897 1.1018476 0.96753556 0.94733906 1.0095224 1.0355204 0.95875645 0.95589167
00000000: e3fa 823f 5e1a 823f 7ee8 743f 53b7 813f
00000010: be45 7b3f 7410 883f f85e 6b3f 05ab 823f
00000020: 6613 843f 718a 7c3f 6543 703f c318 733f
00000030: 4472 773f 1bb1 733f c28f 8b3f ffcf 7d3f
00000040: b3c6 823f a355 803f 6a24 793f 7d9d 793f
00000050: 6c69 813f 2015 7d3f 1001 7f3f ba83 7f3f
00000060: fae7 683f 5809 8d3f 69b0 773f d084 723f
00000070: 0838 813f ef8b 843f 1071 753f 51b5 743f

bn1.bias f4 [32]
-0.019910242 0.10688466 0.023164032 -0.017430976 0.06791433 -0.018706309 -0.028010631 0.049228217
-0.04914356 -0.021613916 -0.096311875 -0.06417799 0.13891558 -0.14296252 0.0015602222 0.16416582
0.07502126 0.096536614 0.0116546955 0.4472591 -0.017451387 0.12964548 -0.015072979 -0.005865037
0.123535804 0.19337225 0.13071865 -0.11463284 -0.023955228 0.30571595 -0.105595626 -0.03961691
00000000: ce1a a3bc 58e6 da3d 7fc2 bd3c 68cb 8ebc
00000010: ab16 8b3d f93d 99bc 8d76 e5bc 87a3 493d
00000020: c24a 49bd ab0f b1bc 293f c5bd c06f 83bd
00000030: e33f 0e3e c464 12be 5f80 cc3a 161b 283e
00000040: bfa4 993d fdb4 c53d 56f3 3e3c 25ff e43e
00000050: 36f6 8ebc c9c1 043e a8f4 76bc 7f2f c0bb
00000060: 5700 fd3d 6003 463e 1cdb 053e 9fc4 eabd
00000070: c13d c4bc cd86 9c3e 8542 d8bd 5745 22bd

bn1.running_mean f4 [32]
0.18886931 1.6153626 -0.2381077 -0.24556494 -0.054071374 -0.04340267 -0.8768828 0.2610722
0.28607246 0.20811722 -1.3848387 0.2962273 0.17578802 -0.5517312 0.05337961 0.14649412
-0.35003346 -0.5340405 0.37390038 0.18981577 -0.28975767 0.25817326 0.13717161 0.037658885
-0.11310714 -0.05102838 0.36471593 -0.85964286 -0.2961283 0.27134782 0.6847591 -0.990979
00000000: f566 413e 34c4 ce3f 81d2 73be 6075 7bbe
00000010: f279 5dbd 00c7 31bd 647b 60bf 41ab 853e
00000020: 1778 923e ae1c 553e 6542 b1bf 1bab 973e
00000030: c601 343e 423e 0dbf 94a4 5a3d 8e02 163e
00000040: 9637 b3be e1b6 08bf df6f bf3e 115f 423e
00000050: 1e5b 94be 492f 843e b776 0c3e 3440 1a3d
00000060: b7a4 e7bd 2203 51bd 0cbc ba3e 8e11 5cbf
00000070: 219e 97be 1aee 8a3e 5f4c 2f3f cdb0 7dbf

bn1.running_var f4 [32]
0.075356565 0.5068178 0.05317984 0.039061684 0.021124171 0.055854622 0.12088608 0.032179415
0.074838504 0.018348565 0.40984917 0.10401232 0.048489407 0.16844928 0.024346434 0.067429945
0.029072654 0.055549227 0.038627062 0.039564263 0.044733204 0.030909643 0.06120838 0.024231559
0.021024218 0.04893355 0.11819002 0.16602491 0.05444239 0.05732593 0.101472676 0.27827114
00000000: 8b54 9a3d d0be 013f 1bd3 593d 25ff 1f3d
00000010: 990c ad3c d1c7 643d 1f93 f73d 90ce 033d
00000020: ee44 993d bb4f 963c c0d7 d13e 6904 d53d
00000030: d49c 463d f87d 2c3e 2c72 c73c b618 8a3d
00000040: c629 ee3c 9687 633d 6937 1e3d 230e 223d
00000050: 2a3a 373d 3836 fd3c a3b5 7a3d 4381 c63c
00000060: fb3a ac3c 8c6e 483d 9c0d f23d 6f02 2a3e
00000070: fcfe 5e3d 98ce 6a3d e8d0 cf3d 8e79 8e3e

conv2.weight f4 [32, 32, 3]
-0.033141643 0.09996084 -0.08979506 0.005881092 -0.14769138 -0.05941882 -0.045875937 -0.04508711
-0.03244576 -0.12263813 -0.060202327 -0.020737547 0.05031444 -0.03972378 -0.09487918 -0.043211818
0.016545054 -0.05717478 -0.060688045 -0.11230797 -0.0833192 -0.03227654 -0.092300855 0.029072376
-0.048678216 0.021204611 -0.12153617 0.0325862 -0.04855365 0.015943725 -0.11176829 -0.11260917
-0.16636276 -0.046072233 -0.0005283784 0.110018075 0.14041388 0.044077095 0.01829795 -0.1176576
-0.024490148 -0.18737087 0.019845292 -0.04084291 0.032613095 0.0037835266 -0.07195399 0.028025988
0.09018965 -0.024147263 -0.05174267 0.026181566 0.042966604 -0.05301768 0.061754193 -0.09417391
0.169179 -0.10737838 0.0768777 -0.026118917 0.06820702 0.09513849 0.06286658 0.081072174
0.08796582 -0.0368399 0.060438797 -0.045737393 0.048810437 -0.097256236 0.008618923 -0.006990061
0.004405303 -0.09959962 0.008008529 -0.01625141 0.09393124 0.017334845 -0.079806656 0.0054887477
0.029176433 0.0031391957 -0.1880788 -0.18508723 -0.039642606 -0.08052425 -0.032448433 0.06691998
0.008389348 0.036202997 0.08701468 -0.02768671 0.06598865 -0.09176016 0.033535924 -0.07941482
-0.035419274 0.021302 -0.013834074 0.05904218 0.051725015 0.19264461 0.068756275 0.13584906
-0.0061213938 -0.060121924 -0.076047495 0.05022284 -0.051535364 -0.19199651 0.029132102 -0.06648796
-0.11100119 0.058817644 0.016329892 -0.025318004 0.045082163 -0.03550551 -0.028654315 0.10438744
-0.06811498 -0.04395501 0.08777775 0.009205588 -0.083449714 0.0077702925 0.0706165 0.000830534
-0.03722331 -0.06830969 -0.030693209 0.070655 -0.073877975 -0.012415855 -0.061584894 0.017685654
0.0429023 -0.06320845 -0.10627334 -0.16186869 -0.12562212 0.1070587 0.08765221 0.0101560475
-0.008929376 -0.1829095 -0.010215323 0.055209946 0.03596681 0.029955162 -0.032652605 -0.110567845
-0.13266982 -0.008981799 -0.010749677 0.030902252 0.11588226 0.10641105 0.04782454 0.09150488
-0.024730947 0.04524926 0.08951536 0.0596882 0.082995825 -0.04287321 -0.17559378 -0.096373275
-0.12111644 -0.14651506 -0.0645104 -0.08384492 -0.13014494 -0.12613253 0.00044356208 -0.05348003
0.13084911 -0.011385891 -0.03428089 -0.11026863 -0.013224883 0.05289304 0.039647926 0.018383889
0.063641205 -0.048449658 0.023166034 -0.07680626 -0.07587282 -0.10694972 0.020104557 0.07064055
0.07782077 -0.025270833 -0.030693496 -0.0076928698 -0.1353739 0.07853479 -0.14761661 -0.13935462
-0.09863219 0.038980022 0.105592035 -0.03458938 -0.01709785 -0.16547708 -0.10259703 0.109388374
-0.043792237 -0.021146294 -0.0074010924 0.0020628117 0.030244164 -0.10692776 -0.05491989 -0.08832909
0.084807225 0.01500551 -0.03796388 0.042920966 0.1108825 -0.07269469 -0.0040099877 -0.074172564
-0.07687887 -0.06573938 -0.06666526 -0.031388316 0.014887987 0.097170874 0.011180021 -0.06818929
0.012442206 0.019812543 0.13161667 0.10434581 0.008080728 -0.016524272 -0.11287572 -0.055905752
0.06757947 -0.1362633 -0.06910646 -0.10127745 0.04581828 -0.06362519 0.018437522 -0.096501164
0.034942407 0.04879867 0.11439127 0.04716052 -0.04430314 -0.008009251 -0.030061504 -0.048592623
00000000: 88bf 07bd 45b8 cc3d 79e6 b7bd 2db6 c03b
00000010: 693c 17be 2661 73bd 68e8 3bbd 43ad 38bd
00000020: d8e5 04bd b329 fbbd b796 76bd cae1 a9bc
00000030: 8416 4e3d 67b5 22bd 0450 c2bd e0fe 30bd
00000040: 7e89 873c 1a30 6abd 0794 78bd b901 e6bd
00000050: 42a3 aabd 6834 04bd 3b08 bdbd 3129 ee3c
00000060: cf62 47bd 4bb5 ad3c f5e7 f8bd 1b79 053d
00000070: 31e0 46bd 6a9c 823c c6e6 e4bd a39f e6bd
00000080: 005b 2abe 3db6 3cbd e082 0aba 2851 e13d
00000090: a8c8 0f3e 2f8a 343d 95e5 953c 78f6 f0bd
000000a0: 909f c8bc 26de 3fbe 9892 a23c e54a 27bd
000000b0: 4f95 053d 0bf5 773b 9d5c 93bd c296 e53c
000000c0: 5ab5 b83d 7bd0 c5bc 1ff0 53bd b97a d63c
000000d0: c0fd 2f3d 1129 59bd f7f1 7c3d 40de c0bd
000000e0: 433d 2d3e 32e9 dbbd 0e72 9d3d 57f7 d5bc
000000f0: 1fb0 8b3d f8d7 c23d 32c0 803d 2b09 a63d
00000100: 6d27 b43d 6fe5 16bd ac8e 773d 2257 3bbd
00000110: 74ed 473d 472e c7bd 6236 0d3c e20c e5bb
00000120: 5c5a 903b e3fa cbbd 3536 033c ad21 85bc
00000130: 065f c03d ce01 8e3c ac71 a3bd f4da b33b
00000140: 6a03 ef3c f7ba 4d3b bb97 40be 8287 3dbe
00000150: 4960 22bd e6e9 a4bd a6e8 04bd 580d 893d
00000160: 7a73 093c 9849 143d c134 b23d 3dcf e2bc
00000170: 0f25 873d c0ec bbbd f75c 093d 3da4 a2bd
00000180: cd13 11bd 8881 ae3c 50a8 62bc 37d6 713d
00000190: 9cdd 533d a144 453e 17d0 8c3d 041c 0b3e
000001a0: f995 c8bb 6842 76bd cabe 9bbd 77b6 4d3d
000001b0: bf16 53bd bc9a 44be 72a6 ee3c d72a 88bd
000001c0: 9854 e3bd c5ea 703d 44c6 853c b467 cfbc
000001d0: 13a8 383d 3a6e 11bd 74bc eabc 15c9 d53d
000001e0: de7f 8bbd 2b0a 34bd d2c4 b33d 09d3 163c
000001f0: afe7 aabd f09d fe3b 629f 903d 31b8 593a
00000200: 7877 18bd f3e5 8bbd 5370 fbbc 92b3 903d
00000210: 564d 97bd df6b 4bbc 7140 7cbd 81e1 903c
00000220: 52ba 2f3d 6f73 81bd d6a5 d9bd e8c0 25be
00000230: 16a3 00be 9741 db3d 0083 b33d 8d65 263c
00000240: 844c 12bc a14c 3bbe 2c5e 27bc d323 623d
00000250: ef51 133d 8764 f53c bdbe 05bd 6571 e2bd
00000260: 99da 07be 6528 13bc 6a1f 30bc b826 fd3c
00000270: ae53 ed3d 09ee d93d aae3 433d e966 bb3d
00000280: 8e98 cabc 4a57 393d d453 b73d 9d7b 743d
00000290: b7f9 a93d d29b 2fbd dbce 33be 5a5f c5bd
000002a0: e50b f8bd 0b08 16be 071e 84bd e3b6 abbd
000002b0: b744 05be e328 01be e58d e839 e00d 5bbd
000002c0: 4ffd 053e e38b 3abc 1e6a 0cbd 85d4 e1bd
000002d0: 2ead 58bc 5fa6 583d dd65 223d cf99 963c
000002e0: 5256 823d 2673 46bd b2c6 bd3c 9a4c 9dbd
000002f0: 3663 9bbd 7408 dbbd 50b2 a43c feab 903d
00000300: 7f60 9f3d c704 cfbc ed70 fbbc 7814 fcbb
00000310: 759f 0abe d9d6 a03d cf28 17be fab2 0ebe
00000320: acff c9bd 84a9 1f3d a340 d83d 98ad 0dbd
00000330: ca10 8cbc d372 29be 641e d2bd 0307 e03d
00000340: 7d5f 33bd fe3a adbc dd84 f2bb 3d30 073b
00000350: 9cc2 f73c f1fc dabd aef3 60bd e2e5 b4bd
00000360: 69af ad3d acd9 753c 0380 1bbd e5cd 2f3d
00000370: 5d16 e33d f4e0 94bd 3766 83bb c9e7 97bd
00000380: ab72 9dbd 5ea2 86bd cc87 88bd 0991 00bd
00000390: beec 733c 8601 c73d 682c 373c d4a6 8bbd
000003a0: 65da 4b3c ea4d a23c 85c6 063e 42b3 d53d
000003b0: 0865 043c e95d 87bc 632b e7bd 6efd 64bd
000003c0: 1b67 8a3d 9b88 0bbe b087 8dbd 8d6a cfbd
000003d0: f3ab 3b3d ec4d 82bd 490a 973c 67a2 c5bd
000003e0: c51f 0f3d 1de1 473d f845 ea3d 642b 413d
000003f0: 3677 35bd 3c39 03bc 8b43 f6bc 0f09 47bd

conv2.bias f4 [32]
0.0134954555 -0.088224806 0.04174842 -0.009822936 -0.05351847 -0.06239429 -0.093114816 0.008516782
0.036268197 -0.050677776 0.05649147 0.097337484 0.09366844 -0.106943354 0.065697186 0.080762066
-0.085197166 -0.07893398 -0.06294917 0.033891033 0.082211055 -0.084559344 0.085939124 0.04866696
0.07100118 -0.10484172 -0.0949152 -0.017218202 0.06348602 -0.1148553 -0.039997652 -0.036747728
00000000: 0b1c 5d3c 35af b4bd 6400 2b3d 61f0 20bc
00000010: 2f36 5bbd 2891 7fbd fbb2 bebd f989 0b3c
00000020: f68d 143d 8093 4fbd 9a63 673d e058 c73d
00000030: 3dd5 bf3d 1e05 dbbd 3f8c 863d 9566 a53d
00000040: da7b aebd 23a8 a1bd 7feb 80bd 53d1 0a3d
00000050: 455e a83d 732d adbd da00 b03d 0257 473d
00000060: 1169 913d 41b7 d6bd e662 c2bd 300d 8dbc
00000070: f504 823d 4139 ebbd 94d4 23bd c984 16bd

bn2.weight f4 [32]
1.063003 1.0146155 1.0524074 1.0222704 1.0567149 1.0125134 0.9074599 1.029081
1.0796933 0.9434942 1.0201193 1.029893 1.009927 0.9480327 1.0597236 1.0471207
1.0780846 0.9695971 1.0564373 0.89878744 0.9700922 1.0230685 0.9152059 1.0897535
0.96648633 0.98543066 0.99709207 1.0281674 1.0569645 1.0435112 1.0516269 1.0031388
00000000: 7b10 883f ecde 813f 49b5 863f c2d9 823f
00000010: 6f42 873f 0a9a 813f 4b4f 683f edb8 833f
00000020: 6433 8a3f d688 713f 4593 823f 89d3 833f
00000030: 4a45 813f 45b2 723f 06a5 873f 0d08 863f
00000040: adfe 893f 8437 783f 5639 873f ef16 663f
00000050: f657 783f e9f3 823f ef4a 6a3f 0b7d 8b3f
00000060: a66b 773f 2f45 7c3f 6d41 7f3f fd9a 833f
00000070: 9d4a 873f c691 853f b69b 863f da66 803f

bn2.bias f4 [32]
-0.07089051 -0.11694116 -0.087757565 -0.120536394 -0.09259765 -0.02857737 -0.09249334 0.17098342
0.0038105287 -0.13366158 -0.070263244 -0.020726765 -0.05217034 0.033770755 -0.086808905 -0.028317558
-0.03994504 -0.108360805 -0.12224092 -0.107436776 -0.066386476 -0.084048524 -0.041148856 0.0072049275
-0.1299215 -0.11576526 -0.09472274 -0.0023241877 0.024158318 -0.10265897 -0.1576327 -0.14949965
00000000: 0b2f 91bd d97e efbd 3dba b3bd c9db f6bd
00000010: d6a3 bdbd 171b eabc 266d bdbd 4716 2f3e
00000020: 10ba 793b 95de 08be 2de6 8fbd 2dcb a9bc
00000030: 91b0 55bd 3453 0a3d dec8 b1bd 39fa e7bc
00000040: 699d 23bd 45ec ddbd 7359 fabd d007 dcbd
00000050: a2f5 87bd a221 acbd b48b 28bd 5017 ec3b
00000060: 240a 05be 5616 edbd fffd c1bd 6651 18bb
00000070: aae7 c53c de3e d2bd 776a 21be 7016 19be

bn2.running_mean f4 [32]
-0.6903461 -0.74033004 -0.21944924 -0.8187738 -0.52751476 -0.69733787 0.29831985 -0.28067702
-0.4303399 -0.29567638 -0.6136555 -0.24501666 0.8780939 0.33722562 -0.8377019 -0.17398599
-0.46780705 0.07036277 -0.63114965 0.37050048 1.275267 -0.44672066 -0.2976716 -0.43827444
-0.39960152 -0.61771226 -0.34563816 -0.42019892 -0.5486614 -0.72766054 -0.59622973 -0.6940403
00000000: 86ba 30bf 4586 3dbf 4db7 60be 299b 51bf
00000010: 350b 07bf bc84 32bf 61bd 983e e6b4 8fbe
00000020: 8355 dcbe e562 97be 8718 1dbf a6e5 7abe
00000030: c3ca 603f d6a8 ac3e a273 56bf 6229 32be
00000040: 6884 efbe 5b1a 903d 0693 21bf 3db2 bd3e
00000050: f33b a33f 92b8 e4be 6968 98be 8265 e0be
00000060: 9298 ccbe 6422 1ebf 7cf7 b0be 5024 d7be
00000070: 1375 0cbf f647 3abf 83a2 18bf a0ac 31bf

bn2.running_var f4 [32]
0.8172036 0.46386606 0.3270616 0.71396786 0.290246 0.4458473 1.3233821 0.27767795
0.46215972 0.6710907 0.7803565 0.24556093 0.63144106 0.4711358 0.97315377 0.29454723
0.44322366 0.31943604 0.7302629 0.26280078 0.9087814 0.25675207 0.6248478 0.45088786
0.48585737 0.34739554 0.27624938 0.43005177 0.48739037 0.5000255 0.69735414 0.38693267
00000000: 4134 513f da7f ed3e 9e74 a73e 99c6 363f
00000010: 209b 943e 1946 e43e 9664 a93f ce2b 8e3e
00000020: 33a0 ec3e 9acc 2b3f 72c5 473f 5374 7b3e
00000030: 1fa6 213f b638 f13e 9b20 793f e5ce 963e
00000040: 36ee e23e 1f8d a33e 82f2 3a3f d38d 863e
00000050: e6a5 683f 0275 833e 07f6 1f3f c6da e63e
00000060: 4cc2 f83e d4dd b13e 8f70 8d3e bf2f dc3e
00000070: 3b8b f93e ac01 003f cd85 323f 0a1c c63e

conv3.weight f4 [64, 32, 3]
-0.07713427 -0.040001262 -0.033028983 0.10195054 0.10444644 0.16206104 0.031727877 -0.014435347
-0.011420379 0.09085748 -0.010874588 0.06758812 0.111072145 -0.0731531 -0.08467291 0.01815057
0.06843089 0.017033124 -0.059360076 -0.06333636 -0.050307423 -0.08791933 -0.030785453 -0.03151387
0.045073014 0.0068701757 -0.00902355 -0.085830815 -0.07410051 0.00767797 -0.099803634 -0.14946692
-0.11602092 -0.07781523 -0.039147846 -0.025577156 0.02939203 0.08200218 0.11251918 0.040459543
-0.064198904 0.030691532 0.031320587 -0.08359647 -0.071538754 0.09259424 -0.0024335186 -0.061677933
0.045750085 0.066781744 -0.005581354 -0.049489066 -0.1233844 -0.035451796 -0.010118888 -0.08636371
-0.05181804 -0.07646724 -0.0134899365 -0.089547865 -0.03670031 -0.12019785 -0.1629166 -0.041308876
-0.03211146 0.06615784 0.009295995 -0.037539635 -0.10462109 -0.018554686 0.016956089 -0.11410931
-0.07621878 -0.077312775 -0.021238366 -0.014685152 0.016262826 0.034964535 -0.042862494 -0.05765252
0.024245076 -0.1474766 -0.220858 -0.038501255 0.03416513 -0.014318095 0.059898708 -0.06385326
-0.07769717 0.028987372 -0.04595946 -0.14854285 -0.18426436 -0.026503962 0.031273272 0.08530556
0.081550404 -0.13618226 0.07283298 0.008172434 -0.063350946 0.013793728 -0.09477906 -0.05517733
0.096491665 0.05886993 -0.08468283 0.025803447 -0.10432029 0.049321223 -0.019022737 0.12822077
0.04872337 0.016824229 -0.13022313 -0.032302946 0.0030850735 0.092402324 0.062137898 -0.037800957
0.025539592 -0.08966781 0.043122094 -0.112211294 -0.06793765 0.0036033299 -0.082956955 0.0046695764
-0.06000017 -0.09525758 0.00011096895 -0.19707923 0.106263265 0.0646789 -0.057528194 -0.09753754
-0.08957371 -0.13535398 -0.027170505 0.083421744 -0.0036353788 -0.14072973 0.0033662783 0.009501264
-0.018515926 -0.027501471 0.039690312 0.110494874 -0.04973251 -0.02184851 -0.14935753 -0.052676786
-0.07676702 0.021847133 0.09798861 -0.14468727 0.06513212 0.087331645 0.040803287 0.10429945
0.06929053 0.04007499 0.053687252 -0.044378977 -0.14970438 -0.03547832 0.036224928 -0.094472855
0.074864455 -0.07870922 -0.0307742 -0.05329195 -0.09645883 -0.123079546 0.11402953 -0.056417126
0.105801225 -0.041192386 0.02767347 -0.07778804 -0.0237053 0.073520936 -0.00013352047 -0.04263633
-0.05790829 -0.06316756 -0.13644896 -0.066493474 -0.010963344 0.055859953 0.062503986 -0.041490752
-0.020487629 -0.004214276 0.060879003 0.045553584 0.035193913 -0.11691476 -0.098852575 -0.19359112
0.06925033 0.08047108 -0.036244486 0.018599074 -0.053557254 0.11622686 0.049801223 0.09708909
-0.09337314 -0.13826315 -0.0461094 -0.056689166 -0.07518013 -0.14222074 0.032008886 0.09230044
-0.10310654 0.008126676 -0.08607131 -0.02510666 0.05380615 0.06377803 0.04758136 0.10074677
-0.023580546 -0.017580926 0.07971173 0.115510635 0.068657935 -0.07594278 -0.08905431 -0.08942453
0.037285388 0.03419789 0.04934964 0.042305425 -0.074732706 0.04265576 0.06783184 0.11612218
-0.118603505 -0.07242376 0.063454874 -0.06922957 -0.08914787 0.124675035 -0.06612272 -0.003934396
-0.038290445 -0.080781184 -0.07251354 -0.0004710474 -0.03646845 -0.038435448 -0.05931723 0.025400396
00000000: 92f8 9dbd 5dd8 23bd 6649 07bd 72cb d03d
00000010: 04e8 d53d 54f3 253e 17f5 013d 3c82 6cbc
00000020: 8b1c 3bbc 7d13 ba3d 542b 32bc a46b 8a3d
00000030: cb79 e33d 4bd1 95bd fe68 adbd 81b0 943c
00000040: 7f25 8c3d 0d89 8b3c 8d23 73bd 7eb6 81bd
00000050: 280f 4ebd 0d0f b4bd c631 fcbc b014 01bd
00000060: 7b9e 383d 361f e13b 83d7 13bc 11c8 afbd
00000070: 02c2 97bd 7b97 fb3b d965 ccbd db0d 19be
00000080: 609c edbd 975d 9fbd 7e59 20bd 2f87 d1bc
00000090: 8ec7 f03c c2f0 a73d 7570 e63d e8b8 253d
000000a0: b77a 83bd cf6c fb3c 044a 003d a034 abbd
000000b0: e982 92bd 0da2 bd3d ab7b 1fbb 00a2 7cbd
000000c0: 7164 3b3d dec4 883d cae3 b6bb 0cb5 4abd
000000d0: f6b0 fcbd e735 11bd b1c9 25bc 75df b0bd
000000e0: 273f 54bd db9a 9cbd e504 5dbc df64 b7bd
000000f0: 1053 16bd 4a2a f6bd 9cd3 26be 7f33 29bd
00000100: 4e87 03bd c37d 873d 3b4e 183c 29c3 19bd
00000110: 9543 d6bd ffff 97bc 7fe7 8a3c 24b2 e9bd
00000120: 9718 9cbd 2956 9ebd 15fc adbc fe99 70bc
00000130: 9e39 853c f936 0f3d 9590 2fbd 0c25 6cbd
00000140: 9c9d c63c 1b04 17be 9928 62be 7eb3 1dbd
00000150: bcf0 0b3d 7196 6abc 5958 753d 7fc5 82bd
00000160: b21f 9fbd ed76 ed3c fd3f 3cbd 9e1b 18be
00000170: ccaf 3cbe d61e d9bc 6718 003d aeb4 ae3d
00000180: e603 a73d 5d73 0bbe 7529 953d ace5 053c
00000190: 24be 81bd 17ff 613c 861b c2bd a001 62bd
000001a0: 6c9d c53d 9921 713d 316e adbd c061 d33c
000001b0: e0a5 d5bd 0d05 4a3d 92d5 9bbc 4e4c 033e
000001c0: 2892 473d f7d2 893c 3659 05be 1850 04bd
000001d0: f22e 4a3b 6e3d bd3d 4f84 7e3d 2dd5 1abd
000001e0: 6838 d13c c2a3 b7bd cba0 303d 09cf e5bd
000001f0: e522 8bbd d825 6c3b 56e5 a9bd 3f03 993b
00000200: bdc2 75bd 6816 c3bd 00b8 e838 23cf 49be
00000210: 8ea0 d93d 5f76 843d afa2 6bbd c3c1 c7bd
00000220: 6c72 b7bd 3c9a 0abe ae94 debc 05d9 aa3d
00000230: 893f 6ebb 741b 10be c79c 5c3b 31ab 1b3c
00000240: b6ae 97bc c44a e1bc 4f92 223d 234b e23d
00000250: 51b4 4bbd a5fb b2bc 2ef1 18be 9dc3 57bd
00000260: 0738 9dbd c2f8 b23c 41ae c83d e628 14be
00000270: fd63 853d efda b23d 5921 273d f39a d53d
00000280: 32e8 8d3d ac25 243d 2ae7 5b3d bbc6 35bd
00000290: 1b4c 19be b751 11bd 9760 143d fc7a c1bd
000002a0: 8952 993d 4d32 a1bd 2d1a fcbc a948 5abd
000002b0: 358c c5bd 2111 fcbd 5088 e93d a515 67bd
000002c0: 50ae d83d 59b9 28bd 79b3 e23c 564f 9fbd
000002d0: 9e31 c2bc 2592 963d a101 0cb9 6fa3 2ebd
000002e0: 3e31 6dbd fe5d 81bd 47b9 0bbe bb2d 88bd
000002f0: 999f 33bc 68cd 643d 1702 803d 35f2 29bd
00000300: acd5 a7bc e917 8abb 435c 793d 6596 3a3d
00000310: 7e27 103d 0171 efbd 3873 cabd c03c 46be
00000320: 1ed3 8d3d 06ce a43d 1975 14bd 165d 983c
00000330: da5e 5bbd 5908 ee3d 5efc 4b3d a5d6 c63d
00000340: 6b3a bfbd db94 0dbe 36dd 3cbd e632 68bd
00000350: 0af8 99bd 50a2 11be c01b 033d 0308 bd3d
00000360: 8629 d3bd c025 053c 2846 b0bd 7bac cdbc
00000370: d663 5c3d 0e9e 823d ace4 423d 5354 ce3d
00000380: fd2b c1bc e005 90bc e73f a33d d790 ec3d
00000390: 889c 8c3d e387 9bbd 1b62 b6bd 3524 b7bd
000003a0: 90b8 183d 1613 0c3d d922 4a3d 7448 2d3d
000003b0: 760d 99bd ceb7 2e3d 6beb 8a3d 77d1 ed3d
000003c0: 65e6 f2bd e952 94bd a1f4 813d 3cc8 8dbd
000003d0: 2993 b6bd a055 ff3d 596b 87bd 1bec 80bb
000003e0: 71d6 1cbd 9b70 a5bd fb81 94bd e9f6 f6b9
000003f0: f15f 15bd 7d6e 1dbd a0f6 72bd 7e14 d03c

conv3.bias f4 [64]
0.012701798 0.024047023 -0.019767286 0.028601969 0.06754084 0.037958577 0.09023767 0.06918313
-0.036566056 0.10098709 -0.033235196 -0.075016044 -0.05919568 -0.010554666 -0.00798304 -0.009353625
0.07128109 0.01696376 -0.08083775 0.059623 -0.04811918 0.032447893 -0.006671042 0.01605497
-0.14180176 0.08731167 0.006984717 0.09156479 0.014747577 -0.011194285 -0.10147653 0.064107336
-0.033784248 0.060799494 -0.038833547 -0.0862144 -0.041458305 -0.024524972 -0.07210096 -0.061814122
-0.10371707 0.048543938 -0.039524455 0.028691463 0.013019963 -0.021205181 -0.10029137 -0.012185963
-0.0006150832 -0.041039255 0.06525409 -0.076878734 0.08116743 -0.070852116 0.028198887 0.0027167923
0.05002152 0.04219465 0.031775504 -0.07504029 -0.08967132 -0.03012293 0.07773862 -0.04579646
00000000: 341b 503c 43fe c43c 01ef a1bc ad4e ea3c
00000010: da52 8a3d 747a 1b3d 87ce b83d e3af 8d3d
00000020: 4ac6 15bd 52d2 ce3d a121 08bd 03a2 99bd
00000030: 2b77 72bd 7aed 2cbc 4ccb 02bc f23f 19bc
00000040: d2fb 913d 95f7 8a3c 438e a5bd 3f37 743d
00000050: 9e18 45bd 15e8 043d c298 dabb b685 833c
00000060: 7b34 11be 76d0 b23d 0ee0 e43b 5286 bb3d
00000070: d29f 713c 3c68 37bc edd2 cfbd b54a 833d
00000080: 5a61 0abd e408 793d ed0f 1fbd 2d91 b0bd
00000090: 2fd0 29bd 98e8 c8bc aba9 93bd ce30 7dbd
000000a0: 9d69 d4bd 02d6 463d 65e4 21bd 5c0a eb3c
000000b0: af51 553c 7db6 adbc 9065 cdbd a2a7 47bc
000000c0: 893d 21ba c718 28bd f0a3 853d 9972 9dbd
000000d0: 1c3b a63d ea1a 91bd 5a01 e73c 360c 323b
000000e0: 5ee3 4c3d 4cd4 2c3d 0827 023d b9ae 99bd
000000f0: 99a5 b7bd 5dc4 f6bc 6d35 9f3d 1295 3bbd

bn3.weight f4 [64]
1.0342561 0.91773194 1.070613 0.9622323 0.94594204 1.0447984 1.0221854 0.8012748
0.9599181 0.96413904 1.0041436 1.0188127 0.97157377 1.1375421 1.0008712 0.99540377
1.0511149 1.0451851 0.96487486 0.79793775 0.999472 1.0245272 1.0437502 1.0047752
0.9842416 0.98401624 0.9749794 0.912556 0.8402404 1.0155289 0.8674208 0.9492595
1.0587444 0.9949886 1.0657022 0.9599766 1.0552897 1.0710722 1.0273144 0.9052788
0.8986195 0.98226994 1.0148098 1.0843036 1.012406 1.0166178 1.0445039 1.0522624
1.031869 1.0019639 1.0436193 1.091255 1.000668 1.0055208 0.9700773 0.9986544
0.9943757 0.8977518 0.8940165 1.027646 0.9365059 0.92108256 0.94292367 1.0216202
00000000: 8162 843f 7bf0 6a3f d909 893f db54 763f
00000010: 4229 723f f4bb 853f f9d6 823f 5820 4d3f
00000020: 31bd 753f d1d1 763f c787 803f 7468 823f
00000030: 0fb9 783f fb9a 913f 8c1c 803f c8d2 7e3f
00000040: ef8a 863f a0c8 853f 0a02 773f a645 4c3f
00000050: 66dd 7f3f b523 833f 9b99 853f 799c 803f
00000060: 42f7 7b3f 7de8 7b3f 4098 793f 459d 693f
00000070: ff19 573f dafc 813f 4a0f 5e3f ac02 733f
00000080: f084 873f 93b7 7e3f ee68 883f 07c1 753f
00000090: bc13 873f e518 893f 0a7f 833f 5ac0 673f
000000a0: ed0b 663f 0b76 7b3f 4ae5 813f 76ca 8a3f
000000b0: 8596 813f 8820 823f 4eb2 853f 89b0 863f
000000c0: 4914 843f 5a40 803f 5195 853f 3eae 8b3f
000000d0: e415 803f e8b4 803f fc56 783f d1a7 7f3f
000000e0: 688f 7e3f 10d3 653f 44de 643f e789 833f
000000f0: dabe 6f3f 11cc 6b3f 7263 713f 73c4 823f

bn3.bias f4 [64]
-0.15626787 -0.2820688 -0.19330125 -0.18441038 -0.07377577 -0.12413746 -0.18152542 -0.19947673
-0.19591409 -0.124143355 -0.1339471 -0.06269197 -0.19960035 -0.17408833 -0.16929431 -0.092069045
-0.13753472 -0.04308149 -0.15538591 -0.19805856 -0.06159731 -0.21724495 -0.08256405 -0.16520725
-0.18465711 -0.18189542 -0.121927865 -0.19934763 -0.28661743 -0.12133808 -0.11490839 -0.17130126
-0.105755314 -0.06895316 -0.36882436 -0.24701816 -0.028285233 -0.13727137 -0.17650016 -0.21877342
-0.12015705 -0.11048155 -0.1942648 -0.27121294 -0.23306578 -0.06976355 -0.14861508 -0.19098265
-0.24891774 -0.13701543 -0.06839162 -0.12281793 -0.031303003 -0.14057645 -0.16352452 -0.13443506
-0.09590801 -0.26971307 -0.17376223 -0.018349152 -0.08724776 -0.09544377 -0.14148076 -0.2420492
00000000: af04 20be 526b 90be c3f0 45be 13d6 3cbe
00000010: c017 97bd c83b febd cde1 39be a143 4cbe
00000020: b49d 48be df3e febd 6e29 09be a664 80bd
00000030: 0964 4cbe 3644 32be 7d5b 2dbe b28e bcbd
00000040: e7d5 0cbe 3776 30bd 7c1d 1fbe ddcf 4abe
00000050: 764d 7cbd 7675 5ebe 5717 a9bd 172c 29be
00000060: c116 3dbe cb42 3abe 51b5 f9bd c921 4cbe
00000070: 85bf 92be 1980 f8bd 1755 ebbd 9969 2fbe
00000080: 3e96 d8bd 5037 8dbd 8cd6 bcbe 54f2 7cbe
00000090: 6fb6 e7bc de90 0cbe 75bc 34be 2406 60be
000000a0: e614 f6bd 2744 e2bd 5aed 46be 6cdc 8abe
000000b0: cca8 6ebe 31e0 8ebd 8d2e 18be f590 43be
000000c0: 4be4 7ebe c64d 0cbe e810 8cbd f887 fbbd
000000d0: 9437 00bd 46f3 0fbe f972 27be 58a9 09be
000000e0: 6b6b c4bd d517 8abe baee 31be f650 96bc
000000f0: f4ae b2bd 0678 c3bd 55e0 10be bfdb 77be

bn3.running_mean f4 [64]
-1.0574919 -0.59819645 -0.28210622 -0.48241392 0.12633193 -0.24641706 -0.53453094 -0.24613291
-0.3914168 -0.15752952 -1.1943731 -1.4507552 -0.6141237 -0.6007762 -0.8637392 -1.5227711
0.55529183 -0.24423617 0.1617256 -0.1886119 -1.4398756 -1.2389065 -0.60918254 -0.29140538
-1.4087057 -0.085597284 0.6886417 -0.18000585 -0.783072 -0.6240471 -0.1995043 0.34781247
-0.37995127 -0.24773957 -0.4634028 -0.3424054 -0.4542617 -0.4502577 -0.6718601 0.005698366
0.5620432 -0.82579195 -0.7856994 -0.38707563 0.567466 -0.51739806 -0.5010713 0.17925835
-0.8793407 -0.3978497 -0.35069743 -0.5374856 -1.0679755 -1.9948808 -0.0492106 -0.77899754
-0.2564449 0.15172695 0.07510638 -0.6859099 -0.26272634 -0.2650254 -0.19938572 -0.8636241
00000000: e55b 87bf 6723 19bf 3a70 90be f5fe f6be
00000010: 285d 013e c154 7cbe 05d7 08bf 440a 7cbe
00000020: c867 c8be 6b4f 21be 38e1 98bf 59b2 b9bf
00000030: 3637 1dbf 78cc 19bf 031e 5dbf 2aea c2bf
00000040: 9b27 0e3f 0c19 7abe 659b 253e 7a23 41be
00000050: d84d b8bf 7d94 9ebf 63f3 1bbf 1633 95be
00000060: 7850 b4bf a14d afbd d34a 303f 7453 38be
00000070: 6877 48bf 8dc1 1fbf db4a 4cbe 7a14 b23e
00000080: f988 c2be 71af 7dbe 2243 edbe c34f afbe
00000090: fd94 e8be 2d88 e6be 06ff 2bbf 5cb9 ba3b
000000a0: 10e2 0f3f 1a67 53bf 9923 49bf c72e c6be
000000b0: 7445 113f 3374 04bf 3546 00bf 808f 373e
000000c0: 791c 61bf f5b2 cbbe 9d8e b3be a898 09bf
000000d0: 6cb3 88bf 4158 ffbf 0e91 49bd 626c 47bf
000000e0: bf4c 83be 4f5e 1b3e 60d1 993d cb97 2fbf
000000f0: 1184 86be 69b1 87be c52b 4cbe 7816 5dbf

bn3.running_var f4 [64]
0.37640464 0.20420778 0.25848433 0.41954017 0.3007015 0.40365827 0.30316865 0.5988171
0.27814516 0.29660463 0.33132154 0.37979117 0.14141765 0.41528475 0.5108308 0.56745106
0.27836233 0.33358136 0.30721354 0.39857626 0.31210324 0.41593608 0.30584592 0.21145375
0.2718195 0.3221429 0.27702743 0.4428666 0.26539356 0.37390387 0.23031281 0.35978538
0.24047637 0.3350548 0.17810407 0.46568006 0.43565258 0.20933035 0.28442314 0.24467447
0.24511616 0.18025595 0.306228 0.28206328 0.30366513 0.3992094 0.21203525 0.35665947
0.25436082 0.29438138 0.37424526 0.2590995 0.28966558 0.41287035 0.30018768 0.54700845
0.46773472 0.23288727 0.19657028 0.33253428 0.34610176 0.2685299 0.2416887 0.24472909
00000000: 1cb8 c03e d81b 513e 0f58 843e f8cd d63e
00000010: 8cf5 993e 4cac ce3e ec38 9b3e 144c 193f
00000020: 0b69 8e3e 90dc 973e faa2 a93e fd73 c23e
00000030: cacf 103e 34a0 d43e cfc5 023f 7944 113f
00000040: 8285 8e3e 2dcb aa3e 184b 9d3e 3012 cc3e
00000050: ffcb 9f3e 93f5 d43e d697 9c3e 5587 583e
00000060: ed2b 8b3e eaef a43e 8ad6 8d3e 69bf e23e
00000070: aae1 873e 5470 bf3e 1fd7 6b3e ca35 b83e
00000080: 703f 763e 4e8c ab3e ea60 363e 9e6d ee3e
00000090: db0d df3e b25a 563e e99f 913e f28b 7a3e
000000a0: bbff 7a3e 0495 383e ebc9 9c3e 996a 903e
000000b0: ff79 9b3e 2d65 cc3e c51f 593e 129c b63e
000000c0: 953b 823e 28b9 963e 139d bf3e b1a8 843e
000000d0: 0c4f 943e be63 d33e 33b2 993e bf08 0c3f
000000e0: ed7a ef3e 007a 6e3e b849 493e ef41 aa3e
000000f0: 4034 b13e c07c 893e 3e7d 773e 439a 7a3e

conv4.weight f4 [64, 64, 3]
-0.021796161 -0.073085986 -0.063519865 0.008623318 0.07218507 0.039197084 -0.028141603 0.00056947506
-0.05052642 -0.03638961 -0.1432687 -0.08238904 0.10785563 0.106672525 0.049276542 0.026610268
0.030040748 0.051106367 -0.0404181 -0.110551946 -0.04942356 0.014344062 -0.0012191884 -0.06921266
-0.061826084 -0.0019218402 0.034147233 -0.05210568 0.08327105 0.004219308 -0.008309664 -0.0549369
-0.061491065 -0.0099468455 0.050257463 0.054070726 0.04447067 0.007371432 0.045166105 0.002569291
-0.013794622 -0.049407635 0.15974227 0.16932778 0.107796386 -0.03410674 0.035015505 -0.0046862317
0.1470497 0.07925105 0.07844768 0.0723028 0.03152783 0.03730247 0.0020306043 0.09572399
0.017128231 0.035389837 0.0055021727 -0.02958332 0.07624909 0.06114238 0.09647356 -0.06977587
-0.14328174 -0.0092678815 -0.0011191369 -0.04795445 -0.05172971 0.008990122 -0.024438107 -0.015119922
-0.02304323 0.026557636 -0.016842794 0.09494062 0.009471366 0.09307569 0.03154901 0.004340072
-0.032874435 0.032649044 -0.0358514 0.03095184 0.042849515 0.06707848 0.059107877 0.04249877
-0.03717823 -0.034363713 0.07017475 0.052709613 -0.024966005 0.014814376 -0.06326809 0.016398188
0.0025762338 0.083724394 0.018882161 0.07006321 0.122237146 0.031703558 0.01743388 -0.037259318
-0.008615001 -0.020976141 -0.007958918 -0.053166308 -0.046457555 0.02356337 0.01211449 0.017359063
-0.008296781 -0.033084538 0.048447557 0.08478451 0.050232437 -0.003297492 0.021772316 0.07494664
-0.0282437 0.01710583 -0.012465679 0.07125084 0.07131688 0.04267716 -0.0261113 -0.006974071
0.014024995 -0.0885608 -0.1389837 -0.0969496 0.15542594 0.15126334 0.1257202 -0.048885785
-0.05613964 -0.010468702 -0.09639871 -0.102692306 -0.06929125 0.07335243 -0.052988175 -0.07421187
-0.00289436 -0.03390909 -0.014000634 0.047791455 0.013815239 0.032953285 0.010492429 -0.024573524
0.015514961 -0.08519062 -0.13282453 -0.08741231 0.035029754 0.11819709 0.09199909 0.07850589
0.11189396 0.081761576 -0.021882776 -0.06535372 -0.06983707 -0.07965318 -0.012978263 -0.06073637
-0.076544076 0.023603294 -0.02166845 0.0762395 0.0026081246 0.06125433 -0.061377577 -0.0070655937
0.006547737 -0.032310102 -0.042435214 -0.06799074 0.021919401 -0.03591563 -0.010595958 0.025937904
0.017041974 0.012691402 0.019969957 -0.13203432 -0.022541894 0.1642009 0.17540553 0.14900762
0.1084612 0.006503929 0.1004924 0.0431396 0.02390065 0.035479903 0.012417527 0.03225816
-0.009032227 -0.060930304 0.08181076 -0.042587522 0.02561008 0.02754542 0.0010455563 -0.09627021
0.05420985 -0.02948048 -0.05456658 -0.13937922 -0.06984004 -0.084908746 -0.013292291 -0.03498608
-0.04659772 -0.026759272 -0.03416693 -0.024070824 -0.073102616 0.03334596 -0.035759903 0.047076326
-0.04382424 0.13827954 0.054617174 0.14608182 -0.024392491 0.03077613 -0.04331214 -0.011424727
-0.017000794 0.031303395 0.1045733 -0.0051961904 0.11024446 -0.10998424 -0.031128937 0.005219549
-0.010441723 0.0817454 0.06671917 -0.10948888 0.0008276255 -0.06187297 0.07496413 0.028637776
0.034272138 0.0019379559 0.035114165 0.010570638 0.040635757 -0.027519634 0.00096344313 -0.021858802
00000000: dd8d b2bc 1bae 95bd b416 82bd d148 0d3c
00000010: c4d5 933d 1f8d 203d 3889 e6bc d348 153a
00000020: cbf4 4ebd 460d 15bd 08b5 12be 96bb a8bd
00000030: 6ae3 dc3d 2077 da3d 33d6 493d c7fd d93c
00000040: 0418 f63c e954 513d 738d 25bd 0f69 e2bd
00000050: 5c70 4abd 5b03 6b3c 2dcd 9fba 5ebf 8dbd
00000060: 593d 7dbd 42e6 fbba f8dd 0b3d c46c 55bd
00000070: 038a aa3d 1f42 8a3b 4225 08bc 8405 61bd
00000080: 0ede 7bbd 18f8 22bc c5da 4d3d 4479 5d3d
00000090: e126 363d 0e8c f13b 1800 393d 8d61 283b
000000a0: d702 62bc a95f 4abd 7a93 233e 4364 2d3e
000000b0: 5ac4 dc3d 82b3 0bbd 6b6c 0f3d f68e 99bb
000000c0: 3294 163e 604e a23d 2da9 a03d 7e13 943d
000000d0: 5323 013d 7aca 183d e313 053b f00a c43d
000000e0: 8150 8c3c eff4 103d 924b b43b b858 f2bc
000000f0: 7c28 9c3d 6f70 7a3d ee93 c53d a7e6 8ebd
00000100: 73b8 12be 50d8 17bc 01b0 92ba e36b 44bd
00000110: 88e2 53bd 4e4b 133c 6d32 c8bc 8db9 77bc
00000120: 28c5 bcbc 668f d93c e6f9 89bc 3a70 c23d
00000130: ca2d 1b3c 789e be3d 8939 013d 2a37 8e3b
00000140: 58a7 06bd 01bb 053d ebd8 12bd b78e fd3c
00000150: f982 2f3d 7160 893d 1a1b 723d 3113 2e3d
00000160: 3348 18bd f7c0 0cbd c8b7 8f3d 09e6 573d
00000170: 8285 ccbc ffb7 723c b392 81bd 7e55 863c
00000180: 08d6 283b b277 ab3d c3ae 9a3c 4d7d 8f3d
00000190: 7857 fa3d 97db 013d 7fd1 8e3c 3a9d 18bd
000001a0: ef25 0dbc 28d6 abbc 1f66 02bc eac4 59bd
000001b0: 474a 3ebd f807 c13c db7b 463c 9834 8e3c
000001c0: 39ef 07bc a783 07bd f270 463d 80a3 ad3d
000001d0: 87c0 4d3d bc1a 58bb db5b b23c a07d 993d
000001e0: 555f e7bc 8721 8c3c d93c 4cbc f6eb 913d
000001f0: 960e 923d 3fce 2e3d 5de7 d5bc bf86 e4bb
00000200: 18c9 653c 5d5f b5bd be51 0ebe 838d c6bd
00000210: fa27 1f3e c7e4 1a3e ccbc 003e 763c 48bd
00000220: aef2 65bd eb84 2bbc b06c c5bd 5850 d2bd
00000230: 92e8 8dbd cc39 963d 210a 59bd 65fc 97bd
00000240: 4eaf 3dbb 42e4 0abd ea62 65bc f9c0 433d
00000250: 5059 623c 06fa 063d 70e8 2b3c 6a4e c9bc
00000260: 7732 7e3c 6b78 aebd 2703 08be 3a05 b3bd
00000270: 5c7b 0f3d 5111 f23d 056a bc3d b2c7 a03d
00000280: a928 e53d 9d72 a73d 8243 b3bc 2cd8 85bd
00000290: bd06 8fbd 3521 a3bd c8a2 54bc b3c6 78bd
000002a0: 24c3 9cbd b25b c13c 0982 b1bc 7423 9c3d
000002b0: 12ed 2a3b d2e5 7a3d 0e67 7bbd 7f86 e7bb
000002c0: 668e d63b 9957 04bd 8cd0 2dbd bb3e 8bbd
000002d0: 5190 b33c 451c 13bd ab9a 2dbc ba7b d43c
000002e0: 9c9b 8b3c 99ef 4f3c 0998 a33c 0134 07be
000002f0: c7a9 b8bc 4824 283e 829d 333e 7495 183e
00000300: e820 de3d e91e d53b f6ce cd3d 26b3 303d
00000310: 4ccb c33c 6053 113d e272 4b3c 2221 043d
00000320: e8fb 13bc 0e92 79bd 668c a73d 4170 2ebd
00000330: 3bcc d13c efa6 e13c 0c0b 893a 5129 c5bd
00000340: 260b 5e3d 0c81 f1bc 3581 5fbd 6db9 0ebe
00000350: 4b08 8fbd a3e4 adbd e9c7 59bc 904d 0fbd
00000360: 40dd 3ebd 4336 dbbc 9ff2 0bbd 2d30 c5bc
00000370: d3b6 95bd c695 083d fa78 12bd 1bd3 403d
00000380: 0c81 33bd 2799 0d3e 42b6 5f3d 7996 153e
00000390: c3d2 c7bc 391e fc3c 1268 31bd c72e 3bbc
000003a0: 4045 8bbc fd37 003d 872a d63d ce44 aabb
000003b0: d9c7 e13d 6b3f e1bd 1d02 ffbc c008 ab3b
000003c0: c313 2bbc 226a a73d 0fa4 883d b53b e0bd
000003d0: 02f5 583a 836e 7dbd cb86 993d c599 ea3c
000003e0: f160 0c3d 0203 fe3a dfd3 0f3d 7830 2d3c
000003f0: ae71 263d db70 e1bc 938f 7c3a 3b11 b3bc

conv4.bias f4 [64]
-0.044382587 -0.024627078 0.07062927 0.04437816 0.027178135 0.091134794 -0.029205084 -0.04807231
-0.017654663 -0.11459271 -0.03301241 0.0663387 0.016523067 0.001908153 0.06305281 0.03692792
-0.009294011 0.03381769 -0.07771495 0.019161632 0.0025940165 -0.020250421 -0.010129552 0.044917107
-0.011743256 -0.020921491 0.017702907 -0.06440669 -0.13343404 0.049554404 0.07229098 0.0336961
-0.022165757 -0.056754533 0.06128722 0.029345049 0.050421443 -0.034612328 -0.007761208 0.061793152
0.035996154 0.02879941 -0.0698408 -0.018972086 -0.026772616 -0.09717697 0.00786785 -0.032246914
0.052651204 -0.014217674 0.0025512616 -0.045867775 0.014277312 0.11102914 0.043708794 -0.030718494
-0.033006974 -0.05015252 0.061266147 0.00044193806 -0.014323836 0.062037244 0.005223079 -0.043715656
00000000: 84ca 35bd babe c9bc 14a6 903d e0c5 353d
00000010: aea4 de3c e1a4 ba3d 803f efbc 78e7 44bd
00000020: 83a0 90bc 95af eabd 0538 07bd 96dc 873d
00000030: 625b 873c fd1a fa3a d521 813d bb41 173d
00000040: e845 18bc 6b84 0a3d 0429 9fbd dbf8 9c3c
00000050: 6000 2a3b 36e4 a5bc 6cf6 25bc 00fb 373d
00000060: c966 40bc 8c63 abbc b005 913c a8e7 83bd
00000070: efa2 08be 8ff9 4a3d 4b0d 943d ec04 0a3d
00000080: f694 b5bc 7177 68bd 4f08 7b3d 0765 f03c
00000090: b786 4e3d a8c5 0dbd bb51 febb d11a 7d3d
000000a0: b470 133d beec eb3c b108 8fbd 596b 9bbc
000000b0: 3f52 dbbc b804 c7bd 28e8 003c 5715 04bd
000000c0: caa8 573d 3ff1 68bc 1133 273b d9df 3bbd
000000d0: 63eb 693c 3f63 e33d fe07 333d 5aa5 fbbc
000000e0: 5232 07bd bb6c 4dbd 36f2 7a3d ecb3 e739
000000f0: 86ae 6abc c41a 7e3d 5d26 ab3b 300f 33bd

bn4.weight f4 [64]
1.3483893 1.4854656 1.4879051 1.4415336 1.3837212 1.2971742 1.504521 1.4927776
1.363672 1.5158026 1.4446785 1.4105551 1.3915085 1.4213203 1.4326963 1.3600891
1.3805734 1.467921 1.4783852 1.4458084 1.3900381 1.5284505 1.4197805 1.4535712
1.4066868 1.4019982 1.4749393 1.460313 1.4781177 1.551626 1.4127716 1.3748353
1.527522 1.4408809 1.4542823 1.4320964 1.3571565 1.4667436 1.3865919 1.4979944
1.4801539 1.4021643 1.410471 1.4660356 1.4336945 1.4050965 1.462093 1.368511
1.4068015 1.3876908 1.4544106 1.5161805 1.4467912 1.4090972 1.5131912 1.3154217
1.3675473 1.4278244 1.4672208 1.4618659 1.4598969 1.5190169 1.4431342 1.5259724
00000000: 0598 ac3f bd23 be3f ad73 be3f 2c84 b83f
00000010: c71d b13f ce09 a63f 2594 c03f 5613 bf3f
00000020: ce8c ae3f d205 c23f 3aeb b83f 128d b43f
00000030: f31c b23f d3ed b53f 9862 b73f 6617 ae3f
00000040: a1b6 b03f d6e4 bb3f ba3b bd3f 4010 b93f
00000050: c5ec b13f 44a4 c33f 5ebb b53f 9f0e ba3f
00000060: 500e b43f ad74 b33f d0ca bc3f 89eb ba3f
00000070: f632 bd3f ae9b c63f b3d5 b43f 9afa af3f
00000080: d785 c33f c96e b83f ec25 ba3f ef4e b73f
00000090: 4eb7 ad3f 41be bb3f d87b b13f 48be bf3f
000000a0: af75 bd3f 1f7a b33f 508a b43f 0ea7 bb3f
000000b0: 4d83 b73f 34da b33f dd25 bb3f 5e2b af3f
000000c0: 1212 b43f da9f b13f 202a ba3f 3412 c23f
000000d0: 7430 b93f 4c5d b43f 40b0 c13f bd5f a83f
000000e0: ca0b af3f f3c2 b63f e4cd bb3f 6c1e bb3f
000000f0: e7dd ba3f 256f c23f 9fb8 b83f 1053 c33f

bn4.bias f4 [64]
0.056275133 0.22997034 0.14172435 0.14007227 0.16775827 0.18005066 0.1356914 0.21738802
0.1419228 0.13661349 0.14862941 0.18101275 0.15504442 0.10113793 0.13946173 0.23011519
0.066047415 0.14383079 0.09369294 0.20801862 0.13056669 0.260794 0.19335172 0.25224677
0.18465984 0.106755495 0.15286967 0.12349442 0.12980676 0.2621808 0.25242296 0.12594537
0.2006654 0.151721 0.15651007 0.13303863 0.1031555 0.13837524 0.04875653 0.22315189
0.15014963 0.119037494 0.1201898 0.098428465 0.25102067 0.11167843 0.25423905 0.183804
0.15125562 0.10041774 0.19896366 0.1800902 0.21626185 0.22496061 0.20881335 0.057381164
0.11904015 0.14117388 0.19233872 0.1537477 0.107983656 0.23450357 0.22618759 0.19979429
00000000: c180 663d 587d 6b3e 3020 113e 1b6f 0f3e
00000010: d3c8 2b3e 335f 383e b0f2 0a3e f79a 5e3e
00000020: 3654 113e 68e4 0b3e 4f32 183e 685b 393e
00000030: f7c3 1e3e 6721 cf3d 0ecf 0e3e 51a3 6b3e
00000040: de43 873d 6148 133e 16e2 bf3d d502 553e
00000050: 46b3 053e cb86 853e fefd 453e 7d26 813e
00000060: 7817 3d3e a0a2 da3d de89 1c3e a4ea fc3d
00000070: 10ec 043e 903c 863e 953d 813e d3f7 003e
00000080: 3b7b 4d3e c05c 1b3e 2d44 203e 473b 083e
00000090: 3143 d33d 3db2 0d3e edb4 473d ee81 643e
000000a0: d3c0 193e eec9 f33d 1226 f63d dd94 c93d
000000b0: c885 803e a9b7 e43d 9f2b 823e 1e37 3c3e
000000c0: c1e2 1a3e d1a7 cd3d 21bd 4b3e 9169 383e
000000d0: bf73 5d3e 135c 663e 2bd3 553e 8308 6b3d
000000e0: 52cb f33d e38f 103e 71f4 443e 0970 1d3e
000000f0: 8926 dd3d b421 703e b89d 673e e096 4c3e

bn4.running_mean f4 [64]
0.56258696 -0.10019714 -0.22431411 0.31622392 0.46034396 -0.82861584 0.7806219 0.034740787
0.36780146 1.0078138 -0.048170824 0.19968715 -0.05017512 0.19872944 -0.17730325 -1.3211358
0.78168404 0.8684405 0.07167256 -0.18917468 0.46470705 -0.7517717 -0.52148235 -0.49556863
-0.10987574 0.14722557 -0.19429065 0.5765521 0.5886607 -0.84775656 -0.71908367 -0.031724617
0.26623327 0.8452378 -0.05527151 0.6298127 0.017423151 0.39656493 0.9421525 -0.6209297
0.71193343 0.28202403 0.2787567 0.29737163 -0.97328407 0.3420779 -0.22434129 -1.0021776
0.11778709 0.35072416 0.40219438 0.20326841 -0.3619513 -0.12813382 0.5813882 0.18633255
-0.3546158 0.39811936 0.52951336 0.17555983 0.93890154 -0.79406327 -0.33428225 0.4079165
00000000: b305 103f 2834 cdbd 99b2 65be 1ae8 a13e
00000010: 34b2 eb3e 2b20 54bf d6d6 473f 5b4c 0e3d
00000020: 7950 bc3e 0b00 813f c54e 45bd ca7a 4c3e
00000030: 6d84 4dbd bb7f 4b3e fc8e 35be fa1a a9bf
00000040: 721c 483f 1e52 5e3f 10c9 923d 02b7 41be
00000050: 15ee ed3e 1c74 40bf de7f 05bf 2cbb fdbe
00000060: 8806 e1bd 4dc2 163e 21f4 46be eb98 133f
00000070: 78b2 163f 9306 59bf de15 38bf acf1 01bd
00000080: ba4f 883e 8161 583f 6164 62bd 683b 213f
00000090: ffba 8e3c 8f0a cb3e e830 713f 40f5 1ebf
000000a0: 4541 363f 7465 903e 33b9 8e3e 1841 983e
000000b0: 2529 79bf d624 af3e b9b9 65be 5b47 80bf
000000c0: 5c3a f13d 1e92 b33e 6cec cd3e 9825 503e
000000d0: ae51 b9be 8335 03be dbd5 143f f6cd 3e3e
000000e0: 3490 b5be 4dd6 cb3e 308e 073f f5c5 333e
000000f0: da5b 703f bb47 4bbf 0b27 abbe 6eda d03e

bn4.running_var f4 [64]
0.17251293 0.25337547 0.16982554 0.17553128 0.18887311 0.20636019 0.21466187 0.1604266
0.21323471 0.2731921 0.1957055 0.16352797 0.1897931 0.21386968 0.21082982 0.24048787
0.16917972 0.25719833 0.18200114 0.18660931 0.18309145 0.17982717 0.17533585 0.21654312
0.18980247 0.19996308 0.15909195 0.22365032 0.27594 0.22308734 0.2190468 0.22071151
0.20856012 0.23649256 0.1805161 0.21037985 0.19444923 0.22128983 0.20687519 0.18438527
0.2971656 0.20326877 0.1895533 0.22386572 0.23436107 0.22081362 0.21233617 0.23182838
0.1978964 0.1596465 0.1484171 0.183818 0.20134468 0.18303336 0.27617192 0.21474971
0.16305755 0.21598083 0.17056313 0.2603603 0.20598115 0.23541819 0.19330737 0.21792568
00000000: 3ba7 303e 6eba 813e bfe6 2d3e 79be 333e
00000010: f467 413e 1650 533e 52d0 5b3e df46 243e
00000020: 335a 5a3e d6df 8b3e 0667 483e e073 273e
00000030: 1f59 423e a700 5b3e c6e3 573e 7442 763e
00000040: 733d 2d3e 80af 833e 825e 3a3e 8316 3f3e
00000050: 537c 3b3e 9d24 383e 3e8b 333e 7bbd 5d3e
00000060: 945b 423e 1fc3 4c3e 00e9 223e 9704 653e
00000070: 0248 8d3e 0271 643e ce4d 603e 3302 623e
00000080: c990 553e 1b2b 723e 36d9 383e d16d 573e
00000090: b31d 473e cd99 623e 17d7 533e 7ecf 3c3e
000000a0: 1726 983e b025 503e 431a 423e 0e3d 653e
000000b0: 59fc 6f3e f71c 623e a76e 593e 6b64 6d3e
000000c0: 5ba5 4a3e 5f7a 233e a7fa 173e c93a 3c3e
000000d0: 4d2d 4e3e 196d 3b3e 6866 8d3e 59e7 5b3e
000000e0: 8ff8 263e 142a 5d3e 1aa8 2e3e f24d 853e
000000f0: b9ec 523e 7711 713e 5ef2 453e e927 5f3e
