trys/pato.ckpt (torch, 23914 bytes, 14 tensors)

enc_conv1.weight f4 [32, 1, 3]
000000 74 2a 83 bd 41 da 07 3c ed e0 e9 3e 7f 70 e3 3c
       -0.06404582 0.008291782 0.45679417 0.027763603
000010 2b 03 3a be c7 02 06 3e 7b 47 9e be ac 6e 13 be
       -0.18165271 0.13086997 -0.3091391 -0.14397687
000020 5c 6e 5e bd 06 2f e0 3d de c0 05 bf 8e 81 ba 3e
       -0.054304466 0.10946469 -0.52247417 0.36426967
000030 14 96 5d 3e f5 01 c1 bd 7f 35 fa be 3a 52 81 3e
       0.21639282 -0.094242014 -0.4886894 0.25258046
000040 f5 1b 19 be 13 3d bb 3e f3 3b 74 bc 66 91 d4 be
       -0.14952071 0.36570033 -0.014906871 -0.4151718
000050 23 fa 05 bf 78 f9 ca be 89 0c 4e be 49 86 df be
       -0.52334803 -0.39643455 -0.2012197 -0.4365714
000060 7c bf 7b 3e 17 f0 96 3e 30 87 14 be c6 ab 34 3d
       0.24584764 0.2948005 -0.14504695 0.04410913
000070 ef c6 05 3d 03 2f f6 3e d4 21 91 be aa 46 07 be
       0.03266042 0.48082742 -0.2834612 -0.1321055
000080 62 53 02 be 93 a1 ac 3e d6 0d 4f be 7e b3 f1 3c
       -0.1272712 0.3371702 -0.20220122 0.029504534
000090 61 0d 89 3e 61 59 06 be 9b ff ac 3e 62 1d 2f 3e
       0.2676802 -0.13120033 0.33788761 0.17101052
0000a0 af 4b 03 3f c8 45 af 3c 89 48 f1 3e 53 c9 89 be
       0.5128736 0.021395579 0.47125652 -0.2691141
0000b0 25 aa fd be d1 40 eb be b7 f4 4f bd a1 eb 52 be
       -0.49543872 -0.45947888 -0.050770488 -0.20597698
0000c0 4a 4a 67 3e ae f9 96 3e 74 60 1c 3e a2 4c 30 3e
       0.22586933 0.29487365 0.15271169 0.17216733
0000d0 ca f4 e7 3e 8e 15 52 be e5 25 cb be 51 dc 20 3e
       0.45303947 -0.20516035 -0.3967735 0.15709044
0000e0 64 66 dc be 97 63 52 3e ba f1 91 bd 41 fa d9 be
       -0.43046868 0.20545803 -0.07126184 -0.4257374
0000f0 d9 54 ec 3d 0e 93 be be f4 8c ea 3a d0 35 da 3e
       0.11539621 -0.3722157 0.001789479 0.4261918
000100 b4 02 5d 3e 32 8a 51 bd b4 c2 bb 3e a6 24 83 be
       0.21583062 -0.051157184 0.36671984 -0.25613898
000110 86 fc a1 3e 97 8e d0 be 31 2c d5 be 88 a8 61 3e
       0.31637973 -0.40733787 -0.41635278 0.22036946
000120 16 c0 28 3c 8e 97 ee 3e 9b a8 f6 be d4 bb 1c be
       0.010299703 0.46600002 -0.4817551 -0.15306026
000130 08 89 68 3e 75 f7 de 3d aa 5d da be b5 67 0f bf
       0.22708523 0.108870424 -0.42649585 -0.5601762
000140 86 88 c0 be d5 37 56 be e0 fd cb be 59 44 64 be
       -0.3760416 -0.20919736 -0.3984213 -0.22291698
000150 a2 b8 0e 3f 4c 0d 96 3e 86 a8 bb be f1 8a da bd
       0.5575048 0.2930702 -0.3665201 -0.10671032
000160 e9 1d 05 bf 2f 85 39 bc 36 ba 01 3f 7a 73 08 bf
       -0.51998764 -0.011323257 0.5067476 -0.53301203
000170 59 a0 2c 3d fe 8b 73 3d 13 92 d0 3e 94 ce 76 3e
       0.042145107 0.05945968 0.40736446 0.24102241

enc_conv1.bias f4 [32]
000000 a5 07 d7 bd 81 7c 50 be ea 3f fb 3d c8 b5 89 3d
       -0.10499505 -0.20359994 0.1226805 0.06724125
000010 f1 9d 03 3f 3d 25 d0 be a2 04 be be d8 d3 13 3f
       0.51412874 -0.4065341 -0.3711291 0.5774512
000020 9b 4f 0b bf 38 df 5c 3e 83 8e f5 3d 62 10 df be
       -0.54418343 0.21569526 0.119900726 -0.43567187
000030 98 84 41 3e 9b 4e f3 3c 71 64 0c 3f 2e 14 ee be
       0.18898237 0.029700568 0.5484076 -0.4649977
000040 73 e6 ec 3e 04 64 db be ff 8f b1 3e 3a 37 4b 3e
       0.4626957 -0.42849743 0.34680173 0.19845286
000050 c5 21 de be 1e 30 d6 3e 8c 0b df 3d 74 61 7a be
       -0.4338514 0.41833586 0.10890874 -0.24451238
000060 f0 da 13 bf 17 25 aa be dc b3 75 bd 35 a5 f6 be
       -0.5775595 -0.33231422 -0.05998598 -0.48172918
000070 ae d8 05 bf 23 1f 0f 3f ab ac 65 bd 19 98 4a 3e
       -0.5228375 0.55906886 -0.056072872 0.19784583

enc_conv2.weight f4 [16, 32, 3]
000000 a7 02 95 3d e2 16 c7 3d 3d be 5a bc 32 8d b5 3d
       0.072758965 0.097211614 -0.01335102 0.088648215
000010 f0 79 75 3d 34 0b 41 bd 54 79 ce 3d 22 f9 9b 3d
       0.05993074 -0.047129825 0.10081735 0.07615878
000020 fd 89 e4 bd 1a a2 2a 3d 74 26 95 bb b4 55 aa bd
       -0.11159132 0.0416585 -0.004551703 -0.08317128
000030 68 c6 1e 3d cf 3c 9e bd 6c d6 2b bb 22 1a 52 bd
       0.038763434 -0.07726442 -0.0026220335 -0.051294453
000040 7d 09 0b bc 99 df 0b 3d 21 ac 97 bd ef f6 96 3d
       -0.008486149 0.034148786 -0.07405878 0.073713176
000050 3e 58 b3 bd 2e b4 d6 3c 02 8d 92 3d 0c 52 88 bd
       -0.08757065 0.026208963 0.07155801 -0.06656274
000060 67 c8 90 3d 52 bf c0 bd cd 23 e2 3c 45 f1 34 bd
       0.07069474 -0.094114915 0.027604962 -0.044175405
000070 9c 54 7d bc b7 9d 83 3d b0 e1 ae 3c 4b bb a8 bc
       -0.015462067 0.06426566 0.02134785 -0.02059712
000080 b1 3c 9d 3d 21 fc 9f 3d db a8 7b bd 75 37 bb 3a
       0.076775916 0.07811762 -0.06144033 0.0014283495
000090 ef e4 56 3d 27 03 63 bd a2 48 82 3c 39 60 99 bd
       0.05246442 -0.05542293 0.015903775 -0.07489056
0000a0 6a ec e5 3d e5 a1 af 3d ef 5d f4 3c b4 a6 1f 3d
       0.11226733 0.08575801 0.029829947 0.03897734
0000b0 4c 07 bc bd a9 ef 78 bd e9 50 67 bc 45 f4 93 3d
       -0.09181079 -0.060775433 -0.014118412 0.07224325
0000c0 bf b9 77 bd 81 cd 66 bd a4 f6 e7 3c 25 62 b5 3b
       -0.060479876 -0.056348328 0.02831585 0.0055353814
0000d0 e0 7e 92 3d a5 f8 ac bc 49 c3 c4 bd 31 5c c5 bb
       0.07153106 -0.021114657 -0.0960756 -0.006022953
0000e0 f6 c7 bd bd 07 26 7a 3d 9d d0 fb 3c 3a a5 1e 3a
       -0.09266655 0.061071422 0.030739123 0.00060518424
0000f0 0b 61 5d 3d dc d7 87 bd 3d a4 88 3d 99 45 9a 3d
       0.054047626 -0.06632969 0.06671951 0.07532806
000100 80 39 26 bc d8 aa 00 3e 84 04 66 3d a7 8f e3 3d
       -0.010145545 0.12565172 0.05615665 0.11111384
000110 82 0f 12 3d c4 bf ac 3c ec bd ae 3c bb 97 86 bc
       0.03565932 0.021087535 0.021330796 -0.016429773
000120 a1 ba 0c bd 66 37 a2 bd f1 d4 31 bd 1a 37 ad bc
       -0.03435767 -0.07920723 -0.043415967 -0.021144439
000130 eb fb 70 3d ed 6d 64 3d 8b c9 f8 ba 58 a5 e9 bd
       0.058833998 0.055768896 -0.0018980963 -0.1140849
000140 31 87 30 bc b9 d9 9d 3d e8 11 68 bd 57 3a b2 bd
       -0.01077442 0.07707543 -0.0566577 -0.08702534
000150 9e c8 85 bc 0b dd 8d 3d d9 c2 36 bd f6 80 b7 bd
       -0.016331013 0.06926926 -0.044619415 -0.08960144
000160 b2 6e 93 3d 53 9e 65 3d 69 e9 c5 bd db c9 6b bd
       0.07198848 0.056059193 -0.0966366 -0.05756555
000170 90 f3 10 3b 7e 9f 80 bd 05 56 2e bd 34 b0 ab 3b
       0.002211783 -0.06280421 -0.042562503 0.005239511
000180 f2 b3 29 3d e7 4c 61 bd ae f6 b0 3d 74 cc 86 3d
       0.041431375 -0.05500498 0.086408004 0.06581965
000190 90 5f 54 3d 02 d2 15 bc 70 0d d1 bc 0b 1f c0 3c
       0.051848948 -0.009144308 -0.025519103 0.023452302
0001a0 35 db c7 bd 8d ee 5c bd 71 2d bb bd 3f 53 15 bd
       -0.09758607 -0.053938437 -0.09139527 -0.036456343
0001b0 77 f8 ea bd 14 29 89 3c 4a 3b c0 bc 71 3b b9 bc
       -0.11473172 0.01674322 -0.023465771 -0.022611352
0001c0 df c3 09 3e 0e f9 75 3d 53 a3 37 3d 8a 07 5e bd
       0.13453625 0.06005197 0.044833492 -0.05420641
0001d0 7e 2d 81 bd c1 5b 5c 3d 06 d2 f9 bd d0 61 e7 bd
       -0.06307505 0.05379844 -0.12198262 -0.11297953
0001e0 e3 58 81 3c 71 7c 6e bd 48 49 00 3e 80 50 8b bd
       0.015789455 -0.058224145 0.12527955 -0.068024635
0001f0 59 20 e1 bd 00 4e a4 bb c6 bd 6c 3d 22 b4 5d 3b
       -0.10992498 -0.005014181 0.05779817 0.0033829291
000200 11 8d 4d 3d a5 a3 17 bd 9f ba aa bc a6 35 e9 3d
       0.05018336 -0.037021298 -0.020840941 0.11387186
000210 31 d0 08 3d 8c b6 14 3c 8e b6 32 3d 6e 77 16 bd
       0.03340167 0.009076726 0.04363113 -0.03673499
000220 94 b9 86 3d 6c 80 cb 3d 39 3d 27 3c 7c 5a 81 bd
       0.06578365 0.09936604 0.010207468 -0.06316087
000230 fe 2f 18 be 45 3e da ba c5 a8 29 3d aa c4 62 3c
       -0.14862058 -0.0016650638 0.041420717 0.013840834
000240 b0 9b dd bc 54 b7 dd 3c f1 2d 4a bd c0 df 16 bd
       -0.027051777 0.027064957 -0.04936022 -0.03683448
000250 b2 54 a1 bc 4b bb 81 3d 5e f0 87 3d 12 05 a5 bd
       -0.019693706 0.063345514 0.06637643 -0.08057608
000260 53 13 89 bd fa bd 47 bd 73 55 69 bd dc 29 d1 bd
       -0.06693139 -0.04876516 -0.056966256 -0.10213062
000270 ff 33 2d 3d b4 39 d8 3d 91 b9 88 3d b0 26 47 bd
       0.042285915 0.10557881 0.06676019 -0.04862088
000280 d9 40 48 3d 77 cb 2f bd af 39 8e 3c a3 0b 82 3c
       0.04888997 -0.04291865 0.01736149 0.01587469
000290 7c 58 11 3d 75 b8 62 bb 0f 66 55 bd 8d 48 3a bd
       0.035484776 -0.0034594808 -0.052099284 -0.045479346
0002a0 5c f8 d6 3d 11 4c a5 bc 74 43 76 bd 34 83 db 3c
       0.104965895 -0.020177873 -0.060122922 0.026795961
0002b0 32 2e 87 3c a0 8a ac 3d 23 cc b4 bd 9a f7 f8 3d
       0.01650152 0.08424878 -0.088279985 0.12156601
0002c0 1e 72 32 3d 8a 64 c5 3d 87 bc e0 3c 62 4e a1 bd
       0.043565862 0.09638317 0.027433647 -0.078762785
0002d0 a5 f3 83 bc 56 7f a7 3d e0 e4 cb 3d 35 e6 50 bc
       -0.01610739 0.08178584 0.09955764 -0.012750198
0002e0 6d 5a b7 3c c1 29 86 bd 3e fd 98 3d 4b af 1c 3d
       0.022381986 -0.06550933 0.07470177 0.03825311
0002f0 7a cc 1f 3d a0 67 30 3d 71 38 c0 3a cc a6 1e bd
       0.039013363 0.043067575 0.0014665258 -0.03873329
000300 00 c8 41 bb 50 f7 02 3d ef 34 99 bd 9f 80 0b 3d
       -0.0029568672 0.031974137 -0.074807994 0.03405821
000310 50 69 35 bd 8a 48 46 bd ce d2 ff 3c 58 d3 b1 3d
       -0.044289887 -0.048409022 0.03122845 0.08682889
000320 f2 d4 3b bd 0f ad 71 3d f5 6a 17 3d f8 41 89 3d
       -0.045857377 0.059002932 0.036967237 0.06702036
000330 62 4a 5a 3d ba 06 92 bc 05 5e b0 3d 31 0b 5d bc
       0.053293593 -0.017825473 0.08611683 -0.013491438
000340 18 52 4c bd 83 2c 0d bd 83 d0 f0 bd 65 77 b7 bd
       -0.04988298 -0.034466278 -0.117585205 -0.089583196
000350 8a d9 21 bd dc 23 d4 bb 19 d9 a3 3c 5b d4 c7 3c
       -0.039514102 -0.0064740013 0.020000981 0.024393251
000360 61 28 26 3c 52 92 81 bd e8 09 a1 bd 47 3b 8f 3d
       0.010141463 -0.063267365 -0.078632176 0.06993728
000370 ae 17 28 3d 3a 59 6c 3d c0 a7 29 3d 8f 76 10 3d
       0.041038208 0.05770228 0.041419744 0.035269316
000380 0f 55 27 3d 90 6c 20 3d a5 38 ef 3b 45 a7 81 3d
       0.040852603 0.039166033 0.0073004537 0.06330732
000390 5d fa 75 3c a0 0e a5 bd 9f 6e a6 bd 97 a8 95 3e
       0.015013305 -0.0805943 -0.08126568 0.29230186
0003a0 ca 74 25 3e bc 98 c9 3c 82 82 7f 3d 21 43 95 bd
       0.16157833 0.024608962 0.06238032 -0.072881944
0003b0 71 b9 7a bd 6e 4a 60 3b 58 fd 49 3d 18 a4 c3 3d
       -0.061212007 0.003422405 0.049313873 0.09552783
0003c0 c3 30 c2 bc 01 0c 58 bd 16 14 75 3d 69 3c 7e 3d
       -0.023704892 -0.052745823 0.05983361 0.06206933
0003d0 41 05 82 bc f1 d8 48 3d 16 90 f5 bc ea e0 48 bd
       -0.015871646 0.049035016 -0.029975932 -0.04904262
0003e0 57 36 c5 3d fd fd 67 bd fe 1d 39 bd 96 d2 90 3d
       0.09629505 -0.056638706 -0.04519462 0.07071416
0003f0 42 6a ab bc 66 18 5f bd 63 c6 9c bd ea 0e 12 3d
       -0.020924691 -0.054466628 -0.07655027 0.035658754

enc_conv2.bias f4 [16]
000000 27 15 32 bc f8 a7 0b bd eb f4 91 3c 5e f1 92 bd
       -0.010869301 -0.034095734 0.017816981 -0.071749434
000010 46 39 ca b9 27 5d 57 bc 5b 9a 67 bd 9f 54 b2 3d
       -0.00038571114 -0.013144768 -0.05654369 0.087075464
000020 fb 24 88 3d 2b 98 b2 3d 50 2d ef bd 17 45 e8 bd
       0.066476785 0.0872043 -0.116785645 -0.11341303
000030 40 47 2e bd 33 62 42 bd 9a 86 90 bd ee 2c 2a bd
       -0.042548418 -0.04745693 -0.07056923 -0.041546755

enc_conv3.weight f4 [8, 16, 2]
000000 5a da 90 bd 29 85 21 3d f6 8d e1 3d f8 61 f9 bc
       -0.07072897 0.039433632 0.11013405 -0.030442223
000010 70 a4 29 3e f4 0e 1b bd a6 f7 50 be 4f 9b f2 bd
       0.16566634 -0.037856057 -0.2040697 -0.11846029
000020 cf e7 a0 bd 8b 15 16 be 79 4e a2 bb de 2c 20 3e
       -0.07856714 -0.14656655 -0.0049532023 0.15642115
000030 46 53 3c bd 5f e3 0f be 02 d6 38 be 82 10 9c 3d
       -0.045977853 -0.14051579 -0.18050388 0.07620336
000040 54 ea 83 3b b5 b5 2e 3e 64 e2 9c bc 30 ac 22 be
       0.004025737 0.17061503 -0.01915092 -0.15885997
000050 b3 06 aa bd 33 e3 e3 3d e9 12 71 3c d9 f4 22 be
       -0.08302059 0.11127319 0.014713981 -0.15913714
000060 a0 60 6c bd 06 2b f1 3d c8 80 e2 3c 2a 4b 4d 3c
       -0.057709336 0.11775784 0.027649298 0.012530128
000070 f8 ae 0d be 5d 70 0b 3e 2c ea c8 bd ca b0 1a be
       -0.13836277 0.13617082 -0.0981029 -0.15106502
000080 ea 95 26 be 0a 86 c0 3d ec 1d 92 3c 98 84 e3 3d
       -0.16268125 0.09400566 0.017836533 0.111092746
000090 04 26 66 3e 30 2f 99 3d 87 71 3c bd 4c ce 22 3c
       0.2247544 0.074797034 -0.046006706 0.00993688
0000a0 3c 53 2a 3d ec 59 e2 bd ef eb 1e bc 4b 39 0a 3e
       0.041583285 -0.110523075 -0.009699806 0.13498418
0000b0 46 d1 89 be 91 7b 4c be 89 59 65 be fd 96 c0 bd
       -0.26917475 -0.19969012 -0.22397436 -0.09403799
0000c0 6c 0b ba 3c a4 f7 32 3e 63 7a 1a be da 20 8f be
       0.022710524 0.1747728 -0.1508575 -0.2795475
0000d0 96 4d 94 3c 24 a5 f4 bc aa 2d a8 3d 7f 6e f2 bd
       0.018103402 -0.029863901 0.08211835 -0.11837482
0000e0 6f 88 d0 bd 7e 34 84 bd 26 03 aa bd ad c2 2d 3e
       -0.10182273 -0.064553246 -0.08301382 0.16968794
0000f0 29 f3 2d 3e 6a 3f 5c 3e de 56 2d bb c0 b8 a1 bd
       0.1698729 0.21508566 -0.0026449482 -0.078965664
000100 db e6 78 3d b8 77 03 be b9 af be bd 60 0e b1 bd
       0.060767036 -0.12838638 -0.0931086 -0.0864532
000110 20 ce 17 be 4c 26 db 3c dd ac 04 bc 68 d7 e4 bd
       -0.14824724 0.02675166 -0.008097854 -0.11173898
000120 3a e5 05 3e 3c 3d 7e 3d 60 ce db 3d 50 d2 fc 3d
       0.13075724 0.062070116 0.10732722 0.123448014
000130 8e b1 23 3c 11 99 d2 bd aa 2f 06 be 86 f3 2c be
       0.009991063 -0.10283101 -0.1310412 -0.16889772
000140 e6 bf a3 3b 75 51 fc bd dc 06 ef bd 48 48 a2 3d
       0.0049972413 -0.12320224 -0.1167123 0.07923943
000150 ed 1b 84 bc 90 df 3e 3e df 92 10 3e 1d a9 2a 3e
       -0.016126597 0.1863997 0.14118527 0.16666074
000160 ad 6b 92 3d 4b ce fc 3d cb f2 52 bc 55 a1 31 3b
       0.07149444 0.12344035 -0.012875269 0.0027104218
000170 21 32 ed 3d b9 29 28 be 55 c2 22 be ca 8a 10 bd
       0.11581827 -0.16422166 -0.15894444 -0.03528861
000180 0e 6c d3 3d fd 45 27 bd e4 e8 06 3d fd 8a 7a be
       0.10323344 -0.04083823 0.032936946 -0.24467082
000190 23 14 1d be cf ef ce 3d fc ec be bd c7 af b1 bd
       -0.15339713 0.101043336 -0.09322545 -0.08676105
0001a0 91 52 0e 3e ff 2c 98 bd e7 52 8a 3d e9 ae e6 3c
       0.13898684 -0.07430457 0.067540936 0.028159576
0001b0 05 35 c4 3d 79 f5 d2 bd 7d 78 ee bd b8 4e 83 bd
       0.09580425 -0.103007264 -0.11644075 -0.06411499
0001c0 0d 4d 14 be e4 f5 06 3e a4 3e 13 bb b3 64 57 bd
       -0.14482518 0.13179737 -0.0022467757 -0.05258627
0001d0 20 20 25 bd 7a 78 2e 3e a3 07 b1 bc 45 b3 97 3d
       -0.04031384 0.17038146 -0.021610087 0.0740724
0001e0 46 07 58 be ec a8 1e 3e 01 5e dd 3d 5c 3a 12 be
       -0.21096525 0.15494126 0.108089454 -0.14280075
0001f0 23 f4 53 be 04 be b7 3d ed 18 21 3e 34 97 ca bd
       -0.206986 0.089717895 0.15732165 -0.09892121
000200 07 8f 8c 3d 7b af bc 3d 18 8f 15 3e 59 85 4c 3e
       0.06863218 0.09213158 0.14605367 0.19972743
000210 e9 43 ad bd 0d a5 db 3d 09 f1 fe bb 8f 2a 8f 3e
       -0.084602185 0.1072484 -0.0077801985 0.27962157
000220 f7 30 11 3e 9e b2 7e bc 5d e5 9e ba 91 90 36 be
       0.14178835 -0.015545515 -0.0012122799 -0.17828585
000230 28 23 f3 bb c3 ed 67 3e 9d 21 05 be 6f 92 aa 3d
       -0.0074199624 0.22649293 -0.13001104 0.08328711
000240 64 bb a9 bd a4 c9 1a bd 79 93 04 3d fa c6 25 3b
       -0.08287695 -0.037789956 0.032367203 0.0025295601
000250 38 9f 1d be e0 dc 39 3d a8 b8 2a be 22 16 94 3d
       -0.15392768 0.04537666 -0.16672003 0.07230784
000260 4b 65 12 be 40 ce a0 bc 0c 2d 5e 3d e4 9f 1a be
       -0.14296453 -0.019629598 0.05424218 -0.15100056
000270 db e4 bb 3d 98 01 96 3c 5e 41 bb bc 99 b4 80 3d
       0.0917451 0.018311307 -0.022858318 0.06284446
000280 3e a9 04 be b8 a9 46 3e 7f 7d 47 3d ea 92 29 3d
       -0.12955186 0.1940068 0.048703667 0.041399874
000290 c1 df 17 3e c9 ec d4 3d f3 c1 9c bd d3 13 29 3e
       0.14831449 0.10396726 -0.076541804 0.16511469
0002a0 4b 93 2a bd 0a 2c 1c bd cb 9f 0c 3e a7 63 28 bd
       -0.041644376 -0.038127936 0.13732831 -0.04111066
0002b0 fa 90 26 be 02 ad 47 bc 3f fd 95 bd 28 24 7a bd
       -0.16266242 -0.012187244 -0.073236935 -0.061069638
0002c0 6a f0 1a 3e a8 be 0b be 30 71 85 bc 59 2e 25 3e
       0.15130773 -0.13646948 -0.016289324 0.16130961
0002d0 10 83 19 be 87 a7 11 be 2c 6b 39 3e 68 b7 03 3e
       -0.14991403 -0.14224063 0.18107289 0.12862933
0002e0 11 1e 8f 3c ef fe 3d 3e c9 cf 3e 3e c4 b0 a5 3d
       0.017470391 0.1855428 0.18633951 0.08090356
0002f0 4c d0 43 3e db 23 d4 3a c5 af 88 be 51 57 e1 bd
       0.19122428 0.0016185002 -0.26696602 -0.110029824
000300 51 3b e4 bd a7 55 59 bd 16 f5 f3 bd d9 09 16 be
       -0.11144126 -0.0530602 -0.11911981 -0.14652194
000310 27 31 08 3d 6a 4a 85 bd bf 03 1d bd 64 67 9e 3d
       0.03325 -0.06508334 -0.03833365 0.07734564
000320 42 e5 94 3d 05 0f b2 3d bb a8 d6 3c db 1a 73 3c
       0.0727029 0.08694271 0.026203504 0.014837946
000330 83 51 94 bc 73 3a e8 bd 5e ab ac bd 00 ac 2b be
       -0.018105274 -0.11339273 -0.08431123 -0.16764832
000340 14 4d 7f 3d ea c1 90 bd a3 12 aa bd 4f 65 8c 3d
       0.062329367 -0.07068236 -0.08304336 0.068552606
000350 cb 8c 1c 3c d7 37 16 be cf b1 f7 3d 42 90 9e 3d
       0.009555052 -0.14669739 0.12094461 0.07742359
000360 1f 3f 4b 3e 0c 13 4d 3b 1e de 26 3e 88 50 1c 3e
       0.19848298 0.003129187 0.16295668 0.15265095
000370 78 21 a9 3d ea c4 dd bc 60 f0 df bc 3e 82 b9 bd
       0.08258337 -0.027071435 -0.0273363 -0.09058045
000380 ad 31 3c be 79 7d 9d 3d c4 72 2e be b5 2b 47 be
       -0.18378325 0.07689948 -0.17035967 -0.19450267
000390 22 88 ec 3c 9d 56 85 bd 8c 56 d5 3b 2f dd 64 be
       0.028873507 -0.06510661 0.0065105613 -0.2235
0003a0 93 61 fa 3d a9 61 84 bd 98 24 2f 3e 97 df bd bd
       0.12225642 -0.0646394 0.17103803 -0.09271162
0003b0 79 fe 2e be bc 1b 47 bd 57 63 f5 bc 1f ca 2c be
       -0.17089261 -0.048610434 -0.029954595 -0.16873978
0003c0 6e 2c af bc af 68 13 3e 3a 71 d4 3d 56 26 56 be
       -0.02138349 0.14395402 0.10373159 -0.20913061
0003d0 af 02 9c 3d 7d 43 4e 3e 2d da de 3d 93 fc 95 bd
       0.07617699 0.20142932 0.108814575 -0.07323565
0003e0 38 b4 e4 bd 29 46 bd 3d 64 07 26 3d 5d 5f 33 bd
       -0.111671865 0.092418976 0.040534392 -0.043792117
0003f0 6a 13 9b bd 1b f9 1d bc 44 8f 88 bc ca 1d a5 3d
       -0.07572062 -0.009641911 -0.016669877 0.080623224

enc_conv3.bias f4 [8]
000000 0e 7d 01 3e 8d 1c 11 be 45 29 41 bd f0 df ed 3d
       0.12645361 -0.14171048 -0.0471585 0.11614978
000010 4f 77 8e 3d b3 e5 5d 3c b7 2c 0f 3e 6f 4c 24 3e
       0.0695635 0.013543534 0.13981901 0.16044782

enc_conv4.weight f4 [1, 8, 4]
000000 51 7f 26 3e 11 a0 aa 3e 07 58 ea bd a2 66 bf bc
       0.16259505 0.33325246 -0.11442571 -0.023364369
000010 56 06 86 be 30 12 07 3e ce 3c 37 be 62 99 80 3e
       -0.2617671 0.13190532 -0.17894289 0.25117022
000020 99 74 41 3e 98 d7 38 3e 6e 3d 6d bd b9 21 a4 bd
       0.18892135 0.18050992 -0.057919912 -0.080142446
000030 f1 29 66 3e 0e 26 a7 3d 7b ff 06 be e2 53 7b 3d
       0.22476937 0.08161555 -0.13183396 0.061359294
000040 44 a1 1f be 0b 03 a4 be 96 10 f6 ba e2 9d ac 3c
       -0.15588862 -0.32033572 -0.0018773254 0.021071378
000050 8d 79 8d bd b3 31 8f 3e a4 e2 42 3e 5c 9b f8 bd
       -0.069079496 0.27967605 0.19031769 -0.121390074
000060 47 a2 27 3e 20 a6 90 3e 07 12 6b 3d a4 f3 12 be
       0.16370498 0.28251743 0.05739024 -0.14350754
000070 de 74 fe 3d 00 32 6c 3e 4a 89 b8 bd 2b bc c4 bc
       0.124246344 0.23065948 -0.09010561 -0.024015507

dec_conv1.weight f4 [1, 8, 3]
000000 c5 96 83 3d 20 9a 74 3e 0e dc 9e be 2f de c0 3d
       0.064252414 0.23886919 -0.31027263 0.09417378
000010 dd 74 86 3e 89 62 22 be 7c 92 a4 3e 21 03 fc 3d
       0.26261035 -0.158579 0.3214301 0.12305284
000020 4b 05 90 3d bb 30 8f bd 2f 86 5e 3e 4b 1e 85 be
       0.070322596 -0.069917165 0.21730874 -0.25999674
000030 c0 58 b1 3e 55 a3 05 be 64 e9 24 bd 3e 96 fd bc
       0.34638023 -0.13050587 -0.04026164 -0.03095543
000040 ce 27 c4 3e 5e 27 5b 3e 70 47 ca 3e 4a 49 86 be
       0.3831162 0.21401736 0.39507627 -0.2622779
000050 68 cc ff 3d 04 93 a0 bd d5 5f b3 be f1 ed bb 3d
       0.12490159 -0.07840541 -0.35034052 0.09176243

dec_conv1.bias f4 [8]
000000 17 1c 1d bd 09 38 5d bd 73 f5 87 bd 03 78 2d be
       -0.038356867 -0.054008517 -0.066386126 -0.16940312
000010 7a 71 e4 bd 94 01 1f 3e a0 33 1a 3e 3f f4 cc bc
       -0.111544564 0.15527946 0.15058756 -0.02501881

dec_conv2.weight f4 [8, 16, 4]
000000 e6 c7 c3 3c c6 01 15 3e ac 21 d3 3c db 80 24 3d
       0.02389903 0.14551458 0.025772892 0.04016195
000010 ac af 1b 3e 11 45 22 3e 6b 7c 49 3d cd 81 7f bd
       0.15203732 0.15846659 0.04919092 -0.062379647
000020 e3 ca 35 3e 17 3e 86 bd b1 b1 1a 3d f8 4d e7 3b
       0.17753176 -0.065548114 0.037767116 0.007058855
000030 4e d2 f6 bd 53 36 90 3d 43 63 76 3d 5c 3f 60 3d
       -0.12051831 0.070416115 0.060153257 0.054747924
000040 dd 69 cf bd e6 b3 2b 3c d7 ad 56 3d cc 86 a8 bc
       -0.10127614 0.010479903 0.05241188 -0.020572089
000050 a0 36 e5 bd fc d0 8c 3e e1 69 88 3c a1 58 cb bd
       -0.111920595 0.27503192 0.01665205 -0.09929014
000060 fa f9 bc 3d 64 a3 0e be ab b7 b2 bd 2f 8c 2b 3c
       0.09227367 -0.13929516 -0.08726438 0.010470434
000070 a4 94 05 bc e8 25 8b bc 3d 56 0f 3e c5 6d 42 bd
       -0.0081531145 -0.016985849 0.13997741 -0.047467966
000080 65 7d 1b be 32 45 2e be 89 63 30 bd fb fb 56 bd
       -0.15184553 -0.17018583 -0.043063674 -0.0524864
000090 ac 5a 99 bc 3d 2d d3 3d fe f0 d3 3d b1 40 08 3e
       -0.018719994 0.10311363 0.103487 0.13305928
0000a0 0b ae ba 3d ef 12 1a 3d 4a 2a 0a bd c3 6e 7d 3d
       0.09115227 0.037615713 -0.033731736 0.06187321
0000b0 19 cb 93 3e 79 0b 44 3e 21 ea 2a 3d 3b 93 40 be
       0.2886589 0.19145001 0.04172719 -0.18806164
0000c0 b4 ee d8 3d e2 69 37 be 8c 9b 86 bd a1 9a 95 bd
       0.10592404 -0.17911485 -0.06572637 -0.07304884
0000d0 7c 01 53 bd 4f 34 01 bd ec 09 f4 3c 9f 0a 2e b9
       -0.051515087 -0.031544026 0.029789887 -0.0001659789
0000e0 25 8f 88 bd 89 65 b1 bd 2a 47 02 3d 63 43 05 3d
       -0.06667928 -0.086619444 0.03180615 0.032534968
0000f0 73 b9 13 3e 82 c9 67 3e dd e3 ee 3a 03 1f cd bd
       0.14426212 0.22635463 0.0018225868 -0.10015681
000100 10 34 71 bc 16 d9 38 3e 94 44 51 3c e8 c8 aa bb
       -0.014721885 0.18051562 0.012772698 -0.005211938
000110 59 c6 45 bd 2e db 21 bb 30 e7 bc 3b 72 07 14 be
       -0.048284862 -0.0024697292 0.0057648644 -0.14455965
000120 3c 36 02 3e fc 14 e1 3d 04 2e 8a 39 ad a7 3f bd
       0.12716001 0.109903306 0.00026355695 -0.046790767
000130 61 dc a7 3d 97 6c 51 3e c6 ca 1e 3e 98 2e 04 3e
       0.08196331 0.2045158 0.1550704 0.12908399
000140 57 23 03 bd 90 94 40 3e 35 23 2b 3e e2 4f 08 3c
       -0.032016125 0.18806672 0.16712649 0.008319827
000150 a4 49 73 3d 76 f2 8c 3e 23 c8 72 3d 44 38 45 3d
       0.0593964 0.27528733 0.059272896 0.048149362
000160 9c 8c 2d bd cb 90 92 bd 39 c1 05 be c8 8e 1b 3d
       -0.042370424 -0.07156523 -0.1306199 0.037977964
000170 d7 c7 95 bd 59 d9 1a 3e e0 3f 15 3b fa c9 8f bd
       -0.07313507 0.15121974 0.0022773668 -0.07020946
000180 20 dd 24 be 4b 92 23 be 51 d8 64 3d db a0 a0 3c
       -0.16099977 -0.15973775 0.055870358 0.019607952
000190 93 58 a0 3d 68 3e fb 3c 9b d2 c3 3d 54 65 9e 3d
       0.07829394 0.030669406 0.09561654 0.077341706
0001a0 25 a4 fb 3b a5 c0 13 3e c7 24 bc 3d 1a ea 3b 3d
       0.0076794797 0.14428957 0.09186702 0.045877554
0001b0 60 70 d9 3d e5 e3 79 3e 78 a9 0f bd d6 ed 49 3d
       0.10617137 0.24403341 -0.035073727 0.049299084
0001c0 f2 f2 37 be 9c d6 cf bd e6 dd b7 bd ff 6d c5 3d
       -0.1796377 -0.10148355 -0.08977871 0.09640121
0001d0 25 55 d6 bc 05 e4 15 3d 20 92 41 bc f2 46 0a bd
       -0.026163647 0.03659441 -0.011814624 -0.033759065
0001e0 e7 8b 22 be 0c 91 0a be 5b bf 37 3c 49 9b 63 bc
       -0.15873681 -0.13531893 0.011215056 -0.013892003
0001f0 68 01 11 3e cc 1b 77 3e 3b c6 2d 3e 79 c4 b2 bd
       0.14160693 0.24131697 0.1697015 -0.087288804
000200 52 42 05 3c 91 bf c0 3d 5c a4 df 3c ad de 8b 3d
       0.008133488 0.094115384 0.027300052 0.068295814
000210 8b 0a 15 3d 26 c4 ed 3d 29 b6 87 bc 7f 91 a2 bd
       0.036387008 0.11609678 -0.016566353 -0.079379074
000220 09 b6 1c 3e 15 d2 56 3c 58 ce cc bd 0f f4 ad bd
       0.15303816 0.013111611 -0.100002944 -0.08493816
000230 e5 65 0c 3e 65 d7 29 3e ba 12 6a 3e e1 45 bd 3d
       0.13710745 0.16586073 0.22858706 0.09241844
000240 ab 2d 46 bd 07 f0 fc 3d 19 e8 29 3e 48 4a 29 3b
       -0.048383396 0.12350469 0.16592444 0.0025831629
000250 86 f0 16 3e 22 20 d8 3d 5f f0 74 3d e2 db 62 3e
       0.1474019 0.10553004 0.05979955 0.22154191
000260 be a0 e6 bd 46 d7 22 bd 47 e5 eb bd c9 df 50 be
       -0.11261128 -0.039756082 -0.115183406 -0.20397867
000270 13 7f d0 3d f9 46 05 3e 3f b5 9b 3d 8c 5d 30 3e
       0.101804875 0.13015355 0.07602929 0.17223185
000280 c6 0d 07 bd 23 79 7e bd db 21 dc bd eb 7b 8d 3a
       -0.03297212 -0.062127244 -0.10748645 0.0010794377
000290 fe a6 39 3e b9 74 ef 3b 69 19 d4 3d 61 07 07 bd
       0.18130109 0.0073076156 0.10356409 -0.03296602
0002a0 e7 64 a2 bb 73 e2 b6 3d d3 82 38 3e 94 3b 0d 3e
       -0.004955876 0.089299105 0.18018655 0.13792259
0002b0 71 f9 32 3e 04 ea 18 3e de 38 51 3e a0 eb b6 3d
       0.17477967 0.1493302 0.2043185 0.08931661
0002c0 89 3d 7e bd 4e 0f 1c be 03 54 d9 bd fa 8f bd bd
       -0.062070403 -0.15240213 -0.10611727 -0.09255977
0002d0 72 45 04 3e 20 33 f5 3c c5 e4 c9 bd 2a 89 00 3c
       0.12917116 0.029931605 -0.098580875 0.007845202
0002e0 cd e4 00 be 79 d6 39 be 79 0a ad bd bb ea 25 be
       -0.1258728 -0.18148221 -0.08449263 -0.16202824
0002f0 72 a5 b8 3d f2 b2 44 3e 84 68 46 3e fc 7c 79 3d
       0.09015931 0.19208887 0.19375807 0.06091021
000300 a9 34 e6 bc 10 f4 0c bd 0e 18 a0 bd b9 c9 16 3d
       -0.028101282 -0.034412444 -0.07817088 0.03681347
000310 3f 6a 55 bd 05 1b 96 3d c0 4e 06 be 4c 38 47 bd
       -0.052103277 0.07329372 -0.13115978 -0.048637673
000320 61 09 01 bc 14 1a 4a 3d 0b a9 ca bd 54 50 f6 3c
       -0.007875771 0.049341276 -0.09895524 0.0300676
000330 44 2c 7a 3d 31 07 5b 3d 00 d2 ef bc a0 6d c3 3c
       0.06107737 0.053473655 -0.02927494 0.023855984
000340 ee f6 45 3d 88 5e 26 3c fa 5c 40 bd f1 da 0e 3c
       0.048331194 0.010154374 -0.04696367 0.008719192
000350 00 7e f6 bc 94 09 01 3e 35 ea 72 3d e9 6c 17 be
       -0.030089378 0.1260131 0.05930539 -0.1478764
000360 5b 07 44 3d 5b 35 a6 3d 8a 0d 8a 3c a4 8c 06 3e
       0.047858577 0.081156455 0.016852159 0.13139588
000370 31 0c b0 3d 1f 7a cd 3d 15 86 ff 3c b5 ec b3 3d
       0.08596075 0.100330584 0.031191865 0.08785383
000380 c0 e1 0f be f1 ed 10 be 43 d7 e9 bc 0a a4 87 3d
       -0.1405096 -0.14153267 -0.028545028 0.06623085
000390 ed e0 86 bd b8 6f c3 3c 81 30 b8 bc 84 04 15 bd
       -0.0658587 0.023856983 -0.022484066 -0.03638126
0003a0 68 cf 91 bb 67 f6 84 bd c7 20 04 3e 22 93 eb 3c
       -0.0044497736 -0.0649231 0.12903129 0.028756682
0003b0 03 b2 f7 3d 8a 32 a6 bd a0 60 6c 3c d2 69 17 be
       0.120945 -0.08115108 0.014427334 -0.14786461
0003c0 08 f9 51 bd c4 6b bd bd 89 5e 69 bd 95 79 63 bd
       -0.051262885 -0.0924907 -0.05697492 -0.05553587
0003d0 80 75 55 3d a2 37 82 bd 31 ce df 3c 52 9b 2d ba
       0.05211401 -0.06358267 0.02732 -0.0006622571
0003e0 12 69 02 be 2e e4 32 3c 45 2e 89 bd cd e2 06 3e
       -0.12735394 0.01091866 -0.06698278 0.13172455
0003f0 2a 7e 0a 3e 1c 17 89 bd a2 e3 3d 3d d9 b7 92 bd
       0.1352469 -0.06693861 0.046359666 -0.071639724

dec_conv2.bias f4 [16]
000000 94 91 ec bd 83 f1 d4 bc 78 48 a8 bd 6e e8 7a bc
       -0.11551204 -0.025994068 -0.08216947 -0.015314205
000010 ad f6 ff bd 1a 12 3e 3b 03 09 84 3d ae be bc bd
       -0.124982215 0.0029002489 0.06447031 -0.09216057
000020 1c 87 8a 3c f4 92 af bd 27 52 93 bd 7a cc 0d 3d
       0.016910128 -0.08572951 -0.07193404 0.034618832
000030 6b 43 c7 3d 18 f4 5c bd 09 40 4f 3d f9 ae 83 bd
       0.09729656 -0.053943723 0.050598178 -0.06429858

dec_conv3.weight f4 [16, 32, 4]
000000 78 32 1a bd 60 0e 2c 3d 13 7b a1 3c 57 a7 85 bd
       -0.037645787 0.042005897 0.019712007 -0.06526058
000010 1e 8c b9 bd 7e 0a 23 bd 46 ff 0d 3d a7 c1 d4 3c
       -0.09059928 -0.039804928 0.034667276 0.025971247
000020 d3 d5 e9 bc 2b 64 3b 3c ad 13 f5 bd e3 fa d9 bd
       -0.028544342 0.011437456 -0.119666435 -0.10643556
000030 6b e6 8c bd 8c 41 c5 bb c9 7a 5c bd 25 eb 8b bd
       -0.06879886 -0.0060197767 -0.053828035 -0.0683196
000040 1b 1f 22 3c 77 34 f0 bd 13 41 51 bd 73 66 4f bd
       0.009895111 -0.11728757 -0.05108745 -0.050634813
000050 f1 48 c7 3d 40 c4 dd 3d 65 76 ee 3d e5 41 5d 3d
       0.09730709 0.10828447 0.11643676 0.05401792
000060 08 a9 30 3d 10 66 df 3d 03 68 e1 3d 0e a9 0a 3e
       0.04312995 0.10908139 0.11006167 0.13541052
000070 3b 22 81 bd b0 c1 f0 3d 9e 66 da 3d f3 cd b7 3d
       -0.06305357 0.11755693 0.10664104 0.089748286
000080 12 8f 1a bc fe 03 5d 3a d1 83 b2 bd 39 65 04 bd
       -0.009433525 0.0008431076 -0.08716548 -0.032323096
000090 d0 5e 6c bc 44 cf be bc 1f 1c 9f bd d0 26 04 bd
       -0.014426902 -0.023292191 -0.077690355 -0.032263577
0000a0 fc 77 af 3c c3 a4 36 bd a1 02 0a 3e 87 69 9d 3d
       0.021419518 -0.044590723 0.13477565 0.07686143
0000b0 b6 45 90 3d 04 b4 0d 3d 02 a8 e8 3d bb da f9 3c
       0.07044546 0.034595504 0.1136017 0.030499807
0000c0 f2 f4 bd bd 10 82 05 bd 51 f2 de 3c dc 41 f1 3c
       -0.09275235 -0.03259474 0.027215155 0.02945035
0000d0 a1 0d 1b 3d 91 c3 4b 3c 6e 9c 65 3d 44 90 cf b9
       0.037854794 0.012436763 0.056057386 -0.00039589603
0000e0 1d 48 58 bd 3e 35 9a bb 3d 28 7c 3d 91 5c 21 ba
       -0.052803148 -0.004706054 0.06156181 -0.0006155456
0000f0 a6 80 95 bd e6 d0 81 3c 84 29 b1 bd a8 80 86 bd
       -0.07299928 0.01584668 -0.086504966 -0.06567508
000100 ef 3f 19 3d bc 5c a8 3c 4f 93 ed 39 19 34 4a 3d
       0.037414487 0.020552032 0.00045313916 0.04936609
000110 ca 6f 28 bd 6e 0e 35 bd a2 52 36 bd d9 b1 89 3d
       -0.041122235 -0.044203214 -0.0445124 0.06723375
000120 b3 e0 51 bd 75 d6 70 bc d0 71 9e 3d a6 d2 0a bd
       -0.05123968 -0.014699568 0.07736552 -0.033892296
000130 56 76 a0 3d 72 64 ae bd 49 f3 a4 3d 9b e1 8a bd
       0.07835071 -0.08515252 0.080542155 -0.06781312
000140 75 db 47 bd 1e ae fe 3d da 4f 9e 3c 6b 71 13 3b
       -0.048793275 0.12435554 0.019325186 0.0022498022
000150 68 c8 62 bd f3 6e 1c bd aa cd 34 3d e1 87 ee bc
       -0.055366904 -0.038191747 0.04414145 -0.029117526
000160 d9 77 01 bd f4 fa d0 3c 5f 73 f2 ba 82 a2 72 bd
       -0.031608436 0.025510289 -0.0018497518 -0.05923701
000170 ca 21 5b 3d f6 c8 4b 3d c3 6e 8c 39 6a 4d a1 bc
       0.05349902 0.0497522 0.00026785405 -0.019690234
000180 1c e8 8f bd 23 9e 32 3d 14 19 09 3e 9a 45 09 bd
       -0.07026693 0.043607842 0.13388473 -0.033513643
000190 df 9f 08 3c 9d 8b 5b bc 64 33 8f bd d4 3f 1a 3c
       0.0083388975 -0.013399986 -0.06992224 0.009414632
0001a0 41 5d 97 bd 63 0f 4e bc c0 16 92 bd ec 5d b0 bd
       -0.07390834 -0.012576911 -0.071332455 -0.08611664
0001b0 7c 35 91 bb e1 e0 db 3d e2 35 99 bb b8 e0 d8 3b
       -0.0044314247 0.107362516 -0.004675613 0.0066185854
0001c0 58 62 88 3d 00 54 85 3c 53 1b 2d 3d 3a a9 02 be
       0.066593826 0.016275406 0.042262387 -0.12759867
0001d0 ba 13 8a 3d a8 75 0e bc 24 f6 1b bc e5 bb 70 bd
       0.06742044 -0.008695044 -0.009519134 -0.05877294
0001e0 17 44 9b 3d 32 b8 0b 3d 5c ec 9b 3d 77 25 af bc
       0.075813465 0.03411121 0.07613441 -0.02138017
0001f0 a5 66 01 3d 1c 65 6e 3d cb fe 92 bd 6f c8 77 bc
       0.03159203 0.058201894 -0.07177504 -0.015123471
000200 d1 fc 41 3d 99 67 0b 3d 56 a1 2a 3d ac a1 9b 3d
       0.047360245 0.034034345 0.04165777 0.07599196
000210 16 9c 85 bc 30 d5 3a 3d 5e b9 5a bd 3a 6a 33 bd
       -0.01630978 0.045613468 -0.053399436 -0.043802477
000220 75 5f b7 bc 9c e2 10 3d ba cf ef bc ee 39 0a bd
       -0.022384385 0.03537236 -0.029273856 -0.033746652
000230 98 75 1d 3d 11 03 a3 bc cd 00 71 3d 71 55 a3 bd
       0.038442224 -0.019898923 0.058838654 -0.07975281
000240 ea ab aa bb 51 e0 6e bd 0c ca 4b bd be 56 a6 3c
       -0.005208482 -0.058319394 -0.049753234 0.020305034
000250 ed 54 bb 3a ed ff 36 3d 29 d9 e4 3c 46 cb de 3c
       0.0014292278 0.044677664 0.027935581 0.027196538
000260 41 88 2f 3d 83 b1 44 3d cf 15 f8 3d 2c 0d a3 3d
       0.04285455 0.04802085 0.12113535 0.07961497
000270 6b fa 13 bd a5 ed 0f 3d 21 b0 09 bd f8 4f 9c bc
       -0.03612749 0.035138745 -0.033615235 -0.0190811
000280 fd a4 b6 3c 46 5e 07 be 0e 93 b7 3b 5a 42 2b 3d
       0.02229547 -0.13219556 0.005602247 0.041811325
000290 43 f6 b3 bd 41 e8 29 3d 06 1e e7 bd 3c 49 47 3d
       -0.08787205 0.04148126 -0.112850234 0.048653826
0002a0 b2 b0 ec bd 1a bc 99 3d 67 a2 49 3d 29 b6 8c 3c
       -0.115571395 0.07506581 0.049227145 0.017176704
0002b0 a4 20 1f bb ef ad 8a bc f3 57 3f 3d 47 85 8c bb
       -0.002428093 -0.016928641 0.046714734 -0.004288349
0002c0 41 fc 8b 3d 92 48 07 3d 70 c2 d0 bc 10 2f 50 bd
       0.06835223 0.033028193 -0.02548334 -0.050826132
0002d0 07 89 68 bc 88 c7 eb 3a be 72 1c 3b 49 88 8e 3c
       -0.014192826 0.0017988542 0.0023872103 0.01739897
0002e0 58 ad 77 bd d3 d5 07 3d 89 66 61 bc d9 fe af 3d
       -0.060468048 0.033162903 -0.013757356 0.0859353
0002f0 03 18 db bd e8 fe 42 bd f9 95 c1 3c e7 b3 70 bc
       -0.10697939 -0.04760638 0.023631083 -0.01469133
000300 dd 60 a3 3d a3 b9 d5 bd 5e bf 3c 3c 35 05 b2 bd
       0.079774596 -0.10435798 0.011520235 -0.086923994
000310 a7 ad 4b 3d ad c7 d7 3c 55 db 9a bb 0a 94 1b bd
       0.049726155 0.02634033 -0.0047258534 -0.037982978
000320 a3 d8 9d 3d 1c 56 5a 3d 3d e6 29 bc 91 29 a1 3d
       0.07707336 0.053304777 -0.0103698345 0.07869256
000330 f7 ba 2d 3d f2 50 de bd da 5d 10 bd af fb fd ba
       0.04241463 -0.10855283 -0.035245754 -0.0019377376
000340 2b 69 06 be 49 31 81 3d e0 fa cd 3d 56 1c d1 3c
       -0.13126056 0.063082285 0.10057616 0.025526207
000350 69 aa cf bc 0d 2c d7 bd 7b e2 0c 3d b6 ce a8 bd
       -0.025349813 -0.10506449 0.034395676 -0.08242552
000360 aa 43 5b 3b 67 ef b1 bd 7b ed 8d 3d 56 bc b9 bc
       0.003345708 -0.086882405 0.069300614 -0.022672813
000370 7c fb 3e 3d 12 74 0d bd 13 4e 9b bd 16 6c 97 bd
       0.046626553 -0.03453452 -0.07583251 -0.07393663
000380 17 29 0d be 7f 28 01 3e 4d 2c 8b 3d 2b f7 c7 bc
       -0.13785206 0.12613104 0.06795559 -0.024409851
000390 73 ff 12 3c e1 df 0f 3d 38 70 eb bd ef 3d cb bd
       0.008972037 0.035125617 -0.114960134 -0.09923922
0003a0 e1 d3 0d 3d 46 a4 03 ba 2b 7e 08 bd aa 1b bb bc
       0.03462589 -0.0005021732 -0.03332345 -0.02284034
0003b0 25 2c 8c bd 0b 52 69 3d 0e ed d6 3b 43 2d c6 3d
       -0.068443574 0.056963008 0.006559021 0.09676602
0003c0 ba 4f da 3d 34 0d 44 bd ee 21 7b 3d 63 4e 87 bd
       0.10659738 -0.047864154 0.061311655 -0.06606748
0003d0 0b 98 bf 3c 47 a6 04 bd 29 27 02 bd 39 61 8d 3c
       0.02338793 -0.032385137 -0.031775627 0.017258273
0003e0 16 49 90 3d 9e 93 96 3d 2a 6d 76 3d f8 38 b4 bc
       0.0704519 0.073523745 0.0601627 -0.021999821
0003f0 ba dd c8 bd d2 03 ee bc 0d cf ff bd 0a b8 c7 bd
       -0.09807916 -0.029054556 -0.12490664 -0.097518995

dec_conv3.bias f4 [32]
000000 85 58 6d bd d3 ca a6 3d 3c e4 4e bd 04 bf 8c 3d
       -0.057945747 0.081441544 -0.05051063 0.06872371
000010 8d 7f df bc 05 da f3 3b 1d c0 d7 3c 41 72 42 3d
       -0.0272825 0.0074417614 0.026336724 0.047472242
000020 3d c3 1c 3d 57 e2 0c 39 1f cb b0 bd 34 21 11 3d
       0.03827213 0.00013435759 -0.08632492 0.035432056
000030 82 a9 83 3d fe 6c f3 bc 59 2a ca bd 1c 14 0d 3d
       0.064288154 -0.029715057 -0.098713584 0.034443006
000040 9b 97 af 3d 82 f8 88 bd 7b aa 71 3d d0 f6 bf 3d
       0.08573838 -0.06688024 0.059000473 0.093732476
000050 8b 5c 0b bc a5 06 c8 3d 66 8a 5d bd 78 e2 4e 3d
       -0.008505951 0.09766892 -0.054087065 0.050508946
000060 a3 cc 63 3d ba dc 68 bd 99 67 ff 3c f3 ce ee 3b
       0.05561508 -0.056851126 0.031177329 0.007287854
000070 03 4a 72 bb 17 77 76 3d e4 51 0b bb 80 68 11 3d
       -0.0036970384 0.060172167 -0.0021258527 0.03550005

dec_conv4.weight f4 [32, 1, 5]
000000 d9 33 df bd 2f cc a8 3e 86 9b fb be 10 57 c4 bd
       -0.10898561 0.3296828 -0.49142092 -0.09586918
000010 69 4b 2b be 0c e0 ac 3e 79 1c f4 3d 6a d2 d4 3e
       -0.16727985 0.33764684 0.11919493 0.41566783
000020 e9 51 91 3e ba 35 b5 3e 45 19 d9 3e 86 78 ed 3e
       0.28382805 0.35392553 0.42402092 0.46381015
000030 25 c5 e2 bd 4b 27 d6 3e f4 26 b7 be f4 5d a8 3e
       -0.110727586 0.41826853 -0.35771906 0.3288418
000040 bf af a0 3c 05 41 b4 3e 90 58 81 be 25 49 b7 be
       0.019615052 0.35205856 -0.2526288 -0.35797992
000050 45 07 35 be dc 9b 00 3c 46 a0 e6 3e 09 4a b7 3e
       -0.17678554 0.00784966 0.45044154 0.35798672
000060 c6 f2 53 3e a2 de 1d 3e 10 70 b4 be e8 c8 d3 3b
       0.2069808 0.15416959 -0.35241747 0.006463159
000070 69 65 c5 bd 31 1c c1 be 64 12 a7 be 92 66 dd 3d
       -0.09638483 -0.3771682 -0.32631218 0.10810579
000080 db 51 b8 bd 9b 32 c0 be 98 53 6f 3e 96 14 c4 3c
       -0.08999988 -0.3753861 0.23371732 0.023935597
000090 90 bb 82 3e df fb bf be 62 4d dc be e0 fd 98 be
       0.25533724 -0.3749685 -0.43027788 -0.2988119
0000a0 68 dd b8 bd b7 39 52 3d 03 e8 c3 3e 5f 5e be 3e
       -0.09026605 0.051324572 0.38262948 0.37181374
0000b0 7b 2c 9f 3d 00 e9 53 3c 67 85 13 bc cd 17 4d bd
       0.07772156 0.0129339695 -0.009003974 -0.050071526
0000c0 99 86 54 3e 1e de 5c 3e 9a 9a 86 be 5c 23 db be
       0.2075447 0.21569106 -0.26289827 -0.42800415
0000d0 e5 fd ba 3e b7 2b ec bd 08 bf ca 3e ad 64 75 3e
       0.3652183 -0.115317754 0.3959887 0.23964186
0000e0 6d 95 dd be 8d ae 03 bb 23 7c be be 08 fe 94 be
       -0.43278065 -0.0020093054 -0.37204084 -0.2910006
0000f0 0e aa d2 3e a3 ff 75 3c f7 79 e4 3d f9 46 b5 3e
       0.41145366 0.015014562 0.111560754 0.3540571
000100 bc c1 23 be a8 9e 17 3e 80 b5 b2 be 45 2f f0 bc
       -0.15991873 0.14806616 -0.349041 -0.029319415
000110 c0 23 0a be 9a 3b da be a5 2a 46 3e 6e d1 8a 3e
       -0.134902 -0.42623597 0.19352205 0.27112907
000120 a2 ba 16 3b 4d f9 e9 be ce e4 a5 be a8 a8 80 be
       0.0022999425 -0.45698014 -0.32401127 -0.25128675
000130 57 1b ce 3e bd 2e 98 3e 08 04 8c be ea a9 2c 3e
       0.40255234 0.29723158 -0.27346826 0.16861692
000140 a9 43 b0 3d 6f 42 eb 3e a8 13 3d 3e 77 ec 95 bc
       0.08606655 0.45949122 0.1846453 -0.018301232
000150 22 ff ba be 9d d2 e3 3e f5 ef 8a be fb 59 7c be
       -0.36522776 0.44496623 -0.27136198 -0.246437
000160 14 10 cb 3e 19 6d cd 3c 00 9a d3 bd ca 84 02 3c
       0.39660704 0.025076436 -0.103321075 0.00796623
000170 04 fe 3e 3e 41 2c ae bd 4d c4 d0 3b e1 e7 15 be
       0.18651587 -0.085045345 0.006371057 -0.14639236
000180 a6 55 b3 3e 4f e5 cb be e9 31 85 be 56 d0 72 3e
       0.35026282 -0.39823386 -0.2601464 0.23712286
000190 0b 92 d2 be 2e 41 1c 3d 11 27 b8 be 14 a1 a4 3e
       -0.41127047 0.038148098 -0.35967305 0.32154143
0001a0 a5 44 89 be fa 2b 4a 3e 5a 50 8e be c0 4b 45 3d
       -0.26810184 0.19743338 -0.27795678 0.048167944
0001b0 52 61 9a 3e c8 b8 de 3e 01 35 14 be 2a 47 c8 3d
       0.30152375 0.43500352 -0.14473344 0.097791985
0001c0 df 30 d3 3c 7f fe f3 bc 2c 73 2b 3c f2 81 44 3e
       0.02578014 -0.02978444 0.010464471 0.19190195
0001d0 a8 d8 2a be 2e 1f 07 3d aa de c1 3e d3 b1 47 3e
       -0.1668421 0.03298872 0.37865192 0.19501428
0001e0 b6 af ff be 43 98 9c bc 42 33 61 be 97 b5 5a 3d
       -0.49938744 -0.019115573 -0.2199221 0.053395834
0001f0 80 20 f6 bd b9 ea 46 3e 31 97 d5 3e 70 34 22 be
       -0.12017918 0.19425477 0.41716912 -0.15840316
000200 ec ca 5f be dc 94 ca 3e 08 80 d4 3e c1 a9 d3 3e
       -0.21854752 0.39566696 0.4150393 0.4134045
000210 70 a3 34 3d bf c6 a6 be ef dd 76 3e 48 26 be be
       0.04410118 -0.32573506 0.24108098 -0.3713858
000220 29 c4 94 be 78 97 53 3e b1 7e 84 3d 41 0f 3c be
       -0.29055908 0.2066325 0.06469477 -0.18365194
000230 9f 34 9b 3e c5 42 9e 3e 39 97 68 3d f5 02 e1 be
       0.30313584 0.30910316 0.056784842 -0.4394757
000240 52 56 e9 bd a7 49 3e 3e 24 5c d8 be e0 9d 95 3d
       -0.113934174 0.18582784 -0.42257798 0.07305503
000250 c3 ee 41 be 27 22 0e be d1 02 5d be 24 60 01 bf
       -0.18938737 -0.13880216 -0.21583106 -0.50537324
000260 d9 e4 d5 bd 7b 58 e5 be ae 10 f4 bd 36 70 4b be
       -0.1044404 -0.44794068 -0.11917244 -0.19867024
000270 37 a0 f7 3e ab 12 47 be 28 6f 86 be 5b 36 c9 3e
       0.48364422 -0.19440715 -0.2625668 0.39299282
