clasi_chico.ckpt (torch, 112324 bytes, 26 tensors)

conv1.weight f4 [32, 1, 80]
00000000: f560 233d 1e2e d43c 78ce 97bb 932b 863d
00000010: a006 c23d 8e36 5f3c b856 f3bd 5c94 01bd
00000020: 6c39 cdbd 11f2 043d 3e4b 6abd d24f 143c
00000030: 6474 913c 7cda 093e 75f2 6e3d 8fdb 9abd
00000040: 6e13 0e3d 64b2 233d a6f3 8e3d f0ff 93bd
00000050: 81f8 c8bc 5864 9ebc d13e 35bd 2ca2 013e
00000060: e4e5 3ebd 6cf9 c1bd 60c0 393d 8351 db3b
00000070: ced4 bcbd e05d 24bd 33e0 fa3d a5ab 953d
00000080: edd9 ba3d 2926 a5bc f575 52bb aec9 fb3d
00000090: 1f2a 2f3d 9751 5ebd 06c6 bfbd 7a0c 873d
000000a0: 6512 95bc 7d9c 0f3d aba0 f6bc dbfe c9bd
000000b0: affc fd3d 8bd1 52bc 9b74 4c3c 4af5 76bb
000000c0: d098 72bd c38d 5e3d 7644 303d 39eb 0abd
000000d0: 4b0b bdbd b078 e5b8 dfaa 053e 98fc 323d
000000e0: f4e3 e1bd e653 9cbc c369 c73d 66c8 01bd
000000f0: adbf e03d 9f67 d3bc 0ab1 3bbc bf2f babc
00000100: c05c 363d c420 b7bd 6bbf ca3b 04a9 99bc
00000110: 4abd 713d 8673 6d3d 60e3 aebd d2ea 71bb
00000120: 27ff 023d 6201 b23c 3f85 14bd 0e40 95bd
00000130: 01ae 053e 0ca9 943d 7b56 34bd 98ad 86bd
00000140: 334b 6e3d 578d 9b3d 53b1 a63d ac89 a7bd
00000150: f9a8 ae3c 823f c53d c332 053e c9bd 5e3c
00000160: 29f7 f3bc f95e 3abd 3510 7cbd d5c4 a83c
00000170: 51d4 3d3e 33a4 9d3d 06d4 9d3d 77f5 acbc
00000180: 74b6 ee3c 1432 84bd 705c cd3d f4dd c93d
00000190: 8099 afbc 04e2 fd3c bb92 e6bc 205d 73bc
000001a0: 88ea 60ba 6b9f 28bd bdd6 79bd 7196 57bd
000001b0: 81cd 8dbd 630d 23bd 9d6a fa3c 2e0e 4bbd
000001c0: 3457 44bc 46a8 a13d af8f f43d 540a cb3d
000001d0: 19c1 9d3d 8c47 a23d a04e b7bc 5386 dcbd
000001e0: 91e9 9e3d fc2b 63bd 5f24 38bd 1ed8 e93c
000001f0: 794c 00be 04fc 3ebd ad8b 2bbd fedd f53d
00000200: eefd e03d 0398 93bb ae1a 8f3d 2e5a 94bd
00000210: 0be1 8bbd 268b 43bd ca8a 993d 6a7d bfbb
00000220: 2776 30bc 8d0b 933d 45ff f5bc 371c 00bc
00000230: 379f b5bd 9a23 c93c 34a7 ebbd d91f 813d
00000240: a676 f7bc cba5 a6bc 8ee3 a0bc 858c 17bc
00000250: 5d7b 81bd 52c0 bdbd 2ba5 2a3d 6efe 4bbd
00000260: f848 a43d 3d72 6d3d 5688 bfbd 5a07 593d
00000270: 984f 443c 9bdb d8bd 970e d23c 7404 1cbd
00000280: 6af7 863d 5970 a0bd 9f4c 0f3d 970b 38bd
00000290: 2ff7 91bd 4f7e 58bd 311b 8c3d 3f0f ec3d
000002a0: 3aa7 b5bd 9785 b13d defa 3a3d 4dac f63b
000002b0: c121 3c3d b14c 3e3d 2b7e 1a3c 30e3 503d
000002c0: 2a83 1c3d 6369 07be 9002 24bd 6a4c 93bd
000002d0: 43fa eebd bfad 6e3b 1f5f f1bd 5b45 b7bd
000002e0: 0b42 8dbd 4470 6cbd 4762 303d faeb b0bd
000002f0: 2377 a03b dd1b 213d 8448 9a3d a690 0d3d
00000300: af84 743d 280b d23c cbbb a0bd 2627 983c
00000310: 6fc1 943c 1545 f7bb 1bfa 6bbc 3544 82bd
00000320: b3bf 9f3d be28 98bc f333 e83d 2e72 e93d
00000330: dcf5 cb3d 9b25 9bbd fb1e c33d 6963 fbbd
00000340: e474 f5bd 67a2 4fbd bcc1 85bd 3dae 1abd
00000350: b1c1 88bd bb9b 40bd 4acf aa3d d133 403d
00000360: 03e4 0b3e 2ebd c93b c141 073e 0d3f acbd
00000370: 9493 bdbc a23b acbd 2cc1 56bd 6c59 bd3d
00000380: 989b 853d 6775 6bbd 23e4 64bd d541 8ebd
00000390: d9f7 3a3d a910 dbbc 3595 b3bd 1788 b23d
000003a0: 9936 f2bd ee70 14bb b99c 8fbd a1f3 073d
000003b0: 42c2 a33d 744c c5bd 5de1 ba3d f230 bebd
000003c0: 8a10 113d b9ae f03c 25ca 6b3c 930b c3bd
000003d0: f7c1 9ebb 0064 00bd 77c4 34bd 05ac bfbd
000003e0: c139 34bd fd9c 533d f75d abbc aad7 03be
000003f0: 43b5 263d d111 0d3d 0cd1 3b3d 5ac1 92bd
0.039887387 0.025900897 -0.0046327673 0.0655128 0.0947392 0.013623847 -0.11881775 -0.031635627
-0.10020718 0.032457415 -0.057200663 0.009052234 0.017755695 0.13462251 0.058336694 -0.07561409
0.0346865 0.03996505 0.06980066 -0.072265506 -0.024532558 -0.019334957 -0.04424936 0.1265952
-0.04660596 -0.094714016 0.04534948 0.0066930666 -0.09220277 -0.04012859 0.12249794 0.07308129
0.09123597 -0.020159798 -0.0032113765 0.12294327 0.04276478 -0.05427703 -0.09363942 0.065941766
-0.018197248 0.03506135 -0.03010591 -0.09863063 0.12401711 -0.012867342 0.012478973 -0.0037682825
-0.059227765 0.054334413 0.04303404 -0.033915732 -0.092306696 -0.00010942051 0.13053463 0.043697923
-0.11029807 -0.019082975 0.09736969 -0.031685255 0.10974059 -0.025806246 -0.011455784 -0.022727845
0.044522047 -0.089417964 0.0061873696 -0.01875735 0.05901841 0.0579715 -0.08539462 -0.0036913645
0.031981613 0.021729175 -0.036259886 -0.07287608 0.13054658 0.07258806 -0.044027787 -0.06576079
0.058177184 0.07595318 0.08139291 -0.08180556 0.021320807 0.09631254 0.13007645 0.013595053
-0.029780941 -0.04550073 -0.061538894 0.02060167 0.18538024 0.07697334 0.07706456 -0.02111314
0.029139735 -0.06454864 0.10027397 0.09856787 -0.0214355 0.030991562 -0.028146138 -0.014853746
-0.000857987 -0.041167658 -0.060995806 -0.052633706 -0.069239624 -0.03980769 0.030568415 -0.04957407
-0.0119836815 0.07893424 0.11941468 0.09914079 0.07702846 0.07923803 -0.022376359 -0.10767808
0.07759393 -0.05546187 -0.04495656 0.028545436 -0.12529172 -0.04662706 -0.041881252 0.12005232
0.10985933 -0.004504205 0.069875106 -0.07243763 -0.06830033 -0.047740124 0.07497175 -0.005843808
-0.010770357 0.071799375 -0.030028949 -0.007819227 -0.088682584 0.024553109 -0.11506501 0.063049026
-0.030207943 -0.020342728 -0.019639757 -0.009249811 -0.06322358 -0.09265198 0.041661423 -0.04980319
0.0802173 0.057970274 -0.09352176 0.052985527 0.011981867 -0.105887614 0.025641723 -0.038090184
0.06590159 -0.078339286 0.03498518 -0.044932928 -0.07127225 -0.052854832 0.06841124 0.115263455
-0.088697866 0.08668058 0.0456494 0.007527864 0.045930628 0.046459857 0.009429495 0.050997913
0.038211025 -0.13223796 -0.040041506 -0.07192309 -0.116688274 0.0036419479 -0.11785721 -0.089487754
-0.06897362 -0.057724252 0.043062475 -0.08638759 0.0048970147 0.039333213 0.075333625 0.034561776
0.05969685 0.025640085 -0.07848319 0.018573355 0.018158643 -0.007546077 -0.0144028915 -0.06360666
0.078002356 -0.018574115 0.113380335 0.11398731 0.09959003 -0.07575532 0.095273934 -0.1227482
-0.11985186 -0.05069199 -0.065310925 -0.037763823 -0.06677569 -0.047023516 0.083403185 0.046924416
0.13661198 0.006156585 0.13208677 -0.084104635 -0.02314166 -0.084098116 -0.052430317 0.092455715
0.06523818 -0.05748501 -0.05588163 -0.0694615 0.045646522 -0.026741343 -0.08768693 0.08717363
-0.1182682 -0.002265032 -0.07012314 0.033191327 0.07996036 -0.09633723 0.09125016 -0.09286679
0.035416164 0.02938019 0.014391457 -0.09523692 -0.0048448998 -0.031345367 -0.044132676 -0.09358982
-0.04400039 0.051663388 -0.02091883 -0.12875238 0.04070021 0.03444082 0.04585366 -0.07165785

conv1.bias f4 [32]
00000000: 5cfe 15bd bc74 bebc 496c 89bd ccf7 31bd
00000010: f7f3 d13c 3e91 d13d 1a30 86bd 04f4 c4bd
00000020: e578 003e 9063 c9bd baf0 0dbd b58c 7c3d
00000030: f3dc 57bc ed70 48ba 10ef 6a3d 2e21 41bd
00000040: 2e9f 283d 789d 613d c555 c3bd d199 bf3d
00000050: 53fe a1bc 0d64 5e3d 599b 093d e395 01bd
00000060: e2cf 25bc 6d1d 2c3c 6351 003e e555 653d
00000070: 1554 79bd e45e aebd 2dcb 943d 4f8c 6cbd
-0.03661953 -0.023249023 -0.06710107 -0.04344921 0.025629027 0.10232781 -0.065521434 -0.09616855
0.12546118 -0.09833443 -0.034653403 0.061657626 -0.013175237 -0.0007646222 0.057356894 -0.047150783
0.04116743 0.055081815 -0.095378436 0.0935551 -0.019774592 0.054294635 0.033595417 -0.031637084
-0.010120364 0.0105050625 0.12531047 0.05599012 -0.060871202 -0.08514193 0.07265315 -0.057750996

bn1.weight f4 [32]
00000000: 40fa 813f 998a 823f 838d 7d3f 8125 7b3f
00000010: 8ed9 763f 5665 753f a4b4 7f3f f1d5 803f
00000020: 9abf 7d3f 395a 833f 24d8 843f 669f 7e3f
00000030: c009 7d3f ef88 7d3f 6c9e 823f 8374 803f
00000040: e345 813f ae8a 7e3f 12ca 7c3f a443 853f
00000050: eebc 833f b1e2 7f3f 22e0 7a3f a0bd 833f
00000060: 5db4 813f 4411 7b3f 7662 803f ae84 7c3f
00000070: cccb 7f3f 7ac2 7f3f 2dfc 7f3f 42ec 803f
1.0154495 1.0198547 0.99044055 0.981041 0.9642571 0.9585775 0.9988501 1.006529
0.99120486 1.0261909 1.0378461 0.9946197 0.98843 0.9903707 1.0204597 1.0035557
1.0099453 0.9943036 0.98745835 1.0411267 1.0292032 0.9995528 0.9799825 1.0292244
1.0133168 0.9807322 1.0030048 0.98639953 0.99920344 0.9990612 0.99994165 1.00721

bn1.bias f4 [32]
00000000: c3db 963c d37c 373d fbfc 18bd a66c 2f3e
00000010: 6225 84bc af51 57bd d889 683d 32e3 8ebc
00000020: 61a9 ab3b db3e 22bd 5b17 0d3e aa2f a03c
00000030: 8329 96bc e3a6 ef3d 62d2 453b 9333 d2bc
00000040: bd68 c13c 5d1a 943d 817b a23d b8bb 983d
00000050: 2c5b 213d 2da4 e73c f4f8 38bd 7702 a73d
00000060: 750d c93c d501 87bc 0655 4dbc bd5f f4bc
00000070: 036d 0fbd 0ba9 b7bd a963 8cbc f9ea ec3c
0.018415337 0.044796776 -0.037350636 0.1713129 -0.016131107 -0.052568134 0.056772083 -0.01744232
0.0052386974 -0.039610725 0.1377844 0.019553978 -0.018330341 0.11701753 0.0030185212 -0.025659358
0.023609513 0.07231591 0.07933713 0.074576795 0.03939359 0.028276527 -0.045159295 0.08154767
0.02454255 -0.016480366 -0.012532478 -0.029830808 -0.03501607 -0.08967789 -0.017137365 0.028920637

bn1.running_mean f4 [32]
00000000: c84a 1e3f 5eeb 163f 5084 52bf 8518 4a3f
00000010: c465 653f 2a59 1c3e a091 403d b9b0 073e
00000020: 77da fc3d edf8 80bd 485c 043e 0cd6 49be
00000030: a3e1 5ebe f24b d73d d80c e7be e85e e9bf
00000040: 0a01 3cbf 8e76 1d3f 4ee9 69bd 5af3 a93c
00000050: 6b13 bd3c 93fa 7c3f 7180 7bbf 0ed9 57bf
00000060: 2c60 25be ece6 d7be 4dcd 243e f2b0 153d
00000070: f79e fe3e 15f0 23be 67d6 30bd 1670 72bf
0.6183286 0.5895289 -0.8223314 0.78943664 0.8960841 0.15268388 0.04701388 0.13251008
0.12346356 -0.06297479 0.12925828 -0.19710559 -0.21765761 0.10512532 -0.45126987 -1.8232088
-0.73439085 0.61509025 -0.057107262 0.020745922 0.023080548 0.98819846 -0.9824286 -0.84315574
-0.16149968 -0.42168367 0.16093941 0.0365457 0.49730656 -0.16009553 -0.04317322 -0.9470228

bn1.running_var f4 [32]
00000000: 9701 db3d 11fb fa3d 0916 0e3e 4ecc 0c3e
00000010: c67d 113e 56da ae3d ca05 bf3d a3a9 623d
00000020: 745e e73d 5ba0 8a3d 9464 883d 1eae a03d
00000030: 2aa4 fb3d 70a3 a43d cda9 a73d 080c d13e
00000040: 7812 f03d b1c0 a73d d7ff 653d b442 a63d
00000050: 107a 803d 0e18 1b3e a725 363e 4ce7 0c3e
00000060: f721 b13d b003 db3d 0933 b13d ecb8 8c3d
00000070: ee4f e63d 4f0e 3b3d 9cbb 833d 4267 423e
0.106936626 0.12254918 0.13875593 0.13749811 0.14208135 0.08537738 0.09327276 0.05533756
0.112973124 0.06768867 0.06659809 0.0784571 0.12287171 0.08038986 0.08186684 0.40829492
0.11722273 0.0819105 0.05615219 0.08118191 0.062732816 0.15145895 0.177878 0.13760108
0.086490564 0.10694063 0.08652312 0.068712085 0.11245714 0.045667943 0.06432268 0.18984702

conv2.weight f4 [32, 32, 3]
00000000: 4a48 91bc efaf 41bb 2abf 8ebd 2c03 90bd
00000010: a1a4 5fbd d244 77bd a20b 6f3d a3fa a5bd
00000020: da9f ca3c 5987 783d 8ecb 8bbc 7407 aebd
00000030: cccc 183d 4f64 9bbd 19c2 28bd 8e9b 11bc
00000040: c5a1 303d a77c 563c e3f2 2d3d 6aaa a6bd
00000050: d1dc a6bd 1945 43bd be3a f1bb 8e5b 313d
00000060: 30c3 1ebc 72ec 513d bcbc 6fbd 9ba5 aa3d
00000070: 82a3 263d a4ee 203d 1937 b3bd 4b75 56bd
00000080: 4c6a bebd 5156 483d 1c9b cebb 655e 0abd
00000090: f058 bb3d c75c a8bd 13a0 343d 90c8 56bb
000000a0: 82f7 e1bc f80d 2bbd 9f5f 713d 76e1 aa3d
000000b0: 6246 98bc 98a4 a63d 1d00 a4ba f4a3 96bd
000000c0: 0131 efbc f3a0 15bd d26d 453d 8adb 0a3d
000000d0: f034 e6bd 4c07 3dbd 4210 b3bd e15d 343d
000000e0: 5568 6a3d 30ff a0bd 1c6d c83c 6455 753d
000000f0: 2cd2 30bd b9f5 ecbd fa96 8e3c eadc 7e3c
00000100: 20ad 193d f43b f9bd f2cf d5bd 1278 b4bd
00000110: eeee 28bd 612d 6c3d 1bfd f8bc e0f6 5fbd
00000120: 1195 dd3d 3ef7 6a3d 5550 bd3d f584 7ebc
00000130: cdaf 0c3d 722e 8cbd 3007 613d fa99 b73d
00000140: bb21 a6bd 4be5 f53b 1bf5 673d 5571 43bd
00000150: b925 a1bd e08d 313d bbe1 713c bb94 59bd
00000160: e32b bc3d dc44 abbd 45fe d6bd 3334 d03c
00000170: 9eee 5a3b 0cc3 c93d 3cc5 d0bc 16d5 70bd
00000180: b5bc cfbc a104 403d a4d0 333c 03db a93d
00000190: 6650 313d fd9d 823b 32a9 483d 6d09 6cbd
000001a0: 3240 813c bebc a33d f15a cc3c 618f acbd
000001b0: 4f53 3bbd 2a50 9c3b 9bdd d53d 3d63 49bd
000001c0: b4e8 babb 4b27 813d 6ecf f83d fd82 b33d
000001d0: b926 e4bd 2516 b83d a270 313d 794f e6bd
000001e0: e993 47bd 8cdd 29bd c975 623d 5e79 d43c
000001f0: cf5d f13c d38b 89bd 618e be3d 9867 593d
00000200: 6e29 bc3d 0ac9 753d a7c4 2fbd 6364 623d
00000210: b7af 1a3d 3275 bd3c a76c e2bc da73 aabd
00000220: f8a4 98bd 1354 7f3d 1b59 9ebc da7c 9bbd
00000230: 573b a83d 9dad 94bd eb60 363d a26e 21bc
00000240: c395 f83c 8900 bdbc 7487 15bd 04f2 a53d
00000250: 9967 5f3d aeeb df3a b616 b0bd d50b 09bd
00000260: 3fa7 1d3c ee36 8dbd 9d34 c23d 0804 c5bd
00000270: 3e63 8b3d fd52 613d 6694 3a3c c613 84bd
00000280: 8001 613d 2a15 1e3d 3d5f 9a3d 5768 743d
00000290: 150d 1b3d 010d 233d 0b57 cf3d a834 163d
000002a0: 1540 6e3c 29a4 473d b6ae be3a 9224 67bd
000002b0: 1e49 25bd 90a2 b13d da96 893d a257 1abd
000002c0: 6c8d a03d 79b4 673d d545 173e 18c6 d03d
000002d0: fa57 c43d 1ca3 e53d ce3f dfbd 3189 f8bc
000002e0: 98cd 03bd f8fe bbbd 2af3 f03c 7f17 84bd
000002f0: e2a7 fabc 2bc2 963d ecb8 b1bd 301c a23d
00000300: 8ddc 243d ef43 1d3e 275e b13a cbf1 b43d
00000310: 7984 fb3c 7871 ef3c 0275 8abd f010 cebd
00000320: 0c02 0bbd 59aa 3e3d 7efb 833d cc61 cb3c
00000330: 978a d93c 6e11 7d3d bf65 b03d db00 27bd
00000340: 2567 babd c629 44bd 48bd 05bd 8ff3 adbc
00000350: 5f22 9b3b 0d13 5cbd 81ba dc3b c217 0fbc
00000360: 02e4 e43d 711b 04bd 0443 ae3b cc14 85bd
00000370: 310f 3c3d 1ec7 603d 81b6 fd3c f2b7 fdbd
00000380: 523f 963d c31a b7bd 2733 62bd 1606 1e3d
00000390: 53cb cf3d 2475 3fbc cec3 2b3b df2f 1a3d
000003a0: bb42 773d 4cf4 d2bc 5da9 8cbc 5efb a6bd
000003b0: c4cc 4c3d 471a 46bb 6220 c3bd 948c 97bc
000003c0: 2119 f9bc bf96 863c f239 dfbc 87b8 a83b
000003d0: b19e 6bbc 4bb6 7abc a1d0 dd3c 7203 bd3d
000003e0: a2ff c2bd 1f53 54bc fcd8 573d 3c13 cbbd
000003f0: c11c 38bd f247 f43d 310a 9eb9 82e0 0e3c
-0.017734665 -0.0029554327 -0.069700554 -0.07031855 -0.05460036 -0.060368367 0.058360703 -0.08104446
0.024734426 0.060675953 -0.017064836 -0.08497515 0.037304685 -0.07587492 -0.04120073 -0.008887185
0.043123025 0.013091243 0.042467963 -0.08137973 -0.08147586 -0.04767332 -0.007361739 0.043300204
-0.009690091 0.051250882 -0.0585296 0.08332368 0.040683277 0.039290085 -0.087507434 -0.052357953
-0.09297618 0.048910443 -0.0063051116 -0.033781428 0.09147823 -0.08220821 0.04409797 -0.0032773353
-0.027583841 -0.04176137 0.058929082 0.083437845 -0.018588249 0.081368625 -0.0012512241 -0.0735549
-0.029198172 -0.036530446 0.048200436 0.033900775 -0.11240566 -0.046149537 -0.08743335 0.044034842
0.057228405 -0.07861173 0.02446609 0.059895888 -0.043169186 -0.115703054 0.017405976 0.0155556
0.03751862 -0.12169638 -0.10440053 -0.08811964 -0.041243486 0.057660464 -0.030394128 -0.054678798
0.10819448 0.057364695 0.09243838 -0.015534629 0.034347344 -0.06844796 0.054938495 0.089649156
-0.08111902 0.0075041405 0.056630235 -0.047715504 -0.07868523 0.043348193 0.014763291 -0.053120356
0.09188058 -0.08362743 -0.10497717 0.025415516 0.0033406387 0.09851655 -0.025484674 -0.058796965
-0.025358537 0.046879414 0.010975037 0.08293726 0.043289565 0.003986119 0.048989482 -0.057626177
0.015777681 0.07994984 0.024945708 -0.08425785 -0.045733746 0.0047702985 0.104426585 -0.049166907
-0.00570401 0.06306323 0.12148939 0.087652184 -0.11140198 0.08988599 0.043320306 -0.11245627
-0.048725042 -0.04147105 0.05528811 0.025936779 0.029463677 -0.067161225 0.093045 0.05307731
0.091875896 0.06000618 -0.04291215 0.055271517 0.03776523 0.023127172 -0.0276397 -0.08322878
-0.0745334 0.06233604 -0.019329598 -0.07592173 0.08214443 -0.072596766 0.044526022 -0.009853037
0.03034485 -0.023071544 -0.03650613 0.081028014 0.054542158 0.0017083788 -0.08598082 -0.03345855
0.009622394 -0.06895243 0.094826914 -0.096199095 0.06806038 0.055010784 0.01138792 -0.06449084
0.05493307 0.038594402 0.075376965 0.05966982 0.037854273 0.039807323 0.10124024 0.03667131
0.0145416455 0.04874054 0.0014547918 -0.05643136 -0.040352933 0.086735845 0.06718226 -0.03768123
0.07839474 0.056568597 0.14772733 0.101940334 0.09587093 0.11212751 -0.10900842 -0.030338855
-0.03217849 -0.09179491 0.029412825 -0.06449794 -0.03059763 0.07361253 -0.08677849 0.079155326
0.040249396 0.15357946 0.0013532088 0.08835181 0.030702816 0.02922891 -0.06760599 -0.10061824
-0.0339375 0.046549175 0.06444453 0.024826907 0.026555343 0.0617842 0.086131565 -0.0407723
-0.091017045 -0.0478914 -0.032651216 -0.021234302 0.004734322 -0.053729106 0.0067361 -0.008733692
0.111763015 -0.032252733 0.0053180475 -0.06498107 0.045912925 0.054877393 0.030970814 -0.123886004
0.07336296 -0.08940651 -0.055224564 0.038580023 0.10146203 -0.011685643 0.0026209238 0.03764331
0.060366374 -0.025751255 -0.017170602 -0.08153413 0.049999967 -0.0030228065 -0.09527661 -0.01849965
-0.03040749 0.016429303 -0.02724931 0.0051489505 -0.014381097 -0.015302251 0.027077021 0.09229173
-0.09521414 -0.012959271 0.052697167 -0.09915778 -0.044949297 0.11927785 -0.00030143702 0.008720519

conv2.bias f4 [32]
00000000: 2675 de3c 14af 51bd b65b 953d 7729 d43d
00000010: b005 42bd a9b5 063b 3538 d0bd 534e 843c
00000020: 3de0 04bd 8ab5 ec3c 85e5 a6bd 4af5 f83c
00000030: 8dbc ce3c b5f1 8d3d 423f 8c3d 93c7 3b3d
00000040: 16f0 4abd 0328 133d 048a d2bc 162b a4bd
00000050: 64e3 9abd 98d9 c0bc c45c 923d 3f6b 1dbd
00000060: e1dd 28bd e7e7 903c 452d 35bd 14b7 fa3c
00000070: c023 803d 2fa1 80bd a377 b53d ba0a 993d
0.02715547 -0.051192358 0.07292883 0.10359471 -0.047368705 0.0020555055 -0.10166971 0.01615063
-0.032440413 0.028895158 -0.08149246 0.0303904 0.025236392 0.069308676 0.06848003 0.045844626
-0.04954537 0.03592683 -0.025700577 -0.080160305 -0.075629026 -0.023541257 0.071466 -0.038432356
-0.041227225 0.017688705 -0.044232626 0.030604877 0.06256819 -0.06280743 0.088607095 0.07472749

bn2.weight f4 [32]
00000000: 3cdb 7b3f ac91 753f fca1 7a3f 3ce2 7e3f
00000010: cae5 833f f5c9 873f 733b 8b3f 6894 893f
00000020: 6bbf 793f 19e8 833f 35d9 793f 6c58 833f
00000030: bc7c 763f e88e 7f3f b496 813f ad38 873f
00000040: e5cb 783f 7a5a 843f cb45 833f 8881 873f
00000050: ba40 793f 72bf 7a3f 1865 7a3f fb94 813f
00000060: 2027 7b3f 966b 7d3f 5dc2 7f3f 2ebd 793f
00000070: 4cfd 7f3f 6eb8 723f 9d7e 733f ad4b 813f
0.983814 0.959254 0.9790342 0.99563956 1.0304501 1.0608507 1.0877517 1.0748415
0.97557706 1.0305206 0.97597057 1.0261359 0.9628408 0.9982743 1.0124116 1.0564171
0.9718612 1.0340111 1.0255674 1.0586405 0.9736439 0.9794837 0.97810507 1.012359
0.98106575 0.9899229 0.9990595 0.9755429 0.99995875 0.9481267 0.9511507 1.010122

bn2.bias f4 [32]
00000000: 9d88 6dbd 38ca 3dbd 4f01 2b3c 6bbc 2bbd
00000010: c50e 0ebd 8703 70bd 1c39 eebc 933b 34ba
00000020: 8a2c fbbd c2e6 d5bc cf34 83bd 1675 50bb
00000030: 3521 fa3c ada5 9fbc dfd9 a23d d395 cfbc
00000040: 1645 9ebd d357 c43c ae9b 923c bbf6 403d
00000050: f7a6 68bc 6d03 8ebc 820f 0a39 c6a1 eb3c
00000060: 9324 04bd 1013 f3bc f1ca 83bd 9b6c f9bb
00000070: eaad 0fbd a819 57bd d1c2 b0ba 1352 d13b
-0.057991613 -0.04633543 0.010437324 -0.041927736 -0.034682054 -0.058597114 -0.029079966 -0.00068753323
-0.122643545 -0.02611101 -0.06406557 -0.003180807 0.030533412 -0.01948818 0.07951712 -0.025339996
-0.07728021 0.02396766 0.0178965 0.0471103 -0.014199964 -0.017335618 0.00013166483 0.028763663
-0.032261442 -0.029672176 -0.064351924 -0.0076118237 -0.035077967 -0.052514702 -0.0013485794 0.006387958

bn2.running_mean f4 [32]
00000000: c5e0 fabe 468b 3b3f 8ad0 d53e 9378 1cbf
00000010: 5c31 43bf 976e cdb7 b837 2ebf 9c84 c2be
00000020: 63d5 bfbe bef8 f8be 724b 77bf 100e 05bf
00000030: 2c2f 0b3f da58 07bf 83b0 a0be d874 27bf
00000040: 42d0 35bf 457a 17bf 1f67 c4be e1aa a7be
00000050: 4325 10bf 3a82 8ebe 792d fa3d 7fee 433f
00000060: 96b0 1bbe 0b12 fbbe 79f0 47bf d081 4b3e
00000070: 3f10 983d 1cbc 5fbc 9fb8 78bd 89fd cdbe
-0.4899961 0.7325939 0.41760665 -0.6112148 -0.7624719 -2.4489402e-05 -0.6805377 -0.37991798
-0.3746749 -0.48627275 -0.96599495 -0.5197458 0.54368854 -0.5286995 -0.31384668 -0.65412664
-0.710209 -0.59170943 -0.38359925 -0.32747558 -0.56306857 -0.2783373 0.122157045 0.7653579
-0.15204081 -0.49037203 -0.7810131 0.19873738 0.07424974 -0.013655689 -0.060722943 -0.40232494

bn2.running_var f4 [32]
00000000: 8b5c 903e 220a b53e 151d ed3e 3049 b83e
00000010: 6303 953e 151c 453e cbc8 aa3e d32c 8d3e
00000020: 8b8f 243e 4fa1 973e d180 103f 2582 d83e
00000030: 7be7 df3e ca0b 983e 9c47 513e 54c9 8b3e
00000040: ecbc 843e 82f1 883e 3951 543e 793b 933e
00000050: d9af 893e c788 643e dd39 9c3e beb2 a73e
00000060: 5d97 be3e a432 c13e 1cd5 b33e ef0b 783f
00000070: 3762 be3e 551b a83e 829b 0d3f d05d 183e
0.28195605 0.35359293 0.4631125 0.35993338 0.29104146 0.19248994 0.33356318 0.2757326
0.16070382 0.29615256 0.5644656 0.42286792 0.43731293 0.29696494 0.20437473 0.2730204
0.25925386 0.26746756 0.20734109 0.28756312 0.26891974 0.22317801 0.30512896 0.32753557
0.37224856 0.37733948 0.35123527 0.9689321 0.37184307 0.32833353 0.5531541 0.14879537

conv3.weight f4 [64, 32, 3]
00000000: 64d1 6ebd 2aa0 cabc 2b0b 09bd 21fc e63c
00000010: d334 7b3c d227 27bd 7b33 70bd 7ccb 6d3d
00000020: 8820 a73d e0a9 1f3b f311 103d 6250 7e3c
00000030: c478 173d 0f15 843c 5a17 4cbd 38c6 3abd
00000040: 2551 403d 65e9 d43d 674c 06be 8d29 debd
00000050: 1345 8ebd 6d2d 20bd e772 02bd 55b2 8e3c
00000060: 2400 80bd 5911 583d e4ec 85bd 5017 a33d
00000070: 9d19 b13d d044 a03d cd45 62bb 89c4 38bd
00000080: e1ab 503d dc3a 7bbd 7c92 9fbd c4b6 063c
00000090: 8a42 5ebd b5d3 833d 7ca4 12bd 2132 663d
000000a0: bc0f 0c3d 669f 5f3d f4ef 0a3d e27d 0bba
000000b0: 410f fe3d f7ee bdbd 0f4e c8bb 100c 433d
000000c0: 656a 8fbc 0adb ad3d eb4b 5e3d cedd a4bc
000000d0: f28c 6bbb 8286 2f3d f4ab c8bd 7b31 c8bd
000000e0: 1c65 95bd e4a5 503d 3e36 fdbd 7402 173b
000000f0: fa7f 15be 1ea7 5d3c 5022 55bd 25c8 19bb
00000100: ea69 613d c8a9 6cbd 9db2 dd3c 9426 d83c
00000110: f52a 6bbc e065 e43c 0fca ccbc 3f3f 6cbd
00000120: 9f70 503d 0051 7b3d c455 8cbc b8c6 8abd
00000130: bcc2 b2bd 0156 3bbd 56c5 12bb 0779 e2bc
00000140: adc8 d53d eafd abbd fe9f a6bd 0a75 c8bc
00000150: 148c 20bd 6acb be3d 8ea0 c7bb 3d8b 473d
00000160: ce4f 2a3d 6e67 373d 8919 f2bd d5dd 0ebd
00000170: 58fd 91bd 3371 743d 84ee f83b 599e da3d
00000180: b220 81bd 7dc5 b73c cb52 3d3a feec 723c
00000190: 025f 3dbd 2b81 a63b de87 d2bd 4a7f 8ebd
000001a0: 1f67 7f3d d417 3bbc f9e6 bd3d b906 babd
000001b0: cc67 46bd b224 85bc f77a a73c c7d4 a7bd
000001c0: 856b 943d 4a6c 1d3d 4b06 4e3c cccd de3c
000001d0: d5b9 953d 9dd6 ec3d 2328 223d 1b7d 1cbe
000001e0: 0570 a63d 0fa1 4ebc acb6 9ebd f2f7 983d
000001f0: af47 fd3c 4e49 233c 840a ea3c 5db8 80bd
00000200: 7e11 4d3d b3a9 27bc fedc d43c fc72 c33d
00000210: 6efb a2bc 536b 88bc 4f72 e9bc 16fe 40bb
00000220: 0607 0ebd da37 f1bc 73c1 98bc 9315 43bd
00000230: a85b a5bd 65e7 adbc 55f9 f93d 9963 bbbb
00000240: 031b a6bc 31ab 3ebc aa8d 483c 953c 903d
00000250: 12d6 bdbc 80f9 82bc 1208 38bd 5e87 85bd
00000260: ab91 00be 737a bf3d e290 a9bd 7e72 983b
00000270: 475a 6d3b 8e01 d7bd 9b27 cebd 2e10 dabc
00000280: 6922 eabd 2c98 5a3d 342a 7c3d f1ae a93b
00000290: fd70 c9bd 5f82 ddbc b5a2 2bbd 5f2b d83d
000002a0: d719 9d3d fa76 313b b6a8 89bd e6eb c7bd
000002b0: 3a36 af3b 43fe 08be 653b 713d a155 7b3d
000002c0: 787d 58bd ca7e 8fbd 6975 24bb 83ff b93d
000002d0: 4fc3 4e3d b47a 9abd f3e8 d1bd 3f85 383b
000002e0: 72e8 87bd d093 043d 3bf7 b83d 0769 57bd
000002f0: cf27 6abd dee9 2b3d 7ef9 043c cf3d 2b3c
00000300: ecf8 afbd 49dd b1bc 5267 a4bd b57f c5bd
00000310: ffe6 29bd 3ffe 213d 04bb bbbd 6859 bebd
00000320: 7134 8e3d a8a4 833d ddb4 9ebd 012e fcbc
00000330: 33e2 cc3d a404 1abd 582a 31bd f6e3 363d
00000340: 37e1 9d3d 9e03 dbbc 5629 1dbd 944f c9b9
00000350: feb2 9d3d 8142 c23d 737a f53c fbe9 a2bc
00000360: 84f3 9bbd 4549 3e3c 2ec1 d73c 5832 983d
00000370: 4dce 833d 93c7 bd3d bac5 b9bd 3ab8 9c3d
00000380: 8d45 d139 af48 1cbd 5891 23be 21a5 3bbd
00000390: 22de 263d 6755 403d 72de c5bc 4a13 18bc
000003a0: 0168 2a3d 646a d9bb 5215 4cbd fed3 98bd
000003b0: 7f0d cabd 3427 f33c 5295 103e 7ff6 cabd
000003c0: 73d7 aa3d 58f9 50bc 265d 253e 29e1 cdbd
000003d0: 46d0 b2bd b29e 32be 2ab7 893d e3d0 dc3c
000003e0: a96e c53d fa5e 853d 8749 f2bd 7edb 3cbd
000003f0: 8e97 c1bd 6e74 813c 4ed5 febd 2ba7 66bd
-0.05830516 -0.024734575 -0.033457916 0.028196396 0.0153324185 -0.04080946 -0.058642846 0.058055386
0.08160502 0.0024362728 0.035173368 0.015522094 0.036980405 0.016123323 -0.049826957 -0.045599192
0.046952385 0.10396079 -0.13115083 -0.10847769 -0.069467686 -0.03910582 -0.03184786 0.01741902
-0.06250027 0.05275092 -0.06539324 0.07963431 0.086474635 0.07825625 -0.0034526468 -0.045109306
0.050945166 -0.06133543 -0.077916116 0.008222286 -0.054262675 0.06436864 -0.035801396 0.05620015
0.034194693 0.054595374 0.033920243 -0.0005321187 0.12405253 -0.092740946 -0.006112821 0.047618926
-0.017506788 0.08489044 0.05427162 -0.020125296 -0.0035942164 0.042852886 -0.097984225 -0.09775063
-0.07294676 0.050939456 -0.123638615 0.0023042234 -0.145996 0.013528613 -0.052034676 -0.0023465243
0.05503265 -0.057779104 0.027062709 0.026385583 -0.0143535035 0.027880609 -0.024998693 -0.057677504
0.050888654 0.061356544 -0.01713074 -0.06776184 -0.08728549 -0.045736317 -0.0022395453 -0.027645601
0.104386665 -0.0839804 -0.08135985 -0.024469871 -0.03919609 0.09316142 -0.0060921377 0.048716772
0.041580014 0.044776373 -0.11821277 -0.034879524 -0.071283996 0.059678268 0.0075967927 0.10674734
-0.06305064 0.022433037 0.0007222115 0.014827011 -0.046233185 0.005081316 -0.10279821 -0.06957872
0.062354203 -0.011419255 0.0927257 -0.090833135 -0.048438832 -0.01625285 0.020444376 -0.08194881
0.0724707 0.03843335 0.012574743 0.027197741 0.07310835 0.11564372 0.03958906 -0.15282099
0.08126835 -0.012611642 -0.07749686 0.07469167 0.03091797 0.009966208 0.028569467 -0.062851645
0.05006551 -0.010233331 0.025984284 0.09543416 -0.019895282 -0.016652739 -0.02849689 -0.0029448322
-0.034674667 -0.029445577 -0.018646931 -0.047627997 -0.08074123 -0.021228502 0.122057594 -0.00571866
-0.020276552 -0.011637495 0.012240807 0.07042805 -0.023173366 -0.015988111 -0.04492957 -0.0651996
-0.12555568 0.09349527 -0.08279587 0.0046523204 0.003621714 -0.104983434 -0.10066148 -0.026619043
-0.114323445 0.05336778 0.061563686 0.0051783253 -0.09836004 -0.027039705 -0.041903216 0.105551474
0.07670944 0.0027078972 -0.06721632 -0.09761791 0.0053470405 -0.13378243 0.058894534 0.06136096
-0.05285403 -0.07006605 -0.0025094396 0.09081938 0.05047923 -0.07542935 -0.1024951 0.0028155593
-0.06636132 0.032367527 0.090315305 -0.052590396 -0.05716687 0.04197108 0.008116124 0.010451748
-0.085924 -0.021711962 -0.08027519 -0.09643499 -0.04148006 0.03954911 -0.0916653 -0.09294397
0.06943596 0.0642789 -0.07749341 -0.030783655 0.100040816 -0.037602082 -0.043253273 0.044650994
0.07708972 -0.026735123 -0.0383695 -0.00038396998 0.07700156 0.09485341 0.029965615 -0.019886961
-0.07614806 0.0116141485 0.026337232 0.07431477 0.06435833 0.092665814 -0.090709165 0.07652326
0.00039915406 -0.038155254 -0.15973413 -0.045811776 0.040739186 0.046956446 -0.024153922 -0.009281943
0.041603092 -0.006634997 -0.04982502 -0.07462309 -0.098658554 0.02968178 0.14119461 -0.09910297
0.08341875 -0.012754761 0.16148815 -0.100527115 -0.08731131 -0.1744335 0.06724389 0.026955074
0.096402474 0.06512256 -0.118304305 -0.04610776 -0.09452735 0.015802588 -0.124430284 -0.056311768

conv3.bias f4 [64]
00000000: a298 67bd 8aaf ab3d 4c76 9abd 6b35 32bd
00000010: fca3 53bd 8e8e a1bd b584 aabd f7a9 993d
00000020: 4de3 7e3c 8bc2 453d 67e7 e73c 5853 c2bd
00000030: 8544 82bd 043c 69bd f91f 043c 3340 453d
00000040: de36 67bc eadd be3d 93c6 b73b 34c6 5e3c
00000050: c827 a8bd 50df 6bbd 09a9 bc3a 2c39 2fbc
00000060: d048 bb3d 77e3 a23d cb50 d9bc 9e4d c9bd
00000070: 5fee 0b3d 0bcc 8c3d efd1 95bd b841 56bd
00000080: 7cfd c6bd 6015 ba3c ad35 9f3c b08b c7bd
00000090: 32c6 41bc 5f37 e8bc 0917 c63d 4756 813d
000000a0: 7894 933c 0a57 323d b79c 2abb d190 673d
000000b0: 9c64 79bd d835 cfbd d655 023d 3cba 383d
000000c0: 16a4 c2bc a6b7 e6bb 9c3f 163d d766 973c
000000d0: 65fb 5abc e8fc fdbc e1b6 bebd 928c 58bd
000000e0: dc7d 8f3d 4f5e a53d 4ed8 583d 71c4 f33c
000000f0: 835d 613d ffae 54bc 316e 343c cff2 26bd
-0.056542046 0.08383091 -0.075420946 -0.043507975 -0.05167006 -0.07888518 -0.08326093 0.07503121
0.015557122 0.048281234 0.028308583 -0.09488553 -0.06360725 -0.056942 0.0080642635 0.04815693
-0.014112202 0.093196705 0.0056083887 0.01359706 -0.08210713 -0.057586014 0.0014393638 -0.010694783
0.09144747 0.07953542 -0.026527783 -0.098292574 0.034162875 0.068748556 -0.07315432 -0.052308768
-0.09716317 0.02271527 0.019434774 -0.0974344 -0.011827039 -0.028346715 0.09672362 0.06315284
0.018015131 0.04354004 -0.002603335 0.056534592 -0.060886964 -0.10117692 0.03182014 0.045099482
-0.023759883 -0.0070409356 0.036681756 0.018481655 -0.013365601 -0.031004384 -0.09312225 -0.052868433
0.07006428 0.080746286 0.05294066 0.029756756 0.05502082 -0.012981175 0.0110126 -0.040758904

bn3.weight f4 [64]
00000000: 058b 783f a42a 7d3f 17d9 7e3f 12d7 7b3f
00000010: e02c 723f e220 813f 25ff 823f 0afe 813f
00000020: e97a 753f 7b32 7b3f b5bb 853f b005 7e3f
00000030: 30b7 7d3f d2a4 753f afa4 793f 5b79 863f
00000040: 0710 7f3f 70a4 833f e678 723f 47d9 833f
00000050: 155b 803f 6417 7c3f 2fd7 7f3f d287 713f
00000060: 96e8 7b3f 0203 8c3f 861c 6b3f dc89 7e3f
00000070: b0a9 803f c18b 703f c8a5 833f 88fe 793f
00000080: 6dc8 803f 4df4 873f 5c32 823f b95c 843f
00000090: 45e3 8a3f 9755 863f 1744 733f 7fab 823f
000000a0: b46e 803f 6815 7f3f f62d 6d3f 1b7a 773f
000000b0: eff6 7e3f 76c7 803f c6a3 763f 614a 8c3f
000000c0: e9b0 7a3f 74ab 763f 9fb6 7b3f 5182 723f
000000d0: 346b 823f 978c 893f a054 7e3f 5184 863f
000000e0: 1f9d 843f b36c 6e3f d128 723f 8428 793f
000000f0: 208a 7b3f e906 883f 6b63 863f 58aa 883f
0.97087127 0.9889319 0.9955 0.98375046 0.94599724 1.008816 1.0234114 1.0155652
0.9589067 0.981239 1.0447909 0.9922743 0.99107647 0.9595462 0.9751691 1.0505785
0.9963383 1.0284557 0.94715726 1.0300683 1.0027796 0.9847319 0.9993772 0.9434787
0.9840177 1.0938418 0.918404 0.99429107 1.0051785 0.9396325 1.0284967 0.9765401
1.0061165 1.062143 1.0171618 1.0340797 1.0850607 1.049487 0.9502577 1.0208586
1.0033784 0.9964204 0.92648256 0.96670693 0.9959554 1.0060871 0.9634365 1.0960199
0.97926193 0.96355367 0.9832553 0.947301 1.0188966 1.074603 0.9934788 1.050913
1.036045 0.9313461 0.9459353 0.97327447 0.9825764 1.0627109 1.049909 1.0676985

bn3.bias f4 [64]
00000000: 5d3c 21bd 037f 4c3a 2d21 fabd f3c1 98bd
00000010: ef91 8cbd d7c1 0dbc 877f 03bd f52b cdbc
00000020: 4d1c d7bc ac44 8bbd fe36 38bd bf1a 7cbd
00000030: e847 c93c 1005 86bd a4e1 33ba edbe 3dbd
00000040: 302d 67bd 9d12 56bd d17e 4bbd 7646 dabc
00000050: 093b 4bbd 5842 70bd 0267 57bd 2990 1a3c
00000060: de13 f7bc 5843 8fbd 3cfa 85bd cff4 983c
00000070: f45a 1cbd a315 77bb b4f7 d6bc ddaa d8bd
00000080: 2004 f1bc cf58 c2bc 9bcc 513b a1d5 1bbd
00000090: 3edd 393c bf7a 8cba fc58 0dbd fde0 0bbd
000000a0: cae0 b1ba 66c9 a8bc f5eb 91bd 7f5b 6dbd
000000b0: b93d 43bd d6a3 6abd 95c8 71bd d40d 0bbd
000000c0: 6901 82bd 426e 41bd 576a 8f3b 1160 88bc
000000d0: 2823 b8bd f877 16bd 2ee8 c1bb 0805 72ba
000000e0: df48 98bc 1fe8 4bbd e6f1 c1bd 262b d4bc
000000f0: 2a25 84bc 2141 61bd ff36 83bd 8553 1bbd
-0.039364208 0.00078009086 -0.12213359 -0.07458868 -0.06863772 -0.008652172 -0.03210404 -0.025045374
-0.026258612 -0.068002075 -0.04497432 -0.061548945 0.02457042 -0.06543934 -0.0006861931 -0.04632466
-0.05643958 -0.052263845 -0.04968149 -0.026644927 -0.049616847 -0.05865702 -0.05258847 0.0094337845
-0.03016084 -0.06995267 -0.06541869 0.018671421 -0.038172677 -0.0037702105 -0.02624116 -0.105794646
-0.029420912 -0.023723988 0.0032012824 -0.03804553 0.011344252 -0.0010717734 -0.03450869 -0.034150112
-0.0013571021 -0.020603847 -0.07125083 -0.057948586 -0.047666285 -0.057285152 -0.05902918 -0.033948734
-0.06347925 -0.04722429 0.0043766904 -0.01664737 -0.089910805 -0.036735505 -0.0059175706 -0.0009232317
-0.018589435 -0.049781915 -0.094699666 -0.025899481 -0.016131002 -0.054993752 -0.06406974 -0.037921447

bn3.running_mean f4 [64]
00000000: 9264 95be e097 b6be 43b6 08bf 3771 3dbe
00000010: e954 f03e 6729 07be 6c54 85be ea07 5abd
00000020: f161 9dbe e057 0fbc 0e25 01bf 8579 35bf
00000030: 87a2 2ebf 017b b83d 2427 29bf 99bf b1be
00000040: bd7e 59bf 81df 44bf bfad 21be 6b8a 69bc
00000050: 49be 7abf 191a 923d fa55 03bf 5fa6 64be
00000060: 74b0 8dbe fbd3 d5be b6d5 a23e dcb0 21bd
00000070: b788 e1be b987 99be 2028 bcbe 9614 81be
00000080: 9d33 52be 04b7 f7bc 050a 96be d35b 10bf
00000090: 579e 45be 1e11 84be d498 963c 17ee 3d3e
000000a0: 3a48 62bc 0bed 88bd b448 ea3d 6aad 0bbf
000000b0: 0c01 133c ebdb 2e3e 666d 0d3e d92a 63bf
000000c0: 4f7b 53be ff2e 743d 88af 003e aede 61be
000000d0: 5e86 70bc 47ff 683c fbcc 50bf afbf 1fbd
000000e0: 033e 8abe 2dfa aa3e 0a2c 11bf 2603 47bf
000000f0: 62f2 13bf 18ff c4be 82b1 aabe 9d48 67bf
-0.29178292 -0.35662746 -0.5340311 -0.1850022 0.4693978 -0.13199387 -0.2604097 -0.053230204
-0.30738786 -0.008748978 -0.50447166 -0.7088855 -0.6821675 0.09007836 -0.6607535 -0.3471649
-0.8495901 -0.7690354 -0.15788935 -0.014254193 -0.979466 0.07133884 -0.51303065 -0.2232909
-0.27673686 -0.4176329 0.31803674 -0.039475307 -0.44049618 -0.2998636 -0.36749363 -0.25211018
-0.20527501 -0.030238636 -0.2930452 -0.5639011 -0.19298683 -0.2579431 0.018383421 0.18547855
-0.0138111655 -0.06685837 0.11439648 -0.54561484 0.008972418 0.1707608 0.13811263 -0.88737255
-0.20652507 0.05961513 0.1256696 -0.22057602 -0.014680473 0.014221019 -0.81562775 -0.039001163
-0.27000436 0.33393994 -0.56707823 -0.7773918 -0.5779172 -0.3847587 -0.33338553 -0.90345174

bn3.running_var f4 [64]
00000000: d945 cc3d 86e4 503e 925b 283e bf8c 123e
00000010: 9328 413e f768 0b3e 72be 3a3e 9682 533e
00000020: a46e 773e 843f f03d eda7 773e b7cc d53e
00000030: 0c75 423e 7717 033e 90f9 ac3e ba10 023e
00000040: db75 843e 2c27 7c3e ff25 973e 3e61 c03d
00000050: 4cf7 3c3e b370 113e df65 ef3d e14e f23e
00000060: c377 5f3e cea0 ac3d 5975 0f3f 2a33 153e
00000070: 56ca d13d 85ea 643e e146 843e ea27 c83d
00000080: 968b e83d 9ad0 543e 693e 7f3e 46bd f83d
00000090: 810f 2a3e 3126 f03d 088c df3d 2329 203e
000000a0: 0162 de3d 5513 0f3e 308d d13d 1488 f83d
000000b0: 9d54 093e ee18 293e f903 453e ab86 333e
000000c0: 350b 743e f1f8 273e 5cac de3d a13b 193e
000000d0: c761 123e 11e0 463e d520 163e 3d78 853e
000000e0: 0397 193e a725 ae3e 67f7 3e3e 322d 663e
000000f0: 49ed 443e 0ba8 283e dfa6 d23d 6c15 453e
0.0997426 0.20399675 0.16441181 0.14311503 0.18863134 0.1361426 0.18236712 0.20655283
0.241633 0.11730865 0.24185152 0.41757748 0.18989962 0.1280192 0.3378415 0.12701693
0.25871167 0.24624318 0.29521176 0.093935475 0.18453711 0.14203148 0.11689352 0.47325805
0.21823029 0.084291086 0.56038433 0.14570299 0.10243671 0.22355087 0.25835326 0.09773238
0.11354749 0.207827 0.24926151 0.12145476 0.16607477 0.117260344 0.10915381 0.15640692
0.108585365 0.13972218 0.102320075 0.1213533 0.13411184 0.16513416 0.19239797 0.1753184
0.238324 0.16403557 0.10872719 0.14964153 0.14295112 0.19421412 0.14660962 0.26068297
0.14999013 0.340131 0.18649064 0.22478178 0.19231142 0.16470353 0.102857344 0.19246453

conv4.weight f4 [64, 64, 3]
00000000: a190 1b3c 86a1 2fbd 5e2a d73c b513 a5bd
00000010: 8970 9a3c ee7d 90bd e99c 1fbd e3e5 a4bd
00000020: d14e c23b 0a38 48bd 16f3 04bd aabf 3a3d
00000030: 5d35 983c 2be5 f2bc c8cc 1fbd 1b24 82bd
00000040: ff60 8a3c 0e65 bebc 2fc4 0b3c ca57 a1bc
00000050: 67a6 8bbb f519 4dbd 3024 53bb 9dc6 aebd
00000060: 10c5 023d 286d 25bd 9933 0abd 4f06 76bc
00000070: 8ca3 c13d e898 acbd a0c6 3ebd f973 c2bb
00000080: 3047 c0bc 134b ccbc 3ce6 4f3d 405d 87bd
00000090: 03ac 493d 1ee5 9a3a 4717 173d c0df ccbb
000000a0: 9e97 eb3a 2261 50bd 4bab 103d 359d f23c
000000b0: 50eb bfb9 e737 133b 1419 2b3d 880d 383c
000000c0: 4556 4bbd 6691 483c 2694 72bc a442 8fbd
000000d0: 2fe1 1fbd 6dd3 64bd b03d 1c3c 3bf1 8bbd
000000e0: d6c7 ae3c 42bd a7bc 834f 8abd dc4a aabc
000000f0: 50a0 94bd 6198 4d3d 7515 3bbc ff3f 1dbb
00000100: 09a7 533c 04a1 be3d f929 783d 19e9 a73c
00000110: 7dbb 213b 1893 1a3c 983e a03c 8db5 103d
00000120: 9f19 b53c 4dbc 20bd 8d58 413d 8fab 9b3d
00000130: e173 acbc beb8 383b beea f1bc b675 403d
00000140: 610d 223d c150 40bb e98b bbbd 41f0 39bd
00000150: 8969 94bd 2396 67bc 2abf b8bc 5f74 77bd
00000160: 1974 133d 6d91 093d 478a 29bc bcfa 7cbc
00000170: 0808 d23d 4ce2 0f3d 1851 e7bb dd8a 85bb
00000180: 161c a7bd 35c2 fa3c 33c1 58bc a548 cf3d
00000190: b7d8 0b3d 5e13 c03d cf71 8e3c 9cb5 793d
000001a0: 11da f53c 4fcd bebd cc73 e9bc 5ebc dcbd
000001b0: 56cc 813c 8923 19bd fbc1 dfbc 13f4 783b
000001c0: f9be 623c 7f16 febc be02 e4bc 3f14 5cbd
000001d0: 917f 51bc d2f2 c8bd 3d2c df3c 542f e1bc
000001e0: 079f d23b 1e2c ff3c 96a0 a7bc 0983 90bb
000001f0: 3d7b 36bd 4c5d 66bb d0c7 52bd 3945 e73c
00000200: 8be6 1b3c 4b1e 32bd df46 903c 4759 e6bb
00000210: 6f22 d9bd 4286 eabc ad20 91bd 19c7 fe3b
00000220: bdd7 a23b e1fd 87bd 2e24 023d 5534 20bd
00000230: 3741 6e3c 8cd6 633d 7966 8c3d 6721 653c
00000240: 9b3b 633b 8e77 cbbc ed48 8ebd 73a1 d03c
00000250: f77c edbb ce58 17bb fe4b 19bc 4602 81bc
00000260: cc96 52bd dbf9 76bb cb60 11bd a95f 79bc
00000270: 76e2 1cbd ad84 c3bc 1ac9 9fbd fb19 833d
00000280: 7386 063e b0a9 df3d 5563 82bd b0d3 153d
00000290: db4e 49bd 01df dbbc beaa 1dbb 746b 39bc
000002a0: 3120 2dbc 3fa0 993d c8a6 37bd 451c 0ebd
000002b0: 2c4a c13c 2ce4 b13b 56d8 4e3d bd24 f6bd
000002c0: 4edd ad3c 0312 bfbc 16de 2cbd 5dc5 47bd
000002d0: c2e5 cdbb 477b f2bc 8aa5 6cbd df29 203d
000002e0: 1d4f 9ebd 28d5 adbc c07d 883d 9588 a0bd
000002f0: bd14 953d d13a babd 3763 98bd 3f99 5ebd
00000300: d974 903d 4120 0e3d fc98 753d 5c01 66bd
00000310: 4651 f53c 4c53 f43c e929 873c cd58 51bc
00000320: f3b3 dfbc 586a b73d 230f 103c 0f3e 3c3d
00000330: 32d0 41bc 1946 b43c 7310 a2bc d186 953c
00000340: 4d1e 22bc 30ff 183d ca38 873a a4ad bb3b
00000350: 9c29 61bc 20bb 0e3d 116f 57bd 9090 a03c
00000360: 2397 9b3c 7e35 b83c a5e0 ab3c 9102 65bd
00000370: e7b7 c13c a94e 153d 8efa b1bc 7bc3 dbbb
00000380: 1350 36bb 073c 39bc b26e 603d 90d4 eebb
00000390: d5c9 273d f307 bc3a 1f33 e3bc b1d5 253d
000003a0: 55ec 713c ed24 933d 764e 9f3a f22d 4d3d
000003b0: cf3e 0ebd 898b 6c3d ad7c 5abc a915 34bc
000003c0: 1cbd edbb bd79 1f3d c7e7 28bd 8e71 59bb
000003d0: 689d 5a3c fada abbc c053 cabc 6632 713d
000003e0: 3ec5 113b c71c e4bc cf6f 98bd f7a2 023d
000003f0: 4fde 19bc 4e98 09bd ae7a 3b3d 2981 e03c
0.009494931 -0.04287865 0.02626532 -0.080603994 0.01885249 -0.07055269 -0.038968 -0.0805166
0.005929806 -0.048881568 -0.032458387 0.04559294 0.018580133 -0.029650291 -0.039013654 -0.06354543
0.016891954 -0.023241546 0.0085306605 -0.019695181 -0.00426178 -0.050073583 -0.0032217614 -0.08533976
0.031926215 -0.040387303 -0.033740614 -0.0150161525 0.09455022 -0.08427602 -0.046576142 -0.005934235
-0.023471445 -0.024938142 0.050756678 -0.06609583 0.04923631 0.001181755 0.036887433 -0.006252259
0.0017974263 -0.050873883 0.035319608 0.029615978 -0.0003660568 0.002246374 0.041771963 0.011233695
-0.04964282 0.012241697 -0.014805829 -0.069951326 -0.03903311 -0.055865694 0.009536192 -0.068331204
0.021335524 -0.020475987 -0.06753447 -0.020787649 -0.0725714 0.050194148 -0.01141869 -0.0023994443
0.012918242 0.09308055 0.060586903 0.020496892 0.0024678402 0.009434484 0.019561097 0.03532939
0.022106944 -0.039242078 0.04720359 0.076010816 -0.02105135 0.0028186287 -0.02953088 0.046987258
0.03956354 -0.0029345008 -0.09157545 -0.04539514 -0.07246692 -0.0141349165 -0.022552092 -0.060413714
0.03599939 0.033585954 -0.010347909 -0.015440639 0.10255438 0.035127923 -0.0070592277 -0.0040753917
-0.08159654 0.030610183 -0.013229656 0.10121278 0.034142222 0.09378694 0.017388253 0.06096421
0.030011209 -0.09316503 -0.028497599 -0.10778116 0.015844505 -0.037387405 -0.027314177 0.0037987276
0.013839477 -0.031016586 -0.027833339 -0.053730246 -0.012786762 -0.09811939 0.027242774 -0.027488388
0.006427649 0.031148966 -0.020462316 -0.004410152 -0.044551123 -0.0035150824 -0.051460087 0.02823125
0.009515415 -0.04348592 0.017611919 -0.0070296857 -0.10602271 -0.028628472 -0.070863105 0.007775199
0.0049695657 -0.066402204 0.031772785 -0.039112408 0.014541916 0.05562453 0.068554826 0.0139850145
0.0034672979 -0.024837282 -0.06947503 0.02546761 -0.007247563 -0.0023093703 -0.009356497 -0.015748154
-0.051413342 -0.0037685547 -0.0354927 -0.015220561 -0.038301907 -0.023866976 -0.07802029 0.0640144
0.13137226 0.10921037 -0.06366602 0.036578834 -0.049147468 -0.026839735 -0.002405807 -0.011317123
-0.010566757 0.07501268 -0.04483679 -0.03469493 0.023594938 0.0054288115 0.050499283 -0.12018726
0.02122369 -0.023324018 -0.042203985 -0.048772205 -0.006283493 -0.029599799 -0.057775058 0.03910243
-0.077299334 -0.021219805 0.0666461 -0.07838551 0.07279346 -0.090932496 -0.07440799 -0.054345366
0.07053537 0.03469873 0.05996035 -0.05615364 0.02994598 0.029824875 0.016499477 -0.012777519
-0.027307486 0.0895583 0.008792671 0.04595762 -0.011829423 0.022006081 -0.019783234 0.018252762
-0.00989492 0.03735274 0.0010316607 0.0057274867 -0.013742831 0.034846425 -0.052596156 0.019600183
0.018992966 0.022486445 0.020981142 -0.05591065 0.023647262 0.03645197 -0.02172592 -0.0067066527
-0.0027818724 -0.011305816 0.054793067 -0.007288523 0.040963966 0.0014345631 -0.027734337 0.040486995
0.014765819 0.071847774 0.001215412 0.050092645 -0.034727868 0.05775026 -0.013335389 -0.010991492
-0.0072552096 0.038934458 -0.041236665 -0.0033179256 0.013343193 -0.02097844 -0.024698138 0.058885954
0.002224281 -0.027845753 -0.07443201 0.031893697 -0.009391381 -0.033592515 0.045771293 0.027405338

conv4.bias f4 [64]
00000000: ef06 cfbd 758c 1fbd 978d c8bc 1bdf a6bc
00000010: 68cf 1a3d 1e4a fc3c f079 603d cabf 293d
00000020: 2e57 7b3d a719 893d d8de b1bd b71d 63bd
00000030: 7cd4 103d 1cf2 083d 661d 5d3d 11a6 98bd
00000040: 1a6e b53c 4e73 d23c 22d4 adbd e6cb 833d
00000050: b07e 18bd 2098 313b 507b 6cbc 971f 963b
00000060: 7215 5c3d b27d eebc 5488 1cbd f528 81bd
00000070: 174e 02bd 4613 0d3c 6467 213c 087c a3bb
00000080: 10e1 e13c 9d90 3ebd 4567 63bc 1fff a9bc
00000090: 38f5 3bbb 3e1c 47bd 2400 96bc 7e80 9bbd
000000a0: c9cd 573c 1e7f 03bc 8751 9bbd 4cec abbc
000000b0: 695e 39bd 9f8e a0bc 9a82 c5bc 3e63 65bb
000000c0: a319 4dbd 429a cf3c 999b 9a3d 57a3 3d3d
000000d0: 3cbf f8bc bd4a 243d 433b e8bb c858 a5bc
000000e0: cb78 b13d 38e2 33bc 9ddf dcbc a74a 2b3c
000000f0: 820f 063d 30db 2e3d 24ef ea3c 209a db3d
-0.10108744 -0.03895231 -0.024481578 -0.020370057 0.037795454 0.03079706 0.05480379 0.04144267
0.061362438 0.06694346 -0.08685082 -0.05544826 0.03535889 0.03343402 0.053983115 -0.0745355
0.022147227 0.025689747 -0.08487727 0.06435375 -0.037230194 0.002709873 -0.014433697 0.0045814025
0.05373139 -0.02911267 -0.03821595 -0.0630664 -0.031812754 0.008610552 0.00985131 -0.004989151
0.027573138 -0.046524633 -0.013879602 -0.020751534 -0.0028680097 -0.04861092 -0.018310614 -0.07592867
0.013171622 -0.008025913 -0.075839095 -0.020986699 -0.045256052 -0.019599257 -0.024110127 -0.003500178
-0.050073277 0.02534211 0.07549209 0.04629835 -0.030364625 0.04011034 -0.0070871427 -0.020183936
0.086656176 -0.010979228 -0.026962096 0.01045481 0.032729633 0.042689502 0.028678484 0.107227564

bn4.weight f4 [64]
00000000: 81cc a23f 3805 9c3f 23c4 9f3f 7991 9d3f
00000010: 4556 9e3f 2998 993f 6a3f a13f 7641 9c3f
00000020: fd73 a13f 2a07 a33f 2f9a 993f 2db5 a13f
00000030: fb89 9d3f f156 9c3f fe97 9a3f 490c 963f
00000040: 933e 953f aff8 9d3f 363e 9a3f 22ea 9f3f
00000050: 1444 a33f a22e 913f 470c 9a3f 4280 973f
00000060: 58f2 983f 1c8a a13f 775a 9b3f 7ec4 993f
00000070: 106e 9a3f 3b7e 923f 2caf a23f 8f16 9c3f
00000080: cdb3 9f3f 9843 9b3f ebeb 923f b6d4 9d3f
00000090: 34f1 903f 8f98 9c3f 8bf4 963f d53b 9a3f
000000a0: 7510 9e3f fb46 a23f a583 963f 271d 9b3f
000000b0: bed7 993f 1240 9f3f e364 9d3f 8d70 9c3f
000000c0: 2eb4 9e3f 61b7 943f dfcc 973f 3ff0 9a3f
000000d0: 4016 9a3f 3802 a53f 9ba4 9c3f 0fd2 943f
000000e0: 7ab1 9e3f bfb1 9a3f 1448 9e3f e9e8 983f
000000f0: a6d2 993f 225d 9a3f a614 a53f 58a9 9c3f
1.271866 1.2189093 1.2481731 1.231002 1.2370077 1.199956 1.2597477 1.2207477
1.2613522 1.2736561 1.2000178 1.2633415 1.2307733 1.2214032 1.2077634 1.1722499
1.1659721 1.2341517 1.2050235 1.2493327 1.2755151 1.1342356 1.2034997 1.1836016
1.1948957 1.2620273 1.2136983 1.201309 1.2064838 1.1444772 1.2709708 1.2194384
1.2476746 1.2130003 1.1478246 1.2330539 1.1323609 1.2234057 1.1793379 1.2049509
1.2348772 1.2677912 1.1758925 1.2118272 1.2018964 1.2441428 1.2296413 1.2221848
1.2398736 1.1618463 1.1859397 1.2104567 1.203804 1.2891302 1.2237734 1.1626605
1.2397912 1.2085494 1.2365746 1.1946079 1.201741 1.2059672 1.2896926 1.223918

bn4.bias f4 [64]
00000000: b27c 063e b4de bb3d 6f4d ca3d 9cd9 f03d
00000010: 1bec a83d c35d ce3d d144 af3d 04fc d33d
00000020: 4ab3 133e ec34 003e 63d5 bc3d 148e 1b3e
00000030: 2e49 873d e12b d43d e3bc ba3d 2fec ba3d
00000040: c98e 6f3d 5946 f73d 548b 873d 3b71 fa3d
00000050: d719 f83d 7e32 813d b00f a03d 1f3e 913d
00000060: 5d51 883d 3248 dd3d f1a9 ac3d 308f b73d
00000070: 99c0 0c3e 9dfb ab3d 4f49 0c3e 33e7 d63d
00000080: 3714 d03d 0ccc 943d 1f2c 9d3d c335 f33d
00000090: 463e 943c a70d 9f3d 67b8 6d3d a9ed 8e3d
000000a0: 50de b03d 63db 313e 1493 de3d 868d 913d
000000b0: 4996 9d3d 4085 bf3d 97c9 063e 85db ff3d
000000c0: d96f ea3d da26 653d 95c4 7f3d b0a9 973d
000000d0: 264e dc3d 619b f93d 6a76 0e3e 1d54 793d
000000e0: c7b4 d93d c631 c23d 35a8 ec3d c807 e53d
000000f0: 5e95 bc3d 20f5 913d de91 263e c977 983d
0.13133505 0.091733366 0.098780505 0.11760256 0.082481585 0.100764774 0.085580476 0.103508025
0.14423862 0.12520188 0.09220388 0.15190917 0.06605755 0.10359932 0.091180585 0.0912708
0.05848578 0.120739646 0.066183716 0.12228628 0.121143036 0.06308459 0.07815492 0.07091927
0.06656144 0.10804786 0.08430851 0.08962858 0.13745345 0.08397601 0.1369984 0.104933165
0.10160106 0.07265481 0.07674431 0.118754886 0.0180961 0.07766276 0.058037188 0.06978924
0.08636153 0.17368846 0.10867897 0.071070716 0.0769468 0.09351587 0.13162838 0.12493042
0.114471145 0.055945255 0.062443335 0.07405412 0.10757093 0.12187839 0.13912359 0.060871232
0.10630184 0.0948215 0.115555204 0.11183125 0.09208177 0.07126832 0.16266581 0.07444722

bn4.running_mean f4 [64]
00000000: 5b5e 65bf 9d0d 693f bba9 053f bf58 b3bf
00000010: c5ca 043f 8a33 613f 782c d03f f6b2 733f
00000020: 7e37 523e 0601 0a3f 903b 5f3d b3f2 5a3e
00000030: 5674 1f3f 0d08 b6be eb3d 113e 16a3 3f3c
00000040: 2cc8 723e 7d1c 063f 3673 61be 76c3 a43c
00000050: d1a5 30bf 166a debe 60fe 783e 2a15 973f
00000060: 45d6 953f fcb7 8c3f 52b3 11bf 580e d5be
00000070: 822e 5fbe 1bb1 81bd 2410 a13e e667 67bf
00000080: a81d 4d3f d875 4a3f f4c3 443e a737 a9be
00000090: 439e 2dbe 9ea1 903d b868 ec3e ba18 47bf
000000a0: 32f8 873f ffe8 48bf ce11 b8bf c967 163f
000000b0: 2b44 4c3f 7e3d 9b3f cea0 7a3d f357 1bbc
000000c0: f63a 57bf 1822 873e c7ee 933f a5f7 5c3f
000000d0: bd2b 0cbe ad14 8a3f a253 a13e 8bcb e3be
000000e0: 86e0 613f f9d9 debe 111c 393f 51da 63bf
000000f0: c47b af3f 5d7d f2be d7d8 3ebf ca2a 9c3f
-0.895971 0.910364 0.52212113 -1.4011458 0.518719 0.8796927 1.6263571 0.9519495
0.20528981 0.5390781 0.054500163 0.21381645 0.6228689 -0.35553017 0.14183776 0.011696598
0.23709172 0.5238722 -0.22016606 0.020112734 -0.69003016 -0.43440312 0.24315786 1.1803334
1.1706015 1.0993648 -0.56914246 -0.41612506 -0.21795085 -0.06332608 0.31457627 -0.9039291
0.80123377 0.79086065 0.19215375 -0.33050272 -0.16954903 0.07062076 0.46173644 -0.77772105
1.0622618 -0.78480524 -1.4380434 0.58752114 0.79791516 1.2128141 0.06118851 -0.009481418
-0.8407434 0.263932 1.1557244 0.86315376 -0.1368856 1.078756 0.3150912 -0.44491228
0.8823322 -0.43525675 0.7230845 -0.89005 1.3709645 -0.4736127 -0.7454962 1.2200558

bn4.running_var f4 [64]
00000000: ef02 1c3e 6751 1f3e 58ba 3b3e aa70 433e
00000010: 53ec 133e 0e87 5b3e a80a 2f3e e583 443e
00000020: 7f74 323e 3ed5 2d3e 9fe4 053e 9637 4c3e
00000030: 9a84 123e e582 073e c6c5 ef3d 714f 5b3e
00000040: 0c1d da3d 0b9d 363e 1cb4 113e 446e 2a3e
00000050: 885e 1b3e f455 fa3d e682 2f3e b6ca 1b3e
00000060: 3f1b fc3d cccc 213e 2c20 083e f5e6 243e
00000070: 076b 823e 054d 323e 9aef 473e 2732 293e
00000080: 4e52 3c3e 82b8 203e bb54 2a3e 0b27 093e
00000090: 24a7 023e 8b08 0e3e 00b6 363e 9f3e 0c3e
000000a0: 2132 153e 2d20 533e 5d13 3e3e 715f 303e
000000b0: ac15 443e ba0b 793e d728 713e 3556 243e
000000c0: 7404 463e fb25 283e 2ccb 283e 9afc 533e
000000d0: d665 103e b87e 743e 7cd4 193e 12c8 0e3e
000000e0: 0f54 333e 794f 0c3e fa66 1a3e 4d59 3b3e
000000f0: 45dd 263e 2162 2b3e 5c59 fa3d ae70 153e
0.15235494 0.15558396 0.18332803 0.19085947 0.1444562 0.21438238 0.17093909 0.19190939
0.17427252 0.16975877 0.13075493 0.1994308 0.14308396 0.13233526 0.11707644 0.21417023
0.106500715 0.17833345 0.14228863 0.16643625 0.1517278 0.122234255 0.17139778 0.15214047
0.12309884 0.1580078 0.13293523 0.16103728 0.2547228 0.17412193 0.19524994 0.16523038
0.18390772 0.15695384 0.16633885 0.133938 0.12759072 0.13870446 0.17842865 0.13695763
0.14569904 0.20617743 0.18562074 0.17223908 0.19148892 0.2432088 0.23550735 0.1604851
0.19337636 0.16420738 0.16483754 0.20701829 0.14101347 0.23876464 0.15022463 0.13943508
0.17512535 0.13702191 0.15078345 0.18295784 0.16295345 0.16736652 0.12224075 0.14593765
