clasi_normal.ckpt (torch, 112358 bytes, 26 tensors)

conv1.weight f4 [32, 1, 80]
0	0x3d263fa5	0.04058804
1	0x3c808ec9	0.015693085
2	0x3be0fea7	0.0068662944
3	0x3db28cdd	0.08718274
4	0x3ddae15a	0.10687514
5	0x3ba6d2c1	0.005091042
6	0xbdf8008c	-0.12109479
7	0xbc84eb58	-0.016225502
8	0xbdb43fb7	-0.08801215
9	0x3ce3bd86	0.027800333
10	0xbd8ce42d	-0.068794586
11	0x3c872e7e	0.016501661
12	0xbbea64bf	-0.007153123
13	0x3dd3a0ed	0.103334285
14	0x3d37c4ab	0.04486529
15	0xbd7beb31	-0.061503593
16	0x3d0efa99	0.034906957
17	0x3d4db400	0.05022049
18	0x3db9a0bb	0.0906386
19	0xbd4146ac	-0.04718654
20	0xbd0b47fb	-0.034004193
21	0x3b358553	0.0027697876
22	0xbd6b0728	-0.05737987
23	0x3ddd8acf	0.10817491
24	0xbd039daa	-0.032132782
25	0xbdb08985	-0.0861998
26	0x3d5baec7	0.053633478
27	0xbcbd10a0	-0.023079216
28	0xbdf159ed	-0.1178473
29	0xbd400ffa	-0.046890236
30	0x3de5186c	0.11186299
31	0x3da6ce4f	0.08144819
32	0x3df68cd4	0.120385796
33	0x3bbaaebd	0.0056971
34	0xbac6dcc1	-0.0015171991
35	0x3d9f62d3	0.07782521
36	0x3cc8695b	0.0244643
37	0xbd7646f7	-0.06012627
38	0xbd99d601	-0.07511521
39	0x3d91ad32	0.071131125
40	0xbb4cf2b2	-0.0031272587
41	0x3d690161	0.05688608
42	0xbd1754b4	-0.036946014
43	0xbda55e37	-0.08074611
44	0x3e087855	0.13327153
45	0xbcecf55b	-0.028925588
46	0x3cc3be67	0.023894502
47	0xbc23b241	-0.0099912295
48	0xbd60331f	-0.054736253
49	0x3d58d7f8	0.05294034
50	0x3c9fe8fb	0.019520273
51	0xbd1fada1	-0.038983945
52	0xbd8cbb6a	-0.06871684
53	0x3c347a27	0.0110154515
54	0x3e00228d	0.1251318
55	0x3d31a82e	0.04337328
56	0xbe045682	-0.12923625
57	0xbd30af84	-0.043136135
58	0x3db1f244	0.086887866
59	0xbc74a6d6	-0.014932355
60	0x3dfb9359	0.12283964
61	0xbcd6a1e3	-0.02620024
62	0xbca60423	-0.020265644
63	0xbb560650	-0.003265757
64	0x3d3e4f3d	0.046462286
65	0xbd81815a	-0.063235
66	0x3b586d5e	0.0033024172
67	0xba0a3877	-0.0005272696
68	0x3d9f8b56	0.07790248
69	0x3d5a49c6	0.053293012
70	0xbdaf7301	-0.08566857
71	0xbc2f04ca	-0.010682294
72	0x3d823496	0.06357686
73	0x3c235909	0.009969958
74	0xbd24c0e6	-0.040223025
75	0xbd903b94	-0.070426136
76	0x3dd428c4	0.10359338
77	0x3dd39bbc	0.10332438
78	0xbcd9fdc8	-0.02661027
79	0xbdb36e5f	-0.08761286
80	0x3dcf6cc2	0.10128166
81	0x3d945bf0	0.07244098
82	0x3d700e58	0.05860743
83	0xbd672bfa	-0.056438424
84	0x3cfb83fc	0.030702583
85	0x3dfaba44	0.122425586
86	0x3e107215	0.14106019
87	0x3bc00d64	0.0058609713
88	0xbd0fb923	-0.03508867
89	0xbcb9ce1f	-0.022681294
90	0xbd0386f8	-0.032111138
91	0x3cef0509	0.029177206
92	0x3e13ff92	0.14452961
93	0x3d90e90d	0.07075701
94	0x3d90539d	0.07047198
95	0xbc90ce4b	-0.017676493
96	0x3d333833	0.043754768
97	0xbd8636c4	-0.065534145
98	0x3d94301d	0.072357394
99	0x3de0cda2	0.10976721
100	0xbc710c42	-0.014712395
101	0x3d49af1b	0.04923926
102	0xbd1bf4a2	-0.038075097
103	0xba792616	-0.00095042714
104	0xbbc7a489	-0.006092612
105	0xbd12fa21	-0.035883073
106	0xbd31935f	-0.043353435
107	0xbd07e171	-0.033173982
108	0xbd84dd00	-0.06487465
109	0xbd64c881	-0.055855278
110	0xbc6827cf	-0.014169647
111	0xbd890afc	-0.06691548
112	0xbca1599d	-0.019696051
113	0x3d598438	0.05310461
114	0x3e053429	0.13008179
115	0x3dc869fe	0.097858414
116	0x3d95d1ed	0.07315431
117	0x3d99fc22	0.07518794
118	0xbbb27c37	-0.0054469365
119	0xbda2398c	-0.079211324
120	0x3dd1b931	0.102404006
121	0xbd6f4a5a	-0.058420517
122	0xbd3b097a	-0.045663334
123	0x3d6849c9	0.056710992
124	0xbdf2e6fe	-0.118604645
125	0xbd51cad8	-0.051218837
126	0xbd02bc72	-0.031917997
127	0x3de6c330	0.11267698
128	0x3dd2f4f3	0.103006266
129	0xbc280076	-0.010254016
130	0x3d9f0e6e	0.07766424
131	0xbd9f5a44	-0.07780889
132	0xbd581768	-0.052756697
133	0xbd46f54f	-0.04857379
134	0x3dfc86f0	0.12330425
135	0x3cc9a8e3	0.024616664
136	0x3c2a7bd4	0.0104054995
137	0x3cd09813	0.02546314
138	0xbcb26f1d	-0.021781499
139	0x3c3ae3f3	0.011406886
140	0xbd972c71	-0.073815234
141	0x3c8bc718	0.017062709
142	0xbdf27e3a	-0.11840482
143	0x3d83b7b0	0.0643152
144	0xbc9ed80e	-0.019390132
145	0x3c2934e9	0.010327556
146	0x3c823391	0.01589373
147	0x3ba0f82e	0.004912398
148	0xbcea2108	-0.028580204
149	0xbdcd6426	-0.100288674
150	0x3d3594ac	0.044331238
151	0xbd3592f0	-0.044329584
152	0x3d8d82b1	0.06909693
153	0x3d500272	0.050783582
154	0xbda449a1	-0.08021856
155	0x3da1bad3	0.07896962
156	0x3c408553	0.011750537
157	0xbe04a3d9	-0.12953128
158	0x3d26ecfd	0.040753353
159	0xbcda88ca	-0.026676554
160	0x3daf2e2e	0.0855373
161	0xbd82fc99	-0.063958354
162	0x3d074d31	0.0330326
163	0xbd285659	-0.041097973
164	0xbdba4fdf	-0.090972655
165	0xbd2147a9	-0.03937498
166	0x3d98f176	0.0746793
167	0x3de97804	0.11399844
168	0xbd88ab2b	-0.06673273
169	0x3db11d7a	0.086482
170	0x3cf842f6	0.030305367
171	0xbabe3f95	-0.0014514799
172	0x3d572da5	0.052533764
173	0x3d4823ef	0.048862394
174	0xbc28f5db	-0.010312523
175	0x3ca8f93e	0.02062666
176	0x3d289a8e	0.04116302
177	0xbe16a1eb	-0.14710204
178	0xbd85fb8e	-0.06542121
179	0xbd8b489b	-0.06800958
180	0xbdecb60d	-0.11558161
181	0x3c1634c3	0.009167853
182	0xbdcb5139	-0.09927601
183	0xbda830af	-0.08212411
184	0xbdc0048c	-0.09375867
185	0xbd8f588e	-0.06999312
186	0x3d4580c5	0.048218507
187	0xbdb5ffaa	-0.08886655
188	0xbc28629e	-0.010277418
189	0x3cd8dc12	0.026472125
190	0x3d9b4016	0.07580583
191	0x3cf77500	0.030207157
192	0x3d94d3f4	0.07266989
193	0x3ce6a260	0.028153598
194	0xbdaa4181	-0.08313275
195	0x3bce8414	0.006302366
196	0x3c6b2cac	0.014353912
197	0x3c117e79	0.008880251
198	0xbc95ced2	-0.018287096
199	0xbd77cc93	-0.06049783
200	0x3d4ba2b1	0.0497157
201	0xbbe9efe5	-0.0071391934
202	0x3df07ff4	0.11743155
203	0x3ddb59b3	0.10710468
204	0x3dd436a4	0.10361984
205	0xbd958ff4	-0.073028475
206	0x3d9ab4e1	0.07554031
207	0xbe02f360	-0.12788153
208	0xbdd99bc7	-0.10625415
209	0xbda4b376	-0.08042042
210	0xbd85bd06	-0.06530194
211	0xbd47a9cb	-0.04874591
212	0xbd80052a	-0.06250985
213	0xbd0a1818	-0.033714384
214	0x3d984a52	0.074360505
215	0x3d44f0b4	0.048081115
216	0x3e0bb504	0.1364327
217	0xba49d761	-0.00076996355
218	0x3dfbaa5d	0.122883536
219	0xbdfa87f5	-0.12232963
220	0xbcce70e1	-0.02520031
221	0xbd83803a	-0.06420942
222	0xbd1403db	-0.03613649
223	0x3da0d921	0.07853914
224	0x3d980c81	0.0742426
225	0xbd0fd617	-0.03511628
226	0xbd7570f3	-0.05992217
227	0xbd8d0ddf	-0.06887411
228	0x3d0fc1fb	0.035097104
229	0xbce8e863	-0.028431123
230	0xbdb529f4	-0.088458925
231	0x3d9e24ae	0.0772184
232	0xbdd7ff70	-0.10546768
233	0x3c9b89d8	0.018986627
234	0xbd5a1a74	-0.053247884
235	0x3d35cfc6	0.0443876
236	0x3d91528b	0.07095822
237	0xbdf530e9	-0.119722195
238	0x3db1df9e	0.0868523
239	0xbda9d3ea	-0.082923725
240	0x3d63ba05	0.055597324
241	0x3d1803a5	0.03711285
242	0x3c2e9b89	0.0106572
243	0xbda8a9cf	-0.082355134
244	0xbcf37e64	-0.029723354
245	0xbcf59ac7	-0.02998103
246	0xbd892200	-0.06695938
247	0xbdd1a3fd	-0.102363564
248	0xbd07d08b	-0.033157866
249	0x3d9979da	0.074939445
250	0xbcf770d4	-0.030205168
251	0xbde3fd00	-0.1113224
252	0x3cfd30be	0.030907031
253	0xbbb65706	-0.005564573
254	0x3cf39db6	0.029738288
255	0xbd88bfec	-0.06677231

conv1.bias f4 [32]
0	0xbd023357	-0.031787243
1	0xbcd542a4	-0.026032753
2	0xbd8cd8cb	-0.068772875
3	0xbd2a2ff3	-0.041549634
4	0x3cdca9d7	0.026936455
5	0x3dc8cef4	0.09805098
6	0xbd93290b	-0.07185563
7	0xbdca10b1	-0.09866465
8	0x3ddbcd78	0.107325494
9	0xbdcc3e54	-0.09972826
10	0xbcae3cd5	-0.021269241
11	0x3d7a62c9	0.061129365
12	0x3964020a	0.00021744534
13	0xbb27ccdd	-0.0025604286
14	0x3da11774	0.078658015
15	0xbd2f9443	-0.042866003
16	0x3d46f879	0.048576806
17	0x3d619d1c	0.05508147
18	0xbdb2c7bd	-0.08729503
19	0x3da38aa3	0.07985427
20	0xbb7f2b96	-0.0038935891
21	0x3d49bcc8	0.0492523
22	0x3ca2f2f7	0.019891245
23	0xbd24aceb	-0.04020397
24	0xbcb177ad	-0.021663511
25	0x3ca2156d	0.019785607
26	0x3e04ede0	0.12981367
27	0x3d5fd3ec	0.054645464
28	0xbd4fb637	-0.050710883
29	0xbd75e3ae	-0.060031585
30	0x3db758e7	0.08952504
31	0xbd765752	-0.06014187

bn1.weight f4 [32]
0	0x3f826889	1.0188152
1	0x3f832155	1.0244547
2	0x3f7e6898	0.9937835
3	0x3f7d4acf	0.98942274
4	0x3f7891cd	0.97097474
5	0x3f76e907	0.9644932
6	0x3f806bbc	1.0032878
7	0x3f7eae77	0.9948496
8	0x3f7cf906	0.9881748
9	0x3f815594	1.0104241
10	0x3f841e56	1.0321758
11	0x3f7f243e	0.99664676
12	0x3f7cc6c7	0.9874081
13	0x3f7bb414	0.9832165
14	0x3f8207f1	1.0158674
15	0x3f81434a	1.009866
16	0x3f7de504	0.99177575
17	0x3f7dadef	0.99093527
18	0x3f7fe4fe	0.9995879
19	0x3f84f305	1.0386664
20	0x3f81a6d8	1.0129042
21	0x3f809c72	1.0047743
22	0x3f7f9018	0.99829245
23	0x3f83f8b9	1.0310279
24	0x3f81b545	1.0133444
25	0x3f7b1016	0.9807142
26	0x3f7da71e	0.99083126
27	0x3f7d8004	0.9902346
28	0x3f7bc8f5	0.9835351
29	0x3f819f30	1.0126705
30	0x3f811b97	1.0086545
31	0x3f80a16f	1.0049266

bn1.bias f4 [32]
0	0x3caa820c	0.020813964
1	0x3d4d90a1	0.050186757
2	0xbcfb00e2	-0.03064007
3	0x3e14e1e4	0.14539295
4	0xbc4add0c	-0.012381803
5	0xbcf2cd2d	-0.029638851
6	0x3d49698d	0.049172927
7	0xbcda31c8	-0.026635066
8	0x3d0f7426	0.035022877
9	0xbc6265c0	-0.013818204
10	0x3dfab686	0.12241845
11	0x3d0f9644	0.035055414
12	0xbca28401	-0.019838335
13	0x3dd1e882	0.102494255
14	0xbb303170	-0.0026884936
15	0xbcabd2e8	-0.020974591
16	0x3c8474d5	0.016168991
17	0x3d7c3698	0.061575502
18	0x3d50ab11	0.05094439
19	0x3dc2e6ce	0.09516679
20	0x3d8d8fd3	0.06912198
21	0x3d23513f	0.039872404
22	0xbd440bfa	-0.047862984
23	0x3daeb6f7	0.085309915
24	0x3d0efb21	0.034907464
25	0xbcf2324d	-0.029565
26	0xba1728f6	-0.00057662965
27	0x3c252fed	0.010082227
28	0xbd2dd51c	-0.042439565
29	0xbd8d8ed7	-0.0691201
30	0x3c1c1b1f	0.009527951
31	0x3cb06bd5	0.021535793

bn1.running_mean f4 [32]
0	0x3f088a45	0.5333598
1	0x3f568914	0.83802915
2	0xbf2ad65e	-0.6673335
3	0x3e88fdf2	0.26756245
4	0x3f1f45ac	0.62215686
5	0x3db9c4bd	0.09070728
6	0x3d3cbb2f	0.04607695
7	0xbcb40cd4	-0.021978773
8	0x3dfc0f07	0.12307554
9	0xbcfd04ac	-0.030886017
10	0x3df7dba0	0.12102437
11	0x3c2b2a75	0.010447134
12	0x3c98f072	0.01866934
13	0x3dd28fe8	0.10281354
14	0xbea65c18	-0.32492137
15	0xbfbd8214	-1.4805322
16	0xbf69c266	-0.91312253
17	0x3f92f4f5	1.1481005
18	0x3ca8fdce	0.020628836
19	0x3dcfafc4	0.101409465
20	0x3e1c8a36	0.15287098
21	0x3f8fdfef	1.1240214
22	0xbf66d0ef	-0.9016256
23	0xbf4aa2da	-0.7915474
24	0x3d350986	0.044198535
25	0xbec0f447	-0.3768637
26	0x3e679236	0.22614369
27	0x3dc44403	0.09583285
28	0x3ed15a1e	0.40889066
29	0xbd333d13	-0.043759417
30	0xbe6bf71e	-0.23043486
31	0xbf4d184d	-0.80115205

bn1.running_var f4 [32]
0	0x3dcab1af	0.09897172
1	0x3e4038bf	0.18771647
2	0x3deef2cb	0.11667403
3	0x3d79d7b2	0.06099672
4	0x3ddd6302	0.108099
5	0x3d2d65c7	0.04233339
6	0x3d80199a	0.06254883
7	0x3d04ac56	0.032390915
8	0x3d51b467	0.051197436
9	0x3d303c65	0.043026347
10	0x3d35b2bf	0.04435992
11	0x3d1e7c9e	0.038693063
12	0x3d661d14	0.056180075
13	0x3d578e1b	0.052625757
14	0x3d894c10	0.06703961
15	0x3ee656f3	0.44988212
16	0x3e59f617	0.21285282
17	0x3e862594	0.26200545
18	0x3d19da35	0.037561614
19	0x3d467463	0.04845084
20	0x3d355feb	0.044280928
21	0x3e894844	0.26812947
22	0x3e544ddc	0.20732826
23	0x3e18f8e2	0.14938691
24	0x3d454f75	0.04817148
25	0x3d9a8aaa	0.07545979
26	0x3d40e30e	0.047091536
27	0x3d25447f	0.040348526
28	0x3db3fea7	0.087888055
29	0x3cdfd429	0.027322846
30	0x3d697e50	0.057005227
31	0x3e268868	0.16262972

conv2.weight f4 [32, 32, 3]
0	0xbca38f36	-0.01996575
1	0xbb0eaa7e	-0.0021769102
2	0xbda12a9e	-0.07869457
3	0xbd8eebe5	-0.06978587
4	0xbd8192dd	-0.0632684
5	0xbcf585ad	-0.029970968
6	0x3d5cdf18	0.053923696
7	0xbd83df04	-0.06439021
8	0x3ce76d6f	0.028250424
9	0x3d87d8de	0.06633161
10	0xbb89107b	-0.004182873
11	0xbdb8ffb9	-0.0903315
12	0x3ce12525	0.027483532
13	0xbdbff290	-0.09372437
14	0xbd5796f7	-0.052634206
15	0x3bb7daa5	0.0056107813
16	0x3d85a5c0	0.06525755
17	0x3ca32ccf	0.019918827
18	0x3d30f4f3	0.04320235
19	0xbda7e6e6	-0.08198337
20	0xbd73796d	-0.059441973
21	0xbd7852a7	-0.0606257
22	0x3be1afc8	0.00688741
23	0x3c7f072f	0.015565678
24	0xbd2b712c	-0.041855976
25	0x3d5c7380	0.053821087
26	0xbd8df5a9	-0.069316216
27	0x3d90d711	0.07072271
28	0x3d736e96	0.059431635
29	0x3d3184b3	0.043339442
30	0xbd99c622	-0.07508494
31	0xbd857caf	-0.06517922
32	0xbdbb2e3a	-0.091396764
33	0x3d105bd3	0.03524382
34	0xbc60db92	-0.013724225
35	0xbc19b60b	-0.009381781
36	0x3dad7b72	0.08470811
37	0xbd8f9d31	-0.07012404
38	0x3d068f5d	0.032851566
39	0x3c2be62a	0.010491887
40	0x3c81f470	0.015863627
41	0xbcbb7333	-0.02288208
42	0x3d73addc	0.059491977
43	0x3dd991c3	0.10623505
44	0x3bf98a90	0.007615395
45	0x3dc45f87	0.09588533
46	0x3b07fe4c	0.0020750938
47	0xbd87850e	-0.06617175
48	0x3c35601f	0.01107028
49	0xbc2d56e8	-0.010579802
50	0x3d699f36	0.0570366
51	0x3cd9f0f7	0.026604159
52	0xbde5ecb7	-0.112267904
53	0xbda0f782	-0.07859708
54	0xbdca6d58	-0.09884137
55	0x3cfd3ae1	0.030911865
56	0x3d8180b1	0.06323374
57	0xbd98197b	-0.07426735
58	0x3ccdf9fd	0.025143618
59	0x3d156c14	0.036480024
60	0xbcd122c2	-0.02552927
61	0xbdf38436	-0.118904516
62	0xbad18b15	-0.0015986884
63	0x3c3a0459	0.011353576
64	0x3d025740	0.03182149
65	0xbdff2e5b	-0.124600135
66	0xbdbbe27e	-0.09174059
67	0xbd9acac6	-0.07558207
68	0xbccb5e9f	-0.024825392
69	0x3da76f51	0.08175529
70	0xbd3f02a4	-0.046633378
71	0xbd0e356e	-0.034718923
72	0x3ddae6c6	0.10688548
73	0x3da49ef9	0.08038134
74	0x3da270d6	0.07931678
75	0x3b1fa54c	0.002436
76	0x3d57da9c	0.052698717
77	0xbd24381a	-0.040092565
78	0x3d9a6618	0.07539004
79	0x3dc94a8e	0.09828673
80	0xbdaf6ae0	-0.08565307
81	0x3b11e97d	0.0022264414
82	0x3d554db1	0.052076045
83	0xbd0b14f3	-0.033955526
84	0xbd8483f1	-0.06470478
85	0x3cbe4956	0.023228329
86	0xb9ff90ac	-0.0004874518
87	0xbd19b4fe	-0.037526123
88	0x3d93be1e	0.07213996
89	0xbdb71cb4	-0.089410216
90	0xbdb48cdd	-0.0881593
91	0x3caa7824	0.02080924
92	0x3ccda94e	0.025105145
93	0x3db19dce	0.08672677
94	0xbb90249c	-0.0043988954
95	0xbcf1c12b	-0.029511055
96	0xbd6b8e6f	-0.057508882
97	0x3d35e191	0.04440457
98	0x3ca6e87d	0.02037453
99	0x3d514b66	0.051097296
100	0x3d9601cb	0.07324561
101	0x3c0c0449	0.008545944
102	0x3cd85cc5	0.026411423
103	0xbd7a5159	-0.061112735
104	0x3c46cd55	0.012133916
105	0x3d8c082e	0.06837498
106	0xbcc773bb	-0.024347177
107	0xbd8bf10b	-0.06833085
108	0xbd038374	-0.032107785
109	0xbb6e1444	-0.0036327997
110	0x3dc0687c	0.09394929
111	0xbd44c9d3	-0.048044037
112	0x3d178bb2	0.03699846
113	0x3d65de31	0.0561201
114	0x3dfe488f	0.12416183
115	0x3d88eaf5	0.066854395
116	0xbdb4f234	-0.08835259
117	0x3d988134	0.074465185
118	0x3d8401d6	0.06445663
119	0xbd3d8179	-0.046266053
120	0xbd5b5a78	-0.053553075
121	0xbd5f0849	-0.05445126
122	0x3d869170	0.06570709
123	0x3d316117	0.043305483
124	0x3c01d516	0.007924339
125	0xbd494779	-0.049140427
126	0x3dcd2533	0.10016861
127	0x3d705acf	0.05868035
128	0x3d8f189f	0.06987118
129	0x3d827ec5	0.063718356
130	0xbd130b2f	-0.035899337
131	0x3d6c04fe	0.05762195
132	0x3c6a491f	0.01429966
133	0xbc21b869	-0.009870627
134	0xbd0a3458	-0.033741325
135	0xbd481009	-0.048843417
136	0xbd8930ff	-0.066987984
137	0x3d8cd104	0.06875804
138	0xbcdffa46	-0.02734102
139	0xbda5ddf8	-0.08098978
140	0x3dbf747f	0.09348392
141	0xbdaa8f3b	-0.083281
142	0x3d055c6a	0.032558836
143	0xba8325aa	-0.0010005732
144	0x3d356bb8	0.04429218
145	0xbbf28f0d	-0.007402307
146	0xbb8dd53b	-0.0043283976
147	0x3d35bdc8	0.044370443
148	0x3d896a61	0.06709743
149	0x3d53e878	0.05173537
150	0xbd86d0e1	-0.06582809
151	0x3a469a60	0.0007576104
152	0x3cd1acc3	0.025595075
153	0xbda18a04	-0.078876525
154	0x3db6f09a	0.0893261
155	0xbdf94425	-0.12171201
156	0x3dcb1ad7	0.09917229
157	0x3c29536c	0.010334831
158	0xb9813805	-0.00024646535
159	0xbd9bc4e4	-0.07605913
160	0x3d9d5b7c	0.07683465
161	0x3d5de97e	0.054177754
162	0x3d947646	0.07249121
163	0x3dc2772d	0.09495387
164	0x3d848875	0.064713396
165	0x3d56474f	0.0523141
166	0x3dcc4c71	0.099755175
167	0x3d2e1aeb	0.04250614
168	0x3c59bbb8	0.013289385
169	0x3d767d50	0.0601781
170	0xbcf003aa	-0.029298622
171	0xbd5daf1c	-0.054122075
172	0xbd30cc8e	-0.04316383
173	0x3d96a928	0.07356483
174	0x3d88a01f	0.06671166
175	0xbc1ddce7	-0.009635187
176	0x3d6ea133	0.0582592
177	0x3da97a74	0.08275309
178	0x3dfc74de	0.12326978
179	0x3dc730cc	0.09726104
180	0x3da451fb	0.08023449
181	0x3dd4d400	0.10391998
182	0xbdbd0190	-0.09228814
183	0xbd15ae8f	-0.036543425
184	0xbcc029a5	-0.023457358
185	0xbd88546d	-0.06656728
186	0x3d5c6533	0.05380745
187	0xbd74a6c0	-0.059729338
188	0xbc88e05d	-0.016708547
189	0x3daffad4	0.085927635
190	0xbdd74443	-0.10511067
191	0x3db61834	0.08891335
192	0x3d09897d	0.033578385
193	0x3de6d5c7	0.112712435
194	0xbc96d184	-0.018410452
195	0x3db0bf96	0.08630292
196	0xbae4339f	-0.0017410404
197	0x3d2093da	0.039203502
198	0xbd846479	-0.06464476
199	0xbdcfd075	-0.10147182
200	0xbd0f18de	-0.034935825
201	0x3c863f46	0.016387593
202	0x3cdc4d1f	0.026892243
203	0x3d2c6a2a	0.042093433
204	0x3cc52350	0.02406469
205	0x3dc2f157	0.09518688
206	0x3d6dc485	0.058048744
207	0xbd489f72	-0.048980184
208	0xbdaacff3	-0.083404444
209	0xbd59f5ce	-0.053212933
210	0xbc8c9c4d	-0.017164374
211	0xbd1770c4	-0.036972776
212	0x3c39600b	0.011314402
213	0xbd9cd671	-0.07658089
214	0xbb9ad0b5	-0.004724587
215	0xbc2325ce	-0.009957744
216	0x3de27587	0.11057573
217	0xbd4063f2	-0.046970315
218	0x3c2f47f4	0.010698307
219	0xbd650fc6	-0.055923246
220	0x3d766244	0.060152307
221	0x3d255a5b	0.040369373
222	0x3d313501	0.04326344
223	0xbda43873	-0.08018579
224	0x3daf5431	0.0856098
225	0xbdde20b0	-0.108460784
226	0xbd50f08c	-0.051010653
227	0x3d49f363	0.049304377
228	0x3dd42771	0.10359085
229	0x39e18ce4	0.00043020316
230	0x3b8b7d3c	0.0042568725
231	0x3d0999cd	0.03359394
232	0x3d319656	0.043356262
233	0xbd2aeb51	-0.04172832
234	0xbcb23d92	-0.021757875
235	0xbdbdd09c	-0.09268305
236	0x3d4e3813	0.050346445
237	0x3c1913bf	0.009343087
238	0xbda955a2	-0.08268286
239	0xbc5d2cc9	-0.013499447
240	0xbcd03b12	-0.025418792
241	0x3ca59b9f	0.020215807
242	0xbcd7a42b	-0.026323399
243	0xbc497e0a	-0.012298116
244	0xbd4a1292	-0.049334116
245	0xbd0eb119	-0.034836862
246	0x3ca65384	0.020303495
247	0x3ddd2537	0.10798114
248	0xbdc590ba	-0.09646745
249	0xbca0ffd3	-0.019653236
250	0x3d93f6e1	0.07224823
251	0xbdb254d1	-0.08707584
252	0xbd12f616	-0.035879217
253	0x3dd70863	0.104996465
254	0xbc5a06a0	-0.013307244
255	0xbcb5ae68	-0.02217789

conv2.bias f4 [32]
0	0x3cf28f85	0.029609451
1	0xbd5d4bd5	-0.054027397
2	0x3d8f56b0	0.06998956
3	0x3dbc3cbc	0.09191272
4	0xbd6e116f	-0.058122095
5	0x3bff4163	0.007789777
6	0xbdb088e2	-0.08619858
7	0x3ceace6f	0.028662888
8	0xbce3012f	-0.027710525
9	0x3d15bd18	0.036557287
10	0xbd9b49ec	-0.07582459
11	0x3d0bb95f	0.03411233
12	0x3cb37635	0.021906951
13	0x3d8eeec2	0.06979133
14	0x3d889a53	0.0667006
15	0x3d4fa4c5	0.050694246
16	0xbd1c136d	-0.038104463
17	0x3cef330c	0.029199146
18	0xbd10e464	-0.03537406
19	0xbd93442d	-0.07190738
20	0xbdb12c82	-0.08651067
21	0xbce523d8	-0.027971193
22	0x3d8ec5f5	0.06971351
23	0xbd2f5f75	-0.042815644
24	0xbd1ea93c	-0.038735613
25	0x3b97746c	0.004622033
26	0xbd4959fb	-0.049158078
27	0x3cf98e7d	0.030463452
28	0x3d853333	0.06503906
29	0xbd9c50d7	-0.076326065
30	0x3dc0ec41	0.09420062
31	0x3d7d42b7	0.061831202

bn2.weight f4 [32]
0	0x3f7c3b0d	0.98527604
1	0x3f77e060	0.96826744
2	0x3f7c9620	0.9866657
3	0x3f805d05	1.0028387
4	0x3f82ec8b	1.0228437
5	0x3f86c494	1.0528741
6	0x3f8b1c52	1.0868018
7	0x3f86e1f8	1.053771
8	0x3f78bcac	0.9716289
9	0x3f83bb9d	1.029163
10	0x3f7b9399	0.9827209
11	0x3f83a00d	1.0283219
12	0x3f79762d	0.97445947
13	0x3f7ed03b	0.99536484
14	0x3f838a26	1.0276535
15	0x3f875a26	1.0574386
16	0x3f7bb14f	0.98317426
17	0x3f83b74d	1.0290314
18	0x3f81eaa7	1.0149735
19	0x3f854e9b	1.0414613
20	0x3f790822	0.97278035
21	0x3f79fd19	0.9765182
22	0x3f7c3101	0.98512274
23	0x3f81818e	1.0117662
24	0x3f78ef8c	0.9724052
25	0x3f7d69fe	0.98989856
26	0x3f7faf87	0.9987721
27	0x3f7b1d20	0.98091316
28	0x3f7d400c	0.9892585
29	0x3f738697	0.9512724
30	0x3f781c47	0.9691815
31	0x3f7d8bc4	0.9904139

bn2.bias f4 [32]
0	0xbd51e1c0	-0.051240683
1	0xbceb843f	-0.028749583
2	0x3c628bf7	0.0138273155
3	0xbd44b11d	-0.04802047
4	0xbcd34bc4	-0.025792964
5	0xbcb9d317	-0.022683663
6	0xbcd30b94	-0.025762357
7	0x3b941d7a	0.0045201154
8	0xbdf54149	-0.11975343
9	0xbca81c9d	-0.020521456
10	0xbd678676	-0.056524716
11	0x3b7a3e5a	0.0038184137
12	0x3ccd0d91	0.025030883
13	0xbba62f0a	-0.0050715255
14	0x3db04fbf	0.0860896
15	0xbcb25d66	-0.021773051
16	0xbd5b854f	-0.05359393
17	0x3caf38da	0.021389414
18	0x3c177c3e	0.00924593
19	0x3cfc571b	0.030803254
20	0xbb07b423	-0.0020706735
21	0xbcfa1409	-0.030527132
22	0x3aa36388	0.0012465576
23	0x3cf46195	0.029831687
24	0xbd11387e	-0.035454266
25	0xbc8ffa26	-0.017575335
26	0xbd3e67f5	-0.04648586
27	0xba95f3b9	-0.0011440433
28	0xbcefd2ae	-0.029275265
29	0xbd690d5a	-0.0568975
30	0xbc1d4600	-0.009599209
31	0x3c403bea	0.011733035

bn2.running_mean f4 [32]
0	0xbea04bff	-0.3130798
1	0x3f4d3b9d	0.8016909
2	0x3e8c6ea2	0.27428156
3	0xbf377235	-0.7165864
4	0xbf314a8a	-0.6925436
5	0xbdba3349	-0.09091813
6	0xbf128459	-0.57233196
7	0xbebd8291	-0.37013677
8	0xbe75acf8	-0.23991764
9	0xbf0abd04	-0.54194665
10	0xbf67dabe	-0.9056815
11	0xbec0c771	-0.37652162
12	0x3f0763f7	0.5288691
13	0xbee81c8f	-0.45334288
14	0xbe860423	-0.2617503
15	0xbeeb0d81	-0.4590874
16	0xbf1a3503	-0.6023714
17	0xbf23fcd2	-0.6405765
18	0xbecffa43	-0.40620622
19	0xbef11314	-0.47084868
20	0xbf099fe9	-0.5375963
21	0xbd76b98a	-0.060235538
22	0x3e521e86	0.20519456
23	0x3f2a5d30	0.6654844
24	0xbe4ba2de	-0.19886348
25	0xbee24181	-0.441906
26	0xbf34298f	-0.70375913
27	0x3d90b65f	0.070660345
28	0xbe145a00	-0.14487457
29	0xbc86c008	-0.01644899
30	0x3ded6ef8	0.11593431
31	0xbea6598e	-0.324902

bn2.running_var f4 [32]
0	0x3e8b0a23	0.2715617
1	0x3eb853b0	0.36001348
2	0x3e9673ad	0.2938513
3	0x3ed5efb0	0.4178443
4	0x3e8bc854	0.27301276
5	0x3e636b5b	0.22208922
6	0x3e866a28	0.26252866
7	0x3e9f38e3	0.3109809
8	0x3e137168	0.1439873
9	0x3ec18c45	0.3780233
10	0x3f02e832	0.5113555
11	0x3f03beb0	0.5146284
12	0x3eeac5eb	0.45854124
13	0x3e7b4e26	0.2454153
14	0x3e711c46	0.23545942
15	0x3e583159	0.21112575
16	0x3eb47fbf	0.35253713
17	0x3e92f183	0.28699884
18	0x3e4cd4ca	0.20003048
19	0x3ea0d31a	0.31411058
20	0x3ea411ea	0.32044917
21	0x3f22225d	0.63333684
22	0x3e989836	0.29803628
23	0x3e8a29ef	0.26985118
24	0x3eee4b7f	0.46541974
25	0x3ed754a1	0.42056754
26	0x3e8f6b84	0.28011715
27	0x3f57fbd0	0.8436861
28	0x3eaba564	0.3352462
29	0x3ef6e8eb	0.48224577
30	0x3f4c17d9	0.7972389
31	0x3e20cf8b	0.15704171

conv3.weight f4 [64, 32, 3]
0	0xbd8fbaee	-0.07018076
1	0xbd31dd8f	-0.043424185
2	0xbd268ef9	-0.040663693
3	0x3cfebbaf	0.031095354
4	0x3cc6aaf6	0.024251442
5	0xbcf1194a	-0.029431004
6	0xbd801a4c	-0.06255016
7	0x3d6a29ef	0.057168897
8	0x3d9fcd10	0.078027844
9	0x3c37f791	0.011228458
10	0x3d27b6ff	0.040946003
11	0x3cc11e2f	0.023573963
12	0x3d19c730	0.037543476
13	0x3c767a32	0.015043782
14	0xbd547583	-0.05186988
15	0xbcbd1e8f	-0.02308586
16	0x3d72c764	0.059272185
17	0x3df922e4	0.12164858
18	0xbe019b60	-0.12656927
19	0xbde6b847	-0.11265617
20	0xbd5ec533	-0.054387283
21	0xbd363a65	-0.044489283
22	0xbd03c8ed	-0.03217404
23	0x3c32eb5d	0.010920373
24	0xbd85d308	-0.06534392
25	0x3d980ed5	0.07424704
26	0xbd447ab5	-0.047968585
27	0x3dbbf9b0	0.091784835
28	0x3dae6a20	0.085163355
29	0x3d64ce5e	0.05586087
30	0xbc13ca59	-0.009020411
31	0xbd735608	-0.059408218
32	0x3d2edcd1	0.042691056
33	0xbd7bdeac	-0.061491653
34	0xbd9df3b4	-0.07712498
35	0x3d131b3b	0.03591464
36	0xbd6b97ff	-0.057518
37	0x3d801732	0.06254424
38	0xbcf3191a	-0.029675055
39	0x3d9043be	0.07044171
40	0x3c92b564	0.01790876
41	0x3d456557	0.04819235
42	0x3d0236a6	0.031790398
43	0x3c66877e	0.01407039
44	0x3e0e3b5d	0.13889833
45	0xbda0eb25	-0.0785735
46	0xbac723d8	-0.0015193177
47	0x3d2c6426	0.042087696
48	0xbd04110b	-0.032242816
49	0x3dcbf0fd	0.09958074
50	0x3d5c38bf	0.053765055
51	0xbcab57e6	-0.020915937
52	0x3b737bd0	0.0037152655
53	0x3d05c7d4	0.032661274
54	0xbd9efe06	-0.07763295
55	0xbd8463b6	-0.06464331
56	0xbd92a9ff	-0.071613304
57	0x3d5d10f7	0.053971257
58	0xbda39e86	-0.0798922
59	0x3cf0def2	0.029403184
60	0xbdd3e00c	-0.10345468
61	0x3cfccfdc	0.030860834
62	0xbb86298d	-0.0040943087
63	0x3cc1fe05	0.023680696
64	0x3d5734de	0.052540652
65	0xbd0c3140	-0.034226656
66	0x3d2be766	0.041968726
67	0x3c5dc4a2	0.01353565
68	0x3c18aeb5	0.009318997
69	0x3cea034e	0.028566029
70	0xbcddcd73	-0.027075505
71	0xbd3d25ef	-0.046178754
72	0x3d4d4181	0.050111298
73	0x3d486db7	0.048932757
74	0xbd11aea4	-0.03556694
75	0xbd96eeb7	-0.0736975
76	0xbdb8cc0a	-0.09023292
77	0xbd024067	-0.0317997
78	0x3b496f03	0.0030736334
79	0xbc8fa460	-0.017534435
80	0x3de66297	0.11249273
81	0xbda06b7a	-0.078329995
82	0xbd8dcbc1	-0.069236286
83	0xbcdcd9f5	-0.026959399
84	0xbd6b4c0c	-0.05744557
85	0x3d94c7dd	0.072646834
86	0xbc9dbf2b	-0.019256195
87	0x3d67a599	0.05655441
88	0x3d0a9898	0.03383693
89	0x3cd354b6	0.02579723
90	0xbdc30866	-0.09523086
91	0xbd3892fb	-0.045062046
92	0xbd47e8d0	-0.04880601
93	0x3d71032f	0.058840927
94	0x3ca9f26e	0.020745482
95	0x3dbba079	0.09161467
96	0xbd706b92	-0.058696337
97	0x3d070bd8	0.03297028
98	0x3b408654	0.002937694
99	0x3c9272b4	0.01787696
100	0xbd60cd59	-0.054883335
101	0xbc9a29e2	-0.0188188
102	0xbdfe146f	-0.12406241
103	0xbd8c79d2	-0.06859173
104	0x3d76c0e5	0.060242552
105	0xbba2b8a4	-0.0049658585
106	0x3dbd91e8	0.09256345
107	0xbda9480f	-0.08265697
108	0xbd17f707	-0.037100818
109	0xbc2977b9	-0.0103434855
110	0x3cc3fdc1	0.02392471
111	0xbd8450f7	-0.06460755
112	0x3d7358f9	0.059411023
113	0x3cde2493	0.02711705
114	0x3cd246e7	0.025668574
115	0x3d18a9e8	0.03727141
116	0x3da06bd0	0.078330636
117	0x3dc4c305	0.096075095
118	0x3cd836c7	0.026393307
119	0xbe00fc28	-0.1259619
120	0x3db04eff	0.08608817
121	0xba4c1149	-0.0007784558
122	0xbd970226	-0.07373457
123	0x3d99a940	0.07502985
124	0x3cbf95a4	0.023386784
125	0x3cb82c95	0.022482196
126	0x3d004b5e	0.031321876
127	0xbd88ddd4	-0.06682935
128	0x3d7d61c0	0.0618608
129	0xbcebad70	-0.028769225
130	0x3cc2cf1a	0.023780394
131	0x3da5f915	0.08104149
132	0xbcfc77de	-0.030818876
133	0xbca13144	-0.019676812
134	0xbd3835e5	-0.044973273
135	0xbabefc4d	-0.0014571041
136	0xbd0cb170	-0.034348905
137	0xbc7ff05e	-0.015621273
138	0xbd1cb45a	-0.038257934
139	0xbd37e670	-0.044897497
140	0xbdabe329	-0.08392937
141	0xbc0f7fde	-0.008758513
142	0x3df68b2e	0.12038265
143	0x3b6a3b49	0.0035740903
144	0xbd1c3986	-0.038140796
145	0xbcfa04b3	-0.030519819
146	0xbb454c49	-0.0030105284
147	0x3d8af329	0.0678466
148	0xbd338e51	-0.043836895
149	0xbc97c156	-0.018524807
150	0xbd9fdd52	-0.078058854
151	0xbd9e2c92	-0.07723345
152	0xbe02c57d	-0.12770648
153	0x3d7bcbef	0.061473783
154	0xbdab2a2c	-0.08357653
155	0x3bbb9803	0.0057249083
156	0x3b387455	0.0028145511
157	0xbdcee050	-0.10101378
158	0xbd9c02e4	-0.07617739
159	0xbc0c70c0	-0.008571804
160	0xbdda25d5	-0.10651747
161	0x3d6f0c9c	0.058361635
162	0x3d7b8638	0.061407298
163	0x3c301451	0.010747031
164	0xbdcb28d9	-0.099199004
165	0xbcc8b6d0	-0.024501234
166	0xbd083633	-0.033254813
167	0x3dd4b27b	0.10385605
168	0x3da683e5	0.08130626
169	0x3c8eac15	0.01741604
170	0xbd81dab5	-0.06340543
171	0xbdc474f7	-0.09592622
172	0x3cf366a2	0.029712025
173	0xbde18267	-0.110112004
174	0x3d5ea996	0.05436095
175	0x3d6a588f	0.057213362
176	0xbd5d791c	-0.054070577
177	0xbdae5da1	-0.08513952
178	0xbc9a8cae	-0.01886591
179	0x3dc8de90	0.098080754
180	0x3d2394de	0.039936893
181	0xbd5b15fc	-0.053487763
182	0xbdcfdbe8	-0.10149366
183	0x3b002f66	0.0019559502
184	0xbdaa4a9c	-0.08315012
185	0x3d49bd7d	0.049252976
186	0x3dbce836	0.09223978
187	0xbd5f3ad8	-0.054499477
188	0xbd322923	-0.043496262
189	0xbb82eae3	-0.003995286
190	0x3bc635b0	0.0060488805
191	0x3d3eea7c	0.04661034
192	0xbdb5c76a	-0.08875926
193	0xbc66cba3	-0.014086637
194	0xbdb95d00	-0.090509415
195	0xbdd3bfc9	-0.103393145
196	0xbd2d0437	-0.042240348
197	0x3d1f8273	0.038942765
198	0xbdc2d7a9	-0.0951379
199	0xbdc86a07	-0.09785848
200	0x3d8b1f40	0.0679307
201	0x3d82f4b0	0.06394327
202	0xbd918ca1	-0.07106901
203	0xbd225b60	-0.039637923
204	0x3de555d2	0.111980096
205	0xbcfe0272	-0.031007025
206	0xbcdb5eb9	-0.026778566
207	0x3ce0d7e6	0.027446698
208	0x3d9a2bbe	0.075278744
209	0xbd1e94b2	-0.038716026
210	0xbd0372f5	-0.032092053
211	0xba8a1ed0	-0.0010537747
212	0x3d925a08	0.07146078
213	0x3dab15ca	0.08353765
214	0x3d032b79	0.03202388
215	0xbce3175a	-0.027721096
216	0xbd963bbd	-0.07335613
217	0x3d1c4c96	0.038158976
218	0x3d8061d5	0.0626866
219	0x3d83dc4a	0.06438501
220	0x3d9117b8	0.07084602
221	0x3da17359	0.07883329
222	0xbda3f883	-0.08006384
223	0x3d96ee2e	0.07369648
224	0x3c77afbd	0.015117583
225	0xbd518cc3	-0.05115963
226	0xbe185366	-0.14875564
227	0xbd6c9c32	-0.057766147
228	0x3d1a0e6b	0.037611406
229	0x3d4d3b18	0.050105184
230	0xbc8e8138	-0.0173956
231	0x3ae9b4d3	0.0017830379
232	0x3d17354f	0.036916073
233	0x3bd1f71a	0.0064076306
234	0xbd3da237	-0.04629728
235	0xbd823d5d	-0.0635936
236	0xbdc0eea9	-0.09420521
237	0x3cb164b0	0.021654457
238	0x3e122c8f	0.1427481
239	0xbde422bd	-0.11139438
240	0x3d8660a4	0.065614015
241	0xbd1cef1c	-0.03831397
242	0x3e1e563d	0.15462585
243	0xbdca90f9	-0.098909326
244	0xbda3d5f1	-0.079997905
245	0xbe360b26	-0.1777769
246	0x3c524044	0.012832705
247	0x3c1bf3cd	0.009518576
248	0x3d80ad7c	0.062830895
249	0x3d75add0	0.059980214
250	0xbe01961d	-0.1265492
251	0xbd642865	-0.055702586
252	0xbdd19409	-0.102333136
253	0x3d0f97c6	0.03505685
254	0xbdca5b6d	-0.09880719
255	0xbd35a400	-0.044345856

conv3.bias f4 [64]
0	0xbd656dc8	-0.0560129
1	0x3dacabf4	0.08431235
2	0xbd98896a	-0.07448085
3	0xbd2b8504	-0.0418749
4	0xbd543cbd	-0.051815737
5	0xbdb0c346	-0.086309955
6	0xbdad323c	-0.08456847
7	0x3d979b35	0.0740265
8	0x3c6bfd32	0.014403628
9	0x3d45b052	0.048263855
10	0x3cf1e8d0	0.029529959
11	0xbdc29ce7	-0.09502583
12	0xbd82970f	-0.063764684
13	0xbd446cb1	-0.04795522
14	0x3c374aa3	0.011187228
15	0x3d6d414a	0.057923593
16	0xbc2c7fcc	-0.010528516
17	0x3db5abef	0.08870684
18	0x3c0e8f8c	0.008701216
19	0x3c8e441f	0.017366467
20	0xbdb59e1a	-0.08868046
21	0xbd95fb17	-0.07323282
22	0x3ba9d5f9	0.005182978
23	0xbc249c65	-0.010047053
24	0x3dbea4a2	0.09308745
25	0x3db04a6e	0.08607946
26	0xbcce432b	-0.025178513
27	0xbdc37435	-0.09543649
28	0x3cf8154a	0.030283589
29	0x3d8794d5	0.06620184
30	0xbd9b77a7	-0.07591181
31	0xbd67e019	-0.0566102
32	0xbdadacbd	-0.08480213
33	0x3cc120e5	0.023575256
34	0x3ce79597	0.028269572
35	0xbdbe2981	-0.0928526
36	0xbc973767	-0.018459035
37	0xbce56977	-0.028004391
38	0x3dc1532b	0.09439691
39	0x3d8d302e	0.06893955
40	0x3cd617e9	0.026134448
41	0x3d3c7e19	0.046018694
42	0xbbada7dd	-0.005299552
43	0x3d5f9306	0.05458357
44	0xbd751f35	-0.059844214
45	0xbdd19b84	-0.102347404
46	0x3ce0de72	0.02744982
47	0x3d33d7d3	0.043906998
48	0xbcdf4e39	-0.02725898
49	0xbb3a98be	-0.002847239
50	0x3d15240b	0.036411326
51	0x3c9c6cf4	0.019094922
52	0xbc94a39e	-0.018144425
53	0xbcb33766	-0.021877002
54	0xbdb70fff	-0.08938598
55	0xbd3cc37f	-0.046084877
56	0x3d8de1c7	0.06927829
57	0x3dabeb7c	0.083945245
58	0x3d513116	0.051072203
59	0x3cc0b254	0.023522533
60	0x3d590999	0.05298767
61	0xbc82c652	-0.015963707
62	0x3c2f4c8e	0.010699404
63	0xbd5307e2	-0.05152119

bn3.weight f4 [64]
0	0x3f789056	0.9709524
1	0x3f80082e	1.0002496
2	0x3f7d51b1	0.98952776
3	0x3f7c2491	0.98493296
4	0x3f769fd9	0.9633766
5	0x3f7ccac8	0.9874692
6	0x3f83595f	1.0261649
7	0x3f808d6a	1.0043156
8	0x3f758696	0.95908487
9	0x3f79f534	0.97639775
10	0x3f85c84d	1.0451752
11	0x3f7fe085	0.99951965
12	0x3f7e359a	0.9930054
13	0x3f79b00c	0.9753425
14	0x3f789597	0.97103256
15	0x3f866424	1.049931
16	0x3f805d18	1.002841
17	0x3f826277	1.0186299
18	0x3f765672	0.96225655
19	0x3f828f74	1.0200028
20	0x3f815082	1.0102694
21	0x3f7ccd02	0.9875032
22	0x3f7d4d32	0.98945916
23	0x3f751513	0.9573528
24	0x3f7a4042	0.977543
25	0x3f8ca832	1.0988829
26	0x3f75918d	0.9592522
27	0x3f7e18c6	0.9925655
28	0x3f7ebc3d	0.9950598
29	0x3f723610	0.9461374
30	0x3f82bf8a	1.0214703
31	0x3f7d0ad9	0.9884468
32	0x3f80eb70	1.007185
33	0x3f877602	1.0582888
34	0x3f81a68c	1.0128951
35	0x3f82d838	1.0222235
36	0x3f88279f	1.0637091
37	0x3f827e46	1.0194786
38	0x3f7a607a	0.9780346
39	0x3f81a75d	1.01292
40	0x3f7f687e	0.9976882
41	0x3f7bde70	0.9838629
42	0x3f74b367	0.95586246
43	0x3f7786f7	0.96690315
44	0x3f7df288	0.991982
45	0x3f802557	1.0011395
46	0x3f793034	0.9733918
47	0x3f8aea95	1.0852839
48	0x3f7a3685	0.9773944
49	0x3f770ff9	0.9650875
50	0x3f7cd6d1	0.98765284
51	0x3f7226bd	0.9459036
52	0x3f811543	1.0084614
53	0x3f86d844	1.0534749
54	0x3f7a1506	0.9768833
55	0x3f8572e0	1.0425682
56	0x3f863d15	1.0487391
57	0x3f75c358	0.96001196
58	0x3f73e204	0.9526675
59	0x3f7ea007	0.9946293
60	0x3f7ba5b8	0.9829974
61	0x3f896bde	1.0736043
62	0x3f84b21e	1.0366857
63	0x3f8979ff	1.0740355

bn3.bias f4 [64]
0	0xbd1592c9	-0.03651694
1	0x3c9613e3	0.01832003
2	0xbd8cbb88	-0.06871706
3	0xbd5623a3	-0.05228008
4	0xbd3283c9	-0.04358271
5	0xbcabd374	-0.020974852
6	0xbc0c0a2f	-0.00854735
7	0xbc5f5d76	-0.013633123
8	0x3a101bdf	0.0005497317
9	0xbd674a8d	-0.05646758
10	0xb89102a1	-6.9146285e-05
11	0xbd2198ad	-0.039452244
12	0x3c6ac6e4	0.014329646
13	0xbd6b2364	-0.057406798
14	0xba837041	-0.0010027961
15	0xbd002812	-0.031288214
16	0xbd1a796d	-0.037713457
17	0xbcdb782b	-0.026790699
18	0xbd1c1055	-0.038101513
19	0xbaa5976d	-0.0012633629
20	0xbcf44596	-0.029818337
21	0xbd09c129	-0.033631478
22	0xbcd5998a	-0.02607419
23	0x3c990a47	0.018681658
24	0xbc9062d0	-0.017625242
25	0xbcfe8b10	-0.03107217
26	0xbcd17a18	-0.025570914
27	0x3c2c55a6	0.010518467
28	0xbcbd9d7f	-0.023146389
29	0x3b81c201	0.0039598946
30	0xbc902332	-0.017594907
31	0xbd3ee7ff	-0.046607967
32	0xbc23e5a2	-0.010003479
33	0xbb40579e	-0.00293491
34	0x3b20432a	0.0024454095
35	0xbcf26b52	-0.02959219
36	0x3cec7a2b	0.028866848
37	0x3a96be5e	0.0011500826
38	0xbd10b4cd	-0.035328675
39	0xbcca2a63	-0.024678415
40	0xbb80589e	-0.003916814
41	0xbb72e230	-0.0037061088
42	0xbd1ad75c	-0.03780304
43	0xbd1b0c47	-0.037853505
44	0xbc97e583	-0.018542057
45	0xbd2bb2b2	-0.041918464
46	0xbd05f308	-0.032702476
47	0xbc84fee4	-0.016234823
48	0xbd22e6fb	-0.03977106
49	0xbcd44bef	-0.025915114
50	0x3bd91288	0.0066245236
51	0x3aef1440	0.0018240288
52	0xbd22a93b	-0.039712172
53	0xbb85a71f	-0.0040787603
54	0xbbaccc56	-0.005273382
55	0x3c918ad4	0.017766394
56	0x3c4d0dbd	0.0125154825
57	0xbc49af5d	-0.012309876
58	0xbd7bb7ed	-0.061454702
59	0xbcdec82a	-0.027195055
60	0xbca1925e	-0.019723114
61	0xbcf4e7b2	-0.029895637
62	0xbd2a9ae5	-0.041651625
63	0xbc589660	-0.013219446

bn3.running_mean f4 [64]
0	0xbd26054d	-0.0405324
1	0xbead5438	-0.33853316
2	0xbf015c4f	-0.50531477
3	0x3da45494	0.080239445
4	0x3eb4d14d	0.35315934
5	0xbe81073b	-0.2520083
6	0xbe64133a	-0.2227296
7	0xbc988665	-0.018618772
8	0xbe9811c2	-0.29701048
9	0x3cc5509a	0.024086285
10	0xbefedc8d	-0.49777642
11	0xbf1633db	-0.58672875
12	0xbf220397	-0.6328673
13	0x3ddf0382	0.10889341
14	0xbf16e957	-0.589498
15	0xbe5a91cc	-0.2134468
16	0xbf275049	-0.6535688
17	0xbf34b205	-0.70584136
18	0xbdc4f5bc	-0.096171826
19	0xbdb6981a	-0.0891573
20	0xbf4d7f08	-0.8027196
21	0x3d60aeeb	0.054854315
22	0xbf183904	-0.59462
23	0xbd80661f	-0.06269478
24	0xbe8c3fae	-0.27392334
25	0xbe9bce14	-0.30430663
26	0x3e63d20f	0.222481
27	0xbda2c334	-0.07947388
28	0xbe7aa809	-0.24478163
29	0xbdd5b8ff	-0.10435676
30	0xbe5d1cef	-0.21593069
31	0xbe8352eb	-0.256492
32	0xbd1785dd	-0.036992896
33	0x3c2b095d	0.010439244
34	0xbe26eb12	-0.1630061
35	0xbeddcde5	-0.43321148
36	0xbe0dc29f	-0.13843773
37	0xbe5e35f7	-0.21700273
38	0x3db8b2bf	0.09018468
39	0x3decd944	0.11564878
40	0x3c64d274	0.013966192
41	0xbda61ca5	-0.08110932
42	0x3d879a5a	0.06621237
43	0xbedded89	-0.43345287
44	0xbe264cfb	-0.16240303
45	0x3e54ea1c	0.2079243
46	0x3dea03e4	0.11426523
47	0xbf63fe67	-0.8906006
48	0xbeae2e93	-0.34019908
49	0x3d38a666	0.045080565
50	0x3e182646	0.1485835
51	0xbe0e4dd9	-0.13896884
52	0xbdc9b6b2	-0.098492995
53	0xbbff06d3	-0.007782796
54	0xbf2281ab	-0.6347911
55	0xbd93892f	-0.072039
56	0xbe25e9da	-0.16202489
57	0x3e935661	0.2877684
58	0xbeaebaed	-0.34126988
59	0xbf41f1e9	-0.7575975
60	0xbf0f0f4a	-0.55882704
61	0xbe3f1e53	-0.18663912
62	0xbebe5f69	-0.37182167
63	0xbf32fa80	-0.6991348

bn3.running_var f4 [64]
0	0x3e1b7046	0.15179548
1	0x3e348642	0.1762934
2	0x3e03e741	0.12881185
3	0x3e14f794	0.14547569
4	0x3e50218f	0.20325302
5	0x3e1946a7	0.14968358
6	0x3e03931f	0.12849091
7	0x3e170797	0.14748989
8	0x3e14b08c	0.14520472
9	0x3dc709f2	0.09718694
10	0x3e4319df	0.19052838
11	0x3e8f7e45	0.28026024
12	0x3e200c9c	0.1562981
13	0x3dcf4b76	0.10121815
14	0x3e22a329	0.15882553
15	0x3da17247	0.07883125
16	0x3e2e9268	0.17048037
17	0x3e3dd48a	0.18538108
18	0x3e88697b	0.26642975
19	0x3daf4766	0.0855854
20	0x3dd6e20d	0.104923345
21	0x3dbdd0b8	0.092683256
22	0x3de34bca	0.1109844
23	0x3ee0ad88	0.43882394
24	0x3e4cceee	0.20000812
25	0x3d91e99e	0.07124637
26	0x3ea3cbfd	0.31991568
27	0x3e54dd64	0.20787579
28	0x3deb4127	0.11487036
29	0x3e37a5a6	0.17934284
30	0x3e564512	0.20924786
31	0x3daa7959	0.083239265
32	0x3dcdf691	0.100567944
33	0x3e1a2efb	0.15056984
34	0x3e951767	0.29119417
35	0x3dd60ce2	0.10451676
36	0x3e321b95	0.17393334
37	0x3e0d03e8	0.13771021
38	0x3dbbdf80	0.091734886
39	0x3e38cc4b	0.18046682
40	0x3dca6f7c	0.09884545
41	0x3e2bf3ac	0.16792172
42	0x3da5e2a4	0.08099869
43	0x3df4c4e0	0.119516134
44	0x3dbda82a	0.092605904
45	0x3dd9c675	0.10633556
46	0x3def53b2	0.116858855
47	0x3e0e48b7	0.13894926
48	0x3e307c40	0.17234898
49	0x3e58e74a	0.2118198
50	0x3dd02966	0.10164146
51	0x3e0f1dbe	0.1397619
52	0x3e216afb	0.15763466
53	0x3e262c78	0.16227901
54	0x3dc966dc	0.09834072
55	0x3e63abe7	0.22233544
56	0x3de31146	0.11087279
57	0x3e383afd	0.17991252
58	0x3e9a7553	0.30167636
59	0x3e0b8fbd	0.1362905
60	0x3e169f65	0.14709242
61	0x3e0de3be	0.13856408
62	0x3d8d9eda	0.06915064
63	0x3e177c53	0.1479352

conv4.weight f4 [64, 64, 3]
0	0xbc4afb22	-0.012388976
1	0xbd003a3c	-0.031305537
2	0x3c9a7bda	0.018857885
3	0xbdd82460	-0.10553813
4	0x3c961e03	0.018324858
5	0xbdc5bf1e	-0.09655593
6	0xbca3e2ba	-0.020005573
7	0xbd76e5dd	-0.06027781
8	0x39037696	0.0001253731
9	0xbd7433f1	-0.059619848
10	0xbd03ad46	-0.03214767
11	0x3d22c850	0.039741814
12	0x3c9fdce0	0.019514501
13	0xbd23f5d4	-0.04002936
14	0xbd5b808f	-0.0535894
15	0xbd37d8c9	-0.044884477
16	0xbc0eddd7	-0.008719883
17	0x3b68d0cf	0.003552485
18	0x3ae96671	0.0017807019
19	0xbca75ecc	-0.020430945
20	0x3bdc99d8	0.006732207
21	0xbd221beb	-0.039577406
22	0x3b99884a	0.0046854364
23	0xbda9bc2c	-0.08287844
24	0x3d2e179e	0.04250299
25	0xbd3388e9	-0.04383174
26	0xbd0c9712	-0.03432376
27	0x3bf938ef	0.007605664
28	0x3dbbddbd	0.091731526
29	0xbd659cd9	-0.056057785
30	0xbd7f7e0c	-0.062376067
31	0xbc307450	-0.010769919
32	0xbd1fd685	-0.03902294
33	0xbd228e16	-0.039686285
34	0x3cbd6891	0.02312115
35	0xbd8c5de6	-0.06853847
36	0x3d59cdca	0.05317477
37	0x3c57783a	0.013151223
38	0x3cde5f70	0.027145118
39	0x3b47965e	0.0030454616
40	0x3a9f8688	0.0012170831
41	0xbd841b85	-0.064505614
42	0x3ce677fc	0.028133385
43	0x3cb94f9c	0.022620969
44	0xbc952760	-0.018207252
45	0xbc607875	-0.013700594
46	0x3d2a2bde	0.04154574
47	0x3bd4e52d	0.0064970464
48	0xbd7f3e17	-0.062315073
49	0x3b22101f	0.0024728847
50	0xbcb1fe7c	-0.021727793
51	0xbd81a4eb	-0.06330284
52	0xbd14c945	-0.036324758
53	0xbd6a03eb	-0.057132643
54	0x3c820752	0.015872631
55	0xbd7cb986	-0.061700366
56	0x3cc606ab	0.024173101
57	0xbb451caf	-0.0030076911
58	0xbd98a4f2	-0.07453336
59	0xbcbceb59	-0.023061441
60	0xbda41a80	-0.08012867
61	0x3d50219b	0.0508133
62	0x3b9723ce	0.0046124225
63	0xbca60bf3	-0.02026937
64	0xba63a162	-0.00086834107
65	0x3d9d3b9c	0.07677385
66	0x3d7de3a0	0.06198466
67	0x3c5c1be0	0.01343438
68	0x3a2c786e	0.0006579225
69	0x3bed4033	0.007240319
70	0x3ccbaed1	0.024863632
71	0x3cf87906	0.030331146
72	0xbbc7e542	-0.0061003277
73	0xbd5a1b8e	-0.053248934
74	0x3ccdfedd	0.025145942
75	0x3d6f18cc	0.058373258
76	0xbd257fdd	-0.040405143
77	0xbcd8eff8	-0.026481614
78	0xbc8a953f	-0.01691687
79	0x3d999538	0.07499164
80	0x3d689f04	0.056792274
81	0x3cae319c	0.02126389
82	0xbd8ab936	-0.067736074
83	0xbd678794	-0.05652578
84	0xbd5fda4f	-0.054651555
85	0xbb581f1f	-0.0032977534
86	0xbc07b7f4	-0.008283604
87	0xbd6eb635	-0.058279235
88	0x3d3c53cf	0.045978364
89	0x3d02066f	0.031744417
90	0xbbc0f2b8	-0.0058883093
91	0xbc8faa36	-0.017537218
92	0x3de9fe56	0.11425464
93	0x3d0b4e94	0.034010485
94	0xbbe60e8d	-0.0070207776
95	0x3b2ccc74	0.002636698
96	0xbd9e0fe4	-0.07717875
97	0x3d18cae6	0.037302874
98	0xbaa0e830	-0.0012276229
99	0x3dd12949	0.10212953
100	0x3d271834	0.040794566
101	0x3dc1e836	0.09468119
102	0x3c6f521a	0.014606977
103	0x3d928ef3	0.07156172
104	0x3c0a077b	0.008424635
105	0xbd49d088	-0.049271137
106	0x3b4d2363	0.003130161
107	0xbde03349	-0.10947282
108	0x3ceeefd7	0.029167099
109	0xbcc625ea	-0.024188
110	0x3b4f0542	0.0031588827
111	0xbc68f894	-0.014219422
112	0x3d3ca426	0.04605498
113	0xbd301559	-0.04298911
114	0xbcdf7404	-0.027277
115	0xbd5ff007	-0.054672267
116	0xbcf64511	-0.03006223
117	0xbdbae889	-0.09126384
118	0x3cff5077	0.031166298
119	0xbca0d586	-0.019633066
120	0x3c8ffd1b	0.017576745
121	0x3d4676f5	0.04845329
122	0xbc9cd409	-0.019144075
123	0x3c8613cf	0.016366867
124	0xbd02bcf0	-0.031918466
125	0x3c3d1019	0.0115394825
126	0xbd5be880	-0.053688526
127	0x3cb1ae12	0.021689449
128	0x3c387a8e	0.011259688
129	0xbd222c14	-0.039592817
130	0x399cf843	0.00029939608
131	0xbad63883	-0.0016343746
132	0xbdc2646c	-0.0949181
133	0xbc8c4d70	-0.017126769
134	0xbd6c799c	-0.057733163
135	0x3c25bf1d	0.010116366
136	0x3bd0a61d	0.0063674585
137	0xbd8cfc94	-0.06884113
138	0x3d160bca	0.036632337
139	0xbd3794cd	-0.04481964
140	0x3c2d4e16	0.010577699
141	0x3d859e5f	0.065243475
142	0x3d997700	0.074934006
143	0xba958c5b	-0.0011409627
144	0x3c160c38	0.009158187
145	0xbc59fb4b	-0.013304542
146	0xbd5a0612	-0.053228445
147	0x3cac0670	0.020999163
148	0x3a903d29	0.0011004555
149	0xbbfdf8bc	-0.0077505987
150	0x3c37d8d9	0.011221134
151	0xbcc863c0	-0.024461627
152	0xbd0f4b78	-0.034984082
153	0x3c76659e	0.015038876
154	0xbc9fd4b6	-0.019510608
155	0xbcc581a4	-0.024109669
156	0xbcdf39e5	-0.027249286
157	0xbcc38b11	-0.023870023
158	0xbd779a84	-0.060450092
159	0x3d64ad4a	0.055829324
160	0x3e0539c2	0.13010314
161	0x3da50990	0.080584645
162	0xbd564659	-0.052313183
163	0x3c17c344	0.009262864
164	0xbd44c744	-0.048041597
165	0xbd1316f1	-0.03591055
166	0x3ab05b7a	0.0013454997
167	0xbc56bac6	-0.013106054
168	0x39455368	0.00018818455
169	0x3d93c021	0.0721438
170	0xbcdd3af4	-0.02700565
171	0xbd3acd77	-0.045606103
172	0x3b8b8b84	0.004258575
173	0x3b63d345	0.0034763378
174	0x3d178e96	0.037001215
175	0xbdac1adf	-0.08403563
176	0x3d150e1e	0.036390416
177	0xbd13c7de	-0.03607928
178	0xbd1df91a	-0.03856764
179	0xbd7c8a53	-0.061655354
180	0x3cf4bee7	0.029876186
181	0xbcfde026	-0.030990671
182	0xbd76e3fa	-0.06027601
183	0x3d167127	0.036729004
184	0xbda0e045	-0.07855276
185	0xbcc65bf0	-0.024213761
186	0x3da1cff7	0.07900994
187	0xbd53e7df	-0.0517348
188	0x3dab06d1	0.083509095
189	0xbdb27ca7	-0.08715182
190	0xbdad4445	-0.08460287
191	0xbd416692	-0.04721696
192	0x3d846377	0.06464284
193	0x3cc9bd77	0.024626477
194	0x3d6588bf	0.056038614
195	0xbd15f20b	-0.036607783
196	0x3c1bae7b	0.009502049
197	0x3d386a8a	0.04502348
198	0xbca0587d	-0.019573445
199	0xbd0bbb72	-0.03411431
200	0xbd4a25b6	-0.04935237
201	0x3da3701c	0.079803675
202	0x3c1f731a	0.009732032
203	0x3d6ad174	0.057328656
204	0xbcac6d42	-0.021048192
205	0x3be39e26	0.006946343
206	0xbc677f12	-0.014129417
207	0xbc073ee6	-0.008254742
208	0x3c343a27	0.011000193
209	0x3c962e46	0.018332612
210	0xba8f4c10	-0.0010932703
211	0xbafe3ef0	-0.0019397419
212	0xbc861022	-0.016365115
213	0x3cf7c20c	0.030243896
214	0xbd75fdf3	-0.060056638
215	0x3d088324	0.03332819
216	0x3c6ad9eb	0.014334182
217	0x3c9e1a97	0.019299788
218	0x3c043ceb	0.008071165
219	0xbd8fc3e9	-0.07019789
220	0x3c26b58a	0.010175118
221	0x3d111cb6	0.03542777
222	0xbb34b540	-0.0027573854
223	0x3b59a4f0	0.0033209883
224	0x3c3051b0	0.010761663
225	0xbc9ce9cc	-0.019154452
226	0x3d6354d1	0.05550081
227	0xbc8ce8d3	-0.017200863
228	0x3d0d6533	0.03452034
229	0xbb588fb9	-0.003304465
230	0xbd2984db	-0.041386466
231	0x3c8638a8	0.016384438
232	0x3c029534	0.007970143
233	0x3da4f847	0.08055168
234	0x3a3c69a7	0.0007187374
235	0x3d23c056	0.039978348
236	0xbcb7aff4	-0.022422768
237	0x3d5c47d2	0.05377943
238	0x3c914983	0.017735248
239	0xbcbfd31f	-0.0234161
240	0xbaef8a9e	-0.0018275564
241	0x3d2a7ab4	0.041620925
242	0xbd319a2d	-0.043359924
243	0xbbf923a0	-0.007603124
244	0x3bf0d61f	0.007349744
245	0xbc92a1e2	-0.017899457
246	0xbce44a1b	-0.027867367
247	0x3d4e05d3	0.050298523
248	0x3b86c7fe	0.0041131964
249	0xbc605af7	-0.013693563
250	0xbd8f5571	-0.069987185
251	0x3d23bf02	0.03997708
252	0xbd1040ba	-0.035217978
253	0xbd444c4e	-0.047924332
254	0x3cabbe0d	0.020964647
255	0x3d0fb2a8	0.03508249

conv4.bias f4 [64]
0	0xbd8bed2b	-0.068323456
1	0xbd808b6d	-0.06276593
2	0xbd10d929	-0.03536335
3	0x3b84d7a0	0.004054025
4	0x3cd1fecf	0.025634198
5	0x3ca235ba	0.01980101
6	0x3d03a389	0.03213838
7	0x3cbec68c	0.023288034
8	0x3d83a119	0.06427211
9	0x3d651d1f	0.055935975
10	0xbda3e4e4	-0.08002642
11	0xbd4fa05e	-0.050690047
12	0x3ca94872	0.020664427
13	0x3d3f17d4	0.046653584
14	0x3d5b92ab	0.05360667
15	0xbd8da744	-0.06916669
16	0x3cc1da2d	0.023663605
17	0x3cbce989	0.023060577
18	0xbd9b7d87	-0.07592302
19	0x3d8a0ae5	0.06740359
20	0xbc61a7c4	-0.013772909
21	0x3cb1a24a	0.02168383
22	0xbc465dcd	-0.012107325
23	0xbc1eaaa3	-0.009684238
24	0x3d0b41c1	0.033998255
25	0xbd62bac5	-0.0553539
26	0xbc904dc6	-0.01761521
27	0xbd3766e2	-0.04477585
28	0xbcae96db	-0.021312168
29	0x3c63d91e	0.013906745
30	0x3c6a6944	0.014307324
31	0x3c93454d	0.017977381
32	0x3bd616c0	0.0065334737
33	0xbd8a280f	-0.06745922
34	0xbc4734da	-0.012158597
35	0xbb0ec2da	-0.002178362
36	0xbafa576d	-0.0019099541
37	0xbd518b99	-0.05115852
38	0xbcd67435	-0.026178459
39	0xbd57dcaa	-0.052700676
40	0xbc289d82	-0.010291459
41	0x3c2ef46c	0.010678392
42	0xbd5dea49	-0.05417851
43	0xbceb853f	-0.02875006
44	0xbd7ce35f	-0.061740275
45	0xbd164397	-0.036685552
46	0xbcaa2822	-0.02077109
47	0x3bdc3fbb	0.0067214645
48	0xbd04df67	-0.032439616
49	0x3cadcf5e	0.021217044
50	0x3d60c277	0.054872956
51	0x3d0323de	0.032016627
52	0xbcacfa8b	-0.021115562
53	0x3cc808fc	0.024418347
54	0xbb849caf	-0.0040469985
55	0xbbdd6de2	-0.006757484
56	0x3d8f2f42	0.069914356
57	0x3b754255	0.003742357
58	0xbd4ef00f	-0.050521906
59	0x3cd06edf	0.025443492
60	0x3c851bc3	0.01624859
61	0x3d73a786	0.059485935
62	0x3d4f1f9e	0.050567262
63	0x3d964281	0.07336903

bn4.weight f4 [64]
0	0x3f96dcfe	1.1786191
1	0x3f91cf95	1.1391474
2	0x3f94ef4a	1.1635525
3	0x3f9244ec	1.1427283
4	0x3f925757	1.1432904
5	0x3f8f5677	1.1198262
6	0x3f94fc64	1.1639524
7	0x3f91bf93	1.1386589
8	0x3f953d2a	1.1659291
9	0x3f9751ef	1.1821879
10	0x3f8fb691	1.122759
11	0x3f957f95	1.167956
12	0x3f910e57	1.1332501
13	0x3f91ef3d	1.1401135
14	0x3f90dea4	1.1317945
15	0x3f8c1e4e	1.0946748
16	0x3f8a2ed0	1.0795536
17	0x3f90b3ce	1.1304872
18	0x3f8ebd4e	1.1151521
19	0x3f9421b1	1.1572782
20	0x3f9701f9	1.1797477
21	0x3f88c0a2	1.0683787
22	0x3f900a28	1.12531
23	0x3f8deb7b	1.1087488
24	0x3f8f13b7	1.1177891
25	0x3f93ca38	1.1546087
26	0x3f90f0a7	1.1323441
27	0x3f9010ed	1.1255165
28	0x3f918d1f	1.1371192
29	0x3f8a1938	1.0788946
30	0x3f964499	1.1739684
31	0x3f92cc78	1.1468649
32	0x3f94a488	1.1612711
33	0x3f8e79a4	1.1130872
34	0x3f8a972d	1.0827385
35	0x3f934e51	1.1508275
36	0x3f871503	1.0553287
37	0x3f923966	1.1423767
38	0x3f8d7314	1.1050744
39	0x3f8e5224	1.1118817
40	0x3f90c3b2	1.1309721
41	0x3f973dd3	1.1815742
42	0x3f8d7f4d	1.1054474
43	0x3f91c80f	1.1389178
44	0x3f903e74	1.1269059
45	0x3f942e4c	1.1576629
46	0x3f92610c	1.1435866
47	0x3f92a33c	1.1456065
48	0x3f938823	1.1525921
49	0x3f8b8587	1.0900124
50	0x3f8cd122	1.1001322
51	0x3f91370a	1.1344922
52	0x3f8fa6fa	1.1222832
53	0x3f98ade2	1.1928065
54	0x3f93397b	1.1501917
55	0x3f8ab432	1.0836241
56	0x3f93107d	1.1489407
57	0x3f8ff36c	1.1246161
58	0x3f926ad6	1.1438854
59	0x3f8ec9e7	1.1155366
60	0x3f8ed37e	1.1158292
61	0x3f8ef52e	1.1168573
62	0x3f9949fe	1.1975706
63	0x3f91c7e8	1.1389132

bn4.bias f4 [64]
0	0x3dc9ff2c	0.09863123
1	0x3d83bc5e	0.064324126
2	0x3d95ee12	0.07320799
3	0x3d975ed1	0.07391132
4	0x3d67ba28	0.056574017
5	0x3d899f9f	0.067198984
6	0x3d4cb72f	0.049979385
7	0x3d875d72	0.0660962
8	0x3dcb630c	0.09931001
9	0x3dbbf4c9	0.091775484
10	0x3d84a528	0.064768136
11	0x3dc9a727	0.09846335
12	0x3d1792ff	0.03700542
13	0x3d95913f	0.07303094
14	0x3d8c02e3	0.06836488
15	0x3d42e1e1	0.047578696
16	0x3cddec60	0.027090251
17	0x3d93215c	0.07184097
18	0x3d4aeca5	0.049542088
19	0x3d9d6505	0.076852836
20	0x3dae036c	0.084967464
21	0x3cedd0db	0.029030254
22	0x3d279456	0.04091295
23	0x3d3d07e0	0.04615009
24	0x3d491522	0.04909242
25	0x3d8afd66	0.06786613
26	0x3d6e09ec	0.05811493
27	0x3d5b8cfb	0.053601246
28	0x3dc2b898	0.09507865
29	0x3d42da39	0.047571395
30	0x3dbf7983	0.093493484
31	0x3d9a64ea	0.07538779
32	0x3d9b58b4	0.07585278
33	0x3d0ca2df	0.034335013
34	0x3d14c130	0.03631705
35	0x3dad468b	0.08460721
36	0x3b666b07	0.0035159008
37	0x3d63ab56	0.05558332
38	0x3d22f643	0.039785635
39	0x3d2574e4	0.04039468
40	0x3d45ce53	0.04829247
41	0x3e0007c7	0.12502967
42	0x3d6deeb4	0.058088973
43	0x3d502a87	0.050821807
44	0x3d4af5bc	0.049550757
45	0x3d88104c	0.066437334
46	0x3db21b73	0.08696642
47	0x3daf962e	0.085735664
48	0x3daa1b3b	0.08305975
49	0x3d12106b	0.03566019
50	0x3cf09e04	0.029372223
51	0x3d678d9d	0.056531537
52	0x3d850532	0.064951316
53	0x3db04fc8	0.08608967
54	0x3dcade6a	0.09905703
55	0x3ccd97ee	0.02509686
56	0x3d9d2905	0.076738395
57	0x3d8e1e02	0.06939317
58	0x3d988186	0.0744658
59	0x3d8a8d5e	0.06765245
60	0x3d60ab15	0.054850657
61	0x3d404589	0.046941314
62	0x3e023d59	0.12718715
63	0x3d369369	0.044574175

bn4.running_mean f4 [64]
0	0xbf43f36d	-0.76543313
1	0x3f1972dd	0.5994089
2	0x3f12a7ca	0.57287276
3	0xbfb2c72a	-1.396703
4	0x3e9a7da0	0.3017397
5	0x3f1fd7d8	0.62438726
6	0x3fbdd688	1.4831095
7	0x3f735bd5	0.95062
8	0x3dc892e4	0.09793642
9	0x3e819c0a	0.2531436
10	0xbe8289a1	-0.25495628
11	0x3db38307	0.08765226
12	0x3f11f197	0.5700926
13	0xbe733962	-0.23752359
14	0x3e074e1a	0.13213387
15	0x3e5f7273	0.21821003
16	0x3d48f09f	0.0490576
17	0x3ee13099	0.4398239
18	0xbe17f5f3	-0.14839916
19	0xbd9469f1	-0.07246769
20	0xbf2abfc0	-0.6669884
21	0xbf17b6a9	-0.5926309
22	0x3dd74a84	0.105122596
23	0x3f54bc55	0.8309987
24	0x3f4b2b85	0.7936328
25	0x3f7f5746	0.99742544
26	0xbf3707d3	-0.71496314
27	0xbed4bdfb	-0.41551194
28	0xbe7cb842	-0.24679664
29	0xbe809a77	-0.25117847
30	0x3e345d06	0.1761361
31	0xbf604e49	-0.87619454
32	0x3f05b0be	0.5222281
33	0x3f391574	0.7229836
34	0x3e760f4d	0.24029274
35	0xbeeb1a15	-0.45918337
36	0x3d92baa0	0.07164502
37	0x3e5a2b86	0.21305665
38	0x3eea8c18	0.45810008
39	0xbf1ff7ea	-0.6248766
40	0x3f7dfb43	0.9921152
41	0xbf636a6d	-0.8883427
42	0xbf915afe	-1.1355894
43	0x3f3ae3ee	0.73004043
44	0x3efb3be2	0.49069124
45	0x3fa17aae	1.2615564
46	0x3b70a7d8	0.0036721136
47	0xbe5af758	-0.21383417
48	0xbf6c17ad	-0.92223626
49	0x3ec6b2ee	0.38808388
50	0x3f5251c1	0.82155997
51	0x3f6ad83a	0.91736186
52	0xbecd7048	-0.40124726
53	0x3f5d4c24	0.86444306
54	0xbe1ce374	-0.15321141
55	0xbeedc829	-0.46441773
56	0x3f616c88	0.8805623
57	0xbf05b18e	-0.5222405
58	0x3ef010e0	0.46887875
59	0xbf30b5b0	-0.69027233
60	0x3f99bbd8	1.201045
61	0xbefb4171	-0.49073365
62	0xbf53d0bc	-0.8274038
63	0x3f5f39ae	0.8719739
