clasi_extra_chico.ckpt (torch, 112528 bytes, 26 tensors)

conv1.weight f4 [32, 1, 80]
0.042434473 0.023091393 -0.0120173525 0.0638208 0.09683545 0.0012062315 -0.12382733 -0.03226428
-0.10200371 0.030158695 -0.0507658 0.006775708 0.015957022 0.13386597 0.060124286 -0.080392465
0.019192515 0.028188178 0.053682603 -0.07166409 -0.023447517 -0.021101786 -0.054050446 0.122412354
-0.05051055 -0.1097272 0.0378608 0.0067905667 -0.09282655 -0.040919136 0.11866029 0.071724854
0.092416935 -0.02869371 -0.021989338 0.11813327 0.04003836 -0.05224813 -0.09448813 0.06404933
-0.007823104 0.04123356 -0.040692415 -0.10473669 0.11905595 -0.013467203 -0.0015149148 -0.01904215
-0.059946023 0.062273853 0.056533646 -0.03687039 -0.09264879 0.00059914816 0.1221362 0.038857758
-0.11228296 -0.011955465 0.10508582 -0.033882473 0.098122925 -0.049727663 -0.025039652 -0.021941679
0.040901396 -0.08992218 0.018562997 -0.014455964 0.05197547 0.050903667 -0.101736896 -0.021562114
0.029066406 0.021683045 -0.039923955 -0.059761576 0.13025339 0.072747044 -0.05080617 -0.07870279
0.047087356 0.06632311 0.079057105 -0.07449239 0.024242844 0.10466007 0.12700245 0.0111674825
-0.028404986 -0.041181438 -0.055372585 0.011005673 0.19135724 0.07033505 0.07369976 -0.026648046
0.034717333 -0.06499358 0.10116967 0.09929028 -0.022124486 0.028197473 -0.025139233 -0.021531088
-0.0060220724 -0.041230336 -0.061430182 -0.04135833 -0.065685794 -0.041689314 0.028424582 -0.05465188
-0.0189462 0.07286587 0.11073979 0.09753845 0.08468418 0.07406889 -0.023293573 -0.1102121
0.075832695 -0.058795307 -0.038412627 0.0374526 -0.12163171 -0.041754127 -0.03956648 0.1225614
0.09762718 -0.006308316 0.066159025 -0.07399601 -0.069190234 -0.063560225 0.07721019 0.0062912814
-0.018859847 0.06709145 -0.038003925 0.00046989962 -0.08956842 0.018772928 -0.13089529 0.061672557
-0.027840264 -0.008666109 -0.0165422 -0.018925924 -0.06822899 -0.09376459 0.036994714 -0.060091153
0.088890746 0.059860885 -0.09846329 0.048385285 0.014828614 -0.11422342 0.018616905 -0.054831523
0.058160212 -0.077837415 0.043507535 -0.039288796 -0.06645121 -0.05373548 0.06904541 0.114176944
-0.098846585 0.08059566 0.047322996 0.0036341527 0.04101462 0.058839064 0.016418977 0.04355585
0.026869087 -0.14433433 -0.05004987 -0.07117891 -0.11481206 -0.0012959056 -0.1187454 -0.082721375
-0.06609915 -0.06788299 0.02954582 -0.08662184 0.0111831445 0.045679845 0.08636149 0.04270694
0.04348519 0.018648146 -0.07728463 0.020230882 0.0048645404 -0.0189912 -0.02127519 -0.06246403
0.09547207 -0.010160464 0.120586574 0.11005117 0.09935879 -0.075520165 0.07838823 -0.13392146
-0.11362978 -0.045377478 -0.06723292 -0.040074483 -0.0713408 -0.05571908 0.08366361 0.046562783
0.14264408 0.0047485423 0.1267068 -0.08185627 -0.00842746 -0.07951765 -0.046882067 0.09442892
0.062435497 -0.060679145 -0.05750085 -0.08573591 0.03841772 -0.03075171 -0.07653661 0.09102318
-0.11658171 -0.012163512 -0.07314298 0.044973344 0.07108493 -0.092953295 0.0829366 -0.09804082
0.04265123 0.029713053 0.013615269 -0.089427896 0.0037804174 -0.014511066 -0.04309388 -0.10423179
-0.050714556 0.042397436 -0.018477885 -0.13328773 0.042882282 0.052369468 0.06168078 -0.07206342
00000000: c5cf 2d3d 292a bd3c 6ee4 44bc 7bb4 823d
00000010: aa51 c63d 6a1a 9e3a 2f99 fdbd 8d27 04bd
00000020: 52e7 d0bd 5e0f f73c cdef 4fbd c206 de3b
00000030: 4db8 823c 2914 093e e244 763d cea4 a4bd
00000040: 9f39 9d3c e5ea e63c 4ae2 5b3d 9fc4 92bd
00000050: 0215 c0bc a7dd acbc 0064 5dbd 54b3 fa3d
00000060: 27e4 4ebd a7b8 e0bd ed13 1b3d 6783 de3b
00000070: d91b bebd d39a 27bd 2b04 f33d 7be4 923d
00000080: 1745 bd3d 120f ebbc fc22 b4bc dbef f13d
00000090: 43ff 233d 2302 56bd fe82 c1bd 4c2c 833d
000000a0: 7a2c 00bc 85e4 283d 17ad 26bd 3180 d6bd
000000b0: 9bd3 f33d 8ba5 5cbc 1b90 c6ba 48fe 9bbc
000000c0: f689 75bd de12 7f3d d38f 673d 6805 17bd
000000d0: a6be bdbd 2710 1d3a 8b22 fa3d 5029 1f3d
000000e0: 9cf4 e5bd dbe0 43bc 3c37 d73d 59c8 0abd
000000f0: acf4 c83d 3caf 4bbd f51f cdbc 09bf b3bc
00000100: 3988 273d 1f29 b8bd 6d11 983c b5d8 6cbc
00000110: 3be4 543d 5d80 503d 6f5b d0bd 08a3 b0bc
00000120: ac1c ee3c a4a0 b13c 4d87 23bd 8ec8 74bd
00000130: 2561 053e 67fc 943d 211a 50bd ee2e a1bd
00000140: acde 403d 69d4 873d b1e8 a13d 778f 98bd
00000150: ee98 c63c 0558 d63d ee0c 023e d1f7 363c
00000160: 93b1 e8bc dead 28bd 5dce 62bd 2351 343c
00000170: 27f3 433e d30b 903d e6ef 963d 014d dabc
00000180: c333 0e3d 5b1b 85bd 0b32 cf3d b458 cb3d
00000190: 693e b5bc 63fe e63c cbf0 cdbc f761 b0bc
000001a0: ce54 c5bb 24e1 28bd 379e 7bbd 5a67 29bd
000001b0: 4686 86bd 6ac2 2abd abda e83c a6da 5fbd
000001c0: 1035 9bbc b43a 953d 8bcb e23d 3dc2 c73d
000001d0: e66e ad3d 6eb1 973d 2ad2 bebc e2b6 e1bd
000001e0: 2c4e 9b3d 59d3 70bd 8f56 1dbd e667 193d
000001f0: 0c1a f9bd 6006 2bbd 7610 22bd 7901 fb3d
00000200: c2f0 c73d fdb5 cebb 627e 873d 388b 97bd
00000210: 9cb3 8dbd dd2b 82bd 6020 9e3d 1827 ce3b
00000220: f77f 9abc 3e67 893d 01aa 1bbd dc5c f639
00000230: a66f b7bd afc9 993c 6a09 06be 5d9c 7c3d
00000240: 4411 e4bc 4cfc 0dbc 8283 87bc 8a0a 9bbc
00000250: a4bb 8bbd a607 c0bd c587 173d 2422 76bd
00000260: 5a0c b63d b030 753d 1fa7 c9bd a62f 463d
00000270: b7f3 723c f8ed e9bd 7b82 983c 0597 60bd
00000280: 6739 6e3d 3969 9fbd f534 323d 4aed 20bd
00000290: 9217 88bd bc19 5cbd ae67 8d3d 9ad5 e93d
000002a0: 1470 cabd 560f a53d c2d5 413d f72a 6e3b
000002b0: f2fe 273d 3b01 713d 1781 863c 9e67 323d
000002c0: 8f1c dc3c 61cc 13be 1801 4dbd 40c6 91bd
000002d0: 9622 ebbd 60db a9ba ca30 f3bd d369 a9bd
000002e0: fe5e 87bd 3d06 8bbd 130a f23c cb66 b1bd
000002f0: 8239 373c ca1a 3b3d 4bde b03d 79ed 2e3d
00000300: 871d 323d ffc3 983c 6747 9ebd 3cbb a53c
00000310: b966 9f3b 6f93 9bbc 4f49 aebc 48da 7fbd
00000320: dc86 c33d 1378 26bc 18f6 f63d 8262 e13d
00000330: 9f7c cb3d 51aa 9abd 028a a03d b522 09be
00000340: bbb6 e8bd bcdd 39bd 6ab1 89bd 2425 24bd
00000350: 201b 92bd b139 64bd d457 ab3d 9eb8 3e3d
00000360: 4a11 123e a999 9b3b 6dbf 013e 43a4 a7bd
00000370: 5413 0abc 26da a2bd 6907 40bd f363 c13d
00000380: 5dbc 7f3d b28a 78bd 0386 6bbd 4f96 afbd
00000390: e65b 1d3d 03eb fbbc 3abf 9cbd 5c6a ba3d
000003a0: 64c2 eebd 7849 47bc fdcb 95bd f835 383d
000003b0: fa94 913d 4c5e bebd aada a93d a0c9 c8bd
000003c0: 0eb3 2e3d ca68 f33c 9412 5f3c f925 b7bd
000003d0: e1c0 773b d2bf 6dbc 3583 30bd 7a77 d5bd
000003e0: 11ba 4fbd efa8 2d3d ef5e 97bc 947c 08be
000003f0: 55a5 2f3d 5e81 563d fca4 7c3d fd95 93bd

conv1.bias f4 [32]
-0.033097368 -0.03152708 -0.074291155 -0.03198954 0.022272162 0.1071299 -0.06580427 -0.10313458
0.12080431 -0.09818956 -0.02812295 0.05484638 -0.00771137 0.00730622 0.050216768 -0.04185897
0.044306718 0.05555188 -0.10031604 0.090214394 -0.0218697 0.04737219 0.040193778 -0.02895952
-0.01630745 0.021055564 0.12556024 0.04851562 -0.05540623 -0.079736814 0.07691342 -0.052288517
00000000: 1b91 07bd 8a22 01bd f625 98bd 7707 03bd
00000010: 1c74 b63c ec66 db3d 64c4 86bd 3938 d3bd
00000020: 4068 f73d 9c17 c9bd 1a62 e6bc 99a6 603d
00000030: a9af fcbb 0469 ef3b 19b0 4d3d 5074 2bbd
00000040: f67a 353d 5e8a 633d 7f72 cdbd 53c2 b83d
00000050: 1628 b3bc 5709 423d 3ba2 243d 843c edbc
00000060: 3497 85bc b87c ac3c dd92 003e 51b8 463d
00000070: a5f1 62bd 0e4d a3bd c884 9d3d 7c2c 56bd

bn1.weight f4 [32]
1.0191144 1.0178933 0.9795381 0.9636227 0.9602003 0.94525194 1.0010817 1.006536
0.9980318 1.0205071 1.0425892 0.99163866 0.9873461 0.99450976 1.0214826 1.0057211
1.0039653 0.9923643 0.99237406 1.0460705 1.0378519 1.0063256 0.9720679 1.0258521
1.0084342 0.9702519 1.0059911 0.991766 0.9993383 1.0006894 1.0075749 0.99775136
00000000: 5772 823f 544a 823f 02c3 7a3f faaf 763f
00000010: b0cf 753f 08fc 713f 7223 803f 2cd6 803f
00000020: 037f 7f3f fa9f 823f 9073 853f 08dc 7d3f
00000030: b7c2 7c3f 3198 7e3f f1bf 823f 78bb 803f
00000040: ef81 803f 960b 7e3f 3a0c 7e3f a3e5 853f
00000050: 55d8 843f 47cf 803f 71d9 783f 1f4f 833f
00000060: 5f14 813f 6e62 783f 51c4 803f 60e4 7d3f
00000070: a3d4 7f3f 9716 803f 37f8 803f a26c 7f3f

bn1.bias f4 [32]
0.030864937 0.052537564 -0.033151805 0.1798308 -0.009029954 -0.058587525 0.052091926 -0.018928638
0.014356048 -0.035577595 0.14212197 0.023090154 -0.02117442 0.1324682 0.017206846 -0.02975486
0.022359546 0.07047582 0.109020025 0.07022484 0.054945447 0.0325706 -0.050625365 0.08373282
0.028500527 -0.02795378 0.0013200389 -0.02344271 -0.031586472 -0.09265272 -0.013035649 0.025785021
00000000: 77d8 fc3c a131 573d 30ca 07bd 9125 383e
00000010: 5ff2 13bc 79f9 6fbd 585e 553d 3b10 9bbc
00000020: a135 6b3c d0b9 11bd 6c88 113e 9027 bd3c
00000030: fa75 adbc bea5 073e 5ff5 8c3c 77c0 f3bc
00000040: 5e2b b73c a055 903d e445 df3d 0ad2 8f3d
00000050: 7a0e 613d c068 053d 8b5c 4fbd 1d7c ab3d
00000060: f079 e93c 53ff e4bc 2805 ad3a ed0a c0bc
00000070: d160 01bd b6c0 bdbd 7a93 55bc 1c3b d33c

bn1.running_mean f4 [32]
0.16728227 0.3309864 -0.8189455 0.60951996 0.6435145 0.20814694 -0.09163739 0.118346676
0.029802514 -0.07982855 0.18755636 0.11543764 -0.25002137 -0.16164425 -0.052631978 -1.6489402
-0.9374162 0.42159343 -0.0428541 -0.05493015 -0.051894575 0.7120447 -0.8928227 -0.82668716
0.017863646 -1.0305568 0.13729239 0.0050935443 0.10566676 0.11771033 0.22362964 -1.0619552
00000000: 0b4c 2b3e 0d77 a93e 6aa6 51bf 8009 1c3f
00000010: 5ebd 243f 7924 553e 62ac bbbd be5f f23d
00000020: 6724 f43c 277d a3bd c60e 403e 926a ec3d
00000030: cd02 80be 1286 25be a194 57bd 7910 d3bf
00000040: 82fa 6fbf 18db d73e c887 2fbd 70fe 60bd
00000050: 688f 54bd 9048 363f 0790 64bf c5a1 53bf
00000060: c856 923c 49e9 83bf 6096 0c3e bfe7 a63b
00000070: d067 d83d 1d12 f13d 2bff 643e 26ee 87bf

bn1.running_var f4 [32]
0.03724256 0.051733337 0.06920204 0.04856385 0.051212035 0.052417975 0.048191506 0.025166936
0.07506798 0.034466412 0.029987678 0.044975806 0.07915586 0.04535793 0.02630534 0.15538144
0.06651812 0.029655376 0.025078785 0.043377403 0.031640843 0.04895501 0.07700896 0.064419374
0.051515885 0.09684667 0.049737792 0.034209024 0.045050155 0.022447983 0.030724645 0.11006768
00000000: a88b 183d 56e6 533d cdb9 8d3d e3ea 463d
00000010: b6c3 513d 3bb4 563d 7564 453d e42a ce3c
00000020: 3ebd 993d a72c 0d3d b8a8 f53c 8d38 383d
00000030: 781c a23d 3dc9 393d 4c7e d73c 501c 1f3e
00000040: a73a 883d d5ef f23c 0672 cd3c 81ac 313d
00000050: d499 013d 0c85 483d e0b6 9d3d 4eee 833d
00000060: 5202 533d 8c57 c63d dbb9 4b3d c31e 0c3d
00000070: 8386 383d d5e4 b73c 40b2 fb3c 2a6b e13d

conv2.weight f4 [32, 32, 3]
-0.023007007 -0.0073078815 -0.070028014 -0.06362045 -0.062949896 -0.06261244 0.05168739 -0.0742021
0.015827257 0.05392971 -0.021513177 -0.09535302 0.04292749 -0.08285797 -0.04764972 -0.011021708
0.046223372 0.021520324 0.036929972 -0.078368776 -0.08126774 -0.051601056 -0.007861857 0.03864444
-0.006022734 0.05026255 -0.055440012 0.08346042 0.042957585 0.043612663 -0.0823593 -0.05097614
-0.09671425 0.04959798 0.0012669332 -0.02530998 0.102246486 -0.0870279 0.04166335 -0.011653235
-0.02985087 -0.04670582 0.053484313 0.0747742 -0.019576848 0.09192205 0.002747529 -0.06273101
-0.024417963 -0.029950123 0.044220228 0.045422778 -0.11965014 -0.043263108 -0.08328042 0.057045177
0.051842336 -0.07534422 0.021346366 0.06101371 -0.03561997 -0.118641876 0.015218307 0.0030775366
0.024978528 -0.12137712 -0.096858084 -0.08172474 -0.032229044 0.059814792 -0.015841344 -0.045395806
0.10573769 0.06074904 0.08973078 -0.016505234 0.03736901 -0.0689502 0.05800307 0.09890579
-0.08366167 0.008224115 0.06752746 -0.05963262 -0.08134544 0.051817674 0.009191572 -0.053557828
0.08649893 -0.08923072 -0.104155935 0.03115231 0.0066203726 0.100726634 -0.0074910526 -0.05511774
-0.0067494963 0.06239528 0.01201376 0.079799116 0.042353876 0.003413773 0.03841682 -0.058777977
0.0011338791 0.08163961 0.026744163 -0.07659293 -0.036223892 0.01464142 0.11360036 -0.05559226
-0.016620925 0.049694344 0.12735169 0.094325304 -0.11183209 0.08579446 0.03572721 -0.1104179
-0.05712775 -0.051742043 0.052092545 0.018516589 0.022637915 -0.06812597 0.090902485 0.05430428
0.08490391 0.062128264 -0.050393306 0.04762403 0.028516682 0.015469415 -0.027848022 -0.08772373
-0.08511904 0.040205944 -0.021151047 -0.07676603 0.083183125 -0.08368291 0.041659635 -0.0055519547
0.023954425 -0.028979719 -0.038318798 0.096395195 0.06490364 0.00880056 -0.058041647 -0.016361672
0.020562572 -0.07086837 0.08059989 -0.11776485 0.05877436 0.065021664 0.010290136 -0.05442216
0.044250403 0.04535507 0.07178129 0.03798266 0.024433704 0.039595637 0.09958969 0.043123946
0.012593799 0.056276914 -0.0031675934 -0.047333263 -0.043833535 0.08011555 0.068031244 -0.050344743
0.06983031 0.048901197 0.14357628 0.10405243 0.11632745 0.1148207 -0.11244856 -0.02947414
-0.032825597 -0.09487047 0.032215036 -0.0822205 -0.037140872 0.0688876 -0.08974432 0.07041094
0.04315078 0.15534365 0.00923335 0.08771195 0.032424096 0.02189196 -0.07181606 -0.103355624
-0.037113637 0.051883668 0.055062395 0.020577502 0.04467834 0.0688423 0.09318992 -0.043064646
-0.08959684 -0.043662637 -0.040460963 -0.016833503 0.00326727 -0.04092053 0.0006349245 -0.00605381
0.10161806 -0.027516115 0.0056361607 -0.07633425 0.04129004 0.05055929 0.03609817 -0.12512264
0.07944733 -0.08982177 -0.05708048 0.045735426 0.09385145 -0.017828602 0.007877099 0.027936952
0.06569534 -0.035039872 -0.012181508 -0.08270475 0.055136964 -0.0029697192 -0.10331358 -0.017206544
-0.030371854 0.01817805 -0.03082401 0.0068851886 -0.015210628 -0.020861708 0.024801109 0.099373154
-0.09304748 -0.018529052 0.052380797 -0.100921236 -0.044024296 0.11763042 -0.010746051 0.018561915
00000000: 3179 bcbc f476 efbb d96a 8fbd 704b 82bd
00000010: e0eb 80bd f33a 80bd 28b6 533d 45f7 97bd
00000020: 2aa8 813c 66e5 5c3d 673c b0bc 7248 c3bd
00000030: bcd4 2f3d 70b1 a9bd 5a2c 43bd 6594 34bc
00000040: b854 3d3d 644b b03c e243 173d cf7f a0bd
00000050: b36f a6bd a15b 53bd 05cf 00bc a249 1e3d
00000060: 5b5a c5bb 1be0 4d3d 1115 63bd 4ced aa3d
00000070: 4bf4 2f3d 31a3 323d feab a8bd 5bcc 50bd
00000080: 1f12 c6bd 4027 4b3d 390f a63a e056 cfbc
00000090: 9b66 d13d af3b b2bd 30a7 2a3d 36ed 3ebc
000000a0: d089 f4bc 9a4e 3fbd 5e12 5b3d 3723 993d
000000b0: a05f a0bc a141 bc3d e30f 343b 1e79 80bd
000000c0: 2e08 c8bc f659 f5bc 4520 353d 3c0d 3a3d
000000d0: 220b f5bd a834 31bd ed8e aabd 34a8 693d
000000e0: a158 543d 124e 9abd 93de ae3c 83e9 793d
000000f0: 3fe6 11bd 83fa f2bd 3556 793c 7fb0 493b
00000100: c59f cc3c 9194 f8bd 885d c6bd 4d5f a7bd
00000110: 9a02 04bd 5b00 753d b5c5 81bc f4f0 39bd
00000120: 018d d83d fcd3 783d c5c4 b73d fc35 87bc
00000130: 3f10 193d c335 8dbd a194 6d3d 1e8f ca3d
00000140: cf56 abbd 70be 063c d64b 8a3d 5641 74bd
00000150: 7098 a6bd c53e 543d 3f98 163c 745f 5bbd
00000160: 5a26 b13d 99be b6bd b54f d5bd 2133 ff3c
00000170: b6ef d83b c449 ce3d 8177 f5bb 24c3 61bd
00000180: e12a ddbb 3192 7f3d 5dd5 443c b86d a33d
00000190: 427b 2d3d 9bb9 5f3b f55a 1d3d 2dc1 70bd
000001a0: ab9e 943a ab32 a73d 9316 db3c c1dc 9cbd
000001b0: 815f 14bd 91e2 6f3c 4ea7 e83d b6b4 63bd
000001c0: 9b28 88bc 4c8c 4b3d 7b68 023e a02d c13d
000001d0: 3908 e5bd 01b5 af3d b256 123d c822 e2bd
000001e0: cafe 69bd 77ef 53bd fe5e 553d 1ab0 973c
000001f0: 2673 b93c a185 8bbd 152b ba3d 2a6e 5e3d
00000200: 1ae2 ad3d 357a 7e3d 3669 4ebd 6a11 433d
00000210: d19b e93c 6e73 7d3c 8921 e4bc 80a8 b3bd
00000220: e452 aebd fdae 243d f644 adbc 8237 9dbd
00000230: ea5b aa3d f261 abbd 4ba3 2a3d 2ced b5bb
00000240: 123c c43c e066 edbc 2cf4 1cbd d86a c53d
00000250: 33ec 843d 3930 103c 14bd 6dbd ea08 86bc
00000260: d772 a83c 7023 91bd 8e11 a53d b32e f1bd
00000270: 62bd 703d 142a 853d f597 283c c5e9 5ebd
00000280: e93f 353d 3dc6 393d 1202 933d b593 1b3d
00000290: 3129 c83c 092f 223d aef5 cb3d bca2 303d
000002a0: 3956 4e3c 9f82 663d 6697 4fbb 86e0 41bd
000002b0: cb8a 33bd 9f13 a43d f753 8b3d 4a36 4ebd
000002c0: 3203 8f3d 9f4c 483d a905 133e 7119 d53d
000002d0: 163d ee3d 1d27 eb3d 6e4b e6bd c073 f1bc
000002e0: 2274 06bd 734b c2bd eaf3 033d 3963 a8bd
000002f0: 0721 18bd f114 8d3d dfcb b7bd 9c33 903d
00000300: dfbe 303d 6812 1f3e 7a47 173c 53a2 b33d
00000310: 21cf 043d c556 b33c 4c14 93bd 1dac d3bd
00000320: 7804 18bd f883 543d 1b89 613d 2692 a83c
00000330: a300 373d 31fd 8c3d 5bda be3d 8e64 30bd
00000340: 8c7e b7bd 98d7 32bd 65ba 25bd 6ae6 89bc
00000350: b21f 563b 499c 27bd 1071 263a 0a5f c6bb
00000360: 211d d03d 7a69 e1bc 8baf b83b 2255 9cbd
00000370: bf1f 293d 4217 4f3d addb 133d 2620 00be
00000380: 48b5 a23d 7af4 b7bd 39cd 69bd 1255 3b3d
00000390: 3035 c03d 4a0d 92bc f30e 013c 09dc e43c
000003a0: 478b 863d f885 0fbd f394 47bc 1c61 a9bd
000003b0: 4cd7 613d 9f9f 42bb 1296 d3bd bdf4 8cbc
000003c0: 65ce f8bc 22ea 943c a282 fcbc 269d e13b
000003d0: ff35 79bc 2ce6 aabc b22b cb3c 2784 cb3d
000003e0: ad8f bebd 3dca 97bc 3f8d 563d cbaf cebd
000003f0: d252 34bd 38e8 f03d 3410 30bc 280f 983c

conv2.bias f4 [32]
0.02434756 -0.05321658 0.06765607 0.102049366 -0.04469738 0.00091720093 -0.09900323 0.014857078
-0.03401182 0.025560223 -0.07772222 0.032455 0.02280221 0.07034265 0.06885351 0.045488883
-0.044684388 0.03426615 -0.021948136 -0.07951183 -0.076996244 -0.025742004 0.07741533 -0.041749936
-0.037182752 0.01766582 -0.041603636 0.035067894 0.056209195 -0.055038605 0.084321715 0.06477029
00000000: 8974 c73c a1f9 59bd 448f 8a3d 42ff d03d
00000010: 9a14 37bd 5070 703a 35c2 cabd 1a6b 733c
00000020: fa4f 0bbd ac63 d13c d42c 9fbd 89ef 043d
00000030: b3cb ba3c cf0f 903d 1203 8d3d 8d52 3a3d
00000040: fa06 37bd aa5a 0c3d 94cc b3bc 19d7 a2bd
00000050: 35b0 9dbd e5e0 d2bc ee8b 9e3d fb01 2bbd
00000060: f14c 18bd e9b7 903c 9368 2abd 5aa3 0f3d
00000070: 9d3b 663d 2970 61bd ddb0 ac3d 49a6 843d

bn2.weight f4 [32]
0.97867787 0.95892066 0.9734834 0.9963389 1.0371354 1.0634207 1.0971094 1.0740057
0.9722286 1.03141 0.9769758 1.0224692 0.9596848 1.0025299 1.0107645 1.0548087
0.9696871 1.0403882 1.0380182 1.0532743 0.9775343 0.9880601 0.97030073 1.0106277
0.9642055 0.9910449 1.0044265 0.97057396 0.9907834 0.94522285 0.944645 1.0276773
00000000: a28a 7a3f d37b 753f 3536 793f 1110 7f3f
00000010: dac0 843f 2b1e 883f 156e 8c3f 0579 893f
00000020: f9e3 783f 3e05 843f 161b 7a3f 45e0 823f
00000030: e7ad 753f e652 803f bb60 813f f903 873f
00000040: 6a3d 783f 712b 853f c8dd 843f b1d1 863f
00000050: b03f 7a3f 82f1 7c3f a165 783f 405c 813f
00000060: 2cd6 763f 1eb5 7d3f 0c91 803f 8977 783f
00000070: fba3 7d3f 20fa 713f 41d4 713f ee8a 833f

bn2.bias f4 [32]
-0.063624196 -0.046346303 0.012906656 -0.036351293 -0.036037665 -0.05150739 -0.029047778 -0.016953576
-0.12558587 -0.031378668 -0.060700484 -0.009829649 0.034103982 -0.014011051 0.0776155 -0.033857428
-0.07408046 0.026567953 0.020470185 0.04652037 -0.0072058276 -0.013207388 -0.0040380727 0.025305627
-0.038880587 -0.03142202 -0.06613773 0.00682454 -0.04088516 -0.053976953 -0.011251762 0.015013185
00000000: 674d 82bd 9fd5 3dbd 7076 533c 18e5 14bd
00000010: 3b9c 13bd 6af9 52bd 9bf5 edbc 3ae2 8abc
00000020: 9599 00be eb86 00bd 12a1 78bd 890c 21bc
00000030: 9eb0 0b3d 9b8e 65bc e0f4 9e3d 16ae 0abd
00000040: 7fb7 97bd 09a5 d93c 17b1 a73c 258c 3e3d
00000050: dd1e ecbb cd63 58bc cf51 84bb bf4d cf3c
00000060: 4041 1fbd 60b4 00bd 3873 87bd 64a0 df3b
00000070: 3377 27bd f016 5dbd 4f59 38bc ddf9 753c

bn2.running_mean f4 [32]
-0.5131004 0.6849146 0.36956728 -0.5959292 -0.5664965 -0.009931739 -0.6657466 -0.41999155
-0.4227852 -0.51609 -1.1321151 -0.49184537 0.45975015 -0.55514765 -0.34820575 -0.633031
-0.78150827 -0.56302166 -0.30572653 -0.29003686 -0.54318553 -0.41173476 0.039328173 0.830417
-0.18458368 -0.38983282 -0.7612573 0.08777269 0.22043447 -0.10896149 -0.13998857 -0.37788826
00000000: 8c5a 03bf 9056 2f3f ec37 bd3e d18e 18bf
00000010: ea05 11bf bcb8 22bc 5f6e 2abf 2209 d7be
00000020: 4d77 d8be 791e 04bf 26e9 90bf 28d3 fbbe
00000030: 5f64 eb3e 281e 0ebf 0648 b2be 520e 22bf
00000040: ed10 48bf 3022 10bf 3088 9cbe b67f 94be
00000050: 350e 0bbf e6ce d2be 9416 213d 3596 543f
00000060: 8103 3dbe 2b98 c7be c2e1 42bf 2bc2 b33d
00000070: 93b9 613e 3427 dfbd 2a59 0fbe 927a c1be

bn2.running_var f4 [32]
0.2566941 0.34105575 0.33472434 0.4014244 0.28224418 0.20788719 0.34538326 0.33249027
0.19247031 0.3109211 0.7066816 0.29311457 0.3046938 0.3327647 0.23970024 0.30467302
0.37788892 0.294977 0.21918775 0.34155878 0.31562635 0.16036117 0.30293262 0.3960412
0.28717643 0.28213271 0.39292434 0.68273956 0.36191836 0.25776854 0.36389774 0.19280228
00000000: 696d 833e dc9e ae3e fd60 ab3e 8087 cd3e
00000010: 4f82 903e 61e0 543e 13d6 b03e 2a3c aa3e
00000020: f016 453e 0d31 9f3e 16e9 343f 1d13 963e
00000030: d300 9c3e 2260 aa3e fb73 753e 1afe 9b3e
00000040: a87a c13e 3a07 973e c172 603e cbe0 ae3e
00000050: c799 a13e b835 243e fc19 9b3e eac5 ca3e
00000060: ca08 933e b373 903e 612d c93e 05c8 2e3f
00000070: 5d4d b93e 3dfa 833e ce50 ba3e f66d 453e

conv3.weight f4 [64, 32, 3]
-0.052358564 -0.031308204 -0.039617788 0.026777873 0.016411891 -0.03958648 -0.059197694 0.05328013
0.0760548 -0.002517755 0.039708592 0.012791423 0.041498274 0.022860566 -0.052278638 -0.04238837
0.044723038 0.09920109 -0.13766725 -0.10863063 -0.07221358 -0.029139947 -0.028422935 0.019581787
-0.06740087 0.052470118 -0.06405476 0.09172054 0.09524794 0.082735986 -0.0041433685 -0.040621936
0.051954675 -0.06868341 -0.08702773 -0.002922609 -0.04962268 0.06549395 -0.031670284 0.051831268
0.035566244 0.051386114 0.024157148 -0.0049231197 0.12515125 -0.08968862 0.0052402634 0.04928525
-0.01661886 0.08771393 0.057439834 -0.033980176 -0.0043351604 0.034448076 -0.08788513 -0.11138702
-0.07280928 0.04802676 -0.13400596 0.0041846856 -0.14075187 0.018182779 -0.052085735 -0.0087044565
0.04971269 -0.05592204 0.032636017 0.033477463 -0.012516623 0.028575297 -0.027759403 -0.061107293
0.043213267 0.05051303 -0.024582619 -0.08339856 -0.09472326 -0.059176084 0.0051128226 -0.02087127
0.11323578 -0.083760254 -0.079591855 -0.019867064 -0.049466074 0.08451789 -0.016749676 0.05586983
0.048539393 0.0455119 -0.115584046 -0.03894942 -0.073665805 0.062055547 0.003239707 0.10892978
-0.05146132 0.019964492 -0.0033136888 0.017701194 -0.044187933 0.0016168751 -0.10476215 -0.06895943
0.057395704 -0.007800855 0.09109121 -0.08812209 -0.05255783 -0.013871199 0.014271051 -0.07478853
0.07298319 0.03886605 0.00992598 0.02621299 0.07466547 0.11617911 0.037661806 -0.15832533
0.07589149 -0.030695904 -0.09162138 0.08142878 0.042367917 0.01014173 0.028203249 -0.064705774
0.047573 -0.0005242801 0.037015293 0.10246792 -0.019941973 -0.024880545 -0.031049002 -0.0041460306
-0.034247838 -0.035348855 -0.022871995 -0.044336617 -0.08316437 -0.016261889 0.12514155 0.00032072936
-0.020870984 -0.018283535 0.008422396 0.088533975 -0.022924246 -0.015657136 -0.04787835 -0.065730624
-0.13605084 0.0983912 -0.0791932 -0.0020311647 0.0042247637 -0.10955787 -0.09728797 -0.022976264
-0.107525095 0.0400136 0.06682571 -0.010570137 -0.10737041 -0.025532538 -0.039914835 0.10375031
0.085656 0.008823392 -0.06884186 -0.09606227 0.019044433 -0.14845204 0.055167243 0.061815653
-0.0516505 -0.06961567 -0.011628924 0.08091439 0.050741285 -0.070896916 -0.09708476 -0.0015466538
-0.06663922 0.034818873 0.08973724 -0.054178774 -0.06004974 0.029415488 0.004662201 0.0022370713
-0.0855864 -0.034706257 -0.08173415 -0.09692705 -0.03914656 0.03710462 -0.0938953 -0.08879863
0.0701554 0.06938443 -0.07869461 -0.02050861 0.094627716 -0.030441856 -0.036412984 0.051199447
0.07332935 -0.024604967 -0.03794453 -0.002415322 0.07627468 0.096792415 0.024376433 -0.023225648
-0.075877234 0.011995371 0.026338676 0.07798179 0.07117919 0.09410555 -0.09138462 0.07976653
0.0012237388 -0.04560476 -0.16504118 -0.046871006 0.04127898 0.045125008 -0.027124753 -0.015082696
0.03671624 -0.008950835 -0.060433693 -0.0722782 -0.10473152 0.030004136 0.14692771 -0.09525868
0.0905841 -0.0014601556 0.17054985 -0.101152465 -0.08624682 -0.17541881 0.05769897 0.03541046
0.09814455 0.06830266 -0.12550363 -0.05081922 -0.09109954 0.030445062 -0.11660598 -0.06502845
00000000: ef75 56bd 083d 00bd 4346 22bd 455d db3c
00000010: 3b72 863c 6f25 22bd 4879 72bd 443c 5a3d
00000020: 9ec2 9b3d eb00 25bb 7aa5 223d 1e93 513c
00000030: 18fa 293d 1546 bb3c 2022 56bd 6d9f 2dbd
00000040: 812f 373d f129 cb3d a5f8 0cbe bc79 debd
00000050: b7e4 93bd e6b6 eebc 37d7 e8bc fc69 a03c
00000060: 7809 8abd e8ea 563d 242f 83bd fad7 bb3d
00000070: 5a11 c33d 7c71 a93d 18c5 87bb 3063 26bd
00000080: 6dce 543d e3a9 8cbd 983b b2bd 3e89 3fbb
00000090: 2741 4bbd b121 863d b3b8 01bd 064d 543d
000000a0: e9ad 113d 3f7a 523d 36e5 c53c 1f52 a1bb
000000b0: a627 003e abae b7bd 84b6 ab3b 55df 493d
000000c0: 4724 88bc 5ca3 b33d 0846 6b3d cc2e 0bbd
000000d0: f60d 8ebb 6d19 0d3d 1efd b3bd e11e e4bd
000000e0: 081d 95bd b5b7 443d dc38 09be b01f 893b
000000f0: 4221 10be 0df4 943c da57 55bd 239d 0ebc
00000100: 899f 4b3d 820e 65bd 58ad 053d aa1f 093d
00000110: 8612 4dbc be16 ea3c b067 e3bc a44b 7abd
00000120: 6500 313d c0e6 4e3d 7d61 c9bc ddcc aabd
00000130: 45fe c1bd 9f62 72bd 7789 a73b 3afa aabc
00000140: 29e8 e73d 7f8a abbd 0e01 a3bd 41c0 a2bc
00000150: f09c 4abd b717 ad3d 9e36 89bc c3d7 643d
00000160: 3ed1 463d b06a 3a3d 54b7 ecbd 6d89 1fbd
00000170: 19de 96bd f52d 7e3d 4451 543b 9416 df3d
00000180: 1bc9 52bd 938c a33c 792a 59bb 1802 913c
00000190: 68fe 34bd 53ed d33a 8a8d d6bd 9a3a 8dbd
000001a0: c217 6b3d 519e ffbb 078e ba3d 5b79 b4bd
000001b0: e146 57bd 0744 63bc 20d1 693c bb2a 99bd
000001c0: 3678 953d 0232 1f3d 94a0 223c a0bc d63c
000001d0: 36ea 983d 50ef ed3d 4443 1a3d 0920 22be
000001e0: ff6c 9b3d fa75 fbbc fda3 bbbd 22c4 a63d
000001f0: fb89 2d3d 8029 263c 800a e73c 7684 84bd
00000200: e8db 423d d86f 09ba 599d 173d b3da d13d
00000210: 595d a3bc 49d2 cbbc 7a5a febc 6ddb 87bb
00000220: 7647 0cbd f6c9 10bd 0d5e bbbc 509a 35bd
00000230: 1552 aabd a737 85bc 1b25 003e 9127 a839
00000240: a0f9 aabc 5ac7 95bc 17fe 093c 4d51 b53d
00000250: a1cb bbbc 6543 80bc 171c 44bd c79d 86bd
00000260: e950 0bbe 5381 c93d 0b30 a2bd 4a1d 05bb
00000270: e36f 8a3b e05f e0bd ea3e c7bd b838 bcbc
00000280: 1e36 dcbd 4de5 233d ebdb 883d 5e2e 2dbc
00000290: 04e5 dbbd 9d29 d1bc bd7d 23bd 0b7b d43d
000002a0: 6a6c af3d fd8f 103c f6fc 8cbd 4cbc c4bd
000002b0: 1203 9c3c d003 18be 0cf7 613d 6932 7d3d
000002c0: 7a8f 53bd a992 8ebd 3e87 3ebc 72b6 a53d
000002d0: 18d6 4f3d 6732 91bd 60d4 c6bd 17b9 caba
000002e0: 257a 88bd 3c9e 0e3d 28c8 b73d 90ea 5dbd
000002f0: b7f6 75bd c0f8 f03c 60c5 983b d49b 123b
00000300: ec47 afbd 2628 0ebd 3c64 a7bd b081 c6bd
00000310: 2558 20bd 04fb 173d 2e4c c0bd 0edc b5bd
00000320: a2ad 8f3d 6d19 8e3d a42a a1bd ac01 a8bc
00000330: 2dcc c13d 3361 f9bc c825 15bd 83b6 513d
00000340: b32d 963d 5b90 c9bc b96b 1bbd 614a 1ebb
00000350: e635 9c3d 1a3b c63d 16b1 c73c b743 bebc
00000360: 8665 9bbd 3c88 443c 35c4 d73c ebb4 9f3d
00000370: 65c6 913d 69ba c03d dc27 bbbd a25c a33d
00000380: dc65 a03a 0fcc 3abd 8e00 29be d0fb 3fbd
00000390: 2614 293d 00d5 383d bb34 debc 6a1d 77bc
000003a0: c563 163d 86a6 12bc 5289 77bd 9806 94bd
000003b0: 7b7d d6bd 3ccb f53c 3874 163e fc16 c3bd
000003c0: 2884 b93d b162 bfba 9fa4 2e3e 0629 cfbd
000003d0: 2ca2 b0bd fda0 33be c155 6c3d 8f0a 113d
000003e0: 0300 c93d 44e2 8b3d 0684 00be d027 50bd
000003f0: 6592 babd ec67 f93c 1ecf eebd a32d 85bd

conv3.bias f4 [64]
-0.056342084 0.08295439 -0.07740764 -0.046639517 -0.05444222 -0.07485237 -0.0825893 0.078140505
0.015697084 0.05257728 0.029512273 -0.092209384 -0.06855118 -0.058652703 0.0074648 0.04437396
-0.012013761 0.095081605 0.007068062 0.013811267 -0.07645669 -0.062825195 -0.0018197229 -0.008922369
0.092763074 0.076219045 -0.025167413 -0.09869999 0.0344405 0.06847829 -0.07303822 -0.05175081
-0.102274805 0.024382615 0.018242689 -0.10577939 -0.017040322 -0.028657593 0.1012349 0.06148287
0.02329902 0.047924157 0.0021218804 0.064410724 -0.05865115 -0.103241816 0.02946562 0.048325397
-0.025653826 -0.008599939 0.03801427 0.01591361 -0.010235528 -0.03117942 -0.09250775 -0.051605478
0.068495825 0.08077165 0.054191556 0.028070861 0.055580903 -0.013591699 0.013326167 -0.044883367
00000000: f5c6 66bd fee3 a93d e687 9ebd 1409 3fbd
00000010: cefe 5ebd 334c 99bd 9424 a9bd 2108 a03d
00000020: 2c97 803c 465b 573d b9c3 f13c 46d8 bcbd
00000030: 9064 8cbd d13d 70bd 489b f43b 78c1 353d
00000040: 5ed5 44bc 25ba c23d 349b e73b a748 623c
00000050: 5395 9cbd 7faa 80bd c583 eeba 212f 12bc
00000060: 91fa bd3d bb18 9c3d e42b cebc 3823 cabd
00000070: 7b11 0d3d 593e 8c3d 1095 95bd a8f8 53bd
00000080: 7475 d1bd 0dbe c73c b171 953c dda2 d8bd
00000090: 2598 8bbc 54c3 eabc 3e54 cf3d 76d5 7b3d
000000a0: 96dd be3c 1f4c 443d 3f0f 0b3b c5e9 833d
000000b0: 303c 70bd 7270 d3bd e261 f13c daf0 453d
000000c0: f927 d2bc c2e6 0cbc dab4 1b3d 425d 823c
000000d0: ebb2 27bc fc6b ffbc b474 bdbd 4460 53bd
000000e0: 8a47 8c3d 9b6b a53d f7f7 5d3d ddf4 e53c
000000f0: cda8 633d b8af 5ebc ff55 5a3c 9fd7 37bd

bn3.weight f4 [64]
0.971003 0.98967856 0.9985933 0.9900679 0.9448715 0.99765795 1.0217642 1.0113715
0.9464036 0.98522687 1.0452225 0.9899762 0.99813384 0.9532822 0.9694946 1.051882
0.9909799 1.0343696 0.9423857 1.0274136 0.99898666 0.988175 0.99714863 0.93472373
0.9781286 1.0881792 0.91984355 0.98517525 1.008135 0.93604213 1.0290674 0.9773272
1.011185 1.0642645 1.0238414 1.036812 1.0929695 1.0527788 0.9398582 1.0040025
1.0071504 0.9938176 0.92271674 0.9624046 0.99175596 1.0148523 0.95263547 1.1009705
0.9760094 0.96110064 0.9832189 0.95649254 1.0308751 1.0717605 0.99483615 1.0436918
1.0338074 0.92711407 0.9360447 0.967759 0.9849614 1.067522 1.0519408 1.0717224
00000000: a793 783f 935b 7d3f cfa3 7f3f 1775 7d3f
00000010: 19e3 713f 8366 7f3f 2bc9 823f 9f74 813f
00000020: 8247 723f d437 7c3f dac9 853f 156f 7d3f
00000030: b385 7f3f 4d0a 743f cc30 783f 12a4 863f
00000040: dcb0 7d3f 3966 843f 3040 713f 4a82 833f
00000050: 97bd 7f3f 09f9 7c3f 2245 7f3f 0e4a 6f3f
00000060: a366 7a3f 7549 8b3f de7a 6b3f 7234 7c3f
00000070: 910a 813f 75a0 6f3f 7bb8 833f 1e32 7a3f
00000080: 836e 813f d239 883f 3c0d 833f 41b6 843f
00000090: 6de6 8b3f 75c1 863f 8c9a 703f 2783 803f
000000a0: 4eea 803f d56a 7e3f 2a37 6c3f 2660 763f
000000b0: b8e3 7d3f aee6 813f ebdf 733f 9aec 8c3f
000000c0: c1db 793f b10a 763f 3cb4 7b3f b2dc 743f
000000d0: b7f3 833f 732f 893f 95ad 7e3f b197 853f
000000e0: cd53 843f 5957 6d3f a0a0 6f3f 0ebf 773f
000000f0: 6e26 7c3f 90a4 883f ffa5 863f 332e 893f

bn3.bias f4 [64]
-0.028184617 -0.010346825 -0.121277586 -0.07342317 -0.07329076 -0.016985599 -0.03699236 -0.02339648
-0.030548144 -0.06889663 -0.055883113 -0.06424747 0.02668491 -0.06367226 -0.0073504914 -0.052977018
-0.06498668 -0.05112606 -0.06299138 -0.029923294 -0.055076495 -0.049328215 -0.05764798 0.0061936663
-0.032289315 -0.078580365 -0.066739194 0.0068395743 -0.040108163 -0.0055988133 -0.026612591 -0.10799976
-0.03445889 -0.03116665 0.0021353494 -0.042067677 0.014615626 0.00030652367 -0.047154702 -0.056307346
0.004706016 -0.031676378 -0.084882535 -0.068010755 -0.05371163 -0.060609356 -0.067125954 -0.031631276
-0.07927792 -0.048533518 0.0075607174 -0.01283786 -0.090715475 -0.03421802 -0.011193368 -0.007629671
-0.027491298 -0.05525517 -0.10180646 -0.030139152 -0.01448745 -0.05694207 -0.06643546 -0.04053959
00000000: 6de3 e6bc bb85 29bc 6260 f8bd e35e 96bd
00000010: 7719 96bd 6225 8bbc 4d85 17bd faa9 bfbc
00000020: 1a40 fabc ad19 8dbd b1e5 64bd 2d94 83bd
00000030: 509a da3c 9a66 82bd 64dc f0bb 6efe 58bd
00000040: bd17 85bd 8f69 51bd a001 81bd b221 f5bc
00000050: e497 61bd 620c 4abd 4a20 6cbd 3df4 ca3b
00000060: cd41 04bd beee a0bd 8fae 88bd 821e e03b
00000070: 7548 24bd 4076 b7bb a602 dabc fa2e ddbd
00000080: c424 0dbd 3451 ffbc 38f1 0b3b 284f 2cbd
00000090: 6176 6f3c e9b4 a039 4a25 41bd 88a2 66bd
000000a0: ec34 9a3b 17bf 01bd e5d6 adbd 3949 8bbd
000000b0: ba00 5cbd 8441 78bd 5579 89bd cc8f 01bd
000000c0: 765c a2bd 15cb 46bd e5bf f73b e355 52bc
000000d0: 09c9 b9bd 3228 0cbd 6364 37bc 5202 fabb
000000e0: 6e35 e1bc 3f53 62bd e87f d0bd 62e6 f6bc
000000f0: c55c 6dbc 173c 69bd 500f 88bd d70c 26bd

bn3.running_mean f4 [64]
-0.3475557 -0.37895548 -0.5316436 -0.29462624 0.37465802 -0.17411657 -0.29963103 -0.13152343
-0.3039326 -0.053749893 -0.5094889 -0.73745084 -0.6581274 0.10390277 -0.70954525 -0.40614614
-0.94596606 -0.79318345 -0.112215094 0.009957368 -0.9181848 -0.02282765 -0.51576334 -0.28809568
-0.2587096 -0.47037962 0.21463802 0.019263836 -0.5388502 -0.30882275 -0.32438925 -0.23027633
-0.30116716 0.015887335 -0.25517243 -0.6384172 -0.24246423 -0.35110122 0.022027308 0.08943025
-0.1007648 -0.09892419 0.03719487 -0.60167503 -0.069536805 0.2938136 0.093847916 -0.86990625
-0.18705742 0.028681075 0.09043661 -0.17050679 0.010231891 -0.07737124 -0.85718876 -0.051909745
-0.30737385 0.194908 -0.60723114 -0.755058 -0.6276577 -0.386781 -0.42126974 -0.9158783
00000000: d2f2 b1be 7406 c2be cc19 08bf 40d9 96be
00000010: 2dd3 bf3e 9d4b 32be 3d69 99be 14ae 06be
00000020: 0e9d 9bbe d928 5cbd dd6d 02bf 94c9 3cbf
00000030: 0a7b 28bf faca d43d c2a4 35bf 63f2 cfbe
00000040: d52a 72bf 120e 4bbf 07d1 e5bd 3a24 233c
00000050: 290e 6bbf 0d01 bbbc 1109 04bf 4781 93be
00000060: 9675 84be 99d5 f0be 12ca 5b3e 31cf 9d3c
00000070: 16f2 09bf 041e 9ebe 5916 a6be 8fcd 6bbe
00000080: 9532 9abe 2826 823c f6a5 82be 4f6f 23bf
00000090: 8b48 78be 8ac3 b3be 9d72 b43c 3527 b73d
000000a0: c75d cebd c498 cabd a659 183d 6007 1abf
000000b0: 5069 8ebd bc6e 963e 5633 c03d 2db2 5ebf
000000c0: fb8b 3fbe 93f4 ea3c d436 b93d 5599 2ebe
000000d0: a9a3 273c d074 9ebd b970 5bbf 509f 54bd
000000e0: 1b60 9dbe f695 473e 8073 1bbf 7b4b 41bf
000000f0: 2dae 20bf 2908 c6be abb0 d7be 0077 6abf

bn3.running_var f4 [64]
0.13053773 0.27636063 0.19872117 0.16784948 0.19816329 0.15588157 0.22182597 0.2223283
0.27334365 0.12749732 0.27957508 0.4073288 0.14986895 0.15043058 0.4071338 0.14205943
0.32966602 0.27321228 0.31827936 0.11192614 0.19386297 0.103395745 0.13935655 0.37838343
0.22266905 0.09761254 0.4014795 0.13893157 0.14074413 0.27246967 0.22202867 0.118850656
0.118053846 0.23392634 0.23584454 0.15926513 0.20071818 0.13063201 0.14174403 0.18370752
0.14925244 0.17177096 0.11139232 0.12092163 0.20729715 0.16995488 0.2402631 0.2025453
0.23676907 0.20719466 0.14183214 0.18196973 0.17167993 0.24473792 0.20123482 0.25852504
0.19833109 0.26046428 0.22799775 0.30697548 0.21361649 0.17788051 0.157215 0.26497447
00000000: afab 053e 247f 8d3e 907d 4b3e bce0 2b3e
00000010: 51eb 4a3e 6b9f 1f3e 5926 633e 08aa 633e
00000020: b3f3 8b3e a88e 023e 7724 8f3e 678d d03e
00000030: 3f77 193e 790a 1a3e d773 d03e 0778 113e
00000040: fcc9 a83e 7be2 8b3e 83f5 a23e 8839 e53d
00000050: 0484 463e 26c1 d33d 7cb3 0e3e 79bb c13e
00000060: 5b03 643e 15e9 c73d b98e cd3e 1444 0e3e
00000070: 3b1f 103e 2581 8b3e 7c5b 633e f967 f33d
00000080: 37c6 f13d 638a 6f3e 3b81 713e 6616 233e
00000090: 1189 4d3e 66c4 053e 5925 113e d31d 3c3e
000000a0: a2d5 183e bae4 2f3e a821 e43d c2a5 f73d
000000b0: b445 543e a708 2e3e 8807 763e 0968 4f3e
000000c0: 9773 723e d62a 543e 723c 113e 4656 3a3e
000000d0: ddcc 2f3e 949c 7a3e 8010 4e3e 655d 843e
000000e0: 4e17 4b3e 935b 853e 3e78 693e e42b 9d3e
000000f0: 48be 5a3e 4f26 363e f8fc 203e bcaa 873e

conv4.weight f4 [64, 64, 3]
0.010146677 -0.0315661 0.035041474 -0.079527974 0.027177848 -0.06823868 -0.036500517 -0.06384627
0.019016484 -0.045435254 -0.03549932 0.043046262 0.017933395 -0.030806115 -0.04021687 -0.059337504
0.028708834 -0.015034718 0.010124402 -0.01626974 -0.006745694 -0.04580534 0.002579244 -0.08270215
0.04195949 -0.035029553 -0.019680245 -0.016998377 0.090939395 -0.08552916 -0.044808686 0.0039867517
-0.01732634 -0.020139627 0.058293864 -0.07532179 0.061278705 0.0043687853 0.037354033 -0.006296902
-0.00053477637 -0.050060615 0.03550007 0.028848521 0.0016275657 0.015204652 0.0409431 0.01442246
-0.03928378 0.016843656 -0.005851638 -0.07791315 -0.0449508 -0.06061169 0.005562442 -0.06829844
0.01915052 -0.028435968 -0.058388416 -0.02743294 -0.07453457 0.052798092 -0.016094137 0.0066968966
0.013393827 0.09879611 0.058731515 0.010654805 -0.0034583495 0.0053206757 0.011441564 0.027546857
0.02731631 -0.043872908 0.056101628 0.09594972 -0.014857479 0.0054725027 -0.028717294 0.050461724
0.04670619 -0.004884396 -0.08010655 -0.054097485 -0.07417143 -0.012408571 -0.016288426 -0.05347179
0.03810987 0.03968571 -0.0008463177 -0.023441982 0.10581641 0.036507957 -0.012688838 -0.008002183
-0.088756844 0.022245826 -0.02043304 0.10268892 0.03333044 0.09227463 0.018764624 0.05978616
0.030915415 -0.09580781 -0.033371277 -0.11415771 0.03148676 -0.039317116 -0.031159567 0.018220596
-0.007784685 -0.026149886 -0.0096550295 -0.03256185 -0.0060802265 -0.08966063 0.029673986 -0.017073793
0.0030883315 0.028621182 -0.009045818 0.0012181477 -0.036622696 0.0046196193 -0.054693215 0.027294604
0.0054158117 -0.046756662 0.017717727 -0.009047892 -0.10114381 -0.019886928 -0.07004614 0.0059167407
0.0028843607 -0.06835161 0.03760623 -0.033378217 0.018849384 0.05533726 0.071184285 0.013846846
0.0010238023 -0.02199722 -0.07586379 0.029086016 -0.0036917941 0.0038833956 -0.01527635 -0.014831397
-0.054435685 -0.007724107 -0.03008084 -0.009740566 -0.037229445 -0.03522956 -0.079508446 0.06499827
0.12901369 0.105703965 -0.05653669 0.038755707 -0.041917544 -0.016067619 -0.0012550298 -0.006012167
-0.0019665773 0.07680613 -0.038806327 -0.03731755 0.023000352 0.00062738755 0.052815307 -0.12526076
0.027530188 -0.024680827 -0.04485446 -0.046125248 -0.010144443 -0.0282002 -0.05695526 0.043809056
-0.06296762 -0.016575089 0.06799016 -0.08680037 0.07866901 -0.09958034 -0.07308971 -0.056851253
0.07046767 0.031314597 0.05704476 -0.055449907 0.02605477 0.025757238 0.013044939 -0.0037799226
-0.025698168 0.08939903 0.0025690428 0.046102602 -0.011599828 0.01564513 -0.017896315 0.016296996
-0.009391417 0.033489797 0.0053230003 0.007579926 -0.006647537 0.032235216 -0.051309947 0.018131994
0.016007788 0.014322252 0.015347577 -0.05628129 0.026651401 0.038099486 -0.012471639 -0.0014983482
0.007587913 -0.008922793 0.05518519 -0.00034856363 0.040828764 -0.00045591636 -0.024848847 0.01916582
0.00022095683 0.062310755 -0.002799616 0.04646644 -0.037242375 0.05782281 -0.011797076 -0.013456945
0.0013351657 0.048753496 -0.02465039 -0.0067151613 0.024365788 -0.020222934 -0.01881528 0.0591737
0.0050494266 -0.030914528 -0.06606414 0.0394297 -0.0071663307 -0.027388819 0.049482632 0.010353892
00000000: 3f3e 263c 744b 01bd a687 0f3d 90df a2bd
00000010: 14a4 de3c b9c0 8bbd 9181 15bd d5c1 82bd
00000020: 75c8 9b3c 511a 3abd bc67 11bd 4751 303d
00000030: 0ee9 923c 1b5d fcbc 72ba 24bd e20b 73bd
00000040: ca2e eb3c 2e54 76bc d2e0 253c 1e48 85bc
00000050: fc0a ddbb 619e 3bbd 8908 293b bf5f a9bd
00000060: b7dd 2b3d 267b 0fbd 7738 a1bc 2e40 8bbc
00000070: 6f3e ba3d ea29 afbd 5089 37bd 4ca3 823b
00000080: f8ef 8dbc dcfb a4bc 8cc5 6e3d 5042 9abd
00000090: 61ff 7a3d 0728 8f3b 8b00 193d 3e56 cebb
000000a0: 3c30 0cba 5c0c 4dbd 8568 113d bc53 ec3c
000000b0: 0b54 d53a ef1c 793c f4b3 273d 2f4c 6c3c
000000c0: 07e8 20bd b5fb 893c 19bf bfbb ee90 9fbd
000000d0: 541e 38bd f743 78bd 2545 b63b 0de0 8bbd
000000e0: 8de1 9c3c 8cf2 e8bc b128 6fbd 0cbb e0bc
000000f0: 95a5 98bd d042 583d dad7 83bc a471 db3b
00000100: c871 5b3c 9d55 ca3d 7590 703d 7e91 2e3c
00000110: 7aa5 62bb 1059 ae3b 6675 3b3c f2a9 e13c
00000120: 74c6 df3c 14b4 33bd d2ca 653d 4981 c43d
00000130: c96c 73bc ae52 b33b 8840 ebbc f4b0 4e3d
00000140: fd4e 3f3d 490d a0bb e70e a4bd 5395 5dbd
00000150: 31e7 97bd 524d 4bbc 4e6f 85bc 3c05 5bbd
00000160: 1819 1c3d 7c8d 223d 6bdb 5dba 6609 c0bc
00000170: 46b6 d83d 5e89 153d d8e4 4fbc 971b 03bc
00000180: 26c6 b5bd e13c b63c 3163 a7bc 924e d23d
00000190: 8085 083d 7bfa bc3d 45b8 993c 55e2 743d
000001a0: 5342 fd3c e336 c4bd 52b0 08bd 84cb e9bd
000001b0: 43f8 003d fc0a 21bd 5942 ffbc 5c43 953c
000001c0: ac16 ffbb 4938 d6bc 2130 1ebc 935f 05bd
000001d0: a33c c7bb fe9f b7bd dc16 f33c 57de 8bbc
000001e0: 9b65 4a3b f876 ea3c e934 14bc 41aa 9f3a
000001f0: ae01 16bd 2d60 973b fe05 60bd ef98 df3c
00000200: 1f77 b13b ea83 3fbd c424 913c 9c3d 14bc
00000210: 7c24 cfbd e9e9 a2bc 5a74 8fbd 38e1 c13b
00000220: 8b07 3d3b eefb 8bbd fd08 1a3d 99b7 08bd
00000230: 066a 9a3c 53a9 623d 11c9 913d e2dd 623c
00000240: 1b31 863a 8433 b4bc 7a5e 9bbd cc45 ee3c
00000250: 07f2 71bb 9180 7e3b a849 7abc 63ff 72bc
00000260: f4f7 5ebd 811a fdbb 186c f6bc e596 1fbc
00000270: e77d 18bd df4c 10bd 53d5 a2bd d01d 853d
00000280: 2a1c 043e 527b d83d 0493 67bd 4ebe 1e3d
00000290: bbb1 2bbd 3da0 83bc d07f a4ba b601 c5bb
000002a0: b1e1 00bb 884c 9d3d 62f3 1ebd 4ada 18bd
000002b0: 3c6b bc3c 4477 243a dd54 583d 5b44 00be
000002c0: fd86 e13c 722f cabc 4fb9 37bd d4ed 3cbd
000002d0: e134 26bc 1b04 e7bc eb49 69bd 2071 333d
000002e0: 2bf5 80bd 7bc8 87bc 6d3e 8b3d 64c4 b1bd
000002f0: 381d a13d c7f0 cbbd 0fb0 95bd dcdc 68bd
00000300: 5b51 903d bc43 003d c4a7 693d 711f 63bd
00000310: d070 d53c d800 d33c 71ba 553c 94b8 77bb
00000320: f784 d2bc d716 b73d 635d 283b 15d6 3c3d
00000330: 340d 3ebc 372a 803c 4b9b 92bc 4781 853c
00000340: 75de 19bc 992c 093d 906c ae3b 0761 f83b
00000350: 95d3 d9bb 1309 043d 612a 52bd 8c89 943c
00000360: c422 833c e1a7 6a3c 6774 7b3c 3687 66bd
00000370: 0a54 da3c 350e 1c3d d855 4cbc 3964 c4ba
00000380: 07a4 f83b e830 12bc de09 623d 6bbf b6b9
00000390: 103c 273d 0f08 efb9 cf8f cbbc a301 9d3c
000003a0: a6b0 6739 9039 7f3d c379 37bb 9853 3e3d
000003b0: 768b 18bd 9cd7 6c3d 8648 41bc 857a 5cbc
000003c0: ba00 af3a bfb1 473d 9def c9bc db0a dcbb
000003d0: c39a c73c 91aa a5bc 8122 9abc 1f60 723d
000003e0: a975 a53b 7740 fdbc a34c 87bd 0981 213d
000003f0: 8ad3 eabb 845e e0bc 4dae 4a3d 5fa3 293c

conv4.bias f4 [64]
-0.10207547 -0.038700826 -0.027060172 -0.023841742 0.03916803 0.02998905 0.0576536 0.044582196
0.0644604 0.06601949 -0.0868138 -0.05556582 0.040559676 0.03432081 0.04894553 -0.07223201
0.02236615 0.026923236 -0.08384033 0.068177275 -0.033135638 0.0038585963 -0.017659545 0.0049562366
0.05229565 -0.028434345 -0.042722307 -0.06651436 -0.03103318 0.007952795 0.007311592 -0.0026248102
0.029834315 -0.048548754 -0.017454842 -0.021502027 -0.0017772162 -0.04662033 -0.018823104 -0.07624595
0.01313568 -0.0074678906 -0.078108735 -0.018689945 -0.045406584 -0.01808643 -0.022420686 -0.006423109
-0.05673691 0.026548361 0.07632346 0.043037355 -0.03209161 0.03865967 -0.004891083 -0.02110505
0.08510063 -0.0072388607 -0.028159935 0.010538936 0.027117979 0.041723296 0.03565153 0.10687817
00000000: f20c d1bd c284 1ebd 4bad ddbc c24f c3bc
00000010: a86e 203d 99ab f53c 2e26 6c3d d29b 363d
00000020: d003 843d 3a35 873d 6fcb b1bd fc98 63bd
00000030: e721 263d fa93 0c3d 1c7b 483d 60ee 93bd
00000040: 3739 b73c 1e8e dc3c 7bb4 abbd 87a0 8b3d
00000050: 3cb9 07bd 81e0 7c3b c0aa 90bc ed67 a23b
00000060: f733 563d 25ef e8bc 96fd 2ebd ae38 88bd
00000070: 4c39 febc 714c 023c 1496 ef3b 0205 2cbb
00000080: 1867 f43c 0fdb 46bd 75fd 8ebc 0525 b0bc
00000090: 7bf1 e8ba f6f4 3ebd e932 9abc d626 9cbd
000000a0: 0937 573c 35b5 f4bb 79f7 9fbd a81b 99bc
000000b0: 41fc 39bd fe29 94bc 96ab b7bc f278 d2bb
000000c0: f664 68bd f37b d93c 794f 9c3d f047 303d
000000d0: 7e72 03bd 9a59 1e3d 6145 a0bb 7fe4 acbc
000000e0: 3d49 ae3d f733 edbb aaaf e6bc 80ab 2c3c
000000f0: 8626 de3c 0ce6 2a3d 5707 123d f1e2 da3d

bn4.weight f4 [64]
1.2845898 1.2315289 1.2612027 1.2404499 1.246577 1.2125634 1.2723086 1.2358714
1.2664459 1.2852831 1.2051367 1.269729 1.2448744 1.2291392 1.2111456 1.1762515
1.1796002 1.2434568 1.2169194 1.2642149 1.2960621 1.1443151 1.2137988 1.1956507
1.2124838 1.2761683 1.2199911 1.2141356 1.2067633 1.1536794 1.2746487 1.2321447
1.2553176 1.2240193 1.154496 1.2399404 1.1448504 1.230558 1.187877 1.2167504
1.248299 1.2719194 1.1810856 1.221709 1.2093763 1.2510173 1.2344896 1.2323321
1.2516832 1.1686739 1.1975225 1.2223992 1.2151794 1.3004568 1.2303525 1.1777048
1.250024 1.2150716 1.245369 1.2023473 1.2126647 1.2169969 1.300036 1.2305989
00000000: 706d a43f bda2 9d3f 176f a13f 10c7 9e3f
00000010: d68f 9f3f 4735 9b3f 02db a23f 0931 9e3f
00000020: e61a a23f 2884 a43f eb41 9a3f 7b86 a23f
00000030: 0b58 9f3f 6f54 9d3f d206 9b3f 698f 963f
00000040: 24fd 963f 9829 9f3f 04c4 9b3f cbd1 a13f
00000050: 5de5 a53f eb78 923f c25d 9b3f 150b 993f
00000060: ab32 9b3f 7c59 a33f ab28 9c3f cc68 9b3f
00000070: 3877 9a3f c4ab 933f b027 a33f ebb6 9d3f
00000080: 3fae a03f aaac 9c3f 86c6 933f 5eb6 9e3f
00000090: 758a 923f ed82 9d3f 5b0c 983f 7abe 9b3f
000000a0: 43c8 9f3f 41ce a23f d02d 973f f660 9c3f
000000b0: d8cc 9a3f 5621 a03f c103 9e3f 0fbd 9d3f
000000c0: 2837 a03f 1b97 953f 6b48 993f 9477 9c3f
000000d0: 008b 9b3f 5e75 a63f 317c 9d3f 08bf 963f
000000e0: c900 a03f 7787 9b3f 4068 9f3f 84e6 993f
000000f0: 9938 9b3f 8ec6 9b3f 9467 a63f 4484 9d3f

bn4.bias f4 [64]
0.13674466 0.09801764 0.10358384 0.11827852 0.08292772 0.10804797 0.09192508 0.10841213
0.14218085 0.12714446 0.09196341 0.15128155 0.07297603 0.10655156 0.08829149 0.0899266
0.06484788 0.124519825 0.06687518 0.12706509 0.13207515 0.06513371 0.082702145 0.0707555
0.07355453 0.11180453 0.086512886 0.09366314 0.13530204 0.08529798 0.1344864 0.11353085
0.10219122 0.07396293 0.077233575 0.12368151 0.01814621 0.0770937 0.057267625 0.07209747
0.09126702 0.17259529 0.11094531 0.07050009 0.078555375 0.097192414 0.13413312 0.12596804
0.1158659 0.0555275 0.06592949 0.07736085 0.112732746 0.12581016 0.14059588 0.066685386
0.10873266 0.09708579 0.12065896 0.1165464 0.09842982 0.07412411 0.16460842 0.07642057
00000000: cb06 0c3e 79bd c83d c423 d43d 023c f23d
00000010: 02d6 a93d 4148 dd3d 3743 bc3d 2e07 de3d
00000020: db97 113e 2832 023e 5057 bc3d 8de9 1a3e
00000030: 7574 953d b437 da3d 2bd2 b43d 702b b83d
00000040: f7ce 843d 4004 ff3d dbf5 883d 5a1d 023e
00000050: b53e 073e d364 853d be5f a93d 42e8 903d
00000060: c2a3 963d c6f9 e43d ab2d b13d 76d2 bf3d
00000070: 9e8c 0a3e b5b0 ae3d ceb6 093e dd82 e83d
00000080: a149 d13d e079 973d a32c 9e3d bb4c fd3d
00000090: 5ca7 943c 4de3 9d3d 7591 6a3d d7a7 933d
000000a0: 34ea ba3d d2bc 303e 4b37 e33d 5a62 903d
000000b0: a4e1 a03d d10c c73d 315a 093e c4fd 003e
000000c0: 1a4b ed3d ce70 633d 0a06 873d 5e6f 9e3d
000000d0: 6de0 e63d 61d4 003e 5ef8 0f3e 5992 883d
000000e0: 3baf de3d ead4 c63d 0b1c f73d e1af ee3d
000000f0: 9395 c93d 62ce 973d 1c8f 283e 6382 9c3d

bn4.running_mean f4 [64]
-0.72596574 0.8125659 0.48620158 -1.3636361 0.6919909 0.72631526 1.474936 0.8130623
0.40766844 0.6816791 0.107638225 0.41041824 0.6450597 -0.19753832 0.20714618 -0.050362356
0.25063476 0.53572613 -0.12467324 0.13646403 -0.5233889 -0.5107636 0.1274666 1.1186967
1.1339971 1.0616126 -0.47628132 -0.5313193 -0.33356863 0.02523575 0.44274566 -0.6511764
0.75784653 0.79762703 0.071209334 -0.3858335 0.051789675 0.13320825 0.33302426 -0.70455796
1.0218992 -0.9139357 -1.4788607 0.8073434 0.74301416 1.066381 0.20722382 0.17339544
-0.79956496 0.22921506 1.0226489 0.9602308 -0.022179509 1.0713317 0.31723452 -0.42680386
0.86210006 -0.2553819 0.6487167 -0.6933475 1.3698535 -0.30961943 -0.7256759 1.0816052
00000000: e4d8 39bf 5204 503f 6aef f83e a18b aebf
00000010: 5126 313f ccef 393f b4ca bc3f da24 503f
00000020: ebb9 d03e 8682 2e3f 6e71 dc3d 5722 d23e
00000030: a222 253f 7c47 4abe 211e 543e c248 4ebd
00000040: 3353 803e 5925 093f af54 ffbd 3abd 0b3e
00000050: d1fc 05bf 67c1 02bf 9b86 023e 7431 8f3f
00000060: d126 913f ece2 873f 25db f3be 8b04 08bf
00000070: 82c9 aabe 34bb ce3c 8faf e23e 7fb3 26bf
00000080: 3b02 423f 4931 4c3f 33d6 913d f88b c5be
00000090: 6921 543d be67 083e 2882 aa3e e95d 34bf
000000a0: 98cd 823f b1f7 69bf 4f4b bdbf 0fae 4e3f
000000b0: 2d36 3e3f 2c7f 883f 7b32 543e 938e 313e
000000c0: 4ab0 4cbf 5ab7 6a3e 29e6 823f b0d1 753f
000000d0: cdb1 b5bc 6621 893f 906c a23e 0986 dabe
000000e0: 97b2 5c3f 6bc1 82be 4c12 263f 397f 31bf
000000f0: 5c57 af3f 7086 9ebe e5c5 39bf 0a72 8a3f

bn4.running_var f4 [64]
0.14555831 0.1741091 0.21345432 0.18608798 0.16534664 0.2532829 0.20244841 0.17758264
0.21010171 0.20490271 0.14235449 0.2253585 0.14358437 0.15249008 0.1280571 0.2356343
0.10490428 0.25290105 0.15094312 0.16551594 0.12484245 0.15650277 0.17903204 0.15351218
0.11001897 0.16486757 0.117829904 0.19516471 0.3444845 0.13337833 0.21814276 0.14510892
0.18655662 0.17890543 0.28691548 0.12481953 0.1495349 0.16871798 0.20995754 0.14826179
0.15885054 0.2740741 0.2052688 0.19663772 0.19164936 0.33404258 0.24444625 0.20695083
0.17737609 0.19793245 0.1849206 0.2106749 0.15069214 0.2892122 0.16242357 0.1462545
0.24855043 0.18604435 0.16537344 0.20273218 0.18536569 0.17529187 0.14793432 0.1601154
00000000: 3d0d 153e a849 323e c593 5a3e d98d 3e3e
00000010: a150 293e 4cae 813e a34e 4f3e 39d8 353e
00000020: e724 573e 04d2 513e 60c5 113e 61c4 663e
00000030: c807 133e 5c26 1c3e 6721 033e 1e4a 713e
00000040: 0ed8 d63d 3f7c 813e d590 1a3e 037d 293e
00000050: 66ad ff3d 4342 203e 2d54 373e 4c32 1d3e
00000060: a051 e13d 0bd3 283e ce50 f13d 42d9 473e
00000070: 4660 b03e 5494 083e d160 5f3e 6f97 143e
00000080: b308 3f3e fc32 373e 96e6 923e 62a1 ff3d
00000090: ad1f 193e 68c4 2c3e 1cff 563e f0d1 173e
000000a0: b7a9 223e 7153 8c3e fc31 523e 665b 493e
000000b0: bb3f 443e a107 ab3e 1e50 7a3e ebea 533e
000000c0: 14a2 353e ceae 4a3e d35b 3d3e 29bb 573e
000000d0: 0a4f 1a3e 9f13 943e 5d52 263e bdc3 153e
000000e0: 0184 7e3e 6982 3e3e a857 293e 0699 4f3e
000000f0: 81d0 3d3e b67f 333e 187c 173e 4bf5 233e
