clasi_grande.ckpt (torch, 112358 bytes, 26 tensors)

conv1.weight f4 [32, 1, 80]
000000 81 13 16 3d d7 de cd 3c 84 cf fd bb 23 b0 82 3d
       0.036639694 0.025130672 -0.007745685 0.06381252
000010 d1 37 c2 3d 43 e8 41 3c 76 01 f8 bd 0e 07 08 bd
       0.094833024 0.011835161 -0.12109654 -0.033209853
000020 18 21 ca bd 9e 82 05 3d 2e 1f 75 bd 58 67 c7 3b
       -0.098695934 0.03259527 -0.05984419 0.0060853176
000030 59 84 89 3c 74 8d 07 3e 49 08 66 3d 33 98 a0 bd
       0.016786741 0.13237554 0.056160245 -0.0784153
000040 2d 8a fa 3c 4c a8 1d 3d 04 ce 8e 3d 7c 97 93 bd
       0.030583465 0.03849058 0.06972888 -0.07206628
000050 b3 8f da bc 37 75 a1 bc 91 cb 33 bd 35 d0 f0 3d
       -0.02667985 -0.019709213 -0.043895308 0.11758462
000060 a1 95 4d bd 11 a6 c6 bd 57 74 3d 3d 98 ee 04 3c
       -0.050191525 -0.096996434 0.04625353 0.008113526
000070 0f d5 c1 bd ce 15 31 bd 67 54 ea 3d f9 41 92 3d
       -0.09464466 -0.043233685 0.1144188 0.071414895
000080 f0 f7 bc 3d b3 5a b6 bc ff 48 93 bb ed 7b ff 3d
       0.09226978 -0.022260046 -0.004494786 0.12474809
000090 6d 58 22 3d f0 c1 6f bd 15 76 c3 bd 46 4a 8b 3d
       0.03963511 -0.058534563 -0.09544007 0.06801276
0000a0 45 8f 84 bc d6 ff 09 3d f4 5c 09 bd 2e a7 cf bd
       -0.016181597 0.03369125 -0.033535913 -0.10139309
0000b0 0a e6 fc 3d be 9a 06 bc 6c 3a 3c 3c 01 59 ce bb
       0.12348564 -0.008215604 0.011488538 -0.006297231
0000c0 5a 91 77 bd cc 85 6e 3d 09 f2 36 3d d9 01 13 bd
       -0.060441352 0.058233067 0.044664416 -0.035890434
0000d0 55 94 bb bd 87 d2 04 3a 34 a0 06 3e c3 4c 37 3d
       -0.091591515 0.00050667714 0.1314705 0.04475094
0000e0 13 b5 e1 bd 67 b7 97 bc d5 7b cf 3d ce ff f9 bc
       -0.11020865 -0.01852007 0.10131041 -0.030517485
0000f0 e6 5a db 3d e2 0a f5 bc 82 d5 4d bc 6c 85 aa bc
       0.10710697 -0.029912416 -0.012563111 -0.020815574
000100 da 98 37 3d df 59 b7 bd d7 4d a0 3b b9 3f b0 bc
       0.044823505 -0.089526884 0.0048920917 -0.02151476
000110 4d 44 6d 3d 42 90 69 3d 48 89 b4 bd 09 24 cd bb
       0.057926465 0.05702234 -0.08815247 -0.0062603992
000120 65 0e 02 3d 73 73 bc 3c 8d fe 1a bd 99 9f 94 bd
       0.03175201 0.02300427 -0.037840415 -0.07257003
000130 6a 4d 03 3e 6e e3 94 3d 6d b4 3c bd ab 1b 8f bd
       0.128225 0.07269941 -0.046070505 -0.06987699
000140 11 a3 71 3d 9d d2 9d 3d ff 44 a4 3d aa 72 a9 bd
       0.058993403 0.07706187 0.080209725 -0.082738236
000150 04 31 ab 3c 90 8c c6 3d b8 b6 04 3e e4 66 47 3c
       0.020897396 0.09694779 0.12960327 0.012170527
000160 71 85 f5 bc 7c 24 3a bd 54 38 79 bd 91 5c ae 3c
       -0.029970856 -0.04544495 -0.060844734 0.021284373
000170 df 7a 40 3e 56 72 9a 3d a1 39 97 3d 38 af b9 bc
       0.18796872 0.07541339 0.07384039 -0.022666559
000180 d8 49 ed 3c 75 a6 80 bd 43 78 ce 3d db 9c cd 3d
       0.028965876 -0.06281749 0.10081532 0.100396834
000190 d5 67 91 bc 0e b5 f2 3c 69 7d e8 bc a2 6f 68 bc
       -0.017749706 0.02962735 -0.028380113 -0.014186772
0001a0 94 ca 03 3a d0 98 1c bd cb 4e 73 bd e0 8f 4d bd
       0.000502744 -0.03823167 -0.059401315 -0.050186038
0001b0 a1 35 8a bd 71 29 21 bd c9 a9 f3 3c 1d 85 49 bd
       -0.0674851 -0.039346162 0.029744046 -0.049199212
0001c0 9b 94 3f bc fc e6 9f 3d 96 3e f8 3d 4f 42 ce 3d
       -0.011693145 0.07807729 0.12121312 0.10071241
0001d0 16 67 a2 3d 94 b4 a5 3d 98 3d b1 bc 95 88 dc bd
       0.07929818 0.08091083 -0.021635816 -0.107682385
0001e0 d9 b4 9e 3d 74 4c 5f bd 37 10 31 bd 4e 03 f1 3c
       0.07749338 -0.05451627 -0.043228354 0.029420521
0001f0 10 0b fe bd 4e ce 3b bd ea a4 22 bd dc 52 f7 3d
       -0.12404454 -0.045851044 -0.039708056 0.12076351
000200 ff a0 e4 3d 30 cc 49 bb 9d d6 93 3d 79 56 94 bd
       0.1116352 -0.0030791871 0.072186686 -0.07243056
000210 ec 27 90 bd c1 7b 45 bd db f0 9b 3d 22 4f 8e bb
       -0.070388645 -0.048213724 0.07614299 -0.0043429295
000220 50 1e 0f bc 14 98 96 3d 64 ae eb bc c2 46 c9 bb
       -0.008735254 0.07353225 -0.02876968 -0.006142468
000230 e7 99 b5 bd e0 3f ce 3c 9c 7b e7 bd a6 de 80 3d
       -0.08867245 0.025176942 -0.113028735 0.06292467
000240 84 17 ea bc bc 4c 9e bc bf 96 93 bc c1 f7 0d bc
       -0.028575666 -0.0193237 -0.018016217 -0.008665026
000250 96 a3 80 bd ea 35 bc bd a4 34 2c 3d 3d 7a 42 bd
       -0.062812015 -0.09189971 0.04204239 -0.047479857
000260 21 cc a6 3d c1 0c 72 3d 8b ec bb bd a9 e6 5b 3d
       0.08144403 0.059094194 -0.09175976 0.05368677
000270 bf 8f 59 3c 5b 59 da bd 64 4f d8 3c c3 6b 14 bd
       0.013278901 -0.106615745 0.026405044 -0.036235582
000280 4f ce 7c 3d 35 40 a6 bd d0 77 02 3d 1e 21 46 bd
       0.06172019 -0.08117715 0.031852543 -0.048371427
000290 83 e9 99 bd 14 fd 57 bd 2f b9 85 3d 51 aa e5 3d
       -0.07515242 -0.05273159 0.065294616 0.11214126
0002a0 6f 12 b9 bd 53 bf a7 3d ee 98 33 3d 53 2d b9 3b
       -0.09036719 0.08190789 0.043847017 0.005651155
0002b0 6b 59 2d 3d 3e c5 34 3d 20 04 b3 3b 6f 64 45 3d
       0.042321604 0.044133417 0.005463138 0.048191484
0002c0 87 9b 1b 3d ea 7d 09 be df 4f 33 bd d0 4e 96 bd
       0.03799012 -0.13426939 -0.043777343 -0.07339251
0002d0 81 0c f1 bd 97 c6 4a 3b a7 32 f4 bd fe 1d b9 bd
       -0.11769963 0.0030941123 -0.11923724 -0.09038924
0002e0 2b bb 92 bd 46 af 7c bd 3b f1 1f 3d e7 ac af bd
       -0.07164606 -0.06169059 0.039048415 -0.085779004
0002f0 1c 98 cc 3b e1 98 16 3d ad 97 96 3d 49 c5 ff 3c
       0.006243719 0.03676689 0.073531486 0.031222003
000300 ad 1c 6f 3d 22 ba c6 3c e5 99 a3 bd 57 ba 97 3c
       0.058376957 0.024258677 -0.079883374 0.018521471
000310 33 a9 79 3c fe e9 1d bc 63 d3 86 bc 73 2a 8a bd
       0.015238094 -0.009638308 -0.016458219 -0.06746378
000320 b6 7f 9d 3d c7 f3 a7 bc 2b dc e6 3d fe 1b e6 3d
       0.076903746 -0.020501984 0.112724625 0.11235808
000330 c9 19 ce 3d 4e 35 9c bd eb 90 ba 3d 96 47 00 be
       0.10063512 -0.076273546 0.09109672 -0.12527308
000340 46 50 fc bd 73 63 53 bd f6 a0 83 bd ba cd 1a bd
       -0.123199984 -0.051608514 -0.06427185 -0.037793852
000350 05 66 8b bd ce d1 4c bd 1d b5 ab 3d 68 9d 41 3d
       -0.06806568 -0.050004773 0.08384154 0.047269255
000360 4c f7 0c 3e 96 36 08 3c 8b ee 07 3e 08 fe ae bd
       0.13766211 0.008313796 0.1327459 -0.08544546
000370 54 79 d7 bc be 3a b0 bd c5 54 58 bd 4f 7b be 3d
       -0.026302971 -0.08604954 -0.052815218 0.09300863
000380 96 ce 87 3d 70 33 66 bd 90 21 63 bd f2 ea 92 bd
       0.066312 -0.0562014 -0.05545193 -0.071737185
000390 ac 3b 2f 3d 57 dd ef bc 27 21 b9 bd ac 61 b0 3d
       0.042781517 -0.029280348 -0.090395264 0.086123794
0003a0 d9 76 ed bd 3f 80 d8 ba fa 65 91 bd a0 84 03 3d
       -0.11594934 -0.0016517713 -0.070995286 0.032108903
0003b0 f8 87 a1 3d 96 4c c5 bd 90 bc b9 3d d4 06 c0 bd
       0.07887262 -0.09633748 0.090691686 -0.09376302
0003c0 36 a8 19 3d 8f 2a 01 3d 6e 81 18 3c 21 da c7 bd
       0.037513934 0.031534728 0.009308202 -0.09758402
0003d0 71 5a f3 bb ea 04 f3 bc fb 1a 32 bd 37 2e c4 bd
       -0.007426553 -0.02966543 -0.04348276 -0.09579127
0003e0 4a d5 2b bd 36 dd 56 3d d0 36 b1 bc 35 b8 09 be
       -0.041951455 0.052457057 -0.021632582 -0.13449176
0003f0 88 d9 28 3d 01 6d 14 3d 9b 5f 33 3d 56 72 9a bd
       0.04122308 0.036236767 0.04379235 -0.07541339

conv1.bias f4 [32]
000000 8a 5e 0e bd 5a 80 c9 bc cf fa 8e bd 1a 75 25 bd
       -0.03475813 -0.024597336 -0.06981432 -0.04039488
000010 d8 4f c2 3c 06 7b d9 3d 73 45 88 bd e8 86 c5 bd
       0.023719713 0.10619168 -0.066538714 -0.09644872
000020 60 c2 00 3e 4d c5 c2 bd c7 60 f9 bc 0d c5 6f 3d
       0.12574148 -0.095102884 -0.030441655 0.05853753
000030 7b 87 73 bc 6c 43 2e ba b5 23 75 3d c8 ac 30 bd
       -0.014863844 -0.000664762 0.059848506 -0.043133527
000040 d9 4f 33 3d 90 bf 61 3d e7 0f bd bd ab d3 bc 3d
       0.04377732 0.05511433 -0.09231549 0.0922006
000050 ee 79 b6 bc d2 99 5f 3d 67 0e 0b 3d f5 25 ec bc
       -0.022274937 0.054590054 0.033949282 -0.028826693
000060 e6 d3 2b bc 19 35 67 3c be e0 00 3e 31 2a 4e 3d
       -0.010487532 0.014111781 0.12585732 0.050333206
000070 ea b1 73 bd 68 44 a7 bd cb 65 95 3d 02 f7 63 bd
       -0.059495844 -0.08167344 0.07294806 -0.055655487

bn1.weight f4 [32]
000000 71 c0 81 3f 18 4d 82 3f a6 96 7c 3f 0d bc 7a 3f
       1.0136853 1.0179777 0.9866737 0.9794319
000010 da 35 76 3f 23 e2 75 3f 66 11 80 3f 6c 98 80 3f
       0.9617592 0.9604818 1.000531 1.0046515
000020 7e a4 7e 3f 59 4c 83 3f 7e b0 84 3f 63 2b 7f 3f
       0.99469745 1.0257674 1.0366361 0.9967558
000030 8b 62 7d 3f b2 98 7d 3f ba 61 82 3f 61 83 80 3f
       0.9897849 0.9906112 1.0186074 1.0040094
000040 09 00 81 3f 4c e8 7d 3f 98 3c 7d 3f 5b 6d 85 3f
       1.0078136 0.9918258 0.98920584 1.0423998
000050 37 fc 83 3f 24 7e 7f 3f e7 58 7a 3f 5f fe 82 3f
       1.0311345 0.9980185 0.97791904 1.0233878
000060 2d 06 82 3f 46 f3 7a 3f 84 70 80 3f 90 00 7d 3f
       1.0158135 0.98027456 1.0034337 0.98828983
000070 15 17 80 3f b3 46 7f 3f 63 a3 7f 3f 4d f4 80 3f
       1.0007044 0.99717253 0.99858683 1.0074555

bn1.bias f4 [32]
000000 5d 9a 98 3c bf 1e 31 3d ee a5 1f bd 6f ba 32 3e
       0.018628294 0.043242212 -0.038976602 0.17453931
000010 aa fd 93 bc 03 54 59 bd e1 3e 57 3d 00 95 91 bc
       -0.018065292 -0.053058635 0.0525502 -0.017771244
000020 9b 05 fc 3b b1 b8 17 bd 60 20 12 3e 64 61 b3 3c
       0.007691098 -0.03704137 0.14270163 0.021897025
000030 49 2a aa bc e7 88 f3 3d a1 e1 f5 3a 40 57 d9 bc
       -0.020772116 0.118913464 0.0018759259 -0.026530862
000040 6e b5 b4 3c 82 d6 91 3d cd 92 b4 3d 09 87 92 3d
       0.022059169 0.07120992 0.088170625 0.07154662
000050 fe 07 40 3d 1a 92 d9 3c 8e 35 40 bd 85 92 a8 3d
       0.046882622 0.026558924 -0.046926074 0.082310714
000060 2f 00 cb 3c 16 55 98 bc c0 ca 32 bc a6 6f db bc
       0.024780361 -0.01859526 -0.010912597 -0.026786637
000070 a6 e3 0b bd 44 4e bf bd 37 90 9e bc af a4 ef 3c
       -0.03415265 -0.093411 -0.019355876 0.029253332

bn1.running_mean f4 [32]
000000 b5 c0 0f 3e ff 98 48 3e 94 1b b3 be fe 96 d4 3d
       0.14038356 0.19589613 -0.34981978 0.10380362
000010 20 5f 86 3e 6c 61 c4 3d 09 52 f0 bc c1 0c f2 3c
       0.2624445 0.09588894 -0.029335992 0.029547097
000020 5f 6b e2 3d 5a e5 1f be 90 80 5a 3c 74 80 9b 3c
       0.11055636 -0.15614834 0.013336316 0.01898215
000030 83 ca 73 bd a3 03 2a 3d 92 1c f2 bd b0 45 13 bf
       -0.059519302 0.041507374 -0.118218556 -0.5752821
000040 1d 13 5a be 1d e7 88 3e d5 dc cb bd 40 dc 95 3d
       -0.21296354 0.26738825 -0.0995423 0.073174
000050 b9 75 9c bc 69 3b c6 3e 34 32 9c be d1 83 a1 be
       -0.019099103 0.387172 -0.30507052 -0.3154588
000060 f4 11 6c bd 8a d5 0a be 95 98 3b 3e e3 3d 65 3d
       -0.05763431 -0.13558021 0.18319924 0.055967223
000070 91 b0 56 3d 47 c8 c3 bd 16 9a 4f 3c 9d 61 a9 be
       0.05241448 -0.09559684 0.012671014 -0.33082286

bn1.running_var f4 [32]
000000 53 b4 96 3c ba 8b e1 3c f9 97 f8 3c 22 7c ae 3c
       0.018396532 0.027532447 0.030345904 0.021299426
000010 0d 6f ca 3c 1d 31 8f 3c 94 a5 f3 3c 29 4b 6b 3c
       0.024711156 0.017479474 0.02974204 0.014361181
000020 11 47 a8 3c 4d d6 8f 3c dc 62 ab 3c 13 3c 7e 3c
       0.0205417 0.017558241 0.020921163 0.0155172525
000030 40 e2 bc 3c 29 e5 c1 3c 40 28 98 3c 54 c2 87 3d
       0.023057103 0.023668842 0.01857388 0.06628862
000040 f1 71 c3 3c 02 d2 96 3c 64 ae 60 3c 62 3d c9 3c
       0.023858042 0.018410686 0.013713453 0.024565402
000050 d3 49 7d 3c 16 77 11 3d 3b 33 18 3d b8 c2 f4 3c
       0.015459496 0.03551396 0.037158232 0.029878005
000060 0f 71 9c 3c bb ef b1 3c 2f 43 ac 3c 43 aa 80 3c
       0.01909688 0.021720758 0.02102813 0.015706187
000070 69 5e a2 3c b3 cd 2b 3c e3 18 8e 3c 47 63 0e 3d
       0.019820409 0.010486054 0.017345851 0.034762647

conv2.weight f4 [32, 32, 3]
000000 ed 72 80 bc e9 a2 8a 3a 6b 7b 87 bd 08 3d 8b bd
       -0.0156798 0.0010577115 -0.06615337 -0.0679875
000010 6b 2b 5b bd c7 19 6c bd 54 7e 7e 3d 30 93 9f bd
       -0.053508203 -0.05764177 0.062132195 -0.07791746
000020 f2 01 e6 3c ed fd 7f 3d c0 d6 66 bc df b3 a5 bd
       0.0280771 0.062498022 -0.014089286 -0.08090948
000030 33 df 20 3d 7c 81 97 bd 5f 5f 20 bd 1d 7d d8 bb
       0.03927536 -0.07397744 -0.039153453 -0.0066067115
000040 d5 ae 3b 3d e4 6a 89 3c 49 39 2e 3d 27 bd a3 bd
       0.04582103 0.016774602 0.0425351 -0.07995062
000050 24 d4 a0 bd 45 bc 3d bd 7e 18 c9 bb b7 66 39 3d
       -0.078529626 -0.046322126 -0.006136953 0.045263972
000060 f7 72 c8 bb 6f c8 62 3d 17 d5 60 bd 72 fa ae 3d
       -0.0061172205 0.05536693 -0.05489072 0.085438624
000070 7d b1 34 3d 2e 3e 38 3d 44 3e aa bd 88 21 42 bd
       0.04411458 0.044981174 -0.083126575 -0.04739526
000080 ec d2 b8 bd 4a dd 5b 3d 61 49 b5 ba cf db f3 bc
       -0.09024605 0.053677835 -0.0013831073 -0.029767899
000090 d4 1a c0 3d 78 36 a1 bd e2 a9 47 3d 07 c0 ad 39
       0.09380117 -0.07871717 0.048745997 0.00033140203
0000a0 80 4b be bc 54 bf 23 bd 02 5a 77 3d b5 ea ae 3d
       -0.02322936 -0.039977387 0.060388573 0.085408606
0000b0 6b 53 7c bc 77 92 b2 3d b0 41 3a 3b e2 42 8d bd
       -0.015400748 0.08719342 0.00284205 -0.068975225
0000c0 fd 7a d0 bc 22 d0 05 bd da 1f 55 3d 6e 5e 10 3d
       -0.02544927 -0.032669194 0.05203233 0.035246305
0000d0 10 1c e1 bd cd ce 32 bd 95 e2 ae bd df 19 3a 3d
       -0.109916806 -0.04365425 -0.08539311 0.04543483
0000e0 6b 01 71 3d 12 83 95 bd 30 d9 fb 3c 21 af 80 3d
       0.058839243 -0.0730039 0.030743212 0.06283403
0000f0 c2 67 1e bd 3c bb e0 bd c7 36 ad 3c 12 03 8f 3c
       -0.03867317 -0.10973212 0.021144284 0.017457519
000100 fe fd 27 3d af ea f3 bd c7 ff cf bd 62 8d ad bd
       0.04101371 -0.11909997 -0.101562075 -0.08474232
000110 66 4c 19 bd 2e 34 82 3d 3c 1e c5 bc 9c af 4a bd
       -0.037426375 0.06357609 -0.024062268 -0.04948388
000120 1c d3 e5 3d 61 46 81 3d 17 55 c5 3d 25 6e 2b bc
       0.112219065 0.06312252 0.0963537 -0.010463272
000130 17 14 20 3d 6b 20 85 bd c3 16 71 3d ee ea bf 3d
       0.03908166 -0.06500324 0.058859598 0.09370981
000140 00 f0 9f bd c7 cb 20 3c 3f 10 6f 3d 8f 6b 38 bd
       -0.07809448 0.009814209 0.058365103 -0.04502445
000150 f4 ea 99 bd 33 56 42 3d c0 ee 96 3c fd 51 52 bd
       -0.07515517 0.047445487 0.018424392 -0.05134772
000160 9c c7 c3 3d 5d f1 a5 bd ef b6 cd bd 5b 0e f8 3c
       0.09559557 -0.08102677 -0.100446574 0.030280283
000170 3f 3d d0 3b d8 98 d9 3d fc 90 9c bc 11 f2 61 bd
       0.0063549574 0.10624856 -0.019112103 -0.055162493
000180 0f fa d4 bc a5 01 3f 3d 84 ae 03 3c 17 b1 a7 3d
       -0.025998143 0.046632428 0.008037213 0.08188074
000190 6e ad 1a 3d ba ee f3 b9 9d 01 31 3d fe df 82 bd
       0.03776305 -0.00046526437 0.04321443 -0.06390379
0001a0 6f 05 19 3c ca 5b aa 3d 2b 3a c8 3c bd de ae bd
       0.009339674 0.083182886 0.0244418 -0.08538578
0001b0 8a 5d 38 bd 74 09 90 3b e5 6d d4 3d f2 55 68 bd
       -0.04501108 0.004395658 0.10372523 -0.05672259
0001c0 a6 d8 38 bc d3 8e 73 3d db 55 f8 3d 7a b3 b2 3d
       -0.011282122 0.05946238 0.12125751 0.08725639
0001d0 5d 0d e7 bd e0 84 bf 3d 59 81 31 3d ed e4 e1 bd
       -0.11281846 0.09351516 0.043336246 -0.11029992
0001e0 42 e1 56 bd bf 9c 47 bd 0d 80 47 3d d6 e7 de 3c
       -0.052460916 -0.04873347 0.048706103 0.027210157
0001f0 fc 65 e0 3c f9 ae 8b bd 60 41 be 3d a3 df 56 3d
       0.02739238 -0.06820483 0.09289813 0.05245937
000200 36 25 b8 3d a1 c9 77 3d 25 68 39 bd dc bd 5c 3d
       0.089914724 0.060495023 -0.045265336 0.053892
000210 c1 c7 fd 3c ee d5 8c 3c ac b7 08 bd 91 d0 b1 bd
       0.03097904 0.017191853 -0.03337829 -0.08682359
000220 9a e9 9e bd ef 3f 70 3d 43 d6 9f bc 3b 57 99 bd
       -0.077594 0.05865472 -0.019511348 -0.07487341
000230 c6 a9 b4 3d 41 92 9b bd ae 0a 2a 3d da 1e 2f bc
       0.08821444 -0.07596255 0.04151409 -0.010688508
000240 2f ad d6 3c 37 db c9 bc d9 8b 16 bd 25 ca ac 3d
       0.026205627 -0.024640663 -0.036754463 0.084369935
000250 24 d5 68 3d 29 63 80 3a 71 4f a8 bd df c5 e4 bc
       0.05684389 0.0009795177 -0.08218277 -0.027926384
000260 22 be 84 3c 91 65 93 bd 23 b9 b9 3d b3 9b cb bd
       0.016203944 -0.07197107 0.09068515 -0.09941807
000270 36 0f 93 3d 35 fa 6b 3d 8a 49 3b 3c 0b 9c 83 bd
       0.07180636 0.057611663 0.011431107 -0.06426247
000280 cf c5 5e 3d 83 9a 19 3d de 9b 94 3d 64 27 62 3d
       0.054387864 0.03750087 0.07256292 0.055213347
000290 52 bd 0a 3d d6 0c 25 3d 8a 57 cc 3d 1f 88 0c 3d
       0.033871956 0.040295444 0.09977634 0.034309503
0002a0 52 c0 36 3c 15 83 38 3d 36 7b 75 bb 4a da 78 bd
       0.011154251 0.045046885 -0.0037457473 -0.06075505
0002b0 6c 53 40 bd a3 98 a4 3d 8e 37 82 3d e2 e1 32 bd
       -0.046954557 0.08036926 0.063582525 -0.04367245
0002c0 0b 5f 94 3d b8 f6 6e 3d 20 77 1d 3e 3f 34 d7 3d
       0.072446905 0.058340758 0.15377474 0.10508012
0002d0 88 78 c1 3d e9 1a e5 3d 3b 50 e8 bd d3 2a f3 bc
       0.09446818 0.11186773 -0.11343428 -0.029683506
0002e0 0d e0 06 bd de 9a be bd a6 7f fd 3c 7e 9d 81 bd
       -0.032928515 -0.09306882 0.030944657 -0.063288674
0002f0 b0 c6 06 bd 8a 1b 8b 3d 79 19 ba bd 89 68 91 3d
       -0.032904327 0.06792362 -0.0908689 0.071000166
000300 b1 54 23 3d 60 68 1c 3e c6 2e 97 39 9c 65 b0 3d
       0.03987569 0.15274191 0.00028835813 0.086131305
000310 ab 48 ce 3c 9f 6e c8 3c dc 96 90 bd ac 31 d5 bd
       0.025181135 0.02446681 -0.07060024 -0.10409865
000320 70 bf 17 bd ae 9d 40 3d 11 40 82 3d 19 dc a8 3c
       -0.037047803 0.047025375 0.06359876 0.020612763
000330 2e 0d bf 3c a2 f6 70 3d f1 d9 a9 3d 8a de 32 bd
       0.023321714 0.058828957 0.08293522 -0.04366926
000340 8c f6 bf bd 49 07 49 bd 5a 58 10 bd 62 38 c4 bc
       -0.09373197 -0.049079213 -0.03524051 -0.023952667
000350 3c 01 13 3b f5 7d 62 bd 60 b6 b3 3b 73 68 4d bc
       0.0022431156 -0.055295903 0.0054843873 -0.01253711
000360 e4 af e4 3d 24 73 08 bd fb b0 3f 3b 2f 50 89 bd
       0.11166361 -0.03331293 0.0029249776 -0.06704747
000370 7b 9d 2b 3d d1 f0 52 3d 14 fc ea 3c 83 7f 01 be
       0.041898232 0.05149919 0.028684653 -0.12646298
000380 04 4e 91 3d 25 42 b9 bd 1c 9b 66 bd ea f1 16 3d
       0.070949584 -0.09045819 -0.056300268 0.0368518
000390 e5 a7 cc 3d 40 61 7e bc 7f 7b aa 3a a0 2a 06 3d
       0.09992961 -0.015526116 0.0013006775 0.032755494
0003a0 5b 55 64 3d cc 26 ec bc 55 86 8c bc 3e a0 a9 bd
       0.055745464 -0.028827094 -0.017153898 -0.08282517
0003b0 d9 2e 3c 3d 57 ac 85 bb 8a 07 c7 bd 5d cd a1 bc
       0.045943115 -0.0040793824 -0.09718235 -0.019751245
0003c0 df 0a fa bc cd ed 8a 3c de 65 f6 bc 43 b0 8b 3b
       -0.030522762 0.016959095 -0.030077871 0.0042629554
0003d0 6b 06 94 bc 5d 96 97 bc e8 a7 bc 3c dd 6f b8 3d
       -0.018069467 -0.018504316 0.023029283 0.09005711
0003e0 fe 83 cb bd c3 4f 9c bc 84 e2 44 3d cc 43 d3 bd
       -0.09937285 -0.019081002 0.048067585 -0.103156656
0003f0 81 74 4b bd 0e ea ef 3d ef b6 8c bb c1 a8 e1 3b
       -0.049671654 0.11714564 -0.0042942683 0.006886572

conv2.bias f4 [32]
000000 d0 d5 d3 3c e6 e7 52 bd 77 bf 91 3d a6 95 d0 3d
       0.02585879 -0.051490687 0.07116597 0.10184793
000010 4d 67 3c bd 71 98 af b9 de 9e d1 bd 71 11 5c 3c
       -0.045996953 -0.0003349218 -0.1023538 0.013431893
000020 4c 9e 06 bd d7 76 d4 3c d6 dc a7 bd 78 d9 09 3d
       -0.032865807 0.025935574 -0.08196418 0.03365466
000030 75 18 d4 3c 88 d1 8a 3d f8 44 93 3d a2 32 2b 3d
       0.025890568 0.06778246 0.07190889 0.041796334
000040 45 ad 49 bd 91 1d 13 3d ff 4e c5 bc f5 76 9b bd
       -0.04923751 0.03591687 -0.02408552 -0.07591049
000050 9f c0 9c bd be a5 b7 bc 94 ad 93 3d de b5 18 bd
       -0.07653927 -0.0224179 0.07210842 -0.037282817
000060 b0 40 28 bd 32 87 66 3c 2c ca 2e bd 9a 69 0a 3d
       -0.041077316 0.014070319 -0.042673275 0.033792116
000070 63 8a 75 3d 1c 5c 82 bd df bb b1 3d 8d cd 97 3d
       0.05994643 -0.06365225 0.08678412 0.074122526

bn2.weight f4 [32]
000000 dd 96 7b 3f 46 8e 75 3f bb 7a 7a 3f 50 6c 7f 3f
       0.98277074 0.9592022 0.9784352 0.99774647
000010 db 5d 84 3f 40 b4 87 3f ac b7 8b 3f cc 07 8a 3f
       1.0341142 1.0601883 1.0915427 1.078363
000020 28 c4 79 3f 3d 72 84 3f 9c 01 7a 3f 4d 40 83 3f
       0.97564936 1.0347363 0.97658706 1.0253998
000030 8e 5e 76 3f 36 af 7f 3f ce e8 81 3f dc 91 87 3f
       0.9623803 0.99876726 1.0149171 1.0591388
000040 8e 07 79 3f 8f 1b 84 3f cb 88 83 3f 39 b8 86 3f
       0.9727715 1.032091 1.0276121 1.052497
000050 b9 63 79 3f a8 27 7b 3f df 4d 7a 3f 19 12 81 3f
       0.9741779 0.98107386 0.9777507 1.0083648
000060 ec c5 7a 3f 4d 1c 7d 3f 4f 43 7f 3f bf c9 79 3f
       0.97958255 0.9887131 0.9971208 0.97573465
000070 cc f8 7f 3f 4c 85 72 3f ea 7f 73 3f 7a dc 81 3f
       0.9998901 0.94734645 0.95117056 1.0145409

bn2.bias f4 [32]
000000 7f 95 7b bd c9 a6 41 bd 62 f4 26 3c 4c 6f 22 bd
       -0.061421867 -0.0472782 0.010190101 -0.039656922
000010 fb 28 04 bd 0f 87 61 bd af e5 d4 bc a1 eb b8 ba
       -0.032265645 -0.055060443 -0.025988428 -0.0014108309
000020 4a 6b fa bd 93 1e d5 bc 00 83 7d bd bd a9 ab bb
       -0.12227495 -0.026015555 -0.06189251 -0.0052387402
000030 ec 10 f4 3c 8e a8 a5 bc 6b 2e a3 3d 4d 8e c8 bc
       0.029793225 -0.020221975 0.07967838 -0.024481917
000040 3b e2 96 bd 7b 73 b6 3c 5d 43 97 3c a0 15 35 3d
       -0.07367369 0.022271862 0.018464739 0.044210076
000050 97 33 6b bc 27 30 93 bc d9 c3 10 3b 89 dd d3 3c
       -0.014355562 -0.017967297 0.002208939 0.025862472
000060 5b 77 08 bd 68 0e 01 bd bf 94 89 bd 51 78 cd bb
       -0.03331695 -0.03150788 -0.06717824 -0.0062704463
000070 9b 54 0d bd 5a ed 53 bd a0 a6 46 bb b2 3a c8 3b
       -0.034504514 -0.051740028 -0.0030311719 0.0061105127

bn2.running_mean f4 [32]
000000 f8 fc b1 be 76 ce 1f 3f b2 87 91 3e 8f e3 1a bf
       -0.34763312 0.6242441 0.2842384 -0.60503477
000010 0f 71 3c bf 73 fd c3 bc 14 85 3c bf 9c f0 9e be
       -0.73610014 -0.023924565 -0.7364056 -0.31042945
000020 6d bd b0 be 3d 46 fb be 38 14 8c bf 04 50 07 bf
       -0.3451952 -0.49077025 -1.094367 -0.5285647
000030 c8 3f 00 3f 25 35 05 bf 0f 84 89 be 09 62 1d bf
       0.5009732 -0.5203422 -0.26858565 -0.61477715
000040 70 8e 2b bf ec 53 0e bf c5 35 b2 be b7 fa bb be
       -0.6701422 -0.55596805 -0.34806648 -0.36714718
000050 3f 2c ee be b9 5c 81 be 1b a5 25 3d 0f a2 3f 3f
       -0.46518132 -0.25266054 0.04044066 0.74856657
000060 79 4f 0b be 43 c1 eb be 21 da 49 bf 32 7a 4d 3e
       -0.13604535 -0.46045884 -0.78848463 0.20066145
000070 5f 66 e4 3d a1 39 d4 3c db 17 3a 3b 9d 64 99 be
       0.11152338 0.025906386 0.0028395567 -0.29959574

bn2.running_var f4 [32]
000000 e4 eb 8b 3e 75 96 b6 3e c7 d9 b9 3e c3 ff af 3e
       0.27328408 0.35661665 0.36298963 0.34374818
000010 dd aa 79 3e c9 f3 8f 3e 7e 3a d0 3e f6 42 91 3e
       0.24381585 0.2811568 0.40669626 0.283714
000020 d5 59 41 3e ae cb a8 3e e6 ac 20 3f 10 4a e8 3e
       0.18881924 0.32967895 0.6276382 0.45369005
000030 c3 e0 c9 3e 09 fe 8b 3e da ff 7e 3e 72 f4 96 3e
       0.39429292 0.2734225 0.24902287 0.29483372
000040 9b 73 7d 3e 21 8c af 3e 46 61 72 3e af 18 cb 3e
       0.24751131 0.34286597 0.2366992 0.3966727
000050 f6 d2 86 3e 30 b5 5a 3e d1 fc 94 3e 82 e1 a8 3e
       0.26332825 0.2135818 0.29099134 0.3298455
000060 2b 0e ba 3e 88 2b ce 3e 75 3d 9a 3e 06 e3 43 3f
       0.36338934 0.40267587 0.30125013 0.76518285
000070 52 cb b3 3e a9 8b bf 3e cb 6e 0a 3f ed ae 18 3e
       0.3511606 0.3741124 0.54075307 0.14910479

conv3.weight f4 [64, 32, 3]
000000 4a d8 6f bd 52 7b bd bc ca 25 0c bd 69 bd ea 3c
       -0.05855588 -0.023130093 -0.034215726 0.02865477
000010 ce ee 7e 3c 16 cb 29 bd 6a 52 6e bd 6d 78 6b 3d
       0.015559865 -0.041453443 -0.058184065 0.057487894
000020 77 1b a5 3d 0a 97 d1 ba 34 0d 0a 3d 2a 43 83 3c
       0.08061879 -0.0015990448 0.033703998 0.016023237
000030 23 9d 26 3d 60 50 93 3c 5e 88 40 bd 92 b3 30 bd
       0.0406772 0.017982662 -0.04700505 -0.04314
000040 50 26 38 3d 7b ea d1 3d 04 f9 0b be 20 71 de bd
       0.044958413 0.10249802 -0.1366921 -0.10861421
000050 bd ff 92 bd 14 1d 32 bd da f1 0b bd 0d aa 6f 3c
       -0.071776845 -0.043484762 -0.034166194 0.014627946
000060 fd ae 7f bd 62 94 65 3d 6f 50 88 bd fd 7c a4 3d
       -0.06242274 0.056049712 -0.066559665 0.08031652
000070 f3 72 b0 3d 5d 95 a0 3d ca ff 71 bb a9 09 34 bd
       0.08615675 0.07840989 -0.0036926144 -0.043954525
000080 28 50 59 3d 2a b7 84 bd de 14 a2 bd 44 d4 d5 3b
       0.05305496 -0.06480248 -0.07914136 0.006525548
000090 5a 51 5b bd 47 ce 82 3d 85 39 14 bd 4b a0 5a 3d
       -0.05354438 0.063870005 -0.036187667 0.053375524
0000a0 a7 a6 08 3d 06 58 60 3d 6e e1 17 3d ba 33 86 39
       0.033362057 0.054771446 0.03708022 0.0002559701
0000b0 63 a7 ff 3d ad fa bf bd d8 70 b7 bb 0b 8f 47 3d
       0.12483098 -0.093739845 -0.005598169 0.0487204
0000c0 6d 2e 8b bc 79 cd af 3d 7f 00 68 3d be 85 b8 bc
       -0.016989911 0.08584113 0.056641098 -0.02252471
0000d0 8e 3f 57 bb 7b 1d 24 3d 3b db c3 bd cf c2 c6 bd
       -0.0032844278 0.040067177 -0.09563299 -0.097051255
0000e0 c2 eb 9b bd 90 7e 43 3d 71 e0 02 be 93 b5 12 bb
       -0.076133266 0.04772812 -0.1278093 -0.0022386059
0000f0 5f 53 14 be ab 46 81 3c 10 ce 56 bd 4d ea e0 b9
       -0.14484929 0.015780767 -0.05244261 -0.00042899177
000100 3b fb 67 3d 47 29 6a bd a2 54 dc 3c 25 6a e2 3c
       0.056636076 -0.05716827 0.026895825 0.027638504
000110 67 43 67 bc 59 ef e1 3c d6 ea d6 bc 27 92 6f bd
       -0.014115191 0.02757995 -0.026235025 -0.05848899
000120 1e 30 3f 3d 42 17 6d 3d c4 51 b0 bc a3 d0 8f bd
       0.046676748 0.05788351 -0.021523364 -0.07022216
000130 54 0f b1 bd 3b f9 43 bd 80 3b 1e bb 44 c0 c2 bc
       -0.08645502 -0.047845107 -0.0024144351 -0.02377332
000140 5d 58 d9 3d ec 7c a9 bd c9 aa a6 bd 5f cd cd bc
       0.10612557 -0.0827578 -0.081380434 -0.025122343
000150 36 81 29 bd 18 ed b6 3d 7d 2f 13 bc b7 d0 49 3d
       -0.04138299 0.08931941 -0.00898349 0.04927131
000160 de 72 27 3d a8 8a 37 3d 33 77 f1 bd ec dd 11 bd
       0.04088103 0.044809967 -0.117903136 -0.03561203
000170 34 2d 94 bd 3c a7 79 3d 5d 43 0d 3c a2 45 dd 3d
       -0.07235184 0.060950503 0.008622018 0.10804297
000180 df 72 81 bd f7 1d b2 3c f2 59 d6 3a d6 64 5d 3c
       -0.06320738 0.021742804 0.001635371 0.013512811
000190 fd b2 41 bd b6 0d 79 3b 1e 4c d5 bd b8 41 91 bd
       -0.047289837 0.0038002557 -0.10414909 -0.07092613
0001a0 19 1e 78 3d f9 fd fd bb e1 24 c2 3d 83 3e ba bd
       0.06057558 -0.007751223 0.0947969 -0.090939544
0001b0 ad 17 3e bd d1 c2 81 bc 99 32 c0 3c cc a4 a9 bd
       -0.046409298 -0.015839966 0.023461627 -0.08283386
0001c0 29 90 96 3d e4 21 12 3d 29 2e 4f 3c 62 35 dc 3c
       0.07351715 0.035676852 0.012645283 0.026880924
0001d0 fb 84 9a 3d 73 58 f9 3d cf b4 3f 3d 58 25 19 be
       0.07544895 0.121750735 0.046803292 -0.14955652
0001e0 ef 14 a4 3d 4e 4d a3 bc c9 9e 9a bd 42 9e a7 3d
       0.08011805 -0.019934323 -0.07549817 0.08184482
0001f0 b1 11 21 3d cd 8c 5a 3c 80 fb fd 3c 11 e7 78 bd
       0.039323512 0.013339234 0.031003714 -0.060767237
000200 98 33 56 3d ec a8 d8 bb e4 1b e0 3c 64 5d c9 3d
       0.052295297 -0.006611934 0.02735705 0.09832266
000210 6e cd a4 bc c0 df 89 bc 5d aa f2 bc 83 39 5c bb
       -0.020117488 -0.016830325 -0.029622251 -0.0033603616
000220 5e 0c 0b bd 38 15 04 bd 56 3a 97 bc 9b 50 40 bd
       -0.03394734 -0.0322468 -0.018460434 -0.04695187
000230 83 cf a6 bd 7e 9a 89 bc 4c 9e 01 3e 17 7b 88 bb
       -0.081450485 -0.0167973 0.12658042 -0.004165064
000240 30 ee a0 bc bc a0 44 bc ce b9 29 3c 0c 0d 93 3d
       -0.019644827 -0.012001213 0.010359241 0.07180223
000250 43 90 be bc 0d 29 6b bc f1 c0 37 bd 4b cb 85 bd
       -0.023262149 -0.014353049 -0.044861738 -0.06532916
000260 51 44 f7 bd c4 14 bc 3d aa 81 b3 bd d6 65 72 3b
       -0.12073577 0.09183648 -0.08764966 0.0036986968
000270 64 77 19 3b 2f 1d e3 bd c3 f8 cc bd ba 6a e4 bc
       0.002341711 -0.11089551 -0.10008385 -0.027882922
000280 81 a0 ec bd c8 7e 4f 3d 57 bf 75 3d 04 73 79 3b
       -0.11554051 0.050658017 0.05999693 0.003806294
000290 33 db ce bd ed a5 ec bc 87 09 2d bd 73 0b d3 3d
       -0.10100403 -0.028887713 -0.042245414 0.10304918
0002a0 35 17 9d 3d a1 2a 92 3b 28 9b 8a bd d0 2f c6 bd
       0.07670442 0.004460648 -0.06767875 -0.09677088
0002b0 a7 33 cf 3b 15 53 07 be 78 bd 7b 3d a5 20 7b 3d
       0.006323296 -0.13215287 0.06145999 0.06131043
0002c0 02 0f 4e bd 06 87 90 bd 31 b9 66 bb 1f f7 b7 3d
       -0.05030728 -0.07057004 -0.0035205598 0.089826815
0002d0 e6 d4 46 3d b1 c6 9a bd f9 6d d2 bd 5b 49 d5 b9
       0.04854288 -0.07557429 -0.10274882 -0.0004068118
0002e0 0f 5b 8b bd c7 7f f4 3c 36 d5 b5 3d a0 13 5c bd
       -0.068044774 0.029846085 0.088785574 -0.053729653
0002f0 1a a3 70 bd b6 5f 2f 3d e1 29 e2 3b 3c b5 22 3c
       -0.058749296 0.042815886 0.006901965 0.009930905
000300 60 d3 ab bd a6 69 a7 bc 20 a1 a2 bd 12 57 c9 bd
       -0.08389926 -0.02043612 -0.079408884 -0.098310605
000310 26 d4 33 bd 68 8a 15 3d 03 a7 c1 bd 8f 0c c5 bd
       -0.043903492 0.036508948 -0.09455683 -0.09621536
000320 0a c3 87 3d 20 f2 8a 3d 34 cc 99 bd b0 3f d2 bc
       0.066289976 0.06784463 -0.07509652 -0.025665134
000330 05 14 cd 3d ca 99 0e bd b9 ca 24 bd cd b2 34 3d
       0.10013584 -0.034814633 -0.040232394 0.04411583
000340 d6 63 9a 3d e3 f9 f1 bc c1 1b 10 bd 1a e3 cc 3a
       0.075385734 -0.0295381 -0.03518272 0.0015631646
000350 98 ce a3 3d 2e a9 d0 3d d3 c4 0f 3d 75 03 84 bc
       0.07998389 0.101885185 0.035099816 -0.01611493
000360 bb c8 9b bd 13 32 2c 3c 92 ba d6 3c de 0f a5 3d
       -0.07606646 0.0105099855 0.02621201 0.08059667
000370 a0 89 8b 3d 95 b9 c2 3d 59 c3 b3 bd 38 93 a3 3d
       0.06813359 0.09508053 -0.08777494 0.07987064
000380 4c b4 81 3b 9c 91 10 bd c4 bf 20 be 69 0e 31 bd
       0.0039582606 -0.035295114 -0.15698153 -0.043226633
000390 01 4d 20 3d 75 7e 39 3d 51 a5 d5 bc ed 38 13 bc
       0.039135937 0.045286614 -0.026079806 -0.00898574
0003a0 bb 8a 1a 3d b3 3c 0d bc 8b 71 4b bd 02 05 9c bd
       0.03772996 -0.008620429 -0.04966883 -0.07618143
0003b0 f4 cd cc bd 7f ef 0f 3d b9 72 15 3e 47 d7 c0 bd
       -0.1000022 0.03514051 0.14594544 -0.09416061
0003c0 2f 36 aa 3d 5c 8c 4d bc e5 a9 25 3e 4a 12 c7 bd
       0.08311116 -0.012545671 0.16178091 -0.09720285
0003d0 7f 10 af bd 47 5e 30 be 2b ac 8f 3d 19 a3 de 3c
       -0.08548068 -0.17223464 0.0701526 0.02717738
0003e0 8d 50 c0 3d c2 62 87 3d bc 58 f6 bd 91 b2 47 bd
       0.09390364 0.066106334 -0.120286435 -0.04875428
0003f0 00 43 c3 bd b9 18 56 3c 7b 43 00 be e7 f9 72 bd
       -0.095342636 0.013067418 -0.12525742 -0.059320357

conv3.bias f4 [64]
000000 1d 04 62 bd 89 b6 aa 3d 3d d6 98 bd 7f 77 3b bd
       -0.055179704 0.08335597 -0.07462738 -0.045768257
000010 4f 6d 56 bd 0b dc a0 bd be f0 ab bd 02 79 99 3d
       -0.05235034 -0.0785447 -0.08395527 0.074937835
000020 ac 90 5f 3c b5 ce 40 3d 44 2a d8 3c a9 7e c0 bd
       0.013645332 0.04707213 0.026387341 -0.093991585
000030 e1 23 82 bd b1 ed 75 bd 28 95 10 3c f5 fa 3d 3d
       -0.063544996 -0.060041133 0.008824624 0.04638191
000040 95 e5 5f bc 41 31 c1 3d e1 2b ae 3b 30 3c 71 3c
       -0.013665576 0.094332226 0.0053152894 0.0147238225
000050 23 58 a5 bd 30 6d 62 bd 4f b3 6a 3a 1b ee 1e bc
       -0.08073451 -0.05527991 0.00089531107 -0.009700323
000060 7e 4f bd 3d 82 e2 9e 3d a5 f4 d8 bc 7e f2 c4 bd
       0.092436776 0.07758047 -0.026483843 -0.09616564
000070 a4 da 0f 3d eb 2a 8b 3d d5 f1 98 bd 67 e2 52 bd
       0.03512062 0.06795295 -0.07468001 -0.051485445
000080 14 16 c9 bd f0 f7 ad 3c fa 9e 9c 3c 45 9d cc bd
       -0.09818664 0.02123639 0.019118775 -0.09990934
000090 85 4a 19 bc 35 c3 d5 bc 05 48 c3 3d a2 00 75 3d
       -0.009356146 -0.026094059 0.09535221 0.059815057
0000a0 20 dd b3 3c 56 33 38 3d 62 f5 d9 ba ad f3 68 3d
       0.021956027 0.044970833 -0.0016628916 0.056873012
0000b0 6a b7 71 bd 42 de cd bd a2 04 fb 3c 50 dd 3b 3d
       -0.059012808 -0.10052158 0.030641858 0.045865357
0000c0 bf be c7 bc 15 b1 ee bb 14 e1 09 3d e0 98 97 3c
       -0.024382947 -0.0072842934 0.033661917 0.018505514
0000d0 93 33 2e bc 3d 3b ed bc ea e7 bf bd 69 8b 57 bd
       -0.010632413 -0.028958911 -0.09370406 -0.052623186
0000e0 6c 58 8c 3d b4 36 a4 3d f8 03 5a 3d 3f 21 e5 3c
       0.06852803 0.08018246 0.05322644 0.027969955
0000f0 e5 22 61 3d fe 82 50 bc ad d9 36 3c 29 58 2c bd
       0.05496492 -0.0127265435 0.011160296 -0.042076264

bn3.weight f4 [64]
000000 3b 4c 78 3f f4 d7 7c 3f c8 18 7f 3f 3f 25 7c 3f
       0.9699132 0.9876702 0.9964719 0.98494333
000010 a0 4c 72 3f c8 b4 80 3f 91 fb 82 3f 25 3b 82 3f
       0.9464817 1.005517 1.0233022 1.01743
000020 66 4d 75 3f 40 fc 7b 3f c7 02 86 3f 6b eb 7d 3f
       0.95821226 0.9843178 1.0469598 0.99187344
000030 9d 5b 7d 3f 8a 16 75 3f f6 31 79 3f 93 bb 86 3f
       0.98967916 0.95737517 0.9734186 1.0525993
000040 5d 4b 7f 3f 3e 9d 83 3f d7 dd 71 3f 89 63 83 3f
       0.9972437 1.0282362 0.94479126 1.0264751
000050 fc 26 80 3f 35 5c 7c 3f 15 06 80 3f e8 83 71 3f
       1.0011897 0.98578197 1.0001856 0.943419
000060 c6 7c 7b 3f 88 ab 8b 3f 73 34 6b 3f 26 4f 7d 3f
       0.98237264 1.0911722 0.91876906 0.98948896
000070 7a 42 80 3f c2 02 70 3f 9e bd 83 3f 7f be 7a 3f
       1.0020287 0.9375421 1.0292242 0.97946924
000080 d0 b1 80 3f ae cf 87 3f 3a 38 82 3f 90 02 84 3f
       1.0054264 1.0610254 1.0173409 1.0313282
000090 3c d3 8a 3f e6 0f 86 3f 7c 9f 73 3f 33 4b 82 3f
       1.0845714 1.0473602 0.9516523 1.0179199
0000a0 39 f0 7f 3f d3 a8 7f 3f bc c2 6c 3f 1b 1b 78 3f
       0.99975926 0.9986698 0.9248464 0.9691636
0000b0 92 cc 7f 3f fa 0a 81 3f de 52 75 3f b5 52 8c 3f
       0.99921525 1.0081475 0.9582957 1.096274
0000c0 15 09 7b 3f 76 0b 77 3f e1 54 7c 3f cb 06 72 3f
       0.98060733 0.96501863 0.98567015 0.94541615
0000d0 17 0b 83 3f e0 0f 8a 3f 9b 15 7d 3f e8 5a 86 3f
       1.0237759 1.0786095 0.9886109 1.0496492
0000e0 37 b3 84 3f 50 6f 6e 3f b9 d2 71 3f 11 80 79 3f
       1.0367192 0.931386 0.9446216 0.9746104
0000f0 67 f9 7a 3f e5 22 88 3f 48 d1 86 3f f0 0b 89 3f
       0.9803681 1.0635649 1.0532618 1.0706768

bn3.bias f4 [64]
000000 c9 1a 20 bd 28 e6 2a 3b 16 b8 f4 bd fd 6e 97 bd
       -0.039088044 0.0026077125 -0.11949174 -0.07394216
000010 8d 98 8d bd f1 ac 29 bc de ad 07 bd e2 14 ba bc
       -0.069138624 -0.010356174 -0.033124797 -0.022715036
000020 20 b3 d8 bc 1e 96 8a bd 8f c6 3b bd b6 80 7b bd
       -0.026452601 -0.06766914 -0.045843657 -0.061402045
000030 b6 93 c2 3c 22 b4 85 bd 0c 05 1a bb cd 54 3f bd
       0.023752075 -0.06528498 -0.0023501543 -0.04671173
000040 e8 00 6b bd 12 cb 57 bd 1f 90 57 bd 97 90 ee bc
       -0.05737391 -0.052683897 -0.05262768 -0.02912168
000050 44 25 49 bd 6a ef 6f bd cd a8 54 bd 72 b0 17 3c
       -0.049107805 -0.058577932 -0.051918793 0.009258376
000060 14 86 01 bd 1a cf 95 bd 9f 51 81 bd 17 24 73 3c
       -0.031622007 -0.07314892 -0.06314396 0.014840147
000070 89 f5 24 bd ae 6d 93 bb be 17 e3 bc 64 0b d4 bd
       -0.040273223 -0.004499159 -0.027721282 -0.10353735
000080 17 b6 f8 bc 15 be da bc 11 3d 4d 3b c4 48 28 bd
       -0.030360265 -0.026701966 0.0031316916 -0.04108502
000090 23 ca 45 3c 1a c5 f5 ba d0 d9 09 bd 73 7b 12 bd
       0.012072119 -0.0018750757 -0.033654988 -0.03576226
0000a0 8a 81 4d bb 4d f4 a4 bc 44 fa 96 bd 8c 97 76 bd
       -0.003135773 -0.020136023 -0.07371953 -0.06020312
0000b0 2d 32 30 bd a1 04 66 bd 20 91 81 bd 75 6b 0d bd
       -0.0430166 -0.05615676 -0.063265085 -0.034526307
0000c0 52 9a 7e bd 77 a7 3c bd 83 2f 08 3c b0 41 75 bc
       -0.06215889 -0.046058144 0.008312109 -0.014969274
0000d0 21 94 ad bd f8 42 06 bd 01 15 8f bb eb b3 56 bb
       -0.08475519 -0.03277871 -0.0043665175 -0.0032761048
0000e0 56 34 90 bc d6 c1 49 bd 9b 20 c5 bd 95 7e ce bc
       -0.01760308 -0.049257122 -0.096253596 -0.025206843
0000f0 63 72 a5 bc 6c 16 65 bd b5 a9 7b bd f1 4f 14 bd
       -0.020196145 -0.055929586 -0.061441142 -0.03620905

bn3.running_mean f4 [64]
000000 a6 d7 94 be f2 ca a2 be 74 ac 03 bf cb b5 2a be
       -0.29070777 -0.3179546 -0.5143502 -0.16670911
000010 4e e4 ee 3e 46 32 18 be 23 dc 84 be 8c bd 0a bd
       0.46658558 -0.14862928 -0.259492 -0.033872172
000020 f8 05 9e be c3 88 6e 3c 45 d6 f5 be 59 19 22 bf
       -0.3086393 0.014558974 -0.48015037 -0.6331993
000030 d5 97 2d bf 0d 1e 0a 3e 51 b6 24 bf bd 6d a8 be
       -0.678098 0.13488026 -0.6434069 -0.32896224
000040 2e 4f 53 bf 55 cd 47 bf 93 24 0c be 70 96 68 bd
       -0.82542694 -0.78047687 -0.13685827 -0.056784093
000050 64 de 75 bf c3 b4 73 3d 76 65 01 bf 99 f8 5d be
       -0.96042466 0.05949856 -0.5054544 -0.21676864
000060 86 36 94 be 3e dd d4 be 09 10 b0 3e d3 4e 2f bd
       -0.28947848 -0.41575044 0.34387234 -0.042799782
000070 a6 94 cf be dd d3 94 be fb 96 b4 be 8e ce 74 be
       -0.40543097 -0.2906789 -0.3527144 -0.2390692
000080 cd 21 67 be d2 de b8 bc 44 ec 99 be 70 cd 07 bf
       -0.22571488 -0.022567187 -0.3006307 -0.5304785
000090 f1 75 79 be 7b 84 93 be b0 86 09 3d ba 2b 2a 3e
       -0.24361397 -0.28812012 0.033575714 0.16618243
0000a0 3c c0 e0 3b 9d f2 7a bd 16 1c 8a 3d 37 e0 13 bf
       0.0068588536 -0.06126653 0.06743638 -0.57764
0000b0 a6 ed 33 b9 3b 8b 33 3e 33 25 fd 3d ba 1b 61 bf
       -0.00017159301 0.17533581 0.12360611 -0.8793293
0000c0 a0 fd 28 be 33 d5 06 3d 9f bf 21 3e f8 81 58 be
       -0.16503 0.032918166 0.15795754 -0.21143329
0000d0 4d 77 ba b7 9f d4 84 bc 48 6f 59 bf 7b 70 cb bd
       -2.2228482e-05 -0.016214667 -0.84935427 -0.09933563
0000e0 1a b8 7f be 69 27 89 3e 78 68 12 bf e9 06 3a bf
       -0.24972573 0.2678788 -0.57190657 -0.72666794
0000f0 8d ad 11 bf c3 d8 c2 be e4 01 a6 be f8 26 5b bf
       -0.5690544 -0.38056 -0.32423317 -0.85606337

bn3.running_var f4 [64]
000000 9c 61 fa 3d fd 15 7b 3e 86 4f 20 3e 54 f7 17 3e
       0.12225649 0.24520107 0.15655336 0.14840442
000010 af 96 87 3e a0 9f 07 3e f2 d7 2f 3e 98 c2 3d 3e
       0.2648215 0.13244486 0.1717222 0.18531263
000020 21 bf 6b 3e e1 11 ed 3d d7 b1 5d 3e 24 a5 d2 3e
       0.23022129 0.11575676 0.21649872 0.41141617
000030 b5 73 39 3e d6 7a 21 3e 17 3f a0 3e f8 da 09 3e
       0.18110545 0.15769514 0.31298134 0.13462436
000040 d1 16 95 3e 8c 17 6f 3e 70 8d b7 3e 90 94 a9 3d
       0.2911897 0.23348826 0.35850096 0.08280289
000050 ec 3a 32 3e 93 d4 f4 3d 86 b7 1f 3e 81 9b b5 3e
       0.1740529 0.11954608 0.15597352 0.35470203
000060 43 07 4a 3e df d2 bc 3d 60 60 05 3f ff 50 27 3e
       0.19729333 0.09219908 0.5210018 0.16339491
000070 9e d8 fa 3d 4b 39 93 3e 69 31 87 3e 93 6a e7 3d
       0.12248348 0.2875465 0.26404884 0.11299624
000080 94 fc 18 3e 1a ff 3a 3e d0 0b a0 3e bd 0a 22 3e
       0.14940101 0.18261376 0.31259012 0.15824409
000090 4d d3 44 3e e3 c7 10 3e 65 15 08 3e 6f 33 1e 3e
       0.1922123 0.1413875 0.13289411 0.15449308
0000a0 e8 d0 e3 3d 1a ad 1d 3e 80 79 fa 3d fd 93 03 3e
       0.1112383 0.15398064 0.122302055 0.12849422
0000b0 99 27 0c 3e ec c1 20 3e 87 c9 2f 3e 5b 58 27 3e
       0.1368698 0.15698975 0.1716672 0.16342299
0000c0 b3 fc 64 3e cf 49 3b 3e ab 72 cf 3d 90 74 50 3e
       0.22362022 0.18289874 0.10129293 0.20356965
0000d0 69 08 39 3e e3 9e 4d 3e d4 ba 19 3e ab 83 9d 3e
       0.18069614 0.20080142 0.15012676 0.30764517
0000e0 4f 4e 13 3e 60 4e a7 3e 4c 23 43 3e 91 c1 83 3e
       0.14385341 0.32676983 0.19056433 0.25733617
0000f0 f3 b0 62 3e 87 3d 1d 3e 5d 30 0c 3e ae 6e 46 3e
       0.22137813 0.15355502 0.13690324 0.19378158

conv4.weight f4 [64, 64, 3]
000000 9b 62 4a 3c 1f bc 23 bd c0 f2 f0 3c d1 83 aa bd
       0.012352611 -0.039974328 0.029412627 -0.08325923
000010 19 f9 99 3c 12 c5 92 bd 52 b5 10 bd 3f 3a 9d bd
       0.018795537 -0.071664944 -0.03532917 -0.07677125
000020 8e 24 39 3c b7 dc 33 bd af 9b ed bc 1a 03 51 3d
       0.011300219 -0.043911662 -0.0290049 0.05102835
000030 39 b5 a4 3c 13 9a e5 bc 17 d7 19 bd cb b9 81 bd
       0.020105945 -0.02802757 -0.03755864 -0.06334265
000040 a2 21 78 3c 27 94 e0 bc 23 53 06 3c 1d 82 9f bc
       0.015144737 -0.027414395 0.008198532 -0.019471223
000050 ea 41 a6 bb 8b 5c 4d bd fe 79 3a bb d4 14 ac bd
       -0.0050737755 -0.050137084 -0.002845406 -0.0840241
000060 06 d2 07 3d 8b d2 21 bd 3f 62 09 bd de be 98 bc
       0.03315928 -0.03950743 -0.03354096 -0.0186457
000070 6b ed b9 3d 24 2e b3 bd 08 8d 4e bd de d0 17 bc
       0.09078487 -0.08749035 -0.050427467 -0.009266106
000080 9e 3b e2 bc dc de eb bc 95 b8 42 3d 63 63 8f bd
       -0.027616318 -0.028792791 0.047539312 -0.070013784
000090 e7 f0 42 3d ed 56 82 ba 52 8e 11 3d 1e 63 e1 bb
       0.047593024 -0.0009944119 0.035536118 -0.006878271
0000a0 2f ed 8b ba 82 17 4f bd 40 24 08 3d 8c 3d ee 3c
       -0.0010675545 -0.05055953 0.033237696 0.029082082
0000b0 8c e7 37 ba 23 09 72 3b a2 61 28 3d 55 de 45 3c
       -0.0007015399 0.0036931715 0.041108735 0.012076934
0000c0 a6 c1 59 bd 87 97 14 3c 49 52 95 bc 08 0b 95 bd
       -0.053163193 0.00906933 -0.018227713 -0.07277495
0000d0 e2 90 25 bd e6 c5 70 bd b2 71 47 3c 88 1c 87 bd
       -0.040421374 -0.05878248 0.012173103 -0.06597239
0000e0 3a fc c3 3c ad 6e 95 bc f7 33 83 bd b1 d1 a3 bc
       0.023923982 -0.01824125 -0.06406396 -0.01999745
0000f0 2c 1b 98 bd 3d f2 50 3d 0a 8c 60 bc 10 97 8c 39
       -0.074270576 0.051012266 -0.013705263 0.0002681543
000100 9a 4e 70 3c 9e c4 c2 3d 81 4b 72 3d 6e a2 9b 3c
       0.014667178 0.09510158 0.059154037 0.018998351
000110 4c c8 e4 39 98 bc 40 3c e6 c8 b2 3c 2d bc 19 3d
       0.00043636782 0.011763714 0.021824311 0.037532974
000120 4a 21 a9 3c 75 e6 26 bd 98 67 3e 3d 7d 45 a0 3d
       0.020645756 -0.040747125 0.046485513 0.07825754
000130 b7 19 a7 bc 38 9e b3 3b 33 48 de bc aa 9f 49 3d
       -0.020398004 0.0054815076 -0.027134037 0.049224533
000140 2c 73 2b 3d ef f9 14 ba ed 12 b5 bd 63 ec 32 bd
       0.041857883 -0.0005682995 -0.088415004 -0.043682467
000150 07 29 92 bd 9b 09 1d bc 4a dc a5 bc 6d d2 7b bd
       -0.071367316 -0.00958481 -0.020246644 -0.061479975
000160 11 0a 08 3d 06 2e f4 3c e1 b8 13 bc f4 4e 92 bc
       0.033212725 0.029807102 -0.009016247 -0.017859913
000170 80 91 d4 3d c7 4a 15 3d 68 b2 c5 bb e8 88 49 bb
       0.103793144 0.036448266 -0.0060332306 -0.0030751768
000180 12 3c 9f bd 6d 80 08 3d c5 80 26 bc c1 60 c9 3d
       -0.077751294 0.0333256 -0.010162537 0.098329075
000190 69 d0 01 3d 00 2a ba 3d 26 89 95 3c 16 5a 5e 3d
       0.031692896 0.09090042 0.018253874 0.05428513
0001a0 7e 7e 03 3d 23 91 b8 bd d9 89 d2 bc 3c 56 d6 bd
       0.032103054 -0.09012058 -0.025700497 -0.10465667
0001b0 65 d3 bc 3c 22 ff 09 bd 54 e7 c8 bc a1 0f ea 3b
       0.02305002 -0.03369058 -0.024524368 0.0071429764
0001c0 3b 55 20 3c 79 2d e4 bc 13 7c f4 bc 1d 02 62 bd
       0.0097859455 -0.027853714 -0.02984432 -0.055177797
0001d0 23 2b 81 bc cd 6d cb bd b0 cc d0 3c 91 1e f7 bc
       -0.01576764 -0.09933052 0.025488228 -0.030165942
0001e0 57 f5 12 3c 8d a2 10 3d 55 ca 83 bc 26 51 15 bc
       0.008969626 0.03531127 -0.01608769 -0.009113586
0001f0 dd 13 33 bd cd fa c9 bb 8f 56 47 bd e5 47 f6 3c
       -0.043720115 -0.006163931 -0.048666533 0.030063579
000200 11 e7 3f 3c 57 5e 26 bd 6c 59 9c 3c ed 25 80 bb
       0.011712805 -0.040617313 0.019085608 -0.003910771
000210 57 87 de bd ba a8 02 bd 8a a6 97 bd 35 7a 51 3b
       -0.10865658 -0.03189919 -0.07404812 0.003196371
000220 04 c4 96 3a b8 da 90 bd 54 1d 07 3d 31 d5 19 bd
       0.0011502509 -0.07072967 0.032986954 -0.03755683
000230 7d e2 8a 3c 2d 84 56 3d 65 27 87 3d 8f 46 36 3c
       0.016953701 0.052372146 0.06599311 0.011125221
000240 94 8d 97 3b 4e f7 c9 bc e9 74 89 bd c1 4f a0 3c
       0.0046250317 -0.024654057 -0.06711752 0.01956928
000250 dc fc 1c bc 6b d1 d8 bb f7 a7 0e bc b4 7d 80 bc
       -0.009581771 -0.0066167614 -0.008707038 -0.01568494
000260 ed 15 51 bd ab e7 f9 ba 0a 96 f8 bc 3d ce 2c bc
       -0.0510463 -0.0019066235 -0.030344982 -0.010547218
000270 db 5e 12 bd db b7 c8 bc 70 14 9e bd 97 57 8e 3d
       -0.035734992 -0.024501732 -0.07718742 0.069503
000280 67 6b 09 3e 54 72 ea 3d 71 b9 82 bd 75 ab 20 3d
       0.13419877 0.114475876 -0.063830264 0.039226014
000290 d7 2d 4c bd 29 d6 f4 bc 89 e1 af bb e5 e1 6c bc
       -0.049848404 -0.029887276 -0.005367462 -0.014458154
0002a0 8e 18 bd bb 80 2a a3 3d 08 e8 22 bd ed 38 05 bd
       -0.0057707494 0.079670906 -0.039772063 -0.03252499
0002b0 9f 00 d2 3c 93 94 f0 3b 1c d7 5e 3d 63 88 ef bd
       0.025635062 0.00734193 0.054404363 -0.116959356
0002c0 b9 7d d3 3c 66 c3 cd bc e3 83 35 bd f9 4c 51 bd
       0.025816785 -0.025117587 -0.04431523 -0.051098797
0002d0 41 c3 1b bb 5b 4a db bc 16 6b 5a bd 40 82 0f 3d
       -0.0023767503 -0.026768854 -0.05332478 0.035036325
0002e0 e9 a7 9f bd a6 72 b3 bc e3 cc 8f 3d b4 5c 9a bd
       -0.07795698 -0.021905255 0.07021501 -0.07537213
0002f0 fc 2b 9d 3d 6a 47 bf bd 13 a3 9a bd ef d4 68 bd
       0.07674405 -0.09339793 -0.07550635 -0.056843694
000300 74 bd 95 3d ab 29 0f 3d 08 d7 77 3d b4 06 7d bd
       0.07311526 0.034951847 0.060507804 -0.06177397
000310 41 25 bb 3c c5 65 ad 3c bb ff 8a 3c b7 23 6c bc
       0.022844912 0.021166692 0.016967645 -0.014412812
000320 83 38 ed bc 14 be b5 3d 49 88 15 3c e2 e1 31 3d
       -0.028957611 0.08874145 0.009126731 0.04342831
000330 2a dd 0f bc f6 b1 cf 3c 77 61 89 bc 3e f7 4c 3c
       -0.008780757 0.025353413 -0.016770108 0.012510119
000340 5c cc 9d bc 15 3c 06 3d 30 b9 2e 3b f2 1e 15 3c
       -0.019262485 0.032772142 0.0026660673 0.009101616
000350 4e 5c 41 bc 1b 0f 08 3d 77 e0 58 bd 66 0a 8c 3c
       -0.011801792 0.03321753 -0.05294844 0.017094802
000360 2e fc 50 3c b1 c6 81 3c cd a7 6f 3c 11 28 6c bd
       0.012755437 0.015841814 0.014627409 -0.057655398
000370 c3 e4 aa 3c 20 9e 14 3d d0 37 a9 bc 66 22 f7 bb
       0.020861035 0.036283612 -0.020656496 -0.0075419424
000380 77 a7 00 bb 39 0d 6c bc 87 71 53 3d 23 2c 2b bc
       -0.0019631067 -0.014407449 0.05162194 -0.010447535
000390 90 37 25 3d ab aa 1f ba 5d 73 f4 bc 80 cf 1f 3d
       0.04033619 -0.00060908 -0.029840166 0.039016247
0003a0 db ec 67 3c ab 9b 8d 3d 96 3b 1c bb f2 de 38 3d
       0.014155592 0.06914457 -0.0023839227 0.045134492
0003b0 a9 e4 1f bd d3 fb 57 3d ca 00 a5 bc f3 d1 8c bc
       -0.039036427 0.052730393 -0.020141978 -0.017189955
0003c0 90 dc fe bb 23 2f 1d 3d 70 79 2b bd 74 39 da ba
       -0.007777758 0.03837503 -0.04186386 -0.0016649202
0003d0 9b de 64 3c 83 96 9f bc 87 83 a0 bc f6 64 83 3d
       0.013969089 -0.01948095 -0.019593967 0.06415741
0003e0 c9 c3 e7 3b 12 91 c7 bc a6 43 90 bd f4 a4 17 3d
       0.0070729 -0.024361167 -0.07044153 0.037022546
0003f0 c1 ba 2e bc c7 d8 0c bd 8f 7e 37 3d 56 c2 f6 3c
       -0.010664643 -0.034386422 0.04479843 0.030121963

conv4.bias f4 [64]
000000 33 c1 c9 bd 4b 2c 1f bd 6b f7 c6 bc 69 fb 95 bc
       -0.09851303 -0.0388606 -0.0242879 -0.018308358
000010 98 59 1c 3d 8d 26 fb 3c a7 ff 63 3d 1f c7 34 3d
       0.03817138 0.03065803 0.05566373 0.04413521
000020 7d 82 80 3d 3d 00 8b 3d 31 82 b3 bd 22 20 63 bd
       0.06274889 0.06787155 -0.087650664 -0.055450566
000030 7d f0 1a 3d f8 bc 07 3d 15 2e 53 3d c4 4c 96 bd
       0.037827004 0.0331392 0.05155762 -0.07338861
000040 0e 72 b6 3c 53 c4 d2 3c 01 d6 ac bd 19 ba 83 3d
       0.022271182 0.02572838 -0.084392555 0.0643198
000050 27 0b 0f bd ef a2 20 3b 35 d0 8f bc a0 3e c1 3b
       -0.034922745 0.0024511178 -0.017555336 0.005897358
000060 00 e1 5a 3d 08 0d e1 bc 49 c8 1b bd 29 ba 82 bd
       0.053437233 -0.027472034 -0.038032804 -0.063831635
000070 ad 3c fc bc 07 9d 13 3c 6e a2 1d 3c c5 cb 6d bb
       -0.030790651 0.009009606 0.009621246 -0.0036284786
000080 2e ae e0 3c 9e 32 41 bd 84 dc 72 bc 63 6a ad bc
       0.027426805 -0.047167413 -0.014823083 -0.021168893
000090 7e 5c 32 bb d3 a8 47 bd 24 47 9c bc 90 4b 9a bd
       -0.0027215774 -0.048744988 -0.019076891 -0.07533944
0000a0 69 69 52 3c 9a e1 bb bb ad 21 a1 bd 6b 27 98 bc
       0.012842515 -0.005733681 -0.07867751 -0.018573483
0000b0 50 66 40 bd d0 2b 9a bc f5 6c c7 bc 4f 7a 92 bb
       -0.046972573 -0.01881972 -0.024343947 -0.0044701467
0000c0 fa ad 4f bd 28 9e d6 3c 38 73 98 3d e5 fd 42 3d
       -0.050703026 0.026198462 0.07443851 0.047605414
0000d0 2d 22 fb bc 3f b8 27 3d 29 d7 b4 bb e2 1d 96 bc
       -0.030655945 0.040947195 -0.005518813 -0.018324796
0000e0 4f 0e b2 3d 25 29 35 bc 3b 8c de bc 95 2b 3b 3c
       0.086941354 -0.011057173 -0.027166476 0.011423965
0000f0 f0 8f 02 3d 33 ed 36 3d 4a bf ee 3c e4 1f d9 3d
       0.03187555 0.044659805 0.029143948 0.10601786

bn4.weight f4 [64]
000000 b9 fc a2 3f 52 27 9c 3f fe 0f a0 3f 67 84 9d 3f
       1.2733375 1.21995 1.250488 1.2306031
000010 75 9e 9e 3f bd 7e 99 3f cd 9e a1 3f a0 72 9c 3f
       1.2392107 1.1991802 1.2626587 1.2222481
000020 61 e4 a1 3f 04 2d a3 3f b8 67 99 3f ba 01 a2 3f
       1.2647821 1.2748113 1.1984777 1.2656777
000030 7f c9 9d 3f d2 90 9c 3f 3d 9c 9a 3f d5 79 96 3f
       1.2327117 1.2231696 1.207893 1.175593
000040 65 15 95 3f 8a 18 9e 3f ba 42 9a 3f dd ef 9f 3f
       1.1647154 1.2351239 1.2051613 1.2495075
000050 15 4f a3 3f 1e e2 90 3f cd 29 9a 3f 1a 30 97 3f
       1.2758509 1.1319005 1.2044007 1.1811554
000060 ea 4b 99 3f 25 cb a1 3f df 2d 9b 3f 1a c9 99 3f
       1.1976292 1.264012 1.2123374 1.2014496
000070 02 9d 9a 3f 36 01 93 3f 54 fb a2 3f d7 3e 9c 3f
       1.2079165 1.1484745 1.2732949 1.2206677
000080 c3 f6 9f 3f 4c e5 9b 3f d1 fd 92 3f 3b 75 9d 3f
       1.2497181 1.2179351 1.1483709 1.2301401
000090 34 26 91 3f 0d 7e 9c 3f 12 e9 96 3f 39 4f 9a 3f
       1.1339784 1.2225968 1.1789877 1.2055427
0000a0 5c a3 9e 3f 66 86 a2 3f ba da 96 3f 9f 92 9b 3f
       1.2393603 1.2697265 1.17855 1.215412
0000b0 96 ad 99 3f dd 4f 9f 3f a2 a3 9d 3f dd 80 9c 3f
       1.2006099 1.2446247 1.2315562 1.2226826
0000c0 52 b9 9e 3f c3 96 94 3f 64 81 97 3f c4 5a 9b 3f
       1.2400305 1.1608509 1.1836362 1.2137074
0000d0 36 10 9a 3f 86 02 a5 3f f1 ed 9c 3f 73 8f 94 3f
       1.2036197 1.2891395 1.2260114 1.1606277
0000e0 1a a7 9e 3f c8 ed 9a 3f e7 ff 9d 3f c2 f0 98 3f
       1.2394745 1.2103815 1.234372 1.1948473
0000f0 cc fd 99 3f 8b 71 9a 3f f2 3f a5 3f f0 50 9c 3f
       1.2030578 1.20659 1.291014 1.22122
