model_grande_2.ckpt (torch, 148338 bytes, 11 tensors)

encoder.conv1.weight f4 [64, 1, 8]
-0.09420289 0.022857677 0.19231467 -0.06576127 -0.04965299 -0.34927416 -0.08919725 0.08548389
-0.1114887 -0.05223303 0.30379924 0.28875956 0.17247355 -0.18564457 -0.19664374 0.25132433
-0.09197713 -0.2118235 -0.26973045 -0.03537647 -0.013338478 0.2680643 0.20784508 0.368141
0.2593261 0.35808155 0.1704334 0.21860367 0.060556196 0.34871006 -0.166313 0.046054468
0.30166018 -0.053614963 0.1619802 -0.26069415 -0.27272767 0.19628215 0.047969967 0.30330035
-0.32840884 -0.029543446 0.32856768 0.1621732 0.020721685 0.13117923 0.35252473 0.19343294
0.2480921 0.3179501 0.19396567 -0.12569743 0.33535174 -0.08760035 -0.2860131 0.18958211
0.11936119 -0.46617627 -0.2256766 0.01807986 0.17827524 0.56465065 0.45333046 -0.07854305
-0.25223702 0.038163636 -0.5735242 -0.42193198 -0.096672766 0.08130358 0.30564293 0.35274366
0.36273172 0.08000657 -0.29798746 -0.23444614 0.026694154 0.027861007 -0.22320923 -0.08846908
0.08180659 0.10266412 0.34713146 0.0804098 -0.26647013 -0.35282677 -0.12862276 0.28428054
0.32084 0.19960172 0.07059297 -0.12579857 0.078721814 0.19409655 0.06420337 0.12267788
0.1758002 -0.009306614 0.22926843 0.37039837 -0.19692932 0.21025397 0.061047833 0.3380339
-0.30231407 0.27763775 0.33942077 -0.036626298 0.17825365 -0.18929923 -0.24885008 -0.0582534
-0.08971474 -0.014388978 0.04981885 -0.058738634 0.028244238 -0.35503146 -0.15780155 -0.28315696
-0.052253515 -0.2778107 0.113612376 -0.20994748 0.19669949 -0.32303363 -0.31745186 0.3031171
0.35898325 0.21088573 0.33994654 -0.27018842 -0.15524508 0.09537937 0.35532114 -0.30598208
0.11223672 -0.009195904 -0.06597944 0.27009705 -0.37669322 -0.3058038 0.20801005 -0.04938726
-0.20121643 0.058238067 -0.046392802 0.36264366 0.2950198 -0.18051313 -0.23033464 0.28113657
0.15111631 0.24820852 0.023510806 0.38167486 0.14393333 -0.08042534 -0.022562686 -0.3355802
0.26984298 -0.128763 0.20130886 0.2507344 -0.093369015 0.2982154 0.049029194 -0.2559836
0.10481226 0.25183833 0.4017977 -0.09927826 -0.094482765 0.21884835 0.011764874 0.04888097
-0.008120497 0.31257117 0.41367677 0.41375116 -0.024088237 0.25790954 -0.28083104 -0.322926
0.112247296 0.049319465 -0.28258193 0.14494692 0.2895497 0.37055728 0.028438497 -0.19826858
0.34759918 -0.20505533 -0.22336885 -0.30332506 0.1443167 -0.30210343 -0.04523248 -0.26152667
0.0654589 0.18203859 0.36940703 0.3391959 -0.19604114 0.32487768 -0.08535519 -0.22882158
-0.19049379 -0.19745232 -0.12520392 -0.14434056 0.24011917 0.2269525 0.36303145 0.1829526
0.18972446 0.4451606 0.042169966 -0.5510892 -0.46721017 -0.3215412 0.047425006 0.48515064
-0.32600754 0.23480283 -0.015766144 -0.3288598 0.2648974 0.14704555 -0.35796118 -0.22908504
0.107575804 -0.15287004 -0.030020121 0.1500348 0.14941953 -0.23190369 0.17130663 0.06533826
-0.2822154 -0.3836495 0.19012552 0.35024124 0.5297102 0.2883296 -0.26224196 -0.01809236
0.12986884 -0.048005063 -0.24192306 -0.1561535 -0.2825147 0.21371703 0.24169064 -0.27157596
00000000: 72ed c0bd 0640 bb3c 23ee 443e d8ad 86bd
00000010: ef60 4bbd 10d4 b2be 0cad b6bd 2d12 af3d
00000020: 3054 e4bd 4df2 55bd 938b 9b3e 4bd8 933e
00000030: e89c 303e 9c19 3ebe fa5c 49be 95ad 803e
00000040: 815e bcbd 42e8 58be 1c1a 8abe ebe6 10bd
00000050: a289 5abc b93f 893e 57d5 543e fa7c bc3e
00000060: 64c6 843e 7756 b73e 1886 2e3e a4d9 5f3e
00000070: c609 783d 208a b23e f44d 2abe 9ca3 3c3d
00000080: 3473 9a3e 5d9b 5bbd 23de 253e b479 85be
00000090: f6a2 8bbe 30fe 483e 287c 443d 2f4a 9b3e
000000a0: 3425 a8be 1905 f2bc 063a a83e bb10 263e
000000b0: 86c0 a93c d953 063e 1f7e b43e 4913 463e
000000c0: db0b 7e3e 5bca a23e f09e 463e d4b6 00be
000000d0: 39b3 ab3e d067 b3bd 4f70 92be d021 423e
000000e0: a473 f43d a8ae eebe c417 67be 371c 943c
000000f0: c98d 363e f28c 103f ee1a e83e 2edb a0bd
00000100: 3625 81be 7951 1c3d 7bd2 12bf 7807 d8be
00000110: 5ffc c5bd 7e82 a63d 3b7d 9c3e d19a b43e
00000120: f9b7 b93e 7cda a33d d091 98be a612 70be
00000130: b3ad da3c c43c e43c f690 64be 472f b5bd
00000140: 378a a73d 9141 d23d 37bb b13e e5ad a43d
00000150: c66e 88be b6a5 b4be afb5 03be 388d 913e
00000160: 2445 a43e 6564 4c3e 0c93 903d 57d1 00be
00000170: e738 a13d 3fc1 463e 0e7d 833d 8a3e fb3d
00000180: f804 343e c57a 18bc 58c5 6a3e dba4 bd3e
00000190: d7a7 49be d14c 573e 4b0d 7a3d c812 ad3e
000001a0: e9c8 9abe 8926 8e3e 8fc8 ad3e 7505 16bd
000001b0: 2088 363e a8d7 41be 8ed2 7ebe 1e9b 6ebd
000001c0: 5dbc b7bd bfbf 6bbc da0e 4c3d ec97 70bd
000001d0: 7660 e73c afc6 b5be bb96 21be f3f9 90be
000001e0: c807 56bd 343d 8ebe 9bad e83d 79fc 56be
000001f0: 976b 493e aa64 a5be 0d89 a2be 2a32 9b3e
00000200: a7cc b73e 6ef2 573e 790d ae3e 2356 8abe
00000210: 91f8 1ebe 4256 c33d a7ec b53e afa9 9cbe
00000220: 5edc e53d 6baa 16bc 3b20 87bd 294a 8a3e
00000230: efdd c0be 5192 9cbe 9600 553e 4c4a 4abd
00000240: ae0b 4ebe 0a8b 6e3d 6106 3ebd 6eac b93e
00000250: d60c 973e 6fd8 38be d8dc 6bbe 22f1 8f3e
00000260: 3cbe 1a3e 602a 7e3e bc99 c03c e36a c33e
00000270: 4263 133e 0ab6 a4bd 62d5 b8bc 2bd1 abbe
00000280: dc28 8a3e 73da 03be e923 4e3e 4260 803e
00000290: 4138 bfbd b0af 983e d6d2 483d 4810 83be
000002a0: cfa7 d63d f4f0 803e 6eb8 cd3e 6652 cbbd
000002b0: 2e80 c1bd c819 603e 75c1 403c 6937 483d
000002c0: d50b 05bc 5409 a03e 71cd d33e 31d7 d33e
000002d0: b254 c5bc b80c 843e 16c9 8fbe 8f56 a5be
000002e0: e9e1 e53d 3503 4a3d 94ae 90be f76c 143e
000002f0: dc3f 943e afb9 bd3e daf7 e83c eb06 4bbe
00000300: 85f8 b13e 06fa 51be ceba 64be 6c4d 9bbe
00000310: c2c7 133e 4dad 9abe b145 39bd d3e6 85be
00000320: 510f 863d 5368 3a3e eb22 bd3e 16ab ad3e
00000330: 02bf 48be 5e56 a63e b4ce aebd 3450 6abe
00000340: ce10 43be f130 4abe 7535 00be 03ce 13be
00000350: cde1 753e 3c66 683e 42df b93e ed57 3b3e
00000360: 2147 423e 17ec e33e 6aba 2c3d 2f14 0dbf
00000370: 2c36 efbe 0ca1 a4be b940 423d aa65 f83e
00000380: 76ea a6be 2770 703e 0028 81bc 5060 a8be
00000390: a2a0 873e 1c93 163e b046 b7be 4595 6abe
000003a0: b450 dc3d f789 1cbe c2ec f5bc b9a2 193e
000003b0: 6f01 193e 2978 6dbe 016b 2f3e 11d0 853d
000003c0: 897e 90be b56d c4be 44b0 423e d252 b33e
000003d0: 169b 073f f09f 933e 9444 86be 6e36 94bc
000003e0: 56fc 043e f5a0 44bd aeba 77be b4e6 1fbe
000003f0: c4a5 90be a3d8 5a3e c07d 773e 010c 8bbe

encoder.conv1.bias f4 [64]
0.10372051 0.04582239 0.14752401 0.024977256 0.12246389 0.32498845 0.09753055 -0.14868562
0.051128205 0.16209361 0.08284247 0.102161124 0.254281 0.040035747 0.15546969 -0.018400377
0.030507816 -0.30372247 -0.0051728487 0.23555112 -0.120868966 0.0017171561 -0.071382366 0.31889766
0.042760022 0.12241913 0.00057127874 -0.016631778 0.0013963435 -0.25672698 0.07534192 0.028127918
0.2063226 0.09755374 0.17619903 -0.1625116 -0.2950277 -0.17105274 0.08358431 -0.07232799
0.31519625 0.22940081 0.25442168 0.10732701 -0.0579496 0.06380355 0.2610284 0.28547573
-0.22046159 0.29408816 0.10458181 0.034687538 -0.12817384 0.14604044 -0.19708325 0.23672841
-0.022828987 -0.09903136 -0.16103716 -0.27010965 -0.23454359 -0.022701075 0.3246432 0.0013937451
00000000: 6b6b d43d 42b0 3b3d 8910 173e 1a9d cc3c
00000010: 59ce fa3d e364 a63e 19be c73d 0b41 18be
00000020: cf6b 513d defb 253e 50a9 a93d da39 d13d
00000030: 1f31 823e 86fc 233d 7233 1f3e 63bc 96bc
00000040: 87eb f93c 8381 9bbe 0081 a9bb 5034 713e
00000050: 268a f7bd 3312 e13a eb30 92bd 8e46 a33e
00000060: 2225 2f3d e1b6 fa3d dec1 153a 5e3f 88bc
00000070: 8305 b73a b871 83be dd4c 9a3d 856c e63c
00000080: 3b46 533e 41ca c73d 856d 343e 7169 26be
00000090: df0d 97be 7328 2fbe 402e ab3d b220 94bd
000000a0: 6761 a13e 0ce8 6a3e 8f43 823e 43ce db3d
000000b0: 8f5c 6dbd 70ab 823d 84a5 853e e029 923e
000000c0: afc0 61be b992 963e fd2e d63d 8514 0e3d
000000d0: 0140 03be a08b 153e 31d0 49be ef68 723e
000000e0: db03 bbbc f4d0 cabd ede6 24be d04b 8abe
000000f0: 322c 70be 9bf7 b9bc a237 a63e 53ae b63a

encoder.conv2.weight f4 [32, 64, 6]
-0.0038518016 -0.022203522 -0.003076263 -0.03883644 -0.009196416 -0.041557726 0.00045435052 -0.086516105
0.049971692 -0.00020803281 0.04783493 0.05955015 0.040542446 0.022365607 -0.041775227 -0.016840527
-0.015126358 0.035439875 0.07658966 -0.032920737 0.03640875 0.017364178 -0.05563259 -0.026103755
-0.031843554 0.053301122 -0.02575149 -0.018966915 -0.013311046 -0.08346922 0.021251984 -0.058749564
0.0034125699 0.012866962 -0.032919254 -0.03046333 -0.014203285 0.0063614193 0.053705756 -0.014771839
0.0139201945 0.027292926 0.16932708 0.10755975 -0.09619015 0.09584291 0.07626848 0.04885811
0.13548248 0.1853816 -0.003629687 -0.07975962 0.059242867 -0.16608444 0.030115273 0.0092414925
0.0065658204 -0.038412128 0.021044897 -0.0050887563 -0.06574933 0.01515471 0.07583193 -0.08774687
0.0069273002 -0.0066683874 -0.024808038 0.039861526 -0.002422867 0.025524683 -0.019676425 -0.05121534
-0.035546195 0.019973367 0.04033663 0.033559356 -0.048082914 0.002302304 -0.1428097 -0.07077666
0.113562934 0.015866525 -0.011761809 0.035059247 0.02226958 -0.017922 0.043721966 -0.013745167
0.00021410489 0.036390893 0.014237754 0.030876419 0.083875254 0.044655107 0.04334436 0.014752086
0.023244498 0.07558506 -0.0073198956 0.022722987 -0.020234682 -0.01651726 -0.040871687 -0.021140244
0.007526833 -0.01925439 0.0041971346 -0.048813812 -0.06142264 -0.060070816 -0.0232699 0.10913912
0.09218552 0.07471764 -0.032374237 -0.00850682 0.04774159 0.058129996 -0.0017135624 0.013910647
0.0059316745 -0.065799996 -0.0043357476 0.012126573 -0.05207647 0.0012470451 -0.017771566 -0.002361987
0.018490043 -0.04810705 -0.014211953 -0.0136065185 -0.057531174 -0.02067314 0.040179014 0.009440113
0.020496503 0.094114825 0.011966016 -0.004970014 -0.027949398 0.0593845 -0.009369816 0.017674323
0.02633221 0.06542246 0.06878305 -0.050256457 -0.013386212 0.0034123596 0.047060072 -0.06545101
-0.005392621 0.022229813 -0.046003543 0.020273166 0.12321449 0.07159197 -0.0453788 0.027036607
0.04351047 0.043363545 0.038319897 0.12905933 0.02290426 -0.16080785 -0.090657435 -0.16950919
-0.0026719575 -0.042332683 0.045238424 0.04470663 -0.016172213 0.051567603 0.040657956 -0.033535343
-0.050667237 -0.026611976 -0.024925612 -0.0043558776 0.057027273 -0.052132104 -0.067056336 0.19188994
0.027058756 0.10672703 0.098487176 0.08714603 0.034157187 -0.011159759 0.0321976 -0.0038008678
-0.03811303 0.024094045 -0.030878535 -0.039965156 0.023732772 -0.034571193 -0.056266844 -0.031594355
0.0003516261 0.027883641 -0.024027236 -0.018342862 0.0056574754 0.008541174 -0.031584088 0.0048942473
-0.039185982 0.030508531 0.13712671 0.060044058 -0.061258864 0.021187836 -0.003268546 0.04563598
-0.003356638 -0.0039975042 0.012233868 0.03828393 0.024176802 -0.014184697 0.0667668 0.12556808
0.08564285 -0.032266412 0.076864235 0.017121017 0.02881275 0.029413847 0.011166283 -0.0126272
0.019861517 -0.055785038 0.060528465 0.004284004 0.058839172 0.060314454 0.053162795 0.1573515
0.045616753 0.052361768 -0.00633321 -0.005135453 -0.035865054 0.005115481 0.036793537 0.019277494
0.025230218 0.021011714 0.026209187 0.048535265 -0.0033814062 -0.012088598 0.052032586 0.04933927
00000000: 826e 7cbb 29e4 b5bc 219b 49bb f512 1fbd
00000010: 90ac 16bc 6f38 2abd e535 ee39 5b2f b1bd
00000020: 1eaf 4c3d 6223 5ab9 8fee 433d dcea 733d
00000030: d60f 263d 1438 b73c 801c 2bbd 25f5 89bc
00000040: 8bd4 77bc 6729 113d 0adb 9c3d e5d7 06bd
00000050: 5721 153d 523f 8e3c 00df 63bd 8bd7 d5bc
00000060: 636e 02bd 4752 5a3d caf4 d2bc 8160 9bbc
00000070: 9316 5abc e9f1 aabd a418 ae3c 62a3 70bd
00000080: 6ca5 5f3b f3cf 523c 57d6 06bd 3c8e f9bc
00000090: e5b4 68bc 7473 d03b 91fa 5b3d 9505 72bc
000000a0: 8711 643c 6a95 df3c 1464 2d3e 4948 dc3d
000000b0: 57ff c4bd 4a49 c43d a632 9c3d 711f 483d
000000c0: ebbb 0a3e add4 3d3e 0be0 6dbb 0359 a3bd
000000d0: a6a8 723d 0a12 2abe 4eb4 f63c a169 173c
000000e0: 1826 d73b 0956 1dbd 5966 ac3c 95bf a6bb
000000f0: 96a7 86bd 764b 783c c54d 9b3d a2b4 b3bd
00000100: 68fe e23b 7d82 dabb 3a3a cbbc d745 233d
00000110: f7c8 1ebb 2419 d13c 7430 a1bc 2dc7 51bd
00000120: e398 11bd 309f a33c 0638 253d 8975 093d
00000130: 97f2 44bd 40e2 163b b53c 12be 5bf3 90bd
00000140: af93 e83d 84fa 813c 9ab4 40bc 499a 0f3d
00000150: b26e b63c 28d1 92bc ce15 333d 6933 61bc
00000160: 5881 6039 9e0e 153d 7845 693c 8bf0 fc3c
00000170: cac6 ab3d 46e8 363d db89 313d bcb2 713c
00000180: 3f6b be3c 57cc 9a3d bcdb efbb 8f25 ba3c
00000190: 34c3 a5bc 344f 87bc 1269 27bd 4e2e adbc
000001a0: a7a3 f63b 62bb 9dbc 1e88 893b fef0 47bd
000001b0: 4e96 7bbd d10c 76bd 84a0 bebc 5584 df3d
000001c0: c3cb bc3d 9005 993d d99a 04bd 3060 0bbc
000001d0: af8c 433d b819 6e3d 9d99 e0ba 7be9 633c
000001e0: 7e5e c23b 26c2 86bd e312 8ebb 89ae 463c
000001f0: 234e 55bd e473 a33a ad95 91bc 91cb 1abb
00000200: 6e78 973c e60b 45bd 40d9 68bc e0ed 5ebc
00000210: cfa5 6bbd b85a a9bc c092 243d b4aa 1a3c
00000220: 48e8 a73c 46bf c03d 1c0d 443c 80db a2bb
00000230: 23f6 e4bc 293d 733d db83 19bc bec9 903c
00000240: a6b6 d73c 36fc 853d 21de 8c3d b7d9 4dbd
00000250: d851 5bbc e5a1 5f3b 10c2 403d 2e0b 86bd
00000260: 95b4 b0bb 4c1b b63c 366e 3cbd e913 a63c
00000270: e157 fc3d d09e 923d 1fdf 39bd e07b dd3c
00000280: 0938 323d f99d 313d 53f5 1c3d 2128 043e
00000290: b7a1 bb3c d0aa 24be 9baa b9bd d193 2dbe
000002a0: 021c 2fbb 0965 2dbd ed4b 393d 4d1e 373d
000002b0: 977b 84bc 8d38 533d f588 263d 5b5c 09bd
000002c0: 7388 4fbd 5c01 dabc cc30 ccbc c0bb 8ebb
000002d0: 6e95 693d 7988 55bd d554 89bd cc7e 443e
000002e0: 53aa dd3c b393 da3d a5b3 c93d 9e79 b23d
000002f0: 68e8 0b3d 6cd7 36bc a1e1 033d fb17 79bb
00000300: 691c 1cbd e060 c53c fbf4 fcbc 81b2 23bd
00000310: 3b6b c23c 869a 0dbd 1078 66bd 1569 01bd
00000320: 755a b839 3c6c e43c c4d4 c4bc c543 96bc
00000330: 5862 b93b 48f0 0b3c 515e 01bd ec5f a03b
00000340: 7b81 20bd 07ed f93c f26a 0c3e c2f0 753d
00000350: 93ea 7abd 1d92 ad3c 1a35 56bb cbec 3a3d
00000360: 0afb 5bbb 7ffd 82bb 9070 483c 9ccf 1c3d
00000370: 6e0e c63c ee66 68bc 08bd 883d eb94 003e
00000380: 8565 af3d c929 04bd ff6a 9d3d 6041 8c3c
00000390: b708 ec3c 4ff5 f03c c9f2 363c 51e2 4ebc
000003a0: 9fb4 a23c da7e 64bd b2ec 773d d560 8c3b
000003b0: 5801 713d 4a0c 773d 3bc1 593d c020 213e
000003c0: a2d8 3a3d 4b79 563d d186 cfbb 4d47 a8bb
000003d0: 3ce7 12bd c49f a73b d2b4 163d d6eb 9d3c
000003e0: 9aaf ce3c c220 ac3c a6b4 d63c eacc 463d
000003f0: 959a 5dbb 410f 46bc 1f20 553d f917 4a3d

encoder.conv2.bias f4 [32]
0.006873569 0.014391923 0.047406074 0.010814409 -0.0046827425 0.022156697 0.019172002 0.035089977
0.034365702 0.03626524 0.04049602 0.04368911 -0.014285433 -0.00971091 0.005354579 0.025500892
-0.01792096 0.0016514667 0.015358849 -0.030081937 -0.041641977 -0.006978939 0.03753716 0.035779748
-0.018139888 -0.002010286 0.0029147062 -0.04067935 0.017513804 0.021398244 0.0042234794 -0.05563706
00000000: ad3b e13b 1acc 6b3c df2c 423d eb2e 313c
00000010: b171 99bb f681 b53c 9a0e 9d3c 82ba 0f3d
00000020: 0dc3 0c3d dc8a 143d 28df 253d 5af3 323d
00000030: 730d 6abc 821a 1fbc 7775 af3b 3fe7 d03c
00000040: face 92bc 0776 d83a afa3 7b3c 656e f6bc
00000050: c790 2abd 95af e4bb 91c0 193d c98d 123d
00000060: 1a9a 94bc 01bf 03bb a804 3f3b 649f 26bd
00000070: 1c79 8f3c 5f4b af3c 1d65 8a3b b0e3 63bd

encoder.conv3.weight f4 [32, 32, 5]
-0.033491638 0.005856887 0.048643466 0.04459188 0.070355885 0.0054940255 0.034974005 0.04320552
0.062298153 0.03428882 0.0590559 -0.014396717 0.007141529 0.041884035 0.07080385 0.0028695352
0.07493582 0.02145515 -0.07739953 0.040625285 -0.073689826 -0.005641875 0.036629964 0.01952625
-0.09530482 -0.018346794 -0.027192296 -0.02821521 0.05230083 0.08028701 0.045125976 0.041632395
0.021136032 0.036740538 -0.0030664052 -0.032829303 -0.01981932 -0.09567435 -0.03912056 0.054120917
-0.025024898 -0.045552623 -0.045951862 0.0022307173 0.006714057 -0.0034531471 0.029690387 -0.071502425
-0.008079455 0.034411427 -0.04871388 -0.0072288187 0.03637432 0.03773307 0.053565525 -0.033366036
-0.014367142 0.04485762 -0.0042317584 0.10402222 -0.0233159 0.054034147 0.04632995 -0.0878656
-0.050966293 -0.019152464 0.06067905 0.015101297 0.05475323 0.029646812 0.06907016 -0.029737739
-0.07579076 0.03630269 0.01936601 0.08725288 0.014102383 0.08682024 0.09735362 0.07649786
-0.0831234 0.010750992 -0.040248927 -0.10863021 0.023592852 0.040695447 -0.0076261507 0.069509625
0.05006655 -0.049582712 0.045173634 0.03224225 0.07743135 -0.06755079 -0.07000032 0.042238366
-0.0008783484 0.057633698 0.10927895 -0.056112375 -0.037468944 0.088842094 0.1277543 -0.0558152
0.009336617 0.067408845 0.05226441 0.00823033 -0.025558094 -0.051302556 0.05294473 -0.02232878
-0.00218727 0.052154813 0.02021635 0.03482124 0.07656975 -0.12290557 -0.118426844 0.042634524
0.03027944 0.0074094073 -0.014186363 0.018598123 0.08209051 -0.06829187 0.051738705 -0.04780576
-0.0885967 0.0035685217 0.020731797 0.023128333 -0.01563566 -0.014715627 0.05090423 0.029010728
0.018706642 -0.045276873 -0.0552287 -0.0024185788 -0.017108733 -0.00025356695 -0.04570776 0.049189158
-0.00537544 -0.024424326 0.07367474 -0.07671923 -0.01947653 0.11990725 0.06370893 0.0547415
-0.013767243 -0.057166144 0.0023631281 -0.05699732 0.033228718 -0.029729817 -0.05110309 -0.091125794
-0.03931849 -0.014489504 0.053233273 0.035736293 0.023282636 0.08043466 0.009585457 -0.0028540303
-0.045601472 0.023357838 -0.0039547575 0.008100736 0.03736978 -0.0135501195 0.012350762 0.14262117
-0.07625671 -0.03091472 0.08016505 -0.11561917 0.06275078 0.008603183 -0.06941737 0.0013613403
-0.03454941 -0.040639512 -0.045005027 0.02820442 -0.053719 -0.030080747 0.053776447 0.06588066
0.054391645 0.028891502 0.011167937 -0.039706178 0.014113364 -0.0039800955 -0.029263882 -0.033504706
-0.10855152 0.089064814 -0.023973426 0.019628875 -0.06994077 0.068693675 -0.041357893 -0.021230994
0.07850281 0.042374965 -0.04168945 -0.037361786 0.049857583 -0.034415238 0.063957274 -0.042031325
-0.028808123 -0.059649736 0.07629321 -0.0833436 -0.021903004 0.047163192 0.02066965 -0.002215278
-0.07431995 0.02447113 0.032522075 0.027407603 -0.025286596 0.0043443404 -0.01649997 -0.06560176
-0.003995024 0.037189335 -0.031081336 0.009688442 -0.088623896 0.014821638 -0.025325393 -0.08809808
-0.046812333 -0.0893514 0.046606794 0.097542055 -0.06853951 -0.060806196 -0.024105133 -0.05102796
0.033911265 -0.078516856 0.0008720229 0.014610701 0.050525967 0.058324292 0.062282473 0.0110525
00000000: 872e 09bd 21eb bf3b 5f3e 473d faa5 363d
00000010: bf16 903d 3a07 b43b e740 0f3d 45f8 303d
00000020: 592c 7f3d 6f72 0c3d 99e4 713d 35e0 6bbc
00000030: 7d03 ea3b 988e 2b3d 9c01 913d d00e 3c3b
00000040: f477 993d b6c2 af3c a583 9ebd b366 263d
00000050: b1ea 96bd 7adf b8bb 4d09 163d 84f5 9f3c
00000060: 2c2f c3bd 044c 96bc 61c2 debc 9623 e7bc
00000070: 6539 563d 846d a43d 04d6 383d bb86 2a3d
00000080: 7925 ad3c 3f7d 163d bef5 48bb 0578 06bd
00000090: 205c a2bc eaf0 c3bd e13c 20bd e5ad 5d3d
000000a0: 0401 cdbc 6395 3abd 0538 3cbd 3a31 123b
000000b0: 9801 dc3b 324e 62bb 4139 f33c dd6f 92bd
000000c0: b15f 04bc fff2 0c3d 3588 47bd badf ecbb
000000d0: 3dfd 143d fe8d 1a3d 8667 5b3d d3aa 08bd
000000e0: 2964 6bbc a0bc 373d 90aa 8abb 9a09 d53d
000000f0: fc00 bfbc e952 5d3d 79c4 3d3d e1f2 b3bd
00000100: 08c2 50bd a1e5 9cbc 988a 783d 6e6b 773c
00000110: ec44 603d dfdd f23c a874 8d3d 8f9c f3bc
00000120: 3038 9bbd 21b2 143d 77a5 9e3c a3b1 b23d
00000130: ae0d 673c cfce b13d 5661 c73d e9aa 9c3d
00000140: 9a3c aabd ee24 303c 0fdc 24bd 8479 debd
00000150: cc45 c13c 45b0 263d cae4 f9bb 105b 8e3d
00000160: 9512 4d3d 3e17 4bbd fd07 393d 7310 043d
00000170: 5494 9e3d 1258 8abd 545c 8fbd 2302 2d3d
00000180: f740 66ba 5011 6c3d a4cd df3d 17d6 65bd
00000190: 0979 19bd d8f2 b53d 06d2 023e 7b9e 64bd
000001a0: 9cf8 183c a60d 8a3d 3513 563d 82d8 063c
000001b0: 355f d1bc a122 52bd 93dc 583d d8ea b6bc
000001c0: 4d58 0fbb 49a0 553d c29c a53c b7a0 0e3d
000001d0: 9ad0 9c3d eab5 fbbd c689 f2bd 8aa1 2e3d
000001e0: 970c f83c 9dca f23b eb6d 68bc 175b 983c
000001f0: 121f a83d 9cdc 8bbd f7eb 533d f9cf 43bd
00000200: 3072 b5bd dcdd 693b bbd5 a93c a177 bd3c
00000210: 5b16 80bc d019 71bc f480 503d e8a7 ed3c
00000220: ac3e 993c 3e74 39bd 7d37 62bd 0581 1ebb
00000230: 9d27 8cbc 2ef1 84b9 0f38 3bbd 927a 493d
00000240: 7624 b0bb 8615 c8bc c8e2 963d f91e 9dbd
00000250: 3e8d 9fbc ef91 f53d d479 823d a038 603d
00000260: 0190 61bc 0c27 6abd b6de 1a3b 0676 69bd
00000270: d61a 083d f28b f3bc 7951 51bd 29a0 babd
00000280: 6d0c 21bd 6265 6dbc 220b 5a3d 3860 123d
00000290: 3abb be3c edba a43d 520c 1d3c af0a 3bbb
000002a0: 9cc8 3abd f058 bf3c e996 81bb f3b8 043c
000002b0: 0e11 193d 5201 5ebc da5a 4a3c 490b 123e
000002c0: 7a2c 9cbd de40 fdbc 932d a43d bec9 ecbd
000002d0: 7b83 803d 5df4 0c3c b22a 8ebd 006f b23a
000002e0: af83 0dbd 9e75 26bd 3157 38bd f50c e73c
000002f0: 7408 5cbd e66b f6bc b144 5c3d 71ec 863d
00000300: c6c9 5e3d dfad ec3c b9f9 363c f2a2 22bd
00000310: bd3b 673c 766b 82bb cfba efbc 3b3c 09bd
00000320: 4250 debd 9d67 b63d eb63 c4bc bccc a03c
00000330: 1b3d 8fbd 45af 8c3d e566 29bd 9fec adbc
00000340: 15c6 a03d 5f91 2d3d 8fc2 2abd ac08 19bd
00000350: 7737 4c3d fef6 0cbd 08fc 823d 0a29 2cbd
00000360: 03ff ebbc 4853 74bd 9d3f 9c3d 0db0 aabd
00000370: ee6d b3bc 312e 413d 6653 a93c 332e 11bb
00000380: 0f35 98bd ae77 c83c de35 053d e985 e03c
00000390: d625 cfbc f85a 8e3b f22a 87bc 375a 86bd
000003a0: b1e8 82bb d853 183d 499e febc 45bc 1e3c
000003b0: 7280 b5bd 75d6 723c 3377 cfbc c46c b4bd
000003c0: 4abe 3fbd defd b6bd c4e6 3e3d 21c4 c73d
000003d0: 715e 8cbd eb0f 79bd 2178 c5bc b202 51bd
000003e0: 8ae6 0a3d 72cd a0bd 7798 643a b961 6f3c
000003f0: 51f4 4e3d 74e5 6e3d e81b 7f3d 8c15 353c

encoder.conv3.bias f4 [32]
0.004050102 0.043134805 0.06579606 -0.08304604 0.006117168 -0.0987052 0.017845955 0.05320161
0.084531955 -0.035811275 0.08127173 -0.035045665 0.083425455 -0.03943692 -0.021543667 -0.051141094
0.036104847 -0.015107768 0.076369666 0.02440781 -0.0715333 0.07634314 0.055210058 0.016976692
0.03159446 0.015365159 -0.061652943 0.07194888 -0.047791507 -0.036707968 0.079051614 0.04561644
00000000: b8b6 843b 1fae 303d 16c0 863d 0b14 aabd
00000010: 8672 c83b f425 cabd ae31 923c eee9 593d
00000020: 171f ad3d d8ae 12bd cb71 a63d 0b8c 0fbd
00000030: f7da aa3d 9c88 21bd 587c b0bc 5379 51bd
00000040: ade2 133d 9286 77bc b367 9c3d e3f2 c73c
00000050: 0d80 92bd cb59 9c3d f123 623d b412 8b3c
00000060: 3169 013d 26be 7b3c cc87 7cbd ef59 933d
00000070: 07c1 43bd 185b 16bd d0e5 a13d 4ed8 3a3d

decoder.deconv3.weight f4 [32, 32, 5]
-0.048579168 -0.012197462 -0.09142774 -0.092921175 -0.054440707 -0.0183812 0.03776887 0.07120399
0.014740095 0.0648741 0.037044268 0.017886568 -8.2794424e-05 0.025868807 0.09324193 0.078892104
0.092845745 -0.039700396 0.012834479 0.11556085 0.075441144 -0.009907621 0.02316492 -0.018500853
-0.002107805 -0.0005123553 0.09881853 0.09688654 0.009333365 0.06626059 0.01606444 0.06652491
-0.0740757 -0.09803406 0.05463669 0.08159066 0.010116805 0.012384538 0.0004017496 0.038684458
-0.052534346 0.021431716 -0.047204714 -0.02311931 0.028167438 0.053935297 0.0092414385 -0.11896348
0.029827168 0.007326001 0.0005599249 -0.02056283 0.10153925 -0.0027299903 -0.006854084 0.04474086
0.06610821 0.10464733 0.03707011 0.09107168 0.0483308 0.048370376 -0.04057567 -0.0095225535
0.01219138 0.089229636 -0.0205145 0.01315367 -0.05687658 0.070352346 -0.027654238 0.077671394
-0.08813457 0.1277085 -0.060414612 0.055327497 0.03618442 -0.0045091324 -0.049387172 0.09557443
0.0049755652 -0.058829848 -0.12971298 0.07573045 0.07600317 0.0087651685 -0.049392417 -0.009728119
-0.021221783 -0.062776476 -0.0100712925 0.075306945 -0.1032879 -0.038529895 -0.048934076 0.012712999
-0.016526189 -0.025208548 -0.03601262 0.109858334 0.035425883 0.0808183 0.022899866 0.0010497347
-0.0069230665 0.013943759 -0.0535264 -0.10215645 -0.055968523 0.12608472 0.020463228 0.008011807
-0.11080063 -0.08671894 0.007240173 0.01276193 -0.004338372 0.026178045 0.007298011 0.0072290674
0.019217893 -0.027244812 0.019757016 -0.078430146 -0.034206428 -0.039032716 -0.042705983 -0.031953964
-0.035282172 0.10118459 0.09144054 0.00863147 -0.0038700188 0.027795611 0.0013288232 0.07390444
0.07246998 0.14007497 -0.076009005 -0.0061801756 0.03624082 -0.08070529 -0.06955201 -0.066307135
-0.031234415 0.0043373983 0.052671086 -0.016748473 -0.069517426 0.0793553 -0.05235581 -0.0569407
0.0013050272 -0.10237188 0.07428913 0.06302734 0.026256934 0.027005708 -0.0103808595 -0.037125524
0.08570282 0.051691514 -0.008963658 -0.01963967 0.07827318 0.0629972 0.07693748 -0.042103115
0.08146889 0.04061883 -0.0069027925 -0.06667372 0.06942061 -0.027161978 0.024250513 -0.021200541
-0.0025169605 0.056933723 0.09126057 -0.0890027 0.024344753 -0.02631191 -0.035152335 0.0034099559
0.0035982963 0.028860336 0.02754667 0.008927254 0.004804438 -0.033333402 -0.049286153 0.05174512
0.0058725253 -0.046603944 0.05562074 0.054461163 -0.025419949 0.060371395 -0.031040987 0.061746523
-0.08759794 -0.06611903 -0.022185173 0.06094866 -0.075668395 -0.0062254034 -0.050572407 0.013838986
0.07099509 -0.028432917 0.11474098 -0.085013136 0.00074137276 -0.032110434 -0.0384624 -0.0066244174
-0.07306383 0.08475225 0.05515322 -0.113823354 0.02570779 0.065018184 -0.04329699 -0.032514002
-0.009574127 0.0084419185 0.1278802 -0.0774395 -0.030432101 -0.03640043 -0.041542303 0.104727656
-0.05756222 0.045407712 0.008093774 0.031849142 0.05822092 -0.0027849772 0.08071985 0.07329467
0.0061186324 -0.006261999 -0.06679137 0.004982206 -0.0073748967 -0.03995908 -0.0046164487 0.006843228
-0.0060997363 -0.05446477 -0.036246546 0.049029425 -0.087029755 0.069729075 0.033586495 -0.015342708
00000000: f3fa 46bd ddd7 47bc 783e bbbd 754d bebd
00000010: 38fd 5ebd 2c94 96bc 88b3 1a3d 66d3 913d
00000020: 7080 713c b6dc 843d bbbb 173d da86 923c
00000030: eba1 adb8 d2ea d33c a0f5 be3d 2f92 a13d
00000040: e925 be3d e29c 22bd b547 523c 2bab ec3d
00000050: e380 9a3d 9353 22bc 5cc4 bd3c 1a8f 97bc
00000060: 1a23 0abb 954f 06ba 5f61 ca3d 736c c63d
00000070: f8ea 183c a2b3 873d 9399 833c 363e 883d
00000080: 00b5 97bd 15c6 c8bd b9ca 5f3d 0119 a73d
00000090: f5c0 253c 84e8 4a3c eba1 d239 9873 1e3d
000000a0: 412e 57bd 9191 af3c bb59 41bd b564 bdbc
000000b0: 66bf e63c 42eb 5c3d 6769 173c 20a3 f3bd
000000c0: 1b58 f43c f30e f03b edc7 123a 6173 a8bc
000000d0: cff3 cf3d a3e9 32bb 3998 e0bb 3142 373d
000000e0: be63 873d 5751 d63d d4d6 173d ca83 ba3d
000000f0: 84f6 453d 0420 463d ac32 26bd 7c04 1cbc
00000100: 5bbe 473c 07be b63d 060e a8bc 7e82 573c
00000110: 6bf7 68bd e414 903d 248b e2bc 2e12 9f3d
00000120: e67f b4bd 04c6 023e 5075 77bd 169f 623d
00000130: 1d36 143d 58c1 93bb 344a 4abd 87bc c33d
00000140: 110a a33b 91f7 70bd 7bd3 04be 9118 9b3d
00000150: 8da7 9b3d c89b 0f3c b44f 4abd b062 1fbc
00000160: 4ed9 adbc f490 80bd 1002 25bc 873a 9a3d
00000170: 9b88 d3bd 86d1 1dbd 196f 48bd 2f4a 503c
00000180: ee61 87bc 2882 cebc f881 13bd 68fd e03d
00000190: bb1a 113d 1184 a53d 8098 bb3c 4097 893a
000001a0: e4da e2bb 5d74 643c 803e 5bbd 6737 d1bd
000001b0: 403f 65bd 5a1c 013e 80a2 a73c f443 033c
000001c0: 71eb e2bd b399 b1bd f93e ed3b 6a17 513c
000001d0: e728 8ebb 5773 d63c 2724 ef3b d0e1 ec3b
000001e0: d86e 9d3c 8330 dfbc 77d9 a13c fc9f a0bd
000001f0: 0a1c 0cbd c5e0 1fbd 78ec 2ebd 29e2 02bd
00000200: 0a84 10bd de39 cf3d 2e45 bb3d 026b 0d3c
00000210: 24a0 7dbb 9fb3 e33c e82b ae3a 365b 973d
00000220: 246b 943d d06f 0f3e 9caa 9bbd 1283 cabb
00000230: 4171 143d d148 a5bd 4971 8ebd 09cc 87bd
00000240: 51df ffbc bc20 8e3b a3bd 573d 1834 89bc
00000250: 275f 8ebd 0885 a23d 0c73 56bd a73a 69bd
00000260: 720d ab3a 59a8 d1bd e624 983d 7a14 813d
00000270: c818 d73c 133b dd3c 7b14 2abc ef10 18bd
00000280: f684 af3d 7bba 533d 4edc 12bc 60e3 a0bc
00000290: b04d a03d ad04 813d 6691 9d3d 5174 2cbd
000002a0: 29d9 a63d ee5f 263d d230 e2bb 3b8c 88bd
000002b0: 652c 8e3d cc82 debc 03a9 c63c c2ac adbc
000002c0: 97f3 24bb 5633 693d d2e6 ba3d 0c47 b6bd
000002d0: a66e c73c 138c d7bc e5fb 0fbd 9179 5f3b
000002e0: 65d1 6b3b 836c ec3c 8ea9 e13c 9e43 123c
000002f0: 8c6e 9d3b 9b88 08bd 47e0 49bd b1f2 533d
00000300: 506e c03b c7e3 3ebd 93d2 633d ab12 5f3d
00000310: 7f3d d0bc ff47 773d ab49 febc ece9 7c3d
00000320: 8c66 b3bd 6a69 87bd aebd b5bc 4da5 793d
00000330: 08f8 9abd 78fe cbbb 0325 4fbd eabc 623c
00000340: e065 913d 26ec e8bc 52fd ea3d 5e1b aebd
00000350: af58 423a 3b86 03bd c08a 1dbd a411 d9bb
00000360: 7da2 95bd 9692 ad3d 58e8 613d 381c e9bd
00000370: 2599 d23c 4128 853d 2f58 31bd 672d 05bd
00000380: cddc 1cbc f94f 0a3c 07f3 023e 9a98 9ebd
00000390: be4c f9bc 9e18 15bd 4328 2abd 747b d63d
000003a0: 5dc6 6bbd 70fd 393d c09b 043c 3f74 023d
000003b0: 0f79 6e3d 2a84 36bb 7350 a53d 841b 963d
000003c0: cf7e c83b 7431 cdbb eac9 88bd c641 a33b
000003d0: 1ea9 f1bb 22ac 23bd 9445 97bb 283d e03b
000003e0: 4ce0 c7bb 7316 5fbd 4277 14bd 14d3 483d
000003f0: a83c b2bd 1ece 8e3d fe91 093d fb5f 7bbc

decoder.deconv3.bias f4 [32]
0.036973994 -0.029716339 0.07448667 -0.022876434 0.07186422 -0.08094613 0.008918386 0.054952282
-0.060446553 0.07131638 -0.05357781 -0.062194206 0.09148596 -0.015052104 -0.021207238 0.016964974
-0.029161338 -0.045335166 0.054191936 0.061846532 -0.04329106 0.08225269 0.06458628 -0.024794335
0.06958095 0.07751626 -0.08311579 -0.02213746 0.035679374 0.03756867 0.050809816 0.013079764
00000000: 0b72 173d ae6f f3bc 788c 983d 5c67 bbbc
00000010: 8c2d 933d 16c7 a5bd 6c1e 123c a515 613d
00000020: ce96 77bd 520e 923d 6874 5bbd 5abf 7ebd
00000030: fe5c bb3d 1a9d 76bc cdba adbc 21fa 8a3c
00000040: c2e3 eebc 5eb1 39bd 5df8 5d3d ca52 7d3d
00000050: f751 31bd 1974 a83d d045 843d 7d1d cbbc
00000060: 7580 8e3d d8c0 9e3d 9c38 aabd 9e59 b5bc
00000070: 8924 123d 9be1 193d f41d 503d 824c 563c

decoder.deconv2.weight f4 [32, 64, 6]
-0.019764312 0.061276704 0.012547492 0.003146072 0.00062902184 0.03424188 0.00095727673 -0.017195335
-0.020725407 -0.027968282 0.033162165 0.027399795 -0.06342474 0.028693661 0.0040512835 0.014678125
0.034797776 -0.022791224 -0.060576092 -0.033066586 0.01349474 0.057684813 -0.034326963 0.01852283
0.038864914 0.026743498 -0.034549836 -0.057401318 -0.049984224 0.015204526 -2.8080829e-05 -0.008415502
-0.0045807273 0.014485848 -0.053896256 -0.019633245 0.03248965 -0.0119261285 0.03147275 -0.021955203
-0.00041490395 0.014683861 0.00209204 0.001220198 0.06628204 0.018701298 0.018389123 -0.030717386
-0.018396135 -0.018376192 0.026250612 0.015474786 0.0006233806 -0.0054652197 0.04885851 0.050893996
0.05159741 -0.002759271 -0.0033552316 0.007543701 -0.0068491525 0.063094586 -0.0033894686 0.035626505
0.021138286 0.044618286 -0.0057107923 0.050082244 0.019796068 0.04797552 0.039994482 -0.018795146
-0.040718876 -0.039304007 -0.04854627 -0.014403029 0.013552353 -0.018292613 -0.05019205 -0.040418554
-0.018070692 0.052246485 -0.024924168 0.0097283255 -0.012552159 -0.047297206 0.040267825 -0.06451272
-0.07071809 0.026094088 -0.03769959 -0.039956234 -0.001905953 -0.016147783 0.022600874 -0.035199966
-0.045482267 0.0085021835 -0.014456069 -0.024472037 0.05749373 -2.6837733e-05 0.021372346 0.046926618
0.020082086 0.04238148 0.048826277 -0.021258637 0.005078308 0.06849024 -0.033292986 0.00029556823
-0.027846316 -0.031142194 -0.059230205 -0.0065919217 0.0010235173 -0.057552073 0.015861152 -0.06783035
0.040496048 0.0091505535 -0.032432556 -0.0037300652 0.020736404 0.019646296 0.033226557 0.007706268
0.00047040128 0.04953624 -0.020523433 -0.042415846 -0.051345855 -0.012170649 -0.053273708 -0.0066954554
-0.02542419 0.04379326 -0.00061527104 -0.0481482 -0.03814934 0.049325787 -0.0013575687 0.044031397
-0.0466088 -0.0244091 -0.025596892 -0.004961064 -0.019377805 0.015426463 -0.007972747 -0.026080968
-0.037247438 -0.00059503486 0.022193039 -0.012158512 -0.06714278 0.008746413 -0.039495558 0.01186842
-0.015489109 -0.057683032 -0.02377456 0.010273298 0.04086979 0.03705649 0.015222284 -0.011829125
0.005001864 0.055714287 0.011285824 0.017570253 -0.008278907 -0.01722073 -0.027440436 0.0032477553
0.02763444 0.0453468 0.034244336 0.01695942 -0.043790426 0.002406178 -0.014338803 -0.010574168
-0.015568946 -0.031958967 -0.0038448705 -0.072054096 -0.0006380564 -0.057290953 -0.034020696 0.04356843
-0.05496766 0.026979228 -0.032498974 0.038477615 -0.0032103057 0.09332711 -0.043878373 -0.034269877
-0.031750053 -0.04100406 0.026103936 0.039875086 -0.03727511 0.04579291 -0.028355133 -0.050842118
0.026110617 0.014513389 0.014770056 -0.023292974 -0.06268721 -0.042066325 -0.040694613 -0.007733725
0.025415093 -0.01599497 0.041925494 0.051104546 0.01967542 0.052252248 0.02048472 -0.0072807707
-0.005057154 0.06881793 0.007571481 0.041090593 -0.004715138 -0.025319707 -0.04563158 -0.023223128
-0.009778259 -0.049378138 -0.030671202 0.041327022 0.040245675 -0.03133379 0.036837228 -0.02912177
-0.027585706 0.031228352 -0.009197977 0.018486254 0.022352168 -0.0035211397 -0.013341939 -0.04226196
0.038806703 -0.017440146 0.014275835 0.04849817 0.0023299374 -0.02950116 0.021477185 -0.025641846
00000000: c4e8 a1bc 48fd 7a3d ff93 4d3c 542e 4e3b
00000010: f1e4 243a 3741 0c3d c1f1 7a3a 3bdd 8cbc
00000020: 54c8 a9bc bd1d e5bc 0dd5 073d 8975 e03c
00000030: d5e4 81bd f80e eb3c a1c0 843b 857c 703c
00000040: 1d88 0e3d a9b4 babc a31e 78bd d470 07bd
00000050: 0b19 5d3c e946 6c3d 6e9a 0cbd 31bd 973c
00000060: d130 1f3d 2e15 db3c 2184 0dbd a51d 6bbd
00000070: 42bc 4cbd 671c 793c 1f8f ebb7 2ce1 09bc
00000080: ed19 96bb 0d56 6d3c 52c2 5cbd e6d5 a0bc
00000090: de13 053d cf65 43bc 92e9 003d 66db b3bc
000000a0: 7787 d9b9 9494 703c 9b1a 093b 0def 9f3a
000000b0: e1be 873d 7733 993c c9a4 963c 07a3 fbbc
000000c0: 7eb3 96bc ab89 96bc 860b d73c f589 7d3c
000000d0: 5d6a 233a 9615 b3bb dc1f 483d 3976 503d
000000e0: ce57 533d e3d4 34bb 72e3 5bbb 2731 f73b
000000f0: db6e e0bb bc37 813d d921 5ebb 19ed 113d
00000100: 332a ad3c aac1 363d 9921 bbbb 0a23 4d3d
00000110: 5d2b a23c fb81 443d 41d1 233d 47f8 99bc
00000120: d6c8 26bd 3dfd 20bd 74d8 46bd affa 6bbc
00000130: b00a 5e3c 64da 95bc 2e96 4dbd ed8d 25bd
00000140: fd08 94bc 6900 563d c52d ccbc 8e63 1f3c
00000150: 92a7 4dbc b7ba 41bd e0ef 243d 3f1f 84bd
00000160: a5d4 90bd 45c3 d53c e36a 1abd 26a9 23bd
00000170: 2cd1 f9ba 5b48 84bc 7825 b93c d72d 10bd
00000180: 9d4b 3abd be4c 0b3c 26d9 6cbc 9579 c8bc
00000190: 8c7e 6b3d 9821 e1b7 0f15 af3c 2036 403d
000001a0: 3083 a43c 3498 2d3d 10fe 473d 9826 aebc
000001b0: ef67 a63b 9c44 8c3d 3a5e 08bd 7ff6 9a39
000001c0: f51d e4bc ea1d ffbc 5f9b 72bd 0c01 d8bb
000001d0: 8b27 863a b9bb 6bbd 3fef 813c a3ea 8abd
000001e0: 2fdf 253d 34ec 153c 00d8 04bd 1c74 74bb
000001f0: 64df a93c 45f1 a03c 9218 083d dd84 fc3b
00000200: 31a0 f639 83e6 4a3d c220 a8bc 3dbc 2dbd
00000210: 0850 52bd 6767 47bc 8835 5abd 8d65 dbbb
00000220: 6446 d0bc 9060 333d 244a 21ba 0c37 45bd
00000230: 7b42 1cbd d609 4a3d 72f0 b1ba 445a 343d
00000240: dee8 3ebd 98f5 c7bc 93b0 d1bc 6c90 a2bb
00000250: 34be 9ebc 47bf 7c3c 20a0 02bc c1a7 d5bc
00000260: c590 18bd 1dfc 1bba 2dce b53c 7f34 47bc
00000270: 2782 89bd 1d4d 0f3c 18c6 21bd c373 423c
00000280: 08c6 7dbc 0b45 6cbd dec2 c2bc 5651 283c
00000290: 1567 273d 8cc8 173d e366 793c f2ce 41bc
000002a0: ade6 a33b aa34 643d 2de8 383c 7eef 8f3c
000002b0: 41a4 07bc 7d12 8dbc c4ca e0bc 4bd8 543b
000002c0: 9f61 e23c 91bd 393d ca43 0c3d 7bee 8a3c
000002d0: 975d 33bd f8b0 1d3b 4ced 6abc 463f 2dbc
000002e0: e414 7fbc 68e7 02bd 39fa 7bbb 1991 93bd
000002f0: 3d43 27ba eba9 6abd 4959 0bbd cf74 323d
00000300: c525 61bd 8b03 dd3c a51d 05bd b49a 1d3d
00000310: fe63 52bb 4922 bf3d cfb9 33bd 925e 0cbd
00000320: 580c 02bd e0f3 27bd ecd7 d53c 0f54 233d
00000330: c9ad 18bd 5991 3b3d 0649 e8bc d33f 50bd
00000340: efe5 d53c 91c9 6d3c 1bfe 713c e8d0 bebc
00000350: 2762 80bd bd4d 2cbd 65af 26bd 306b fdbb
00000360: 5033 d03c e207 83bc 11ba 2b3d 0053 513d
00000370: 592e a13c 7406 563d 92cf a73c 8893 eebb
00000380: 7cb6 a5bb 6af0 8c3d 301a f83b 9c4e 283d
00000390: 7281 9abb 466b cfbc 2ee8 3abd 6e3e bebc
000003a0: fe34 20bc bb40 4abd 2c42 fbbc 8646 293d
000003b0: a6d8 243d dc57 00bd a2e2 163d c790 eebc
000003c0: 6bfb e1bc 9ad2 ff3c 1db3 16bc 7c70 973c
000003d0: e51b b73c ecc2 66bb 2698 5abc e11a 2dbd
000003e0: c7f3 1e3d a3de 8ebc 31e5 693c 04a6 463d
000003f0: ddb1 183b 6bac f1bc ecf0 af3c d90e d2bc

decoder.deconv2.bias f4 [64]
0.04386982 0.03570265 0.014085626 -0.03342248 -0.040093657 -0.0006183038 -0.011511211 0.053328186
0.016099038 -0.03156005 0.051508326 0.038790006 -0.058749203 -0.06696467 -0.034821145 0.044905555
0.008457884 0.06954714 0.068790264 0.02508878 -0.012623872 -0.036256332 0.031235669 0.004071203
9.246007e-06 -0.051529117 0.017985126 0.027621582 0.033255365 0.024466934 0.015072042 0.0150765525
-0.020890562 0.025109444 0.0004340559 -0.061449215 -0.038306184 -0.01318189 0.017327182 0.04486954
0.029536081 -0.05467641 -0.041477084 -0.025708387 0.061874293 0.026925858 -0.026226616 -0.037462104
0.0044814544 0.020074207 0.051338267 0.022832738 0.010753031 0.016639879 -0.0013471377 -0.066417
-0.056354877 0.007141115 -0.041480124 -0.014120129 -0.010724511 -0.007861446 0.04761761 -0.01529
00000000: d7b0 333d f13c 123d 66c7 663c 03e6 08bd
00000010: 3f39 24bd aa15 22ba 8599 3cbc a86e 5a3d
00000020: 21e2 833c 1c45 01bd 65fa 523d 45e2 1e3d
00000030: 01a3 70bd c624 89bd 9ea0 0ebd e3ee 373d
00000040: f092 0a3c bb6e 8e3d e9e1 8c3d fc86 cd3c
00000050: 5bd4 4ebc 8581 14bd f2e1 ff3c ba67 853b
00000060: 4c1f 1b37 3210 53bd 8b55 933c a846 e23c
00000070: c736 083d e16e c83c baf0 763c a503 773c
00000080: af22 abbc 52b2 cd3c ff91 e339 2cb2 7bbd
00000090: f2e6 1cbd dbf8 57bc bcf1 8d3c 1fc9 373d
000000a0: a7f5 f13c 5ff4 5fbd e0e3 29bd 659a d2bc
000000b0: e66f 7d3d 9e93 dc3c 33d9 d6bc dd71 19bd
000000c0: 2ad9 923b aa72 a43c 1348 523d b90b bb3c
000000d0: 7b2d 303c 5b50 883c 7192 b0ba a305 88bd
000000e0: 5fd4 66bd 0400 ea3b 10e7 29bd 1d58 67bc
000000f0: dcb5 2fbc 4bcd 00bc af0a 433d e882 7abc

decoder.deconv1.weight f4 [64, 1, 8]
0.35437745 0.079858884 -0.109591454 -0.07103354 0.12980399 0.09533264 -0.16468674 0.3546698
0.029630387 -0.068479754 0.053896226 0.06739908 0.24580534 -0.12957074 -0.09437846 0.023104217
0.18779202 -0.1653506 -0.28542525 0.09255508 0.15214005 -0.0340904 -0.075940676 -0.024704916
0.24862061 -0.19420417 -0.147552 -0.25425288 -0.25425962 -0.2129578 -0.18644919 -0.057722427
0.13727477 -0.1372225 -0.2490466 0.25260806 0.0025689856 0.32813957 -0.3484757 0.112728655
-0.038683616 -0.2950638 0.19995464 -0.15772489 -0.15913017 -0.039499823 -0.06797735 -0.14087686
-0.26458132 0.26197755 0.2643524 0.3011837 0.17370372 0.25374502 -0.2454706 0.0925058
0.30006248 -0.010352188 0.28956893 0.14962928 0.19377564 -0.1552609 0.05653475 0.045830406
0.28038937 0.35102522 0.03598858 0.25354862 -0.07664931 0.24062097 -0.22836626 0.08550236
0.16177295 0.27328536 0.1508541 0.1344281 0.31187764 -0.14140423 0.31008998 -0.09299248
0.11223838 0.16265394 0.16921087 -0.16399074 0.08596803 0.1661337 -0.30613598 -0.05308737
0.3211532 0.30166104 0.13276802 -0.31737423 -0.32836172 -0.14938861 0.32989714 -0.04211211
-0.24248539 -0.042685736 0.058901906 -0.29761076 0.14575617 -0.14095092 -0.20681977 0.08184495
-0.2692451 -0.009068785 -0.25530732 0.09037621 -0.19148704 -0.2945199 -0.14463882 -0.19042096
-0.1666646 -0.07652604 0.11296502 -0.4146185 -0.18617713 -0.21570018 -0.06960882 0.21034078
0.06065669 0.27495494 -0.25262362 0.096760444 0.005379802 -0.039723534 -0.022131648 0.30995885
-0.112968266 0.16336112 -0.2074802 0.19925568 -0.06131486 0.22660011 0.24025369 0.04415154
0.35346204 -0.26373145 0.3608569 0.22260533 0.15642647 0.0025822858 -0.3245485 0.048267033
-0.038555615 0.23062211 0.18702514 0.35617563 0.06666714 0.07425121 0.28585196 -0.197293
-0.15801735 -0.15047589 -0.042727806 0.058526285 -0.3283496 0.3519975 0.21961208 -0.24557292
-0.23741746 -0.2603048 -0.16070397 0.07646028 -0.18703955 -0.12891445 0.11691689 -0.04644462
0.13210888 0.16484706 -0.30837274 -0.14202848 0.058928654 0.17196658 -0.015433304 0.15223701
-0.15271571 0.09284364 -0.10819821 -0.27773547 -0.2871232 0.18711403 0.093244776 -0.00013606956
-0.23262724 0.13221286 -0.17742015 -0.2985964 -0.06643096 -0.1787396 0.2522048 0.22669226
0.087197 -0.23302504 -0.12717476 -0.042027112 0.25452462 -0.33408445 -0.21608067 0.10170985
0.25623766 0.15289986 -0.21838228 -0.23507908 -0.08918334 0.303124 -0.31713173 -0.32502392
-0.23175755 -0.16230643 0.18783188 -0.012532595 -0.30850223 -0.08519115 0.0490588 -0.022130512
-0.08569466 0.301182 0.29944468 -0.23028937 0.08253592 0.07581436 -0.31490186 -0.15690042
-0.16656487 0.007147264 -0.02122057 -0.263212 -0.09095355 0.35619873 0.18108036 0.22747853
0.060714424 -0.032185793 0.24113731 0.006722616 -0.19878316 0.19252409 0.16934507 -0.07125856
0.061724544 -0.14017935 0.0786659 0.3160912 -0.014621928 -0.26880214 0.08114769 -0.09070917
-0.08906983 -0.30685753 -0.041424617 -0.17884642 0.108631015 -0.27298746 0.022717003 0.32463485
00000000: f670 b53e 0e8d a33d 7c71 e0bd 087a 91bd
00000010: 56eb 043e c23d c33d a4a3 28be 4897 b53e
00000020: 6dbb f23c 1d3f 8cbd 4ac2 5c3d 8708 8a3d
00000030: 65b4 7b3e 31ae 04be 7e49 c1bd 0e45 bd3c
00000040: 8d4c 403e ab51 29be 4223 92be 858d bd3d
00000050: 9aca 1b3e 60a2 0bbd c986 9bbd f761 cabc
00000060: 6796 7e3e 75dd 46be df17 17be 6f2d 82be
00000070: 512e 82be 9c11 5abe 89ec 3ebe 5a6e 6cbd
00000080: c291 0c3e 0e84 0cbe 1206 7fbe d855 813e
00000090: 6d5c 283b e901 a83e 686b b2be 48de e63d
000000a0: b672 1ebd 9a12 97be e9c0 4c3e a282 21be
000000b0: 05f3 22be 91ca 21bd b537 8bbd 0642 10be
000000c0: 3477 87be ec21 863e 3359 873e c034 9a3e
000000d0: 63df 313e deea 813e a55c 7bbe ae73 bd3d
000000e0: caa1 993e 399c 29bc 6142 943e 6b38 193e
000000f0: 1f6d 463e b7fc 1ebe fb90 673d aab8 3b3d
00000100: 328f 8f3e 94b9 b33e c368 133d 20d1 813e
00000110: 50fa 9cbd 5865 763e d8d8 69be dc1b af3d
00000120: cfa7 253e 0fec 8b3e 7f79 1a3e 85a7 093e
00000130: 6dae 9f3e 45cc 10be 1dc4 9e3e d772 bebd
00000140: 3cdd e53d c18e 263e 9d45 2d3e 30ed 27be
00000150: 0210 b03d f41e 2a3e dbbd 9cbe 2472 59bd
00000160: 316e a43e 5173 9a3e 57f4 073e e07e a2be
00000170: 071f a8be 54f9 18be 47e8 a83e bf7d 2cbd
00000180: 174e 78be 3dd7 2ebd 2043 713d 7060 98be
00000190: 1b41 153e 7055 10be 90c8 53be 539e a73d
000001a0: 7eda 89be 3e95 14bc a4b7 82be 2a17 b93d
000001b0: 2e15 44be 50cb 96be 331c 14be b6fd 42be
000001c0: 20aa 2abe afb9 9cbd 345a e73d e048 d4be
000001d0: 38a5 3ebe 82e0 5cbe 128f 8ebd 9363 573e
000001e0: 2673 783d e5c6 8c3e e257 81be 572a c63d
000001f0: 0d49 b03b 25b5 22bd 6e4d b5bc edb2 9e3e
00000200: e85b e7bd 2348 273e b175 54be ae09 4c3e
00000210: 4a25 7bbd dc09 683e 1005 763e 3fd8 343d
00000220: faf8 b43e cf07 87be 3cc2 b83e a7f2 633e
00000230: 432e 203e 913b 293b 392b a6be a7b3 453d
00000240: 7eec 1dbd 3428 6c3e 8583 3f3e a75c b63e
00000250: c888 883d 0511 983d 305b 923e 2d07 4abe
00000260: 4dcf 21be 5a16 1abe 5a03 2fbd 42b9 6f3d
00000270: 701d a8be 0439 b43e fde1 603e 7877 7bbe
00000280: 901d 73be ac46 85be 958f 24be 3597 9c3d
00000290: 4c87 3fbe 2602 04be 1f72 ef3d b73c 3ebd
000002a0: 8d47 073e abcd 283e 08e3 9dbe ea6f 11be
000002b0: 2c5f 713d 0218 303e f8db 7cbc 05e4 1b3e
000002c0: 8261 1cbe ce24 be3d 0697 ddbd 5833 8ebe
000002d0: d001 93be d29a 3f3e 1ef7 be3d e5ad 0eb9
000002e0: d635 6ebe cf62 073e a1ad 35be a1e1 98be
000002f0: f50c 88bd 8407 37be fd20 813e 0422 683e
00000300: 5794 b23d 1e9e 6ebe 1a3a 02be 9f24 2cbd
00000310: 0d51 823e 1e0d abbe 4044 5dbe 414d d03d
00000320: 9531 833e c891 1c3e 9b9f 5fbe 92b8 70be
00000330: c1a5 b6bd 1233 9b3e 175f a2be 8969 a6be
00000340: da51 6dbe a833 26be 0057 403e 8355 4dbc
00000350: 01f4 9dbe b378 aebd e1f1 483d 0c4b b5bc
00000360: af80 afbd 8734 9a3e d050 993e fad0 6bbe
00000370: 9808 a93d 8f44 9b3d d13a a1be 81aa 20be
00000380: fb8f 2abe 9933 ea3b c3d6 adbc b9c3 86be
00000390: db45 babd ae5f b63e 216d 393e 22f0 683e
000003a0: b0af 783d 40d5 03bd b3ec 763e 6449 dc3b
000003b0: d08d 4bbe 0925 453e cb68 2d3e 02f0 91bd
000003c0: e0d2 7c3d 2d8b 0fbe 961b a13d b5d6 a13e
000003d0: d090 6fbc 6fa0 89be c330 a63d bbc5 b9bd
000003e0: 3e6a b6bd 6e1c 9dbe dcac 29bd 8423 37be
000003f0: f079 de3d 03c5 8bbe 0219 ba3c 8a36 a63e
