model_extra_chico_2.ckpt (torch, 109874 bytes, 11 tensors)

encoder.conv1.weight f4 [64, 1, 8]
000000 48 b6 f3 bd 66 f9 f4 3d 61 3d e5 bd ff 88 b1 3e
       -0.11900002 0.119616315 -0.11193348 0.34674832
000010 7d 26 98 be 63 29 09 3e c6 c6 1f 3e bb 42 0c bc
       -0.29716864 0.13394694 0.1560317 -0.008560832
000020 fd 1d a0 3d 53 4c 96 3e e2 a2 1b 3e f0 8b ca 3a
       0.0781822 0.29355106 0.15198854 0.0015453082
000030 00 53 06 3e 6b 57 2c bd f5 5e 94 be 33 5b a4 bd
       0.131176 -0.042075556 -0.28978696 -0.08025207
000040 56 88 56 3d 26 63 60 3e 47 64 5d be d3 40 a0 bd
       0.052376114 0.21912822 -0.21620284 -0.07824864
000050 fd 1f ca be b9 59 a2 be a6 91 91 be 1a ca cf bd
       -0.3947753 -0.31709078 -0.28431433 -0.1014597
000060 71 49 ba be a7 d3 a4 3d c9 8c 81 3e 3e 1e 9c be
       -0.36384156 0.08048182 0.25302723 -0.30491823
000070 9a 33 35 be 05 77 fa bd 9a 92 a4 bd df 0f a7 be
       -0.17695466 -0.122297324 -0.080357745 -0.32629296
000080 50 c7 1e be bf 24 9c 3e da ad 94 be 71 7e 35 3e
       -0.15505719 0.30496785 -0.29038888 0.17724015
000090 f8 64 5e 3e a6 41 a0 3e 63 7d c0 3c fd f3 b9 bc
       0.21718204 0.31300086 0.023497289 -0.02269935
0000a0 78 5a a5 3d 27 7d ab 3d be 69 8f 3e b6 e3 7f 3e
       0.08073896 0.0837348 0.28010362 0.24989209
0000b0 2e 21 0f 3e 7b 22 53 3d 57 f9 10 be 73 ba 5c bd
       0.13977501 0.051546555 -0.14157616 -0.05388875
0000c0 45 57 9f 3e bd f3 7b be d8 17 b9 be 2a ee 03 be
       0.3112127 -0.24604698 -0.36151004 -0.12883821
0000d0 67 41 86 be 87 81 17 be 98 6b f4 bd 2f 38 8e 3d
       -0.26221773 -0.14795505 -0.119345844 0.0694431
0000e0 7c 19 9c 3e b0 cb 8a 3d e9 5a 27 be 0d 5d 33 3e
       0.30488193 0.067771316 -0.16343273 0.17515965
0000f0 f8 07 00 3d f7 e5 f8 3b 27 9d a8 3d 07 d5 81 3e
       0.0312576 0.0075957733 0.082330994 0.2535784
000100 3b 34 0c be 7e 6a 99 3e 95 1b 1d be f4 69 3e 3e
       -0.136918 0.2996406 -0.15342553 0.18595105
000110 e5 d9 04 3e ec 0e 90 3e 81 de 47 be 1a 35 a3 3e
       0.12973745 0.28136384 -0.19518472 0.3187645
000120 ea f7 41 bd b3 92 32 3e 13 99 8d 3e 58 97 97 bd
       -0.04735557 0.17438774 0.2765585 -0.074019134
000130 35 38 4e be 5d fc a0 3e b9 d3 a7 3e 82 c2 8f 3d
       -0.20138629 0.31442538 0.3277872 0.07019521
000140 ad fa 8b be 91 58 37 be e8 ed 7e be ae f0 93 3d
       -0.27339688 -0.17904879 -0.24895442 0.072236404
000150 85 6a 0c 3e d1 af 4a be 1c 8e 93 3e 10 43 b7 3d
       0.13712509 -0.19793631 0.28819358 0.08948338
000160 d6 10 2a 3e 04 c5 75 3d 31 09 4e be b0 2f 6d be
       0.16607985 0.060002342 -0.20120694 -0.23162723
000170 95 3b fb 3d db 6b 28 be 1f 14 be 3d 5f 47 ba be
       0.12267224 -0.16447394 0.092811815 -0.36382577
000180 10 77 35 bc 07 a1 15 be d3 5c 1b 3e ec d9 91 be
       -0.01107575 -0.14612208 0.15172128 -0.28486574
000190 dc 01 79 be 7d d1 45 be f3 b3 94 bd 22 c8 c0 3e
       -0.24317116 -0.19318195 -0.07260885 0.3765269
0001a0 42 71 40 3e 23 b1 a1 3e 42 82 50 3e 13 88 a1 3c
       0.18793204 0.31580457 0.2036219 0.019718206
0001b0 55 42 d7 3c c3 35 54 3e 20 71 33 be e5 ff 3f be
       0.026276747 0.20723633 -0.17523623 -0.1874996
0001c0 c3 66 82 be b1 3d dd 3d e9 a5 c1 bd ce cd 3a 3e
       -0.25469026 0.10802782 -0.09455473 0.18242571
0001d0 ca 2b 50 3e 3e b7 3f 3e 56 17 25 3e ba bb 8e 3e
       0.20329204 0.18722245 0.16122183 0.278776
0001e0 e6 44 84 bd bf 12 c5 3e c8 bb 16 be 5b 08 4e 3d
       -0.06458454 0.38490865 -0.1472007 0.050300937
0001f0 0d bf 8b 3e 5d 23 a9 3d 6f 49 88 bd e7 ba b1 3e
       0.27294198 0.08258698 -0.06654631 0.34712908
000200 5e 5c 5b be 3f 26 64 be 4c 2b fc bd 51 92 1f be
       -0.21421954 -0.22280215 -0.12312946 -0.15583159
000210 fa 62 a5 3d a6 53 1b 3e d5 88 34 be df 95 b2 3e
       0.08075519 0.15168628 -0.17630322 0.34879968
000220 96 6c 1f be fe 7d 9a 3e 4a 90 bc 3e 2e dc 0e 3d
       -0.15568766 0.3017425 0.36828834 0.03487795
000230 e0 f5 c5 bd 50 b6 8c 3e bb 5b 8f 3e 57 d7 0d be
       -0.096660376 0.27482843 0.27999672 -0.13851677
000240 21 f7 5d bd 42 98 92 bc 64 9f b2 bc 85 2f b5 3e
       -0.05419076 -0.017894868 -0.021804519 0.35387817
000250 09 68 96 3e ca db 82 be 62 fb 92 3e c5 96 82 be
       0.29376248 -0.2555831 0.28707415 -0.25505653
000260 c7 bb 40 3e 86 01 95 3e 04 21 54 be 29 ba 2e 3e
       0.18821631 0.29102725 -0.2071572 0.17063202
000270 c4 85 bd 3e 7f e2 ac 3d 85 b7 8a 3e 0b ad 41 bc
       0.37016118 0.08441638 0.2709314 -0.011821042
000280 99 48 e3 be f5 1d 82 be 6e 0c 51 be 4e cf 94 3e
       -0.44391325 -0.2541348 -0.20414898 0.2906441
000290 e8 e2 8c 3e 27 c1 0b 3b 7f ce e7 3e b7 1c 28 bd
       0.27516866 0.0021324845 0.45274732 -0.04104301
0002a0 62 95 96 3e b6 6a 93 be 3e 2e 99 be c1 53 9a 3e
       0.29410845 -0.2879235 -0.29918092 0.30142024
0002b0 b3 3d e8 3c 6f 00 ca 3d 16 01 54 3e 9a f2 e1 bd
       0.028349733 0.09863364 0.20703539 -0.11032601
0002c0 fc 81 c9 bc 39 47 08 be b0 bb 66 3d ad ff 86 3e
       -0.024598114 -0.1330842 0.056331336 0.2636694
0002d0 ee 53 09 be 3d 25 15 be 49 97 15 be 47 ab 66 be
       -0.13410923 -0.14564987 -0.14608492 -0.22526275
0002e0 28 fc 7c 3d 10 bd 8a be fd 5e 3b be 4b 3d 90 bd
       0.061763912 -0.27097368 -0.18297954 -0.07042941
0002f0 64 d0 93 bd e4 20 b8 bd d2 97 5b 3d 47 18 50 3e
       -0.07217482 -0.089906484 0.053611584 0.20321761
000300 58 f3 98 be 22 52 43 3e 39 ee 45 bd 10 16 81 3d
       -0.29873157 0.190743 -0.04832289 0.06303036
000310 9d aa 60 be 88 66 62 3d 49 60 ba bd be 61 ed bc
       -0.21940084 0.055273563 -0.09100396 -0.028977271
000320 80 b3 80 be a6 6b a2 be 60 30 6d be 77 84 24 bd
       -0.25136948 -0.31722754 -0.23162985 -0.04016539
000330 82 b8 8c be 1e cd 95 be 69 2e 95 3d 77 fd cb 3d
       -0.27484518 -0.29258054 0.07284243 0.09960454
000340 4e ec 25 be 37 09 8a 3e 00 f3 44 3e 2a 99 62 3e
       -0.16203424 0.26960155 0.19233322 0.2212874
000350 21 3a 7d bd 2f d2 a4 bd 36 75 54 be d9 6d 3e be
       -0.061823014 -0.08047902 -0.20747837 -0.18596591
000360 41 e5 aa be 59 c9 8f be 92 e1 97 3e cf 59 7e 3e
       -0.33378032 -0.28083304 0.29664284 0.24838947
000370 bb 49 95 be 52 a3 08 3e 11 8d 65 3e 3f de b2 bd
       -0.29157814 0.13343552 0.22417094 -0.08733796
000380 9b 9e 41 3e fd 22 00 bd 87 16 b0 3e 81 74 cb 3e
       0.1890816 -0.031283367 0.34392187 0.39737323
000390 60 18 7c 3e da 3b 89 3e 4d 62 2d 3e dd 85 0b be
       0.24618673 0.26803476 0.1693203 -0.13625284
0003a0 49 7f 33 3e 44 3d 6d 3d 33 67 14 be 60 16 c1 3d
       0.17529024 0.057919756 -0.14492492 0.09428096
0003b0 21 6d cc 3c 57 f7 34 3e d2 eb 25 be bf a4 11 be
       0.02495438 0.17672478 -0.1620324 -0.14223002
0003c0 17 0e 6c be a3 2e b0 be 69 a3 01 3e 27 e2 62 be
       -0.2305225 -0.3441058 0.12659992 -0.22156583
0003d0 62 0a 2b bd e2 d8 2a be bd 92 4b 3e ff 12 02 be
       -0.04175795 -0.16684297 0.19880195 -0.12702559
0003e0 40 d1 25 be 04 8c c0 3e 8d d8 9e be 2b 77 d9 bc
       -0.16193104 0.37606823 -0.3102459 -0.026546082
0003f0 75 2a a6 3e 0b a8 0d 3e 79 1b 31 bc ee c8 18 3e
       0.32454267 0.13833635 -0.010809773 0.14920399

encoder.conv1.bias f4 [64]
000000 31 76 24 3d a6 1b 95 3e ef 80 3d 3e 1d 4c 3c 3e
       0.04015178 0.29122657 0.18506216 0.1838841
000010 9c 76 b2 3c de 4d 4f 3e 75 aa 35 be c6 9f ab 3e
       0.021785073 0.20244548 -0.17740805 0.33520335
000020 eb 93 0a 3d 78 77 1e 3e 74 0f a5 be ee 40 78 3e
       0.03383247 0.15475261 -0.32238352 0.24243519
000030 2c a2 01 bd de f9 79 3d 67 33 c8 3d 55 e9 30 be
       -0.0316488 0.061029308 0.09775429 -0.17276509
000040 25 ec 66 be 03 5f eb bd 06 d1 31 3d 63 e3 f5 bd
       -0.2255102 -0.114927314 0.04341223 -0.12006261
000050 e5 86 88 be 1b 64 90 bd a2 74 86 bd c1 5c 3c 3e
       -0.26665416 -0.070503436 -0.06565215 0.18394758
000060 32 80 94 3e 55 9f a4 bc 37 ee 18 3e a8 c2 7c 3e
       0.29004055 -0.020095507 0.14934622 0.2468363
000070 42 dc bb bd ea f9 32 3e 88 f1 17 3d a1 ac 00 be
       -0.0917287 0.17478147 0.037095577 -0.12565853
000080 93 94 26 3e f5 53 81 3e 1e 9f 56 bd f1 54 3c 3e
       0.16267614 0.25259367 -0.05239784 0.18391778
000090 f8 80 8f 3e 76 0d 66 be 62 61 56 be 48 a9 55 3e
       0.28028083 -0.22466072 -0.20935586 0.20865357
0000a0 ba 38 95 bc a4 51 68 3e 79 1c 99 3e 32 f5 76 be
       -0.018215526 0.22687393 0.29904535 -0.24116972
0000b0 9b 00 1c 3e 27 66 de be 4e f5 e9 bd fb 90 48 3e
       0.15234606 -0.4343731 -0.11423741 0.19586556
0000c0 e5 d7 53 be 3d b6 bd 3d b9 4c cb be c3 f6 c5 3d
       -0.20687826 0.09263275 -0.39706972 0.09666207
0000d0 2c bb 8d be 3b 0b 9d 3d 8c 52 2d be 64 32 53 bd
       -0.27681863 0.07668158 -0.1692602 -0.051561728
0000e0 43 40 32 3e 8b 60 28 be 00 78 fc bd bb d4 01 3d
       0.17407326 -0.16443078 -0.12327576 0.031697016
0000f0 e7 ac 27 be 66 bf 87 3e 68 56 3e 3c f8 fb bd 3d
       -0.16374551 0.26513213 0.011617281 0.09276575

encoder.conv2.weight f4 [32, 64, 6]
000000 95 8d cb 3c 42 48 ca 3d 93 ba 26 3d de 08 9a 3c
       0.024847785 0.09877063 0.040705275 0.018803056
000010 c3 7e 9b bc fc 55 0f bd a0 64 a8 3d f0 66 b4 3c
       -0.018981343 -0.03499411 0.08222318 0.02202174
000020 e5 29 78 3d b2 de 4d 3d 9d 84 54 3d 28 8d b3 3d
       0.06058683 0.050261207 0.051884282 0.08767158
000030 bd 53 83 bd 3a 80 44 bd 53 a0 92 bc ef ed 41 3d
       -0.06412456 -0.04797385 -0.017898714 0.04734605
000040 29 fc 8b bb e8 3a a3 3d 68 0b 1d bc 1c 73 19 bd
       -0.004272003 0.0797022 -0.009585239 -0.037463292
000050 e8 fc a2 3a ab 0e 8e 3d 6e f8 34 3d db fa 77 3d
       0.0012434991 0.069363914 0.044182234 0.06054197
000060 9a 6f cf 3c e1 37 a6 3d 6f ef 9f 3d 81 3e 48 bb
       0.02532177 0.08116127 0.0780934 -0.0030554833
000070 f5 b9 0b 3d 1c d4 4a 3d b4 35 80 3d bf fc 63 3c
       0.03411289 0.04951869 0.06260243 0.01391524
000080 10 f7 b3 3d a3 90 4c 3d 4b 86 25 3d b8 e8 75 3d
       0.08787358 0.049942624 0.040411275 0.06003639
000090 27 ac 93 bd a7 87 de bd d1 07 f1 bd 25 e1 04 be
       -0.0721057 -0.108657174 -0.11769069 -0.12976511
0000a0 6f 65 ea 3c bc e7 e0 bc ec dc d2 3d a0 e7 b2 3d
       0.02861282 -0.02745425 0.10296044 0.08735585
0000b0 90 fd 98 3d 1c 8c bb 3d eb 90 e9 3c 12 f3 0d 3d
       0.07470238 0.09157583 0.028511485 0.034655638
0000c0 9b eb 37 3d d8 2f c8 3d 57 34 af 3d 1b 67 33 3d
       0.044902425 0.097747505 0.08554905 0.0437995
0000d0 25 cf 9c 3c 2b 95 17 3d 28 43 bc 3d 71 39 d1 3d
       0.019141743 0.037007492 0.091924965 0.10216034
0000e0 7b 51 78 3d e5 67 bd 3d 0e 4d 09 3d 8e 3d 7e 3d
       0.06062458 0.09248332 0.03352075 0.062070422
0000f0 85 22 a3 bd 29 98 55 bd a4 a4 b3 3b 45 1c e0 bb
       -0.079655685 -0.052147064 0.005482273 -0.0068393075
000100 16 91 3e bd 49 ef ce bc 83 c6 02 3d fe 57 35 bc
       -0.046525083 -0.025260584 0.031927597 -0.011068342
000110 5b 9c 85 3c 06 94 b3 3d ee 46 8b 3c 5c 6b d7 3c
       0.016309908 0.087684676 0.017001595 0.02629631
000120 ae 29 fb bd 0c 8b 98 bd 1b 03 cf bd c3 f9 56 bd
       -0.12263809 -0.07448396 -0.10108014 -0.052484285
000130 3d ef 61 3c ea f2 7b 3d 30 3b 73 3d e8 81 94 3d
       0.013789949 0.061510958 0.059382617 0.0725134
000140 57 dc dc 3d 11 24 a8 3d c0 ca 51 3d a7 7d 04 3d
       0.10784214 0.08210004 0.051218748 0.032346394
000150 4a b9 fc 3c 1f f8 cd 3d ff 45 29 3d 16 55 89 3c
       0.030850071 0.10057091 0.04132652 0.016764205
000160 cb 73 cd bb ce 3d 5d 3d 38 d6 2f 3d b3 9d 5c 3d
       -0.006269907 0.05401402 0.042928904 0.05386133
000170 78 b7 9f bb 3e 6e 0a bd 75 f0 4f bd 09 9c 51 bd
       -0.004874166 -0.03379654 -0.050766427 -0.051174197
000180 82 4c 9b bd 3f 85 d5 bc 19 9a f3 bc ca 21 48 bd
       -0.07582952 -0.026064513 -0.029736565 -0.04886035
000190 f5 a5 88 bd 61 10 9f bd fe b2 a6 3d 0b f3 30 3d
       -0.06672279 -0.07766796 0.08139609 0.043200534
0001a0 3a 54 83 3d 40 a7 09 bc 46 df 84 bc 6e 8a e1 bc
       0.06412549 -0.008401692 -0.016219746 -0.027531829
0001b0 44 38 5a 3d 3b 17 98 3c ac 9b 4e 3d e2 07 14 3c
       0.053276315 0.018565765 0.05044143 0.0090350825
0001c0 ac 18 6b 3d 88 5f 14 3d c4 35 99 3d da d2 c8 3c
       0.057396576 0.03622392 0.07480958 0.024514604
0001d0 69 f3 7e 3c f3 69 94 3a c5 bf 3c bb 46 9b 68 bc
       0.015560963 0.0011323079 -0.0028800827 -0.014197176
0001e0 20 ac 14 bd 83 1d 7a bd d1 34 3f bd e8 0c 13 bd
       -0.036296964 -0.0610633 -0.04668123 -0.03590098
0001f0 b2 7f 3f bd 5a 67 01 bd 29 28 92 bb df d0 50 bc
       -0.04675264 -0.031592704 -0.004460354 -0.012745111
000200 a1 c2 26 bc 56 db 99 bc 28 b6 62 bd c8 d1 49 bd
       -0.010178239 -0.018781345 -0.0553495 -0.04927233
000210 5f 73 0b bb a2 92 a1 bd 75 4f a5 bd be ef 70 bc
       -0.0021278483 -0.07889296 -0.08071796 -0.0147055965
000220 80 0c 09 3d a6 12 67 3c 25 e3 8b bb 45 44 00 3d
       0.033459187 0.014103567 -0.004269021 0.031315107
000230 d9 af 37 3d c7 67 a8 3d 7d b2 8d 3a c0 13 24 3d
       0.044845436 0.08222919 0.001081064 0.040057898
000240 31 ce 9c 3d b8 7e e5 bb b8 8b 75 3d c6 33 b4 3b
       0.076565154 -0.0070036314 0.0599477 0.005499336
000250 11 61 9e 3d e1 ea ad 3b 16 d7 7f bd ff 2a f1 bd
       0.07733358 0.0053075408 -0.06246098 -0.11775779
000260 e8 1e 00 be 9b 46 d5 bc 54 5c fa bc 0f 90 9f bb
       -0.1251179 -0.026034644 -0.030561604 -0.004869468
000270 9d 58 e2 3c 8c d8 98 3d c8 38 84 3d 18 b8 47 3d
       0.027630145 0.07463178 0.06456143 0.04875955
000280 4d 28 57 3d 2a 80 2d 3d 3a 3b 2e 3d d0 87 ab 3d
       0.05252867 0.042358555 0.04253695 0.083755136
000290 2b c7 87 3b 17 a9 15 3d 52 05 ae 3d 62 58 ad 3d
       0.0041436157 0.03653821 0.084971085 0.08464123
0002a0 07 dd 94 3d 3a 97 1b 3d 63 69 96 3d f9 40 d3 bb
       0.0726872 0.037986018 0.0734432 -0.0064469543
0002b0 af 90 8d bc 16 b6 c6 ba de d6 40 3d 81 ba 35 3d
       -0.017280905 -0.0015160467 0.047079913 0.044367317
0002c0 94 47 56 3d e4 7d 97 3d 2a e8 ab 3d 12 b7 ab 3d
       0.052314356 0.073970586 0.08393891 0.08384527
0002d0 41 fc 63 bd d4 7a 9f bd 6b ed 60 bd 77 78 3b bd
       -0.05566049 -0.077870995 -0.05491392 -0.04576918
0002e0 34 cb 93 3c 3c 49 7a 3d 2e 1b 97 3c 9e 94 64 3c
       0.01804123 0.061104998 0.018445577 0.013951449
0002f0 2f 09 39 bd 25 a0 9f bd 3f ae 1e bd fe b8 7a bd
       -0.045174774 -0.07794217 -0.038740393 -0.06121158
000300 e6 e1 37 3d 2f 0c 26 3d 7e 57 0e bc 4f a1 68 3c
       0.044893168 0.040538963 -0.008687852 0.014198615
000310 23 24 b3 3d cb 43 8b 3c 32 f3 97 3d 9c 88 39 3d
       0.08747127 0.0170001 0.07419433 0.045296296
000320 e6 4b e2 3c 65 10 87 3d ad a3 a6 3d 10 90 88 3d
       0.027624082 0.06594924 0.081366874 0.06668103
000330 4b 33 5c 3c 13 77 9c 3d 01 5f a4 3d ed 20 a1 3b
       0.013439964 0.07639899 0.08025933 0.004917255
000340 41 79 39 bd 10 7f b9 bb bd aa 1e bc e4 d0 84 3c
       -0.045281652 -0.005660899 -0.009684262 0.016212888
000350 0f 68 28 3d e7 19 a8 3d a9 64 97 bb ad 4b 62 3d
       0.041114863 0.082080655 -0.004620154 0.05524795
000360 03 2e d2 bc 38 6d f1 bc 25 16 9e bc 9b 6e f4 3c
       -0.025656706 -0.029471025 -0.019297669 0.029837897
000370 1b 72 d0 3c 36 5f 0a 3d 88 19 13 bd e4 a3 e1 bc
       0.025445035 0.033782206 -0.03591302 -0.02754397
000380 64 21 0e 3c 6c 6c 8f bc 84 99 84 3b 1a c7 7b bb
       0.008674953 -0.017507754 0.004046621 -0.0038418234
000390 a3 0c ce 3c e5 7a 66 3d 21 c5 0c 3d ba e6 87 3d
       0.02515251 0.056269545 0.034367684 0.066358045
0003a0 88 d0 6d ba 0e 6c 29 3d 1c fc 74 3d fe 21 a9 3d
       -0.0009071906 0.041362815 0.059810743 0.082584366
0003b0 12 fa d0 3c a9 9f 45 3d 27 7a 99 3c b8 4a cc 3c
       0.025509868 0.048247967 0.018735005 0.024937972
0003c0 c5 fb 87 bd 63 02 cc bd 3c be d8 bd a5 55 02 bd
       -0.06639818 -0.09961393 -0.10583159 -0.03181996
0003d0 e9 07 88 3c d9 82 32 3d 55 74 8f 3d 44 4f 40 3c
       0.016605334 0.043581817 0.070046104 0.011737648
0003e0 25 e2 8a 3d 8e 5b 88 3d 05 0e 58 3c 0e 0e 12 3d
       0.06781415 0.06658088 0.013186936 0.035657935
0003f0 5a e5 5d 3d 62 6b e6 3d 73 e6 f1 3c 9e 36 c5 3d
       0.054173805 0.112509504 0.029528832 0.09629558

encoder.conv2.bias f4 [32]
000000 8a b4 2f 3c b9 58 00 3d f3 9c 1d 3d 2d 5e 8b 3c
       0.010724196 0.031334613 0.038479757 0.01701268
000010 c3 5d 2f bd 23 8b b2 bc f0 f9 ef 3c e2 9f 8b 3c
       -0.042814028 -0.021794861 0.029293984 0.017044012
000020 87 88 ce 3c e0 b0 38 bc 82 04 bf 3b 70 bb 54 3c
       0.025211586 -0.011272639 0.005829395 0.012984142
000030 66 86 6e bc 74 69 7b bd 24 fc 40 bd 73 f8 8e 3d
       -0.01455841 -0.061379865 -0.04711546 0.06980982
000040 e8 69 66 3d 90 f2 05 bd ee ed 78 bc fc 86 a9 bc
       0.056253344 -0.03270203 -0.015193446 -0.020694248
000050 c4 ae d5 3c 62 c9 4e 3b f1 44 08 bd c7 d5 49 bd
       0.026084311 0.003155314 -0.033268873 -0.04927614
000060 3a f0 0c 3d 4a 72 43 3d 52 a6 eb 3c 46 35 83 bd
       0.034408785 0.047716416 0.028765831 -0.064066455
000070 58 14 fc 3c 11 fe 62 bd 02 54 16 bd e4 72 0a bc
       0.03077142 -0.055418078 -0.03670121 -0.008450244

encoder.conv3.weight f4 [2, 32, 5]
000000 bc 24 14 bd 89 f8 47 bd 27 e9 3c bc 20 e7 fd 3d
       -0.036167845 -0.048821006 -0.011530197 0.12397599
000010 31 a9 22 3d 89 4e 30 bd 59 ec 17 3c 02 86 20 3d
       0.039712135 -0.043043647 0.009272658 0.0391903
000020 65 26 e5 3c ab c3 fd bc d8 42 d5 3d 25 89 a8 3c
       0.02797241 -0.03097709 0.1041314 0.020573208
000030 94 a4 bb 3d 81 3c 83 3c de 27 9c 3c a0 7f 4d 3d
       0.0916225 0.016020061 0.019061979 0.05017054
000040 d2 81 36 3d a8 45 94 bd 98 f7 c1 3c 3b 8f 05 bd
       0.0445574 -0.072398484 0.023677632 -0.0326073
000050 24 1b 1d 3b 40 04 fd 3b 2d 7c 96 bd c5 e1 f5 bd
       0.0023972476 0.007721454 -0.073479034 -0.12005953
000060 a8 8e b3 bd d5 00 af bb 99 6c 2c bb b4 fd 58 bd
       -0.08767444 -0.0053406754 -0.0026309846 -0.052976325
000070 34 c4 7b 3d de e7 97 bd 6f 09 8b bc a0 c7 29 3d
       0.06146641 -0.07417272 -0.016972272 0.041450143
000080 b2 60 a7 3d 66 f4 a7 3d 8e 16 00 bd de c7 3e 3d
       0.0817274 0.08200912 -0.03127151 0.046577327
000090 be 0c 0f 3d f0 db 83 bd 5d 9e 76 bd 71 52 e2 3c
       0.03492426 -0.06438434 -0.06020962 0.027627202
0000a0 f3 38 03 bb b4 e0 44 3d ba 90 32 bd a1 17 4e 3d
       -0.0020022958 0.048065856 -0.043595053 0.050315503
0000b0 b3 c7 5a bd e9 32 51 3c d2 28 08 3e 41 bb ab bd
       -0.053413104 0.012768486 0.13296822 -0.08385325
0000c0 69 46 3f be 14 65 71 bc 50 6a 34 bd d2 32 00 3c
       -0.18679203 -0.014733572 -0.0440467 0.0078246165
0000d0 ed 4a 4f bd 8a 76 f6 bc af 3e c6 3d 68 3a 08 3e
       -0.050608564 -0.03008582 0.09679925 0.1330353
0000e0 ee 0f c7 3d fc 05 9f bd e2 a6 d1 bd 13 1d 9d bd
       0.09719835 -0.07764813 -0.102369085 -0.07671561
0000f0 cf 96 3f 3d 33 92 94 bc d5 d2 71 bd 96 ea a7 bd
       0.04677468 -0.01813612 -0.059038956 -0.081990406
000100 90 47 e1 3c ea fd 7e 3d b7 c4 8e 38 f0 57 3b bd
       0.027499944 0.06225387 6.807729e-05 -0.04573816
000110 18 61 c7 bd 01 ae c4 bc 4b a5 97 3d d0 a3 44 3d
       -0.09735316 -0.024008753 0.07404574 0.048007786
000120 66 bd 98 bd f1 31 06 be 4b f8 ee 3c 83 9b 09 3d
       -0.07458 -0.13104989 0.02917113 0.033595573
000130 16 7c a2 3d 5a a9 33 bd 08 b7 9d 3d fa 3e 94 3d
       0.07933824 -0.043862678 0.07700926 0.07238574
000140 1f 11 4c bd b3 6b 97 3d f1 67 08 be 91 0b 39 bd
       -0.049821015 0.07393589 -0.133209 -0.045177046
000150 12 bb 2f 3d bc 7f f7 bc 4d 3f d5 3d 9a c5 87 bd
       0.042903014 -0.030212276 0.10412464 -0.066294864
000160 94 67 dd bd fb bd a7 3c f3 58 92 3b f4 5f 5b bd
       -0.108107716 0.020476332 0.00446617 -0.053558305
000170 16 cb a6 3d e5 dd 01 3d b3 27 80 3d 04 8f 31 3d
       0.08144204 0.031705756 0.06257572 0.04334928
000180 4c 9d 08 3d 26 73 3d bb 62 07 22 bc b6 43 42 3d
       0.033353135 -0.0028907745 -0.0098894555 0.047427855
000190 38 7a 68 bd 46 4a ec 3c 67 1d c1 bc 74 11 b7 bd
       -0.056757182 0.02884401 -0.02357359 -0.08938876
0001a0 4e bd 24 3d dc 49 86 3c 91 1f ae 3d c6 d4 d9 3c
       0.040219598 0.01639264 0.085021146 0.026590716
0001b0 8c 5f fc bd aa 63 22 3d 74 9a 0c 3d 98 a2 cb ba
       -0.123229116 0.03964583 0.034326985 -0.0015536128
0001c0 dd ac 57 3d af 8d 6f 3b cb ad a8 3d 13 5b a6 3c
       0.05265509 0.0036552956 0.082362734 0.0203071
0001d0 c2 be a9 3c 28 3a 44 3c df 92 3d 3d 15 34 56 bd
       0.020720843 0.011976756 0.046282645 -0.052295763
0001e0 2b 82 e4 bc fd 47 ae 3c 24 90 d0 bc f6 5e 86 3d
       -0.0278941 0.021274561 -0.025459357 0.06561081
0001f0 b1 bd 92 3c 4e 83 e3 bc 45 fd e0 3c a3 4c bb 3a
       0.017912718 -0.027772572 0.027464518 0.0014289807
000200 71 7f ec 3d 6c 5b df 3d 7f b1 e0 3d 3e 76 c4 3c
       0.11547745 0.10906109 0.10971355 0.023982164
000210 18 92 87 bd 7e 70 f3 3d 01 51 df 3c e8 96 c2 3d
       -0.06619662 0.118866906 0.027260305 0.09501439
000220 a4 4c 87 3b 19 d5 fc bc 5e 0f 38 be 4a 70 20 be
       0.0041290093 -0.030863332 -0.17974612 -0.15667835
000230 ab fe 4a 3c a2 71 d2 b9 8f 87 7b bd 2f 08 3b 3d
       0.012389819 -0.00040138984 -0.061408576 0.0456621
000240 4f b4 47 3d 1c aa 8e 3b c4 dd ac bc 2c ab 15 be
       0.04875594 0.0043537747 -0.02110184 -0.14616078
000250 b5 67 03 be a2 ac b0 3b 48 13 c9 bc 25 50 20 3d
       -0.1283253 0.005391673 -0.024545327 0.03913893
000260 02 1d ea bc 1a 2a cd bc 8e 54 4b 3d bc 4e b6 3c
       -0.028578285 -0.02504449 0.049641185 0.02225434
000270 a1 65 6d 3c fd ed 50 bd a7 2e 4e 3d 10 78 98 bd
       0.014489562 -0.051008213 0.05033746 -0.07444775
000280 c5 66 61 3d dd 90 29 3c d3 77 ed 3d ae ff a9 3d
       0.05502965 0.0103494795 0.1159512 0.0830072
000290 a3 21 c5 3c 06 6f b4 bc cb 7a 14 bd e5 2a 19 3d
       0.02406389 -0.022025596 -0.036249917 0.037394423
0002a0 e1 52 6f 3d 81 01 29 3d 75 33 fd bc d9 67 fd 3d
       0.05842865 0.0412612 -0.030908326 0.12373323
0002b0 ae 37 db 3d 6c 8a 68 bd fb 50 72 3d 5e 8c c7 bc
       0.107039794 -0.056772634 0.05915926 -0.024358924
0002c0 e2 6d eb bc 44 34 ab bd 95 25 99 3d cf 0b 7d bd
       -0.02873892 -0.08359578 0.07477871 -0.06177884
0002d0 04 9d 8d bd e7 a6 90 3b ae 7a a1 bc 63 6e d4 bc
       -0.06914714 0.0044144276 -0.019711819 -0.025931543
0002e0 91 47 aa bc 22 8c 12 3c 64 2d 91 bd 09 64 ad bb
       -0.020786079 0.008944543 -0.07088736 -0.005291466
0002f0 6e f0 ca bc 8e 8d b5 bc 6f 17 fd bc 42 3b d7 3d
       -0.024772849 -0.022162225 -0.030894963 0.105093494
000300 27 4b c9 3d ff 6f 68 bc 28 7d 89 3d 82 89 a2 3d
       0.09828787 -0.014186858 0.06713325 0.07936384
000310 5a 02 c5 3d cb 04 c0 bc 5f 50 08 bd 12 d7 ea 3c
       0.09619589 -0.023439785 -0.033279773 0.028667007
000320 66 83 b8 3c a0 18 8f 3c e4 01 07 3d f3 11 b1 3d
       0.022523593 0.017467797 0.032960787 0.08646002
000330 ae 7a 69 3c 9a d0 8c 3d b4 86 db bd 22 21 18 bd
       0.0142504405 0.06875725 -0.10719052 -0.037140973
000340 4d ce 1a bd c6 34 23 bd 3d f4 39 3d b4 cd 88 bc
       -0.0377944 -0.03984525 0.04539894 -0.01669965
000350 ed 9e 89 3d 43 e0 82 bb d8 ef 1f 3d 1e d0 52 bc
       0.06719766 -0.0039940192 0.039047092 -0.012867002
000360 58 98 10 bd 9a 93 eb bd 9b d9 87 3d 32 ad 5f 3a
       -0.035301536 -0.11502762 0.06633302 0.0008532583
000370 8a 87 77 3a 63 53 8f bd 57 45 df 3c b4 3d 5b bd
       0.0009442499 -0.06998327 0.027254744 -0.05352564
000380 41 51 89 3b 85 8e f6 bc 6d a1 b4 bd 4f 65 33 bd
       0.0041905944 -0.030097255 -0.08819852 -0.043797787
000390 e3 91 86 bd 8d 57 50 3d 91 8a 1b bc b1 06 ca 3c
       -0.065707944 0.050864745 -0.009493486 0.024661394
0003a0 23 45 98 bd 75 da 41 bd f9 49 90 bc e8 a5 9b bc
       -0.07435062 -0.047327477 -0.017613398 -0.019000009
0003b0 32 71 c5 3d ce ee 80 3d 1b 14 9e bc cd 49 1e 3d
       0.09640731 0.062955484 -0.019296696 0.0386446
0003c0 45 33 93 3c 11 1a c5 bd 2d 90 d1 3c 4f 5e 58 3d
       0.017968783 -0.096241124 0.025581444 0.052824315
0003d0 52 48 1c 3d bb ac 8f bd c5 00 93 bd 98 a7 17 bd
       0.038154908 -0.070153676 -0.07177881 -0.037025064
0003e0 98 67 4d 3d 43 25 8a 3d 86 61 d8 3b a3 0b 26 3d
       0.050147623 0.06745388 0.0066034226 0.04053844
0003f0 2c 7a a4 3d 22 52 3d 3d eb 98 20 bc c9 6a 42 bd
       0.08031115 0.046220906 -0.0098020835 -0.04746512

encoder.conv3.bias f4 [2]
000000 6a 6e 61 bc 06 dc 68 bd
       -0.013759235 -0.056850456

decoder.deconv3.weight f4 [2, 32, 5]
000000 66 ac f9 bc 61 f4 c8 bc 41 7b 3f 3b f3 cc 86 39
       -0.030477714 -0.024530591 0.0029217752 0.0002571117
000010 c4 63 19 bd aa e3 74 3d 57 8a 02 bd 40 b6 95 3d
       -0.03744866 0.05978743 -0.031870212 0.07310152
000020 ac 85 d6 3c 5e 23 0b 3b 02 3a b7 3d 32 1f df 3d
       0.026186787 0.0021230797 0.08946611 0.10894622
000030 3b 4e d7 bd 91 50 43 be ae 4f 32 be 80 32 d4 3c
       -0.10512968 -0.19073702 -0.17413208 0.025902987
000040 59 ee bd 3d 26 9c 04 3b 11 2e 7b bc eb 7e 0c 3b
       0.09273977 0.0020234673 -0.015330807 0.0021437954
000050 6b 77 24 bd fa e2 bc 3d 4f a8 26 3b 99 75 12 3e
       -0.04015295 0.0922298 0.002542991 0.14302672
000060 f4 44 3c 3d c3 8e 7d 3d 49 71 a0 bd 72 c8 c9 3d
       0.045964196 0.061903726 -0.078341074 0.09852685
000070 e5 0a 27 3d fe 16 c4 3d 35 4a cb 3c 16 84 d2 3c
       0.040781874 0.09574698 0.024815658 0.02569775
000080 9a c0 bf 3d 2a 6c ef 3d bb dc 01 bd e9 87 b0 3c
       0.09362908 0.116905525 -0.031704646 0.021549182
000090 21 76 65 3d 53 e1 c2 bd 15 79 92 bd a2 2d f4 bd
       0.05602086 -0.095156334 -0.07152001 -0.11922766
0000a0 03 4f e5 3d 80 47 d9 3c 0b e9 32 be 68 b8 3d be
       0.11196711 0.026523352 -0.17471711 -0.18527377
0000b0 88 e5 e7 3c a5 c0 30 bd e4 03 d3 3d 03 51 27 bd
       0.028307691 -0.04315247 0.103034765 -0.040848743
0000c0 0b ba 39 bd e3 98 cb 3d 89 df fc 3d b4 e9 bd bb
       -0.04534344 0.0994127 0.123473234 -0.005795682
0000d0 fc 84 a2 3d ba 77 be bd 60 5b a7 3c 5f 8a 6a 3d
       0.07935521 -0.0930018 0.020429313 0.057260867
0000e0 19 30 2a 3d 41 0a 63 bd 92 37 55 bd 30 19 1f bd
       0.041549776 -0.0554297 -0.05205495 -0.03884238
0000f0 0d 07 e2 3d 33 05 fd 3d 59 aa f1 bd 71 7c 05 be
       0.11036501 0.12354507 -0.11800069 -0.13035752
000100 34 d6 83 bd a7 5a af 3d 3e a0 f9 3a 80 71 97 bd
       -0.064373404 0.085622124 0.0019044948 -0.07394695
000110 29 cd 05 bd 9f b8 44 bb 7f 91 d0 3c e7 e8 5a bc
       -0.03266636 -0.003001727 0.025460003 -0.013361192
000120 30 02 9a 3d db 59 5b 3a d1 9b 96 3c ec 5f e2 bb
       0.075199485 0.00083675765 0.018384846 -0.0069084074
000130 7f 04 19 3d b0 f4 1f be b4 c3 ab 3c b3 36 df 3d
       0.037357803 -0.15620685 0.020967342 0.10899105
000140 c5 c1 41 3d 2d ea 52 bb ae b2 aa b9 ec 71 57 bd
       0.047303934 -0.0032183037 -0.00032558053 -0.05259888
000150 36 30 40 bd 9f 62 1f 3d 7f c0 c5 3c 12 f1 7d bd
       -0.046920978 0.03891241 0.02413964 -0.06199748
000160 7e fb a0 bd c9 6d 45 3d b3 42 5c 3d 2d 5e 81 bb
       -0.07860468 0.048200402 0.053774547 -0.003947994
000170 5e 5e c9 3d c2 9b 38 bd d3 d4 20 bc cf f8 aa bc
       0.09832452 -0.045070417 -0.009816366 -0.020870594
000180 d2 a3 70 bd 74 53 23 3e 30 77 83 3d 80 bf a4 3d
       -0.05874998 0.15949804 0.064192176 0.08044338
000190 c1 74 55 3d db 54 81 bd 87 47 97 3d 26 9f 8f 3d
       0.0521133 -0.06315013 0.0738669 0.07012777
0001a0 4c 36 13 3d 83 3a 95 3c 8b e0 88 3c c0 1c 4d bd
       0.035940453 0.018216377 0.016708633 -0.050076246
0001b0 c3 48 21 3e aa 7e cf 3c 6f fc 06 3d 88 12 89 bd
       0.15750413 0.025328953 0.032955583 -0.06692988
0001c0 55 1f 83 39 f1 f0 0b 3e 31 42 42 bd 34 65 1a bc
       0.0002500961 0.1366613 -0.047426406 -0.009423543
0001d0 65 01 c9 bc 5a e9 1f 3d 76 dc e8 3d 10 b1 e3 bc
       -0.024536798 0.0390409 0.113701746 -0.02779439
0001e0 ec ff 14 bc b2 19 d2 ba d0 22 42 bd 3f 1e 20 3e
       -0.00909422 -0.0016029386 -0.04739648 0.15636538
0001f0 9c 5d 37 3d b8 3d a9 3d 31 12 96 bc 18 34 5e bd
       0.044767007 0.08263725 -0.018319221 -0.0542489
000200 05 6b 0a be 97 58 b2 3d 59 f2 45 bd d4 2c 0b 3d
       -0.13517387 0.087083034 -0.048326824 0.0339783
000210 f8 93 c0 3b be 1e 84 3d fc f9 53 3d cb 60 d1 bb
       0.0058770142 0.06451176 0.051752076 -0.0063897124
000220 f7 9e 42 bd de 6c 0d bd 98 46 0d be f2 0d 9f bd
       -0.047514882 -0.034527652 -0.1379646 -0.07766332
000230 61 ef de 3c fe 70 da 3c be b0 74 3d bb 81 2c bd
       0.027213754 0.026665207 0.059738867 -0.042115908
000240 ba 5a 1c bb 29 9a 27 3d 02 99 c1 3d b3 6d 01 be
       -0.0023857788 0.040918503 0.09453012 -0.12639503
000250 cd 67 78 bd 11 26 7d bd 20 06 e1 3c 82 c4 7a bd
       -0.060645867 -0.06180388 0.027468741 -0.06122256
000260 43 a4 00 ba f6 a0 72 3c 0a 5b b9 3c ef 97 72 bd
       -0.00049072894 0.014808884 0.022626419 -0.059226926
000270 eb 28 dd 3c 81 81 76 bd 62 3c 11 be 45 1c 59 bd
       0.02699705 -0.0601821 -0.1418319 -0.053005476
000280 a9 8e d8 3d a0 5f 83 bd b0 09 05 3e fa 34 36 3d
       0.10574085 -0.064147234 0.12991977 0.044484116
000290 16 4e ba bc 5a e8 5a bb ec 42 f1 3c 74 0a 56 3d
       -0.022742312 -0.0033402652 0.029450856 0.052256063
0002a0 78 d0 97 bb f0 8e 5b 3d 79 9c 84 3c aa 2c 08 be
       -0.0046330057 0.053603113 0.016187893 -0.13298288
0002b0 b6 24 43 be fb 59 5d 3d fd e1 fe bb 03 a5 a3 3c
       -0.19056973 0.05404089 -0.0077784047 0.019976145
0002c0 eb 39 97 3c ad be 5c 3b f4 a8 06 bd 17 9c c4 3d
       0.018460235 0.0033682988 -0.03287597 0.09600084
0002d0 13 3a 2b bd a7 5f 91 bd f0 35 b3 bc 3a ec b8 3d
       -0.04180343 -0.07098322 -0.021876305 0.09029432
0002e0 6c 98 41 3b 9a 17 32 3d 9a 68 ac 3d 84 ed 73 bd
       0.0029540313 0.04347954 0.08418389 -0.059552684
0002f0 4c 59 fb 3d 28 27 2d 3d 11 39 b9 bc 73 58 55 3d
       0.122728914 0.04227367 -0.02261022 0.052086305
000300 ff a5 d4 3d d7 36 0e bd 44 a9 0e 3d 12 6d cc bd
       0.10383224 -0.034720268 0.034829393 -0.09981741
000310 1d b4 0b be be 5c d2 bd 59 ad da 3c 59 7c c0 3d
       -0.13642927 -0.102715954 0.026693987 0.093987174
000320 fa 12 26 bd 68 2c 08 be 05 2a 2d be 5d f5 c5 3b
       -0.04054544 -0.1329819 -0.1691056 0.0060412125
000330 2e cb ff 3b b5 c2 58 3d e3 71 be 3c 51 6d ce bd
       0.0078062033 0.052920062 0.023247665 -0.10079444
000340 bb 4a 88 3c 58 fd f1 3d a1 d0 90 3d 39 f0 43 bd
       0.016637197 0.118158996 0.07071043 -0.047836516
000350 26 6e 98 bb 8f 90 22 bd 93 a1 5d 3d 8c 5e 09 3d
       -0.0046518026 -0.039688643 0.054109167 0.033537433
000360 66 d3 85 bd eb b1 ad bd 2a 5c 61 bd 70 8b c4 3d
       -0.06534462 -0.08481201 -0.055019535 0.09596908
000370 95 02 e3 bd 12 73 f5 bd ab 2e f8 bd b8 64 69 3d
       -0.11084477 -0.119848385 -0.12118276 0.05698082
000380 53 83 89 3a b7 90 81 bd 30 ff 19 bc eb c7 0a be
       0.0010491408 -0.0632643 -0.00939922 -0.13552825
000390 49 6e b1 3c 37 ac 34 3d a3 72 df bc 7a b1 e0 3d
       0.021659033 0.04410955 -0.027276343 0.10971351
0003a0 e9 c2 82 3d 2e e4 89 3d ef 35 a7 3c 5b 5d 84 bd
       0.063848324 0.06732975 0.02041146 -0.06463119
0003b0 52 5b d2 bd 5b 09 03 bd aa ca f6 3c c7 d5 0d 3d
       -0.10271324 -0.031991344 0.030125935 0.034627702
0003c0 45 f8 34 3c fc 5f 8c 3d 4d e1 80 3d 3c 4f 81 bd
       0.01104552 0.06854245 0.06292973 -0.06313941
0003d0 b4 f8 71 3d 81 cd 10 bb b7 d4 2f bd a0 33 fa bd
       0.059075072 -0.0022095146 -0.04292747 -0.12216878
0003e0 6d d7 35 bc 47 70 88 3d 36 50 34 bd 08 a9 7b 3d
       -0.011098725 0.0666204 -0.044021808 0.061440498
0003f0 db 37 59 3d 18 e9 0d bc d6 9b 98 3d c0 c3 53 3d
       0.053031784 -0.008661531 0.07451598 0.051700354

decoder.deconv3.bias f4 [32]
000000 1f aa 66 bd 58 af eb bd 1e a5 89 3d 64 89 04 3e
       -0.056314584 -0.115080535 0.06720947 0.12943035
000010 bd 9c a1 bd 90 96 ba bd 95 a5 78 bd 5e 5a a4 3d
       -0.078912236 -0.09110749 -0.060704786 0.08025049
000020 e9 49 03 3e ca 10 ae 3d d2 90 45 3d 55 07 0d 3e
       0.12821163 0.08499296 0.048233815 0.13772328
000030 43 78 14 3e e9 50 03 3e 4e b6 a1 bd e7 99 89 3c
       0.14499001 0.12823834 -0.078961 0.01679702
000040 5c 96 b7 bd 6e 7b fb 3d 61 21 cf bd 22 9c 60 bd
       -0.08964226 0.12279402 -0.101137884 -0.0548364
000050 0e ed c1 bd d7 60 c7 bd d6 09 98 bb 11 8a be bb
       -0.09469043 -0.097352676 -0.0046398444 -0.0058147986
000060 97 2b 89 bd 26 4a 88 3d 09 f5 01 be 5f e6 de 3d
       -0.06697767 0.06654768 -0.1269113 0.108837835
000070 40 82 f8 bd 89 4e fd 3d 09 4b c8 bd f1 62 06 3e
       -0.12134218 0.12368495 -0.09779937 0.1312368

decoder.deconv2.weight f4 [32, 64, 6]
000000 ca 0d 1f 3c 6e 04 9b bd 43 45 c0 bd a6 3a 17 bd
       0.009707877 -0.07569204 -0.093882106 -0.036921166
000010 a1 bb 6e 3d d5 a4 b2 3d 02 c7 7d 3c 63 b2 ac 3b
       0.058284406 0.087228455 0.015489342 0.005270289
000020 c7 23 92 3c 4b 29 e9 bb 63 0b a3 3c b0 1c 55 3c
       0.017839326 -0.007115518 0.01990289 0.013007328
000030 dc 2b d5 3c a2 c9 96 3d 6f b2 85 3d 94 25 35 bd
       0.02602189 0.07362677 0.06528174 -0.04422529
000040 94 b9 bd bd 60 ae 96 3c 7b 93 94 bc 35 be 80 3c
       -0.09263912 0.018393695 -0.01813673 0.015715698
000050 c8 6f be 3d 9f eb 27 3e 6b fd 14 3e 37 80 5b 3c
       0.09298664 0.16398476 0.14549796 0.013397268
000060 89 18 75 3c 1f ba 1f 3d ba fd 85 3b 4f 50 9d bb
       0.014959463 0.03899586 0.0040890845 -0.0048008333
000070 53 d6 81 3c 13 a7 6d 3c 42 c2 99 3d 26 e9 c5 3d
       0.015849268 0.014505166 0.07507755 0.0966361
000080 bd 05 73 3d 80 ae be 3c 1a 19 7f 3c a8 16 e0 3c
       0.059331644 0.023276567 0.0155699495 0.027354553
000090 93 de a6 bc 4e 06 19 bb 2a 64 0a bc a4 51 5d bd
       -0.020369804 -0.0023349705 -0.008446733 -0.054032937
0000a0 3c bb 07 bd 06 ad 07 3d 35 ae 02 3c 86 0e 5b bb
       -0.033137545 0.033123992 0.0079761045 -0.0033425405
0000b0 00 2a a8 bc 58 27 8c 3c f0 09 fd 3d 93 84 93 3d
       -0.02052784 0.017108604 0.12355411 0.07203021
0000c0 5d 9f 36 bd 83 ee 41 3d e9 2e 9c 3c c8 a8 26 3d
       -0.044585574 0.047346603 0.019065337 0.040688306
0000d0 69 04 93 3c d8 77 99 bc 46 23 3b 3d 47 46 e7 3d
       0.017946439 -0.018733904 0.045687936 0.11292701
0000e0 17 e9 0f 3d 1c 7f 84 3d 45 04 65 3c a2 ba 39 bd
       0.0351344 0.06469557 0.013978069 -0.045344003
0000f0 ba 0c 5a bd ad f2 79 bd 3e ad 02 bd 79 a4 e2 3c
       -0.053234793 -0.06102245 -0.031903498 0.027666317
000100 a0 8f a5 3d 10 b0 03 3e 79 a8 cf bb 87 bd 9c bb
       0.08084035 0.12860131 -0.006337222 -0.0047833356
000110 93 42 6f bb f2 f8 71 3c 91 c6 1f bd 88 d9 27 39
       -0.0036508187 0.014768826 -0.039007727 0.00016007398
000120 6b e0 39 bc 3b 21 8a 3c fc a0 82 3d e7 c0 1e bc
       -0.011345009 0.016861549 0.063783616 -0.009689546
000130 99 34 23 3d 65 2b 67 bc d5 b8 11 bd f1 58 ab 3b
       0.039845083 -0.014109467 -0.03557666 0.0052291085
000140 db fb c4 bd 7d 0d 15 bd 31 76 37 3d d8 f0 cc 3c
       -0.0961835 -0.036389817 0.04479045 0.025017187
000150 1a 3d 4f 3d d1 dc d1 3d 49 2b 12 3d 02 07 bf 3a
       0.05059538 0.102471955 0.03568581 0.0014574232
000160 19 2c a9 bd 3e 6b f0 3b d4 ba e1 bc 90 18 e6 3d
       -0.08260364 0.007337003 -0.027554907 0.11235154
000170 c5 98 4f 3d 25 f5 52 3c cb 61 46 bb 19 bd 3b 3d
       0.0506828 0.01287583 -0.0030270691 0.045834634
000180 d5 8a 80 3d 26 fc 1e 3e 05 92 d8 3d a9 d1 f6 3c
       0.0627648 0.15525874 0.10574726 0.03012927
000190 5a 0d 9d bc fe 2a 11 3d 55 58 81 bc 73 e0 6c 3d
       -0.019171406 0.03544139 -0.01578919 0.05783124
0001a0 d2 44 f3 3c 87 44 25 3a 71 77 af 3c 4a 8f c3 ba
       0.029695902 0.0006304462 0.021419259 -0.0014920023
0001b0 48 8a ac 3c 52 6a 2f 3d 1e 63 2b 3e ed 4c 3b 3e
       0.021062031 0.042826004 0.16737029 0.18291064
0001c0 64 a5 ad 3d c8 94 99 bd 16 67 23 3d ca 51 12 3d
       0.084788114 -0.07499081 0.039893232 0.03572253
0001d0 9f 08 95 bc 17 e6 1b 3c 7d 4d b8 3c e6 c7 d5 3c
       -0.018192587 0.009515307 0.022497887 0.026096296
0001e0 06 07 8e 3d 57 58 b5 3d 13 f3 82 3d c2 97 e3 3c
       0.06934933 0.0885474 0.06394019 0.027782325
0001f0 ea 6b 54 bc 56 2b 30 3d 5e b1 95 bc 4a 11 84 3c
       -0.012965182 0.04301008 -0.018273052 0.016121525
000200 64 3d 37 bc 91 09 4f 3d 22 05 fb 3d 59 52 b4 3d
       -0.01118407 0.050546233 0.122568384 0.08804769
000210 83 3e 2e bc 30 99 b7 bd 51 9e 60 bd 17 c0 00 be
       -0.010635021 -0.08964765 -0.054838482 -0.12573276
000220 0e 4e 8d 3b 7b e9 91 3d a4 27 ae 3b 1e 2a 90 3d
       0.0043122834 0.07124611 0.005314784 0.07039283
000230 aa e7 c6 3d 69 d6 c3 3b 3b 6e 4b bd 1b 92 e5 3b
       0.09712155 0.0059764874 -0.04966567 0.0070059425
000240 88 5b a5 3c 50 f9 e1 bd 32 43 6a bd 66 b4 2b bc
       0.020185247 -0.11033881 -0.05719299 -0.010480022
000250 42 1a e4 3d 9e 8a d7 3c 9b 1f b4 3c a7 f6 49 3c
       0.11137821 0.026311215 0.021987727 0.012326873
000260 bc 34 a4 bc bb 11 96 bc 7a d9 87 3b 02 cc 27 bd
       -0.020044677 -0.018319001 0.0041457983 -0.04096604
000270 90 06 12 3d 72 a7 9a bc cb a2 f3 3c 2f 28 bc bb
       0.03565079 -0.018878672 0.029740712 -0.005742095
000280 43 ff 3f bd 2b 9f 13 bb 97 13 26 bd 5f b0 b7 bd
       -0.046874296 -0.0022525291 -0.040546026 -0.08969187
000290 96 1a cc bc 59 5f 44 3d f5 92 9b 3d a9 3b 0f 3d
       -0.02491502 0.047942493 0.07596389 0.034969006
0002a0 24 8b 8f 3c 9e 61 d6 3c bb 15 dc 3c b8 78 1b 3d
       0.017522402 0.026169594 0.02686583 0.037956923
0002b0 d0 9f 1e bc f5 57 b8 bb 7d 20 35 bd ea 1d bc bc
       -0.009681657 -0.0056257197 -0.044220436 -0.022963483
0002c0 a3 4f 06 38 f5 f9 95 3c c3 df 67 3d 21 be 25 3d
       3.2022257e-05 0.018307665 0.05660988 0.040464524
0002d0 9f 3e de bc f2 f9 85 3c 79 92 d1 bc 48 b5 1a 3d
       -0.02712947 0.016354535 -0.025582539 0.03777054
0002e0 06 63 0f 3d b9 b7 48 bd 78 85 e5 bb 97 10 0b be
       0.035006545 -0.049003337 -0.007004436 -0.13580547
0002f0 63 f1 e5 bc 91 dd 9c 3c 00 f6 5b 3d 8c bb af 3d
       -0.028069204 0.01914862 0.0537014 0.085806936
000300 ac 9e f8 bc 48 31 b3 bd 02 70 00 bd 99 c0 2c bc
       -0.030349098 -0.08749634 -0.03135682 -0.010543966
000310 1d 48 85 3d 95 9a 94 3d 01 30 13 3c b8 4f 89 bd
       0.06507895 0.07256047 0.008983613 -0.06704658
000320 ed 09 8e bd be 9a b9 3b a7 9a a6 3d 5b 85 a5 3d
       -0.06935487 0.0056641987 0.08134966 0.08082076
000330 96 f5 a3 3c 69 85 ef bc 6e 82 f2 bd 57 d5 59 bd
       0.020014565 -0.02923842 -0.11841284 -0.053181972
000340 35 0c f9 3c 10 78 09 3e 75 22 e0 3d 6a c8 b4 3d
       0.030401329 0.13424706 0.10944072 0.088272884
000350 09 7d cd 3d cd 51 3d 3d 43 7c 59 3c e0 2b 95 3d
       0.10033614 0.04622059 0.013274255 0.07283759
000360 ca f0 86 bc e5 13 34 bb 5b 7e 64 39 df 56 02 3d
       -0.016472239 -0.0027477678 0.00021790845 0.031821128
000370 4c 89 86 3d 77 f0 3f 3d fb 46 d1 bb b1 f1 66 3c
       0.06569156 0.046860185 -0.0063866354 0.01409571
000380 1b 2d 5d bd 0d 8e 9c 3c 2b f8 0c bd 1c a4 0c bd
       -0.053998094 0.019110704 -0.03441636 -0.034336194
000390 3f 41 85 3d 12 37 3b bd b9 90 a5 bd 7c ff 14 be
       0.06506585 -0.045706816 -0.08084244 -0.14550585
0003a0 f7 d3 d3 3c dd dd a9 3d d4 cf 0f bc 57 11 8a 3c
       0.025857909 0.0829427 -0.008777577 0.016853971
0003b0 56 3e 6f 3d c8 71 b6 bc 8d f4 44 3d 29 59 38 bd
       0.058409058 -0.022271052 0.048084784 -0.045006905
0003c0 2a 5d c9 3c 29 cc a5 3c 28 c1 16 3c a1 dd 1c bb
       0.024580557 0.020238953 0.0092013255 -0.0023935812
0003d0 9e 10 06 3d 43 7d 86 3d 3d eb e4 3a 17 e1 5d 3d
       0.03273069 0.065668605 0.0017465126 0.05416974
0003e0 92 78 b3 bc 52 4d ac 3b 22 9b d6 bc 43 93 00 bc
       -0.021908078 0.0052582407 -0.02619702 -0.00784761
0003f0 20 f5 f2 3b d5 81 a3 3c b2 05 43 3c a2 d5 4a 3b
       0.007414475 0.01995937 0.011903213 0.003095009

decoder.deconv2.bias f4 [64]
000000 6e 97 4b 3d 44 3a fb bb 50 e6 45 3c a9 e3 45 3c
       0.04970496 -0.007666858 0.012078837 0.012078204
000010 db 7a 29 3c 55 e5 b5 bd ca 8b a5 ba 40 91 94 3c
       0.010344232 -0.08881632 -0.0012630161 0.018135667
000020 e9 fd 66 b9 e2 84 b4 bb c4 cf a2 3c 86 cf a1 3b
       -0.00022029098 -0.005509005 0.019874461 0.004938069
000030 4e bd aa bd 61 ae c7 3d 48 80 af 3c 59 f8 97 bd
       -0.08336888 0.09750057 0.021423474 -0.074204154
000040 df 0a 88 bd 3b a7 b4 bd 7e f6 5b 3c d4 5a c9 bd
       -0.066426985 -0.08820959 0.013425468 -0.09831777
000050 af 3f 79 bd d8 9a 8c 3c c6 e5 b1 3d 92 fe 66 3c
       -0.06085175 0.017163679 0.08686404 0.01409878
000060 5e e1 06 3d f6 04 e7 3a 97 45 f6 bb af f6 94 3d
       0.03292977 0.001762538 -0.00751562 0.07273614
000070 89 8d 94 3a c4 f7 a1 3d 92 de 0c bb 2c dd 1b 3d
       0.0011333685 0.07908586 -0.0021494967 0.038052723
000080 cf 65 52 3d 14 3b 2f 3d ed ee b2 3c c0 76 a4 3c
       0.051366623 0.04278095 0.021842444 0.020076156
000090 69 77 93 3d 53 0f 10 3c 31 01 86 3d 4a dd 51 bc
       0.0720051 0.008792716 0.06543196 -0.012809107
0000a0 1c 21 82 3c 0e cc 92 bd a9 4e 91 3b 33 7d 7c bc
       0.015884928 -0.071678266 0.004434426 -0.015410709
0000b0 75 34 c8 3d 73 e8 01 bc e2 51 87 3d 19 57 6d bd
       0.097756304 -0.007928955 0.06607415 -0.05794439
0000c0 b2 0a c8 3c 64 69 c1 bd a6 2d 8e bd 1e de 6c bd
       0.024419162 -0.0944393 -0.069423005 -0.057829015
0000d0 3b d3 ed bd 72 80 12 bc 29 84 64 bd 02 ee f8 3c
       -0.11612555 -0.008941757 -0.0557901 0.030386928
0000e0 7f 1a 32 bc 59 dd 23 3d 37 1b 37 3d bb 71 72 bd
       -0.010870575 0.040006015 0.04470369 -0.059190493
0000f0 2f 88 a5 bd 45 7a 79 3d 63 04 dd 3a 09 98 80 bd
       -0.080826156 0.06090762 0.0016862269 -0.062789984

decoder.deconv1.weight f4 [64, 1, 8]
000000 bf 9e fe 3c 54 9f a8 be 75 d1 ad be 99 a1 17 3d
       0.031081555 -0.32934058 -0.33948866 0.037019346
000010 1d 7c 92 be a4 c8 88 be 9a fa 06 be c1 4d c0 be
       -0.28610316 -0.26715577 -0.13181534 -0.37559322
000020 6a 95 cf 3c 45 ac 6b 3e cf 26 a7 be b3 21 94 be
       0.0253398 0.23014934 -0.32646796 -0.2893196
000030 ab 9d cc 3d 3c 4f 88 3e da a5 11 be 62 7e 23 3e
       0.0999101 0.2662295 -0.14223424 0.1596618
000040 b6 8a 18 bc 6c f4 49 be 96 54 a6 3e 16 12 a5 3e
       -0.009310415 -0.19722146 0.3248641 0.3224036
000050 d4 b4 6b 3e 02 34 a2 3e 26 62 da bd c2 7d 95 3e
       0.23018199 0.31680304 -0.106632516 0.29197508
000060 e4 1c 2e 3e 0d 97 fe 3d b4 01 01 3e 17 ab ca bd
       0.17003208 0.124311544 0.12598306 -0.09895914
000070 0f 0c 8d 3d dd d8 39 be 03 e1 7b be 3f 09 ae 3d
       0.068870656 -0.18149133 -0.24597554 0.08497857
000080 14 33 fb 3d 92 2c 93 3e 20 33 80 be 3e 18 11 3e
       0.12265602 0.28744942 -0.25039005 0.14169404
000090 04 11 e2 bb 6e 72 9c 3e d7 dc e9 3d ab a1 9e 3d
       -0.006899001 0.30556053 0.11419075 0.077456795
0000a0 56 73 91 3e ff 5e 1a bd 50 0a 9c 3e b8 75 bc 3e
       0.28408307 -0.03768825 0.30476618 0.36808562
0000b0 8f 3b 17 3d 10 98 68 3e 44 13 73 be 3a 2d 91 3d
       0.036922034 0.22714257 -0.23737818 0.070887044
0000c0 4b a6 15 bc c7 9c de ba f2 c3 8a be b0 8f 91 bd
       -0.009133886 -0.0016983979 -0.2710262 -0.07107484
0000d0 55 5a 9b be 63 88 8f 3e 4f dc 3e 3e 03 38 77 3e
       -0.30342355 0.28033742 0.18638729 0.2414246
0000e0 ca 9f 75 be 59 7d a2 be 16 49 5f 3c 5e fa 8e be
       -0.23986736 -0.31736258 0.013628265 -0.2792539
0000f0 80 13 be be aa 88 42 3e d9 1f 22 3d fa 50 b5 be
       -0.37124252 0.18997446 0.039581154 -0.35413343
000100 13 ec 9b 3e 92 c4 62 3e ee 2b b7 be 0e 13 b5 be
       0.30453548 0.22145298 -0.35775703 -0.353661
000110 fb b9 d0 3d b6 fd a7 3e 45 7c 2c 3e ea ed e0 3d
       0.10191723 0.32810754 0.1684428 0.109828785
000120 05 56 b5 bc 25 b8 13 be 67 29 37 3e c0 50 8f 3e
       -0.022135744 -0.14425714 0.17886887 0.27991295
000130 20 33 a0 3e 4d ed e3 3d d6 c3 e0 bd e9 68 17 be
       0.31289005 0.11129246 -0.10974853 -0.14786114
000140 58 a1 8d be 1b 79 32 3e 9f a8 f0 3d c2 bd 9f bc
       -0.27662158 0.1742901 0.11750912 -0.019499663
000150 5e 30 ad be c2 d6 b7 be 13 1a 24 bd 94 96 8d 3d
       -0.33825964 -0.35906035 -0.04006393 0.06913486
000160 48 f9 14 3d 13 59 db bd a4 f5 c9 bd e2 08 8c be
       0.036370546 -0.10710349 -0.09861305 -0.27350527
000170 3e 9e dd 3d b7 71 35 3d 70 fd 61 3e 50 c1 ab 3d
       0.10821198 0.0442979 0.22069335 0.08386481
000180 5b a1 87 bc 16 e4 c1 bc f7 a6 06 3e 54 7c ae bd
       -0.016556432 -0.02366833 0.1314963 -0.085198075
000190 9e 44 8f 3b 62 ea b3 3e 37 c1 7e 3e a9 9b 81 bb
       0.0043721935 0.35139757 0.24878393 -0.0039553237
0001a0 b7 9e 1a 3e 0a 7f b8 be c4 b0 c7 be 22 3d da bd
       0.15099607 -0.36034423 -0.3900205 -0.106561914
0001b0 d5 d5 2d be 6e 64 86 3e 55 f6 75 bc 29 5f b4 3d
       -0.16976102 0.26248497 -0.015012343 0.08807213
0001c0 f5 98 9a be 02 fb 00 3e ae c5 81 3e 42 6f 1e be
       -0.30194822 0.12595752 0.2534613 -0.15472129
0001d0 ac c4 9d 3d 43 a8 ec 3d d1 75 86 3e 48 99 59 3e
       0.07703528 0.11555531 0.26261762 0.21249878
0001e0 1c 30 a1 3d 50 a6 31 3e c2 6f 34 3d f4 2f be 3e
       0.07870504 0.173486 0.044051893 0.3714596
0001f0 8d 69 19 be 96 83 2d 3e 6b 34 bb 3e 89 bc 5c 3e
       -0.1498167 0.16944727 0.3656343 0.21556295
000200 c5 9e 70 3e 70 9e d0 bd 54 0c 4f bd a0 f7 39 3e
       0.23498066 -0.101864696 -0.050548866 0.18160868
000210 3b 16 54 3e ce b8 11 3e 84 d2 c9 bd 1e a9 d1 3c
       0.20711605 0.14230654 -0.09854606 0.025593337
000220 55 ae 81 3c 42 cf 8a be c9 3d 47 3e 8f 5e c0 3e
       0.015830198 -0.2711125 0.19457163 0.37572142
000230 b3 df 61 3d b2 8b 64 3e a9 cc ee 3b fc 8e 8e 3e
       0.055144977 0.22318915 0.007287581 0.27843463
000240 97 b1 89 3e 8a b7 ea 3d bd b3 ae bd 3f f1 30 3e
       0.26893303 0.114607885 -0.08530376 0.17279528
000250 a7 be 13 bc a9 0e 89 bc 63 9c 65 3d 4f 6a bc be
       -0.009017623 -0.016730623 0.056057345 -0.36799857
000260 f8 58 99 bc 41 60 92 be db 72 7c 3e 52 97 6b 3d
       -0.018719181 -0.2858906 0.24653189 0.057517357
000270 bb 2d 34 3d aa 29 c9 3e ad 2e b4 3e f0 6d 63 bd
       0.043988924 0.392896 0.3519186 -0.055524766
000280 cf 61 a5 bb 8b 30 37 3e 11 98 c6 3e 9e 6b 76 3d
       -0.00504706 0.17889611 0.38787892 0.060161225
000290 c2 31 a9 3e 18 af 0b 3e db b3 5c 3e 85 9a 91 3e
       0.33045775 0.13641012 0.21552984 0.28438202
0002a0 6f 09 19 be 0e 75 41 be 00 76 9b 3d ad 67 4e be
       -0.14945005 -0.18892309 0.07590866 -0.20156737
0002b0 96 a2 11 be a8 c7 51 be 54 d4 97 3c 11 ea 0b bd
       -0.14222178 -0.20486319 0.018533863 -0.03415877
0002c0 68 5c af be 7a 4a ca 3c b0 e6 47 be 7e f3 3b be
       -0.34250188 0.024693716 -0.19521594 -0.18354604
0002d0 1a d8 07 3e 64 4f e1 3d 9b 68 21 3d 8c 79 37 be
       0.1326603 0.11001471 0.0394064 -0.1791746
0002e0 5e 16 34 3c 16 6f d2 3d d0 60 95 3e 43 14 6f 3e
       0.010991661 0.10275094 0.29175425 0.23347573
0002f0 7b 09 56 3d 26 97 b1 3d c6 5c 48 3e 18 df 0c 3e
       0.052255135 0.086714074 0.1956664 0.13756979
000300 e8 1f 37 be 7f ca 5b 3e 5d 68 ee 3d 66 15 8d be
       -0.17883265 0.21463965 0.116409995 -0.27555388
000310 87 1d 95 be 92 4a ad bd 6c 37 9a be eb ab 56 3d
       -0.2912409 -0.08461489 -0.3012041 0.052410048
000320 8e 05 7f 3e d3 f0 8c be 31 54 83 bd 29 c8 81 be
       0.24904463 -0.27527484 -0.064125426 -0.25348023
000330 08 59 14 be fc 6a 13 3e a1 3b 17 3e 9a 61 0b be
       -0.14487088 0.1439628 0.1476884 -0.13611451
000340 28 43 5a 3e b3 6d 51 be 31 e6 ff 3c bc e9 84 3e
       0.2131468 -0.20452003 0.031237694 0.25959575
000350 80 22 2d 3c ab 59 4b 3e 95 d9 d5 3d b8 d4 f5 3d
       0.0105673075 0.19858424 0.10441891 0.120034635
000360 54 9f 2b bc 50 e0 80 bd c2 4a 60 bd 2e 1e d9 3d
       -0.0104749985 -0.06292784 -0.054758795 0.106014594
000370 f9 04 89 be 60 78 54 be 08 03 0f 3d 96 56 a7 be
       -0.26761606 -0.20749044 0.034915 -0.32683247
000380 a8 20 80 bd f8 fd 26 bc 57 fe 94 3e f9 33 30 bd
       -0.06256229 -0.010192387 0.29100296 -0.043018315
000390 85 c6 9a 3e 39 b1 61 be 61 23 89 bd fa b2 8d be
       0.30229583 -0.22040261 -0.06696201 -0.2767561
0003a0 3f 40 19 be 1c b2 9f bd 69 57 a6 3d 77 a9 1b bd
       -0.14965914 -0.077976435 0.08122141 -0.03800341
0003b0 df 1a 4f be 12 87 0f be f7 98 44 be 6e aa 9c be
       -0.20225094 -0.14016369 -0.19198976 -0.30598778
0003c0 6b 32 0e bd 91 f1 52 3e 02 fd 22 3e ab 83 ad be
       -0.03471605 0.20599963 0.15916827 -0.33889517
0003d0 f2 41 cf 3d da 34 3e be dd 66 14 3e 09 a6 5e 3e
       0.1012 -0.18574849 0.14492364 0.21743025
0003e0 83 65 07 be c7 63 86 3e ec 9e 00 bc 20 ed 3a be
       -0.13222317 0.26248 -0.00785039 -0.18254519
0003f0 e5 71 ac bd d6 61 02 bd 73 9b 27 be 8b 24 50 be
       -0.08420161 -0.031831585 -0.16367893 -0.2032644
