model_chico_2.ckpt (torch, 112978 bytes, 11 tensors)

encoder.conv1.weight f4 [64, 1, 8]
00000000: 8004 7bbc 0505 003e 56af 3fbd 6735 c83e
00000010: 5cb9 7dbe 157a 263e ff30 203e e7ab 54bc
00000020: 1ffb aa3d 70ac 9d3e 6e40 473e 432f a33c
00000030: 10c2 183e 65b8 57bd 0938 9fbe e30f 82bd
00000040: 0c21 da3c 293d 663e dd2d 62be 090f c5bd
00000050: 559a d2be 6f2e a4be 5793 96be 18f9 f3bd
00000060: edbd b5be 4fed ee3d 89f7 8e3e 007b 91be
00000070: 1154 18be f903 abbd 2a07 4ebd dbc7 96be
00000080: 8c37 99bd 727c a73e 0055 6ebe f0dd 603e
00000090: 6963 803e f0b1 ad3e 85d7 033d 88bf ebbc
000000a0: 697f 5c3e 29f0 053e 9f24 d13e d2c1 b93e
000000b0: 5ef0 6d3e 2adc 033e a21a 3bbd 3099 073d
000000c0: 78c4 8e3e 238f 86be 3334 c5be 16e0 32be
000000d0: 24d4 9dbe 5ed8 2abe 2b7d 01be 3ad9 603d
000000e0: 2e00 953e 60cd e03c 0e07 15be f4c3 523e
000000f0: c0ca ed3d ded4 643d 05d3 a13d 97f7 813e
00000100: 2dba 17be 73d0 713e b524 45be fe70 123e
00000110: 98e5 c23d dff5 7f3e f578 71be 7236 863e
00000120: 6e09 9d3d c911 583e f1c6 c83e b68d f63c
00000130: add0 eebd 3b83 ad3e 6eca b73e 20ae c33d
00000140: 72bd a3be b4e1 80be 26ee 9bbe d157 30bb
00000150: 456d 2dbc 1cc2 bebe 63c7 b23d 3d9f 0dbe
00000160: fa6a 283e 7058 ec3d adab 55be 136c 89be
00000170: a10a 013e 85fc 02be 87a5 e03d 32f6 9ebe
00000180: 5155 43bd cda3 26be 8401 d63d 0fce b1be
00000190: 6b26 96be c242 69be e752 00be c284 9a3e
000001a0: fe3b 6a3e b40d a53e dde3 863e 5e19 993d
000001b0: 4d13 423d f78a 4d3e 3453 27be 4c9b 2abe
000001c0: a62f 12be c208 d13d 4e5f 38bd 7bf1 5a3e
000001d0: 6567 7f3e eec1 763e 6697 413e 5217 8b3e
000001e0: 3f49 aebd d19c b23e e44e 18be a942 413d
000001f0: cba7 803e 1405 7b3d 6f9c b6bd 3669 a13e
00000200: 2639 81be 0652 89be 2966 7bbe ee2b 9dbe
00000210: 7642 10be 1754 ddbc 2ee4 79be 3b89 7c3e
00000220: b2be 3ebe 85fd 853e 5824 b03e 4b66 963c
00000230: 2669 ddbd 4fd8 803e 31cb 7d3e c29f 2dbe
00000240: 24b1 bbbc d17c 9dbc 0dd6 433c 454e c03e
00000250: 4826 9a3e 0d57 84be 523e 893e f8a8 91be
00000260: 9f7d 473e c3de 923e 1f4d 41be 8a0a 383e
00000270: 6669 bf3e 7bba b83d e78e 863e 9ac3 bdbc
00000280: 8925 f7be 27e6 8dbe 7f67 3dbe 3584 7d3e
00000290: 18d5 af3e 245d d83d aa84 033f 6521 f4bc
000002a0: 1341 913e 03a3 a2be 2024 a5be ac7d 853e
000002b0: 15df 1e3d 2a0b 063e 37a9 633e d246 d6bd
000002c0: f00b 32bd f803 1bbe 0809 323d e564 763e
000002d0: b438 2cbe d907 29be c85a 19be a508 6bbe
000002e0: 4c66 823d f437 47be 82ac 58be 2de7 02be
000002f0: b03a 93bd deb0 36bd cbee 923d 3eca 713e
00000300: fcaf 96be 20ff 6b3e b718 96bd ec4f cf3c
00000310: 455d 4dbe 1e1c c43d 45e4 9fbd 4cbb c1ba
00000320: f1b1 88be 104d a2be fc45 84be 384f acbd
00000330: 157e 9dbe e0af 9cbe f903 623d 7361 923d
00000340: 7dff 16be 62d7 913e 7968 603e 24c7 4e3e
00000350: 577a 9abd ba85 cbbd 7f87 61be 36e8 11be
00000360: 1b3a afbe 77f0 83be 1064 743e b06e 413e
00000370: b429 7ebe 1823 583e b5fd 833e 5c59 0cbd
00000380: 8d44 643e 002c 82bc cabd be3e a8c4 d23e
00000390: 5edb 823e 3a0a 8b3e eaa8 213e 3963 22be
000003a0: 6aa4 323e 7d5b 403d 4866 e6bd 28a9 a53d
000003b0: 5ec3 f7bb 05d7 ed3d 091f 5fbe 1c9c 24be
000003c0: efda 72be 32d3 abbe 2525 da3d cbaa 81be
000003d0: d307 7dbd 42d2 31be 4df5 353e d3bb 20be
000003e0: dae9 2fbe d7a5 b63e 08f2 97be b270 cbbc
000003f0: 618f 9c3e 1a9b 003e df37 a7bc b20f 053e
-0.015320897 0.12501915 -0.046798073 0.39103243 -0.2477774 0.16257508 0.1564369 -0.012980438
0.08348679 0.30795622 0.19458172 0.019919997 0.14917779 -0.052666087 -0.3109744 -0.063506864
0.026627086 0.22484268 -0.22087808 -0.09622008 -0.4113337 -0.32066676 -0.29409286 -0.11912745
-0.35496464 0.11666357 0.2792323 -0.28414154 -0.14875819 -0.08350367 -0.0502998 -0.29449353
-0.07481298 0.32712132 -0.23274612 0.21959662 0.25075844 0.33924818 0.032187957 -0.028777853
0.21532978 0.13079895 0.40848252 0.36280686 0.23236224 0.12876955 -0.045679696 0.033105075
0.2788427 -0.2628108 -0.38516387 -0.17468295 -0.30825913 -0.166841 -0.12645404 0.054894663
0.291017 0.02744168 -0.14553472 0.20582563 0.11610937 0.05586707 0.07901577 0.2538421
-0.14817114 0.23614673 -0.19252284 0.14300916 0.09516448 0.24996136 -0.23581298 0.26213413
0.07667814 0.21100534 0.3921428 0.03009687 -0.116608955 0.33889183 0.3589663 0.09554696
-0.31980473 -0.25172198 -0.3045513 -0.0026907811 -0.010585134 -0.3725747 0.08729436 -0.13830276
0.16447058 0.115403056 -0.2086627 -0.26840267 0.12601711 -0.12791641 0.10969072 -0.31047207
-0.047688786 -0.16273423 0.10449508 -0.34727523 -0.29326186 -0.22779372 -0.12531625 0.3017941
0.22874448 0.32237017 0.2634572 0.074755415 0.047381688 0.20072542 -0.16340333 -0.16660804
-0.14275989 0.102067485 -0.045012765 0.2138118 0.24941786 0.24097416 0.1890541 0.2716623
-0.08510064 0.34885266 -0.14873844 0.047182713 0.25128016 0.06128414 -0.08916556 0.31525582
-0.25238913 -0.2682039 -0.2455069 -0.30697578 -0.14087853 -0.027017636 -0.2440345 0.24661724
-0.18627432 0.26169983 0.34402728 0.018359324 -0.10811071 0.2516503 0.24784543 -0.16955474
-0.022911616 -0.019224556 0.011952889 0.37559715 0.3010733 -0.25847664 0.2680536 -0.28449225
0.19481514 0.2868558 -0.18877076 0.1797277 0.373851 0.09019943 0.262809 -0.02316456
-0.48270825 -0.27714655 -0.18496512 0.24757464 0.34342265 0.1056464 0.51374304 -0.02980108
0.2836996 -0.31764993 -0.32254124 0.26072443 0.038786966 0.13090196 0.22232519 -0.10462727
-0.043468416 -0.15138233 0.043465644 0.24061926 -0.16818506 -0.165069 -0.14976037 -0.22952516
0.06367168 -0.19454938 -0.21159557 -0.12783499 -0.07188928 -0.044602267 0.071744524 0.23612306
-0.2943114 0.23046541 -0.07328933 0.025306664 -0.20055111 0.095756754 -0.07807211 -0.001478055
-0.2669826 -0.3169942 -0.25834644 -0.08413547 -0.30760255 -0.30602932 0.05517957 0.07147493
-0.14745899 0.28484637 0.21914853 0.20193154 -0.07542866 -0.09937616 -0.22024344 -0.14248738
-0.34224018 -0.25769398 0.23866296 0.1888988 -0.24820596 0.21107137 0.257795 -0.034264907
0.22291775 -0.015890121 0.37254173 0.41165662 0.2555799 0.2715624 0.15787092 -0.15858163
0.17445531 0.04696225 -0.11249977 0.080889046 -0.0075611314 0.11613277 -0.21789183 -0.16075176
-0.23716329 -0.33559567 0.10651616 -0.25325617 -0.06177504 -0.17365363 0.17769356 -0.15696649
-0.17179051 0.356734 -0.29676843 -0.02483401 0.3057814 0.12559167 -0.020412384 0.12994269

encoder.conv1.bias f4 [64]
00000000: f79a f73c df21 993e 079a 6d3e a038 4a3e
00000010: c050 403c 870f 2f3e 5a62 0abe 4134 a43e
00000020: 8923 42bc c709 dc3d f9d3 8bbe d169 713e
00000030: 3bc8 1f3d 7110 283d b5c9 c93d 8dcf 5ebe
00000040: 998e 11be 0515 2cbe 1d3e c03c fb6d 0ebe
00000050: cfa3 8dbe e9e8 45bd 8916 ccbc 3089 3d3e
00000060: db53 a23e 14d0 e03c 2d1c 273e 956b 8e3e
00000070: fac7 b1bd 0666 293e a696 983d 2bf2 23be
00000080: ad30 4b3e 8993 4e3e 7613 a8bd e537 633e
00000090: c5aa 9c3e 12ff 18be 7394 69be 6909 6d3e
000000a0: d3b4 2a3d 7b52 753e 855b 7e3e aa60 49be
000000b0: 2510 e43d d711 b3be 68e4 17bd c44b 4f3e
000000c0: edab 80be a64c 0f3e e3d7 e8bd a303 043e
000000d0: 582a 8cbe 88d8 263d de8b 92bd cbba a4bd
000000e0: 4579 203e 0076 48be 8174 65bd f8fa 47bb
000000f0: 50f8 b1bd 1d0a 8f3e 9e4b 90bc a247 073e
0.03022526 0.29908654 0.23203288 0.19748163 0.011738002 0.17095767 -0.1351408 0.32071117
-0.011849293 0.107440524 -0.2731016 0.23575522 0.039009314 0.041031305 0.09852926 -0.21758862
-0.14214553 -0.16804893 0.023467118 -0.13909142 -0.2766404 -0.048317824 -0.02491309 0.18509364
0.31704602 0.02744297 0.16319342 0.27816454 -0.086807206 0.16542825 0.07450609 -0.16010348
0.19842787 0.20173468 -0.08206837 0.22189291 0.30599037 -0.14941052 -0.22810535 0.23148121
0.041676354 0.23957245 0.248396 -0.1966578 0.11135892 -0.34974548 -0.03708306 0.20243746
-0.2513117 0.13994083 -0.11369302 0.12892012 -0.27376056 0.040733844 -0.07155584 -0.080434404
0.1567126 -0.19576263 -0.05601931 -0.003051458 -0.0868994 0.27937403 -0.017614182 0.1321092

encoder.conv2.weight f4 [32, 64, 6]
00000000: 65b3 ab3b f260 923d da5c adb9 bbc7 96bc
00000010: 8158 f1bc a649 f7bb 0753 2f3d 57b9 6dbc
00000020: 7030 b53c e5aa e23b 7a1d 7e3c 75bb 6c3d
00000030: f855 20bd 3311 21bd 2e69 87bc ea88 f53c
00000040: f06e 31bd 8626 cd3c fc89 6c3c c999 dbbc
00000050: bf6b c03a da6f 5c3d 6691 f13b 0ac8 4b3c
00000060: 99eb 763c f39a 7e3d e410 123d 0705 e3bc
00000070: 6537 163d 8d57 a13d 6f81 e93c 1c73 8cbc
00000080: edbe 343d cc20 6c3b 3cbd 073c 8984 5a3d
00000090: e2d0 203d f106 e73c 5b6e fb3c 984a eb3b
000000a0: 01d6 d23d d0f1 2abd e44f 833d 2979 3e3d
000000b0: 01b9 f03c 5b23 543d d706 1dbb f21e 8d3c
000000c0: f91d f63c 4af3 8e3d eedf 203d d53e 843c
000000d0: 894b a93c c83b 7c3d 1a90 753d f524 883d
000000e0: 9a5e 563c 3300 523d a107 0f3c b6bd 833d
000000f0: 8076 33bd f7f5 11bc bfa2 7e3c 8245 02bd
00000100: f66f 5ebd d79f 8cba 583f 903b 5505 1dbd
00000110: 7754 febb 15e6 703d bf22 a4bc 7f76 90bc
00000120: 77b1 5fbd cbe8 f2bb 63b1 90bc 4152 033c
00000130: 0e43 c73c 04ec 6e3b 8df0 0d3d 2581 7a3d
00000140: 9baf a33d 4f02 0c3d 810d cc3c 0fcc 063d
00000150: 3b7b dc3b 8aaa 883d 97a5 99bb 1854 5cbc
00000160: 8064 82bc b19b 943d 2480 983d ab1b b13d
00000170: c5ef 10bc 68b8 2abc bb9b d03a 8daa 103c
00000180: 4841 5bbd 9df7 b93c 729b 183c d0e5 14bc
00000190: c33b 68bb b9d9 20bd 6b28 eb3d 85dc a33d
000001a0: 2865 7d3d 75b5 303b 03e3 b93c 2ce3 f63c
000001b0: d08a 073d 0cd1 513a 07d0 353c 6fd5 dfbc
000001c0: 0173 4d3d df41 7e3d 1646 c33d 5d30 3b3d
000001d0: eac2 823b 8865 ff3a d31f ee3c b842 1b3d
000001e0: 2554 433c 6dca e1bc 2f44 1abc f703 083c
000001f0: eab3 9b3c ed0a 893a b12f 3e3d 739e c53c
00000200: bfdd 803b 1994 033d ee97 f03c 0e72 2f3d
00000210: 8756 973d 25af 4c3c 40ec 223c 22a2 593d
00000220: a241 8b3d 046e c73b 1e2d 16bd 92a2 00bb
00000230: 29cc b73c 1290 7a3d b0a0 cfbc 9ed4 ac3b
00000240: 8ede 363d e97d 1cbd 0059 033d dd76 c5bc
00000250: 2715 303d 6d64 fabc 5419 61bb 82f3 6ebd
00000260: c4c9 5abd 0a02 e23c 6c12 9fbc f6d4 51bd
00000270: 6d44 30bc 4320 313d 22ea 083d 9531 f63b
00000280: 49cd 863c 80f8 5c3c a542 dd3b 6ed5 443d
00000290: 5ba8 f7bc 4dc5 2e3c 25be 6b3d 9183 893d
000002a0: 5b33 af3d bd7f 583d 973a 663d 9a4e abbc
000002b0: d60f 8aba ed1f 4c3d 0864 1c3c b99d 0c3c
000002c0: d1dc 653c f05b 063d 3540 463d 6fe8 6d3d
000002d0: 1646 33bb 6890 f3bc f4ea 54b9 8829 33bc
000002e0: a390 e63b d504 8eb9 7dd6 973d 027a 643d
000002f0: 77e0 fdbc 67b9 9ebc 12b1 1a3d 1076 d0bb
00000300: 444c c33c 62dd 933c 4054 e8bc a5a5 31bc
00000310: a229 543d f685 d4bc 630d 1d3d d07b ec3b
00000320: c3d6 afbc e172 b63c 23af 523d 8701 6d3d
00000330: 7da6 2a3d aafb d23d 376c 9e3d 4aa0 703c
00000340: 1b64 20bc 6ec8 4c3d 2115 e2bc cd9f 87bb
00000350: ce5c be3c 9fdf 563d 8a45 38bd d964 df3b
00000360: 369b 84bc ed96 ebbc 5375 f4bc 931b 3f3c
00000370: bcc5 b2bb a46f 00bc 35d7 883d 6534 8c3d
00000380: ba3c be3d be76 483d 4af0 1c3d 962a 4d3c
00000390: 487d 393d b65d 993d ad96 b03c 9cb9 933d
000003a0: 12b6 133d 4726 d33d 9cab c93c 4f9e 433d
000003b0: bf41 9cbc b1e1 d03b 8ee9 54bc cca9 7d3c
000003c0: 89d8 94bc a0a3 72bd aa31 6abd dae3 1d3c
000003d0: 9389 843c 780f 41bc 71ea 143d c9be b4bc
000003e0: e098 223d 6978 0c3d 2ec0 bebc 9f96 34bb
000003f0: bd01 993c 413d 983d 5c03 a4bc 35e5 583d
0.0052398914 0.07147397 -0.0003306631 -0.018405786 -0.029461147 -0.0075466214 0.04280379 -0.0145095205
0.022117823 0.006917345 0.015509957 0.05779596 -0.039144486 -0.039323043 -0.016529646 0.029972512
-0.04331869 0.025042783 0.014437195 -0.026806729 0.0014680548 0.053817607 0.007372069 0.01243783
0.015070819 0.06215949 0.03566064 -0.027712358 0.036673922 0.07878027 0.028504102 -0.017144732
0.044127394 0.003603029 0.008284863 0.05334905 0.039261706 0.028201552 0.03069227 0.007180523
0.10294724 -0.041734517 0.06411722 0.046502266 0.029385092 0.05179153 -0.0023960376 0.01722667
0.030043589 0.069799975 0.039276056 0.016143242 0.0206659 0.06158045 0.05995188 0.06647674
0.013084078 0.05126972 0.008729846 0.06432669 -0.043814182 -0.00890874 0.015541731 -0.03180457
-0.054305993 -0.0010728788 0.0044020824 -0.038335163 -0.007761534 0.058813173 -0.0200361 -0.017634628
-0.054612603 -0.007413005 -0.01766271 0.008015216 0.024323966 0.0036456594 0.034653235 0.061158318
0.079924785 0.03418189 0.024908783 0.03290945 0.0067285574 0.06673153 -0.0046889293 -0.013447784
-0.015917063 0.07256258 0.07446316 0.08647855 -0.008846228 -0.010419942 0.0015915552 0.008829725
-0.053529054 0.022701079 0.009314405 -0.009087995 -0.0035436011 -0.039270137 0.114823185 0.08001045
0.06186405 0.0026963626 0.022691255 0.03013762 0.033091366 0.00080038677 0.011096961 -0.027323453
0.050158504 0.06207454 0.09534852 0.04570042 0.0039905207 0.0019485215 0.02906791 0.037905425
0.011921917 -0.027562344 -0.00941567 0.008301727 0.019006688 0.0010455527 0.0464322 0.024123406
0.003932684 0.03212366 0.02936932 0.04283338 0.07389551 0.01249293 0.009944022 0.053133138
0.06799628 0.006086113 -0.03666412 -0.001962815 0.022436218 0.061172552 -0.025345176 0.0052743694
0.04464584 -0.038206015 0.0320673 -0.02410453 0.042988922 -0.030565465 -0.0034347372 -0.058337696
-0.053415075 0.027588863 -0.019417964 -0.051228486 -0.0107585015 0.043243658 0.03342641 0.007513235
0.01645531 0.013486981 0.0067523294 0.048055105 -0.030231645 0.010667157 0.057554383 0.067145474
0.08554717 0.052856196 0.05620822 -0.020911504 -0.0010533284 0.049835134 0.009545334 0.008582526
0.0140296975 0.032802522 0.048401076 0.058082994 -0.0027355007 -0.029731944 -0.00020305422 -0.010935195
0.007036285 -0.0002708795 0.07413957 0.05578042 -0.030990822 -0.019375516 0.037766524 -0.0063617304
0.023840077 0.0180499 -0.028360486 -0.010842715 0.051797517 -0.025942784 0.038342845 0.007216908
-0.021464711 0.022271575 0.051436555 0.057862785 0.04166268 0.10301907 0.07735484 0.014686653
-0.009789492 0.049995832 -0.027597966 -0.004138923 0.023237612 0.052459355 -0.044988193 0.006817442
-0.016187292 -0.02875849 -0.0298411 0.011664289 -0.0054557007 -0.007839117 0.066816725 0.06845931
0.092889264 0.048941366 0.038315095 0.01252236 0.045285493 0.07488577 0.021556223 0.072131366
0.036062308 0.10310035 0.024617963 0.047758397 -0.019074319 0.0063745608 -0.012995137 0.015482377
-0.018169658 -0.059238076 -0.05717627 0.009636844 0.016178882 -0.011783473 0.036356393 -0.02206363
0.039696574 0.03429452 -0.023284998 -0.0027555597 0.018677587 0.07433558 -0.020021133 0.052952964

encoder.conv2.bias f4 [32]
00000000: 91b3 c6bc a8b9 8a3d 79cf 303d 264b b73b
00000010: b021 44bc 4bea 573c 8bd6 3b3d 74b0 2b3d
00000020: 406a c0bc dea0 313d ccd5 9d3c 6606 8c3d
00000030: d96d cc3b 98f8 82bd ddbf 12bc 007a 9f3d
00000040: ce57 533d 2095 01bd 3624 1fbb 9e2b d03c
00000050: d12a 683d 4a2a 39bc a411 60bc 710f 7bbc
00000060: 03e8 2abb f928 3a3d fa5d 4c3c 59ae f33b
00000070: 484b 863d 192b 8cbb 1405 9abb 1afe 9a3c
-0.024255546 0.06773692 0.04316661 0.005593675 -0.011970922 0.013178418 0.0458589 0.041916326
-0.023488164 0.043366306 0.019266985 0.06837158 0.006238681 -0.06395072 -0.008956877 0.077869415
0.05159741 -0.031636357 -0.0024283058 0.025411423 0.056681458 -0.011301586 -0.013676081 -0.015323506
-0.0026078231 0.04544923 0.012473578 0.0074365553 0.065573275 -0.0042775986 -0.0047003124 0.018919993

encoder.conv3.weight f4 [4, 32, 5]
00000000: f6a0 65bd 0e0e 87bd 3f58 89bd cfe7 893c
00000010: 2240 57bc d738 573b 8aad 093d 1374 b23d
00000020: 238b 603d f349 23bd 5df3 b33d 8f28 483d
00000030: a07d d83d 72e3 353d aa7c b43c 7028 863d
00000040: c56f 4b3b c5c8 333d 6c15 d3bc 034d 50bd
00000050: c2be 163c 38b8 bcba 360c 743d f0a4 8a3d
00000060: 29d0 73bd 19df 8b3c c558 b8bc 2f7d 00bd
00000070: dd47 d53d 647a bbbd dd93 3fbd 3e79 b33c
00000080: 5a93 863d 6bc6 8a3d 9593 88bd 7d1f 263d
00000090: a9d1 b53d 1061 6dbd 31bd 18bd e349 273d
000000a0: 91c6 9b3a c525 2e3c 6c64 aebd 401a e83c
000000b0: dc88 97bd f361 74bc ddeb a13d 2bcb bdbc
000000c0: acf4 dbbc b884 aa3d 407b 82bd c666 883c
000000d0: c741 d7bc 80f1 2bbc 59fc 913d 78b5 783d
000000e0: 051e 1b3d 1886 8d3c 9bd2 6f3d 2448 933c
000000f0: 898a f53c defb 2fbd 1fba 98bc 2e6e 093d
00000100: ccb3 a93c f9eb 3b3d ef58 bebd 6e0d 3ebd
00000110: 8811 11bc e18c 0bbd 2c9d 653d e2cd d93b
00000120: 410e 0abd ff76 533b 4a13 613d 3ad4 dfbb
00000130: a780 cc3d 42b5 83bd 3983 b93d ccf2 ac3d
00000140: af3e 83bd 8631 db3d f245 f2ba 8be1 79bd
00000150: 2485 96bd 611f 2fbd 52cd 323d a665 cfbc
00000160: 1255 c8bd aa33 85bc ac2a 063a f40a abbd
00000170: cd2e b53d d5e4 343c 086a bc3c 386a 3a3d
00000180: 0c56 aa3d 8021 ff3b b594 5b3c 300a 9d3d
00000190: 0f94 0bbd c789 043d cd8e 9fbc 8e70 f8bc
000001a0: a285 953d 3f1e 7d3c 57d7 d13d 70cd a43c
000001b0: dff4 d3bc 7db2 0fbc fa10 8c3d 7f3c 82bc
000001c0: 334b b73d 6ee7 863c a3e7 443d c947 473c
000001d0: b672 ff3c 3e7b f93c 568b 833d 4bba adbd
000001e0: 544d 49bd f4e9 b6bc cb3e 71bd 0b1b 47bd
000001f0: 236c 37bd 9197 4cbd 910a dd3c d94e 07bd
00000200: 8fe0 d93d 73cd 943d addc ce3d 40b3 68bb
00000210: 0f6b cfbb 51eb ba3d 0338 103c 406e c63d
00000220: 022e 19bd 9b2c 223e 4d75 5ebd ea2b abbd
00000230: d3d8 883c 03f9 3a3d a2ec 13bd 440b d43d
00000240: 8eb3 b93d 9182 e7bc d9dc 9cbc 79a4 83bd
00000250: cc55 05bc 629c da3d 0543 43bd bfae c03d
00000260: 4d82 013c be75 bcbb 2732 a03d 4234 c23d
00000270: 8ad6 4e3c c100 f6ba c962 873d 9f77 cbbc
00000280: 4f67 d53c dbf7 a7bb c1ca c23d 70af 923d
00000290: 0bfb d83c 18ca 853c 0056 ecbb 2b03 b73d
000002a0: 9d2a e53d 368e da3d a6f4 1bbd a235 a13d
000002b0: 6072 a73d 64af 78bd 1323 4a3d 86b5 ccbc
000002c0: e450 cdbc b72c 84bd 504b 6f3d 9356 c5bc
000002d0: 92d6 5fbd cae8 a53c 8451 cdbc 828d 51bd
000002e0: 026f 3bbd b7b4 6f3c ad94 5ebd cb8b 1bbc
000002f0: a642 c339 ba18 78bc d5d8 17bd e206 8b3d
00000300: 3921 5d3d b659 0ebd 40db 333d 863b 7c3d
00000310: 9488 eb3d fcf3 e8bc 6bac 6ebb e7f5 563c
00000320: 7077 c13b 91fe 3d3d 923c 523e b41a 573e
00000330: 3ca7 f1bb 29f5 3d3d 553b 90bd d55f 2abd
00000340: c7d3 cebd e857 d9bc 86df c63c e0d0 073d
00000350: 6b4e b23d adb9 2e3d 9df9 333c 2313 06bd
00000360: fcb3 703c ccef 39bd 604c 383d 4954 37bd
00000370: 8c14 6c3c 2620 40bc 30cd 0b3d ca8a 1fbd
00000380: 8f85 da3a e672 aebc e73e b5bd 6ab3 9dbd
00000390: d3c1 d5bd b49b f03c f994 4b3c 7799 223d
000003a0: f650 fabd 4393 0cbe 6a25 b8bc a4b6 52bd
000003b0: f2f2 bd3d ff79 0e3a e4c3 cdbc 6169 543b
000003c0: 5099 bc3b a824 2ebd 91f2 b43d 85f4 033e
000003d0: 573a 023d 463b 3cbd a467 18bd 269f bb3b
000003e0: cbbb 833d fa0f 8f3d eb5a 943d 5541 e33c
000003f0: 9150 c23c 7720 abbc a2a3 783c 8a33 8bbd
-0.056061707 -0.065944776 -0.06706285 0.016834168 -0.013137849 0.0032840276 0.033612765 0.08713546
0.05482019 -0.039865445 0.08786652 0.048866805 0.10570836 0.044406362 0.0220321 0.065506816
0.0031041962 0.04389264 -0.02576705 -0.050854694 0.009200754 -0.0014398163 0.059581958 0.067697406
-0.05952469 0.017074155 -0.022503266 -0.031369384 0.104140975 -0.091542035 -0.046771873 0.021908399
0.06571074 0.067761265 -0.06668774 0.040557373 0.0887788 -0.057953894 -0.037289802 0.04084195
0.0011884739 0.010629122 -0.08515248 0.02833283 -0.07399151 -0.014915931 0.079063155 -0.023168167
-0.026850067 0.08326095 -0.06371164 0.016650569 -0.026276482 -0.01049459 0.071282096 0.060719937
0.037870426 0.017275855 0.05855046 0.017978735 0.029973285 -0.04296481 -0.018643437 0.03355234
0.020715617 0.045879338 -0.092943065 -0.046399526 -0.008854277 -0.0340699 0.056058094 0.0066468576
-0.033705 0.0032266972 0.054950036 -0.0068307193 0.09985476 -0.064310566 0.09058232 0.08444747
-0.0640844 0.10702805 -0.001848398 -0.06100611 -0.07349613 -0.042754535 0.04365284 -0.025317024
-0.09781851 -0.016259987 0.0005118053 -0.083516985 0.08846817 0.011040886 0.022999778 0.045511454
0.083171934 0.007785976 0.013402154 0.07667959 -0.034076747 0.032357957 -0.019477272 -0.030327108
0.07300879 0.015449106 0.10246151 0.020117491 -0.0258736 -0.008770582 0.068391755 -0.015897987
0.0894989 0.016467776 0.04807247 0.012163111 0.031182628 0.030454274 0.064230606 -0.08482798
-0.04914601 -0.022328354 -0.058897775 -0.048609775 -0.04478086 -0.049949232 0.026982578 -0.03303418
0.10638534 0.07265749 0.10100684 -0.0035507232 -0.006329901 0.09126914 0.008802417 0.09688997
-0.037397392 0.15837328 -0.054311085 -0.08357985 0.016704952 0.045647632 -0.036114343 0.10353711
0.090674505 -0.028260501 -0.019148277 -0.06427855 -0.008138131 0.10674359 -0.047671337 0.0940833
0.007904601 -0.0057513407 0.07822066 0.09482624 0.012624392 -0.0018768535 0.06610639 -0.024837313
0.026050238 -0.005125982 0.095113285 0.07162368 0.026486894 0.016331717 -0.0072124004 0.08936151
0.111897685 0.10671656 -0.03807511 0.07871558 0.08176112 -0.06071414 0.049349856 -0.0249889
-0.025062986 -0.06453841 0.058421433 -0.024089133 -0.05464799 0.020252604 -0.025063284 -0.051160343
-0.045760162 0.014630488 -0.054341007 -0.009493778 0.00037242955 -0.015142614 -0.03707202 0.06788422
0.05398676 -0.034753524 0.043910265 0.061580203 0.115006596 -0.028436653 -0.0036418687 0.013120151
0.0059041306 0.04638535 0.20530918 0.2100628 -0.007374672 0.04637638 -0.07042567 -0.0415953
-0.10098987 -0.026531175 0.024276506 0.033158183 0.08706363 0.042657543 0.010984805 -0.032733094
0.014691349 -0.045394704 0.044994712 -0.044758115 0.014409196 -0.011726415 0.03413123 -0.03895072
0.0016671884 -0.021295022 -0.08849888 -0.07700236 -0.1043736 0.02937112 0.012425655 0.039697137
-0.12222473 -0.13728051 -0.022478778 -0.05144371 0.09274854 0.0005435049 -0.025117822 0.0032411444
0.005755581 -0.042515427 0.08835328 0.12886246 0.03179392 -0.045954965 -0.037208214 0.005725759
0.06432303 0.06985469 0.07243904 0.027741114 0.023720058 -0.020889504 0.015175732 -0.0679694

encoder.conv3.bias f4 [4]
00000000: db1d b93d 7de3 493d 4d9b 28bc 928c 15bd
0.090388976 0.049289215 -0.010290933 -0.03651101

decoder.deconv3.weight f4 [4, 32, 5]
00000000: cbfe 1ebb 9b39 a13d 9f0c 4ebd 4386 1ebb
00000010: fc07 5d3b 401f e63c 67f4 d63b b902 dd3c
00000020: 8235 a1bc 5812 a93d 9a1e ab3d 114e 943d
00000030: fb06 acbc 324f f33c 71e9 1cbd a212 803d
00000040: f999 99bd d47c 423d cc38 37bd 4cc9 40bc
00000050: 0b89 eabc f701 e7bc ed14 3d3c f112 cebc
00000060: ca1a b2bd 1f9a c33c f768 a8bd 5bf3 913d
00000070: 7349 fcbd 5210 8f3d af61 1e3d c9ae b63c
00000080: 586f bfbd 40db f3bd a975 e7b8 247c 5e3d
00000090: c6cc 453c d253 223b caa8 aa3d 3dc4 8b3d
000000a0: fd5c 36bd e308 c1bd 9677 a3bd 9556 cabc
000000b0: a79f 183d 4db8 45bd ada7 66bd 55d8 ae3d
000000c0: 7034 be3d 880c 053d 0a00 8e3d 6505 693d
000000d0: 8225 783d 35e4 c23d e133 67bd 29ef b7b9
000000e0: bf9d 00bd bb08 593c 95af e73d 89f5 083d
000000f0: ed53 123d 340c a13d 29e6 40bd e49a c1bb
00000100: b7a0 1ebd 3674 773d 1d93 56bd 0863 9f3d
00000110: 5889 e4bc 47dc e03b a765 eebc e488 573d
00000120: 8984 443d d1d5 0a3d ddab c03d 8130 373d
00000130: b1f4 d43d 63a3 47bd e0bc 15be fec5 173d
00000140: 8891 c93c 0b1a 3f3d 3df3 963d 8e5d 8cbd
00000150: b708 87bd 782c e63c 5866 fdbc 963e 713d
00000160: 78d6 cf3d bf79 a1bd 19a4 d0bd 27db cfbb
00000170: 1cbc bcbc fecd f23d 4ed7 60bd da0b b23d
00000180: d75d a53c 79c7 83bd 4059 043d b951 963d
00000190: 7844 fabc edd8 2d3d 0a39 81bd 401a 65bc
000001a0: 082c 103e e46e b3bd feb2 743d 2e52 1dbd
000001b0: 18d1 9dbc b56e c03c 209b 50bd 3139 95bc
000001c0: a453 ddbc 9a8a d8bc 9854 df3c 9629 e53c
000001d0: ee74 cd3b 58ec a03c db94 7fbd 8274 013d
000001e0: b343 50bd 2601 a83d c400 143d 3581 0b3d
000001f0: 267c 1b3b 56b0 833d 9a17 13bd f721 903d
00000200: df85 f93d 417b eebc 7a0d 81bd 221c 693d
00000210: 70b0 81bd 51e4 7a3d 2cad 82bd ef36 86bd
00000220: 5902 0bbc a74a 06bd aa79 febd ce85 b03c
00000230: 74ee 973c 355d 923d 9413 8bbb 3ea8 aabc
00000240: 30d7 ae3d 9b5c 6c3d e25e 03bd 2cc8 e53b
00000250: 83e3 5a3d f3a7 3d3d e559 bc3c 4c1a 683a
00000260: 9102 c9bc f61e b9bb 1554 dabb 5e78 ac3d
00000270: ea46 d03b eb6e af3d 8189 5e39 a967 f43d
00000280: f189 c93c 9ed2 a63c 29d3 a6bd cd86 3abd
00000290: b895 fabc 1e2d 8cbb cbbe a4bc 2847 df3c
000002a0: a2bf 75bd a9bb 433d 746d 3c3d ce5e 56bd
000002b0: d7b9 e3bd 9efe 0e3d 0611 ecbc a7ea 783d
000002c0: 2114 b23c 118d dabd 378e 283d 8490 afbc
000002d0: 9cdb 1c3d 6f3a 6b3d 3e07 edbc 3673 48bd
000002e0: d910 bf3c 4395 d1bc 835b 3c3c fd48 eabd
000002f0: 1d8d b63b f788 1dbc 06a2 af3b 4fe7 103d
00000300: 2f79 d1bb 5528 9a3c fa60 e83c ada4 833d
00000310: cfcb 3e3d d3dd 42bd 7883 c5bd fdac 5dbd
00000320: 988c 3b3e 56c0 013d 276e 053e be14 e4bd
00000330: 93fc 79bd ab40 473d 5b27 603d 0b36 583c
00000340: c42b f0bc b196 c8bc 33a1 b8bc 3612 2abd
00000350: f139 c8bd eb56 573c 7c5c 873d d8ec cf3b
00000360: 6df4 cfbb 206b 20bd abc3 f93c cdcd b13d
00000370: 82a5 2b3d 70fa 293e d5a9 ad3d cfa3 a3bd
00000380: 654b 3dbd 3344 833d f815 a43d 107e 2dbe
00000390: 7f07 a9bd fb23 7b3b dc36 ecbc 36eb 8dbd
000003a0: a1e1 f2bd 2efb 50bd 17cc 913d 6369 f23b
000003b0: 6c3b 3f3c 0bf4 5f3b e357 96bd b28a 893d
000003c0: 6468 4c3d 5c89 003e 3995 7b3c fa28 443d
000003d0: cf86 21bd 33f9 71bb 9ecf 82bc 9f8f acbc
000003e0: 8f9c 0bbd 25f4 dc3b 9713 00bd 1714 4f3d
000003f0: 1eff abbd 12a6 ee3c c2cd 20bd 4354 313d
-0.0024260755 0.078723155 -0.050305005 -0.0024188913 0.0033726683 0.028091073 0.0065598967 0.026978837
-0.019678835 0.08255452 0.08355446 0.072414525 -0.020999422 0.02970085 -0.038308565 0.06253554
-0.07500071 0.047482327 -0.0447319 -0.011766743 -0.0286298 -0.02819918 0.011540634 -0.025155516
-0.08696516 0.023877202 -0.082231455 0.071264945 -0.12318697 0.06985535 0.038667377 0.022300141
-0.09347409 -0.11907053 -0.00011036854 0.05431761 0.012072748 0.00247692 0.08332975 0.06824539
-0.044522274 -0.09425523 -0.079817936 -0.024699489 0.03726163 -0.048271466 -0.05631225 0.08537356
0.092873454 0.032482654 0.06933601 0.05688991 0.060582645 0.09516183 -0.05644596 -0.00035082668
-0.03140044 0.01324671 0.113127865 0.033437286 0.03572457 0.07863656 -0.047094498 -0.005908357
-0.03872749 0.06041356 -0.052386392 0.077825606 -0.027897522 0.0068621966 -0.029101206 0.052620783
0.047977958 0.033895317 0.0940778 0.04472399 0.10398234 -0.048739802 -0.14622831 0.037054054
0.024605528 0.046655696 0.07370613 -0.06853782 -0.06593459 0.028097376 -0.03093259 0.058897577
0.101483285 -0.07884549 -0.10187549 -0.0063432637 -0.023038916 0.11855696 -0.05489283 0.08693667
0.020186348 -0.06434531 0.032311678 0.07339806 -0.030550227 0.042443205 -0.063097075 -0.013983309
0.14079297 -0.08761385 0.059741013 -0.03840845 -0.019264743 0.02349029 -0.05092919 -0.018215748
-0.027017422 -0.026433278 0.027262017 0.027973931 0.0062700426 0.019643947 -0.06239782 0.03160525
-0.050845813 0.08203344 0.036133543 0.03405877 0.0023725121 0.06430118 -0.03591118 0.07037728
0.12183737 -0.029111506 -0.063013986 0.056911595 -0.06332481 0.061252896 -0.06380686 -0.065534465
-0.008484446 -0.032786038 -0.12425549 0.021548178 0.01854632 0.07146684 -0.0042442773 -0.020832177
0.085371375 0.057705503 -0.03207291 0.0070123877 0.05343963 0.046302747 0.022992084 0.0008854016
-0.024537357 -0.005649443 -0.0066628554 0.08421396 0.00635611 0.08566078 0.00021222794 0.11933834
0.024601908 0.020364102 -0.08145744 -0.045538712 -0.03058897 -0.0042778393 -0.020110508 0.02725561
-0.05999721 0.04778639 0.04600282 -0.052336507 -0.111194305 0.03491079 -0.028816711 0.060770657
0.021738114 -0.106714375 0.04115125 -0.021431215 0.038295373 0.057428773 -0.028934117 -0.048938
0.023323463 -0.025583869 0.0114964275 -0.11439703 0.005571021 -0.0096151745 0.005359891 0.035376843
-0.00639262 0.01881806 0.028366555 0.06427894 0.046581086 -0.04757483 -0.09644216 -0.054120053
0.18315351 0.031677566 0.13030301 -0.11136769 -0.06103189 0.048645657 0.054725032 0.013196479
-0.029317744 -0.024485918 -0.022537803 -0.041521274 -0.097766764 0.013143281 0.06609437 0.0063453726
-0.0063462765 -0.039164662 0.03048881 0.086818315 0.041905887 0.1659944 0.084796585 -0.079902284
-0.04621448 0.06409492 0.08012003 -0.1694262 -0.08253383 0.0038321007 -0.028834753 -0.069296286
-0.118594415 -0.051020794 0.07119005 0.007397817 0.011671882 0.003417256 -0.07340982 0.06715907
0.049904242 0.12552398 0.015355402 0.04789064 -0.039435204 -0.0036922216 -0.01596814 -0.021064578
-0.034084853 0.0067429715 -0.031268682 0.05055627 -0.08398269 0.029131923 -0.039258726 0.04329325

decoder.deconv3.bias f4 [32]
00000000: 35e5 f1bd d70f 1a3d f72f a93d 6bb1 5abe
00000010: 8589 65bd a5dd b6bc d016 4a3c 3f7d 143d
00000020: 99c4 5cbd 1659 4e3d bb08 7b3d 0c60 863c
00000030: c3b4 0abe e2b4 abbc c6bd c8bc 7058 21bc
00000040: a6a1 e6bc ed20 383d c24f 10bd e990 973d
00000050: 83b5 9ebd 4fd4 5cbd f968 063d 9b95 63bd
00000060: f4c3 8a3c 39f5 6c3c ae6e 183e 2a36 293d
00000070: ec88 143d 7f1e 853d 4614 1c3d ea7c 463b
-0.11811296 0.037612762 0.08261102 -0.21356742 -0.056039352 -0.022322485 0.0123345405 0.036252256
-0.053898428 0.050377928 0.061287623 0.01640322 -0.13545518 -0.020960275 -0.024504554 -0.009847745
-0.028153252 0.044953275 -0.035232313 0.07400686 -0.07749464 -0.05391341 0.032814953 -0.055562597
0.01693914 0.0144627625 0.14885971 0.04131142 0.03626339 0.06499957 0.03810527 0.0030286857

decoder.deconv2.weight f4 [32, 64, 6]
00000000: 213c 773d 7b65 083d 9391 ef3d 1b9d 0bbd
00000010: 7248 cc3b 01ca 74bd eab5 e53d 5375 513d
00000020: 624a 593d 7261 ebbc 95d9 88bd b23b 633c
00000030: eddd 6f3d c3a8 3a3d 0c65 ae3d f1f4 50bd
00000040: ddec 0ebd 4ff5 1bbd 9205 c9bd c9dc b3bd
00000050: 59e1 1fbe 0175 d7bc cdcf 5a3d 8e4b 073d
00000060: 5c43 efba 1efa d4bd 925e 3cbd 77f1 fcbc
00000070: cfec bebc f367 bf3c 1a77 8cbd a84b abbd
00000080: 6af7 c03c 5a98 9f3c 2530 bfbc ff23 7f3d
00000090: 6e56 8ebd 6610 32bd db6d 14bd f74f 763d
000000a0: 8959 4a3d 3dd0 76bd f29c 943d 9fa4 ac3d
000000b0: 8e80 4d3d 885d 64bd 0a98 403c 6cd1 92bc
000000c0: d40a 08be 54c9 aabd f017 d5bd 1ff4 da3c
000000d0: 2eda 3c3d 5632 8b3d 0ba0 7e3d fdad bf3d
000000e0: b079 9f3d 119d 3cbd ac83 2cbc b45b 4fbd
000000f0: e24a d53c 90e5 b43d 1535 c13d d5fa 06bd
00000100: 2b7f 8ebc a9cb 2dbd f30a c2bd e80a 48bc
00000110: d909 47bb 5478 88bd 001d febd 0c54 003d
00000120: a20b 16bd b48e 96bc e770 f33b 469f 03bd
00000130: d37b 69bd 0a8f 24bd 1132 1a3e 0192 3e3c
00000140: 1dbf df3c 6a40 b1bd ae49 8f3c 21d9 093c
00000150: 7584 ca3c e7cf bd3d 049f 5f3d c0da b73c
00000160: e38b e23b 097d fbbc 85ba 813d d735 903d
00000170: 3ddc 22bd 1321 1dbd 744d 80bd 3491 66bd
00000180: d94d 98bd 89d9 0abe 17f6 bcbc e26c 063d
00000190: 78a4 033d 5fe5 5f3d 8446 0ebc 900b 323d
000001a0: b652 6e3c 73b1 ccbc 1369 0abd 7aa0 35bd
000001b0: 9fa1 633d 2969 1b3d ac9c 2b3c 25bd ca39
000001c0: c2d0 ad3c e1a6 d9bc c9c1 b43c 4a83 3f3d
000001d0: e0f1 f23c 51ee 753c 6ee9 ca3c cef3 0fbd
000001e0: 2cc8 6b3b ca75 b53d 34e2 de3c aef6 1d3c
000001f0: 6f8a fcbc 642a 78bd e6a2 093d a771 27bd
00000200: 1e5e 3abc e729 5cbd da69 61bd c9da 81bb
00000210: fc82 953b 3107 183d 1fc4 b3bc 3087 b8bb
00000220: 0311 173c 9463 273d f876 df3c b9ef 453d
00000230: 165f ffbc 8f9f 8bbc 1783 d73b c446 a93c
00000240: 7943 323d d024 5a3d 9c86 e03d 06af d03c
00000250: 8062 6fbb 151f d7bc 2b76 95bd 0950 95bd
00000260: c145 58bd 56c1 1b3c 5671 61bd eb60 b9bc
00000270: 46e6 433d 0c3b 823d 108a 883d c90a 093d
00000280: 6db3 5bbd 7178 96bd 325b 70bd 8d3c eebd
00000290: 99c3 efbd 3b48 ecbc 708e 8e3d 1b4a 673c
000002a0: da2a 24bc c9e9 21be 2593 eabd 109f 60bd
000002b0: cbf6 cbbc 831e b13b db90 d1bd 2baa 13be
000002c0: 14f6 c0bd 17cf 273b ab67 193c 5636 483d
000002d0: 8a12 bc3c a430 dd3d db1d 1f3d 6730 013d
000002e0: 6166 92bc 98d3 bfbc 3f70 2f3c 4a1b f43b
000002f0: 28fb 163b 0f56 783d a2b8 dcbc 0b0f 4abc
00000300: 63c0 cb3c d2ca 813d e949 07bd d5f3 d23c
00000310: a658 1f3c 267e f33c d97e ccbb e232 79bd
00000320: 3ec3 42bd 1d4c d539 7dd8 78ba 073b 1d3c
00000330: ebb4 ac3d 1ee8 893d d4a9 143d 8ab5 27bd
00000340: 87c1 923c 714a 5e3c 0f21 663d f0fc c03d
00000350: 198c 133d 237e 72bd d921 adbd f310 63bd
00000360: 575b 843d 123b 4d3c ae3a b23d 7a01 363d
00000370: bc5d 0fbc cb46 11bd fd1c 83bd c7f6 73bd
00000380: 98c8 95bd 189f 1d3c 1042 7a3d f08c d4bc
00000390: d0e5 18be 76ce 26be 05c7 91bd ef16 323c
000003a0: 607e 973c 91db b5bc 5b1d 163c af16 7bbb
000003b0: 4927 1fbd bc21 5fbd 5d39 ac3c 9c90 da3c
000003c0: 34fa f9bd f5a8 aabd dc0b c2bc 12ef 7ebd
000003d0: 6577 9b3d 1e3a 0f3d e13a 5b3d ae33 8d3c
000003e0: bf37 963d 50a8 8cbc c2fd 31bc 70f1 0bbc
000003f0: 743f e33c 0266 d43d eb45 663d 410a 6e3c
0.060360078 0.033299904 0.11697688 -0.034085374 0.006234222 -0.05976296 0.11216338 0.05113728
0.053049453 -0.028732989 -0.066821255 0.013869213 0.058561254 0.0455711 0.08515367 -0.051014844
-0.03489386 -0.03807574 -0.098155156 -0.08782346 -0.15613307 -0.026300909 0.05342083 0.03303104
-0.0018254328 -0.103992686 -0.045988627 -0.030876858 -0.023306279 0.023364997 -0.06858654 -0.0836404
0.023555476 0.019481827 -0.023338387 0.062290188 -0.06950079 -0.04347267 -0.03623758 0.060134854
0.049401794 -0.060257185 0.072564974 0.084298365 0.050171427 -0.05575326 0.011754999 -0.017922126
-0.1328538 -0.083391815 -0.10404956 0.026727734 0.04610651 0.0679671 0.062164348 0.093593575
0.07786882 -0.046048228 -0.01052944 -0.050624564 0.026036683 0.08832848 0.09433953 -0.032954056
-0.017394623 -0.042430554 -0.09474745 -0.0122096315 -0.003037086 -0.06663576 -0.12407875 0.031330153
-0.036632188 -0.018378593 0.0074292305 -0.032134317 -0.057002854 -0.040175475 0.15058161 0.01163149
0.02731281 -0.08654864 0.017491188 0.008413584 0.024721364 0.0926817 0.05459501 0.022443175
0.0069136485 -0.03069927 0.06334404 0.07041519 -0.039760817 -0.03836162 -0.06264773 -0.05629082
-0.07436723 -0.13559546 -0.023066564 0.032818682 0.03213927 0.054662105 -0.008683804 0.043468058
0.014546087 -0.024986958 -0.033791613 -0.044342496 0.055574056 0.037942085 0.010474365 0.00038669366
0.021217708 -0.026568832 0.02206506 0.046756066 0.02965635 0.015010432 0.024769511 -0.03514462
0.0035977466 0.08860357 0.027207471 0.009641333 -0.030827729 -0.0605873 0.033602618 -0.04087987
-0.011374978 -0.0537509 -0.05503259 -0.003962849 0.0045627337 0.037116233 -0.021944104 -0.00563135
0.0092203645 0.04086645 0.027278408 0.04832432 -0.03117327 -0.017043857 0.0065769064 0.020663626
0.04352138 0.053257763 0.10963175 0.025474083 -0.0036527216 -0.026259938 -0.072979294 -0.07290656
-0.052800898 0.009506544 -0.055039726 -0.022629222 0.047827028 0.063589185 0.06666958 0.03345755
-0.05363791 -0.07347191 -0.05868072 -0.11632643 -0.11707229 -0.028843036 0.069607615 0.014116789
-0.010019982 -0.15811838 -0.11453847 -0.054839194 -0.024897953 0.0054052486 -0.10232707 -0.14420383
-0.09421936 0.0025605613 0.009363095 0.048879944 0.022958059 0.10800293 0.03884683 0.0315403
-0.017871084 -0.023416325 0.010707914 0.007449542 0.0023037884 0.060628947 -0.026943509 -0.012332688
0.02487201 0.06337513 -0.03302947 0.025751034 0.009725725 0.029723238 -0.0062407074 -0.06083954
-0.04754948 0.00040683235 -0.00094927085 0.009596593 0.08432945 0.06733726 0.036294773 -0.040944614
0.017914547 0.013567553 0.05618387 0.09423244 0.03602228 -0.059202325 -0.084537216 -0.055436086
0.06462734 0.0125262905 0.087025985 0.044435002 -0.008750375 -0.035467904 -0.064020135 -0.059561517
-0.07313651 0.00962045 0.06109816 -0.02594611 -0.14931417 -0.16289696 -0.07118038 0.010869726
0.018492877 -0.022199424 0.009162272 -0.003831308 -0.038855825 -0.05447553 0.021023447 0.026680283
-0.122059256 -0.08333007 -0.023687296 -0.062239714 0.07591132 0.034967534 0.05352295 0.017236557
0.073348515 -0.017170101 -0.010863723 -0.00854145 0.027740218 0.10371019 0.056219023 0.014528812

decoder.deconv2.bias f4 [64]
00000000: b408 ea3b 980e 84bc 4eac dc3c 873a 95bc
00000010: 33a8 0cbc 4185 143d c87f 573d d7ff 8a3b
00000020: 66fe 41bc 8599 433a a43a 0b3d 4203 5a3d
00000030: 4935 b9ba 9ca5 843b bc8d f23b e180 2d3c
00000040: 52dd 33bd f3ee 58bb b364 45bc 7925 13bd
00000050: bd9c 5b3d 7eef 3b3b b31c 113d 4050 cd3c
00000060: 65ef 043d 6e72 61bc 3a08 0d3d 38d8 a33c
00000070: cc2f 2c3d 2600 ff3c 7a0e 0a3d a12d 76bc
00000080: c3e1 8a3a deb5 0bbd e079 443d 3648 a5bc
00000090: 79e2 be3c 21d0 743d b540 033d 96e9 91bd
000000a0: 7de1 22bd fe67 cdbb 7a39 7c3b 8ce5 67bd
000000b0: 76cd 4c3c 6132 3f3d 9c5d 133d 3033 023c
000000c0: 84d8 9abc 118b b539 7310 df3c a8a0 46bd
000000d0: 012d 193d 3ce0 423c ae4d 98bc c9ce 17bb
000000e0: 85b2 223d 8ff2 3d3c e53d 25bd c531 823d
000000f0: ee05 9ebc fe7f 7c3d 27e1 653d e3be 83bd
0.007142151 -0.01612024 0.02693763 -0.018216385 -0.008585024 0.036259893 0.052612096 0.0042419243
-0.0118404385 0.0007461536 0.03399147 0.053225763 -0.001413026 0.0040480625 0.00740215 0.010589809
-0.04391224 -0.003310141 -0.012047934 -0.03592441 0.053616274 0.0028676684 0.03542776 0.02506268
0.032454867 -0.013760192 0.034431674 0.020000562 0.04203777 0.031128 0.033705212 -0.015025527
0.0010595847 -0.03410899 0.04796779 -0.020176034 0.02330135 0.0597688 0.03204413 -0.07124631
-0.039765824 -0.0062685004 0.0038486407 -0.056615397 0.012500158 0.046678904 0.035977945 0.007946774
-0.01890207 0.00034626623 0.027229523 -0.048493057 0.037396435 0.011894282 -0.018591728 -0.0023164025
0.03972103 0.011593475 -0.04034223 0.06357149 -0.019289937 0.0616455 0.056122925 -0.06432893

decoder.deconv1.weight f4 [64, 1, 8]
00000000: 5d1c 9c3e 60be a7be 45f1 8ebe 9ffb 01be
00000010: 1398 b3be 35ac 50be f505 6b3d a49e 0f3e
00000020: 0f47 a23d d68c 81bd 7567 3dbd 1109 f1bd
00000030: 3e7e 5cbc a288 84be 4b0b 04be 1169 213e
00000040: fe3c 94be bbf1 753e 8564 96be 384d c8bc
00000050: a51b 0f3e 85af 3abe 604a 3c3e 32ca 6dbe
00000060: 16d0 aa3d 671c 493e d75d c33e 7724 9e3e
00000070: e3ef 593e 37ff cc3d ce2a 9a3e ca12 703e
00000080: eea1 a93d 7e31 0dbe 6a13 e2bb ba75 62bd
00000090: dd87 66be cbcd 833e 5fa6 863e 9ce5 10bc
000000a0: 88ed b23d 0e1f 423e 4632 e5bd aec8 313e
000000b0: 4a83 353e 2205 973d bd9c 9b3e 7110 a43e
000000c0: 5451 00be 65d3 2f3e 902d a23e ccdc ac3e
000000d0: 0192 67be 42c9 093e 4d96 213e 917b 973e
000000e0: 0e04 633e e1df 4fbe 31dd b5bd c5be 00bd
000000f0: 2376 b5be 52aa 9b3c 6d16 98be ea4f 743e
00000100: 9b4d 403e f0b0 0cbd 4f0c 15bc 9bf9 c73e
00000110: 122f 0a3e 696c c33e e398 863e 1a48 89be
00000120: 6f89 17bc 9272 6b3e 75a7 8bbe 3ce2 08be
00000130: b2b2 9e3e 4d9e bebe e035 a0be 348d a3be
00000140: 2c6f 13be 6b18 913d 55a6 7bbe 938f b1bd
00000150: 19d0 4cbd 35a3 683e 7c52 953d c6ce 54be
00000160: cb25 093e d8ea dfbd 7064 7d3e e8e1 41be
00000170: 425d 06bd 898a 533e d5b5 683e f1f9 c43e
00000180: f9f8 b23d 1bd9 843e 1ad8 4eba 0aee d0bd
00000190: fc84 d5bd 0b0e d1bd 5bd2 c0bd a9a7 963e
000001a0: 1a4c 9e3e 9df8 103e d1f1 53be f996 af3d
000001b0: 11c9 66be 7b73 a0be 69c4 37be 7391 0b3e
000001c0: 0fcd 73be 38bb 2f3c ba31 be3c 7c24 073d
000001d0: 6372 27be 7dd7 b0be faf3 ae3d 0aae 36be
000001e0: cedb 00be 8b7e b2bc bf45 6e3e 7683 2cbe
000001f0: 0eac aebe 9d8a bb3d 7998 63be 5ab5 7ebe
00000200: ca43 9f3d a21f b93e 020e 883e 2148 d1bd
00000210: 40ad 023e 165f 12bd 5964 753d 729a c03e
00000220: 77ea 92be e49e ddbd 2717 603e 36b6 c0be
00000230: d700 743e 2c37 9cbe f714 1a3e 527a b53d
00000240: 91f5 c3bd 3eb6 37be 5d94 38be 0c35 66be
00000250: 71dd 30bb e081 d0bd de2a 9ebe db52 b3be
00000260: acfd 31be 059d 83be 9c8c 7fbe 9a20 ce3d
00000270: 3031 60be 1365 943d b54c b13e 6285 25be
00000280: 75dc 37be 3236 003e 000c 12be faa3 d03c
00000290: 3ee8 a53c db71 0b3e 3064 1abe 27ce 1dbc
000002a0: daac 24be 02c8 aebd 0933 8e3e 52ca c8bd
000002b0: 7205 0bbe d634 4bbe a4b6 153c 3028 a5be
000002c0: 3b4f adbe 70c3 493e f79e b63d 33f1 c5bd
000002d0: 138a a23e 0cd5 fcbd 890d 3f3e 0404 9dbe
000002e0: 8b72 5f3e 3d0c b4be f052 3fbd 36a2 79be
000002f0: 7030 193e f8c1 5cbe 0be6 b93d bfa0 a6be
00000300: 23e4 a33c 795d a4bc 2cdc 83be 4b1e 25be
00000310: 6465 21be d4ed 4abd 021b 083c 1332 893e
00000320: 5302 803e 81a9 dd3d f2a0 b33e 355b a0be
00000330: 98ad 04be f2ab 733e e710 3b3c 919b 87be
00000340: 235a a33d 9c1d 85be 24b8 4d3e a1ae adbe
00000350: 84bb 68be 4438 a8bc 5eed 00be f323 eebd
00000360: 5fab 7c3e 1989 debd 32fd 8c3e e23e 7d3e
00000370: 6f74 353d 96b6 313e ed64 80be 262c 263e
00000380: 9221 75be 73f1 9a3e 399c bb3e a4a6 8b3e
00000390: 2b30 913d d358 a5bb 2749 033e 9e9e 913e
000003a0: cef5 e3bd 87ad 74bd 467d a13e 6e6f 80bd
000003b0: 7a67 9e3e 7724 903e df22 403e b567 b03e
000003c0: 026f 5fbe 8a4d 0abe fcd9 9c3e 10a6 8ebe
000003d0: 2ab9 ea3c 2c09 85be 2629 0e3e 108d aebd
000003e0: d253 76be 3fac 5ebe f1b4 c3be 69db 103e
000003f0: 0409 2dbe ea3e 6e3d c60a 05be 3431 b13d
0.3049039 -0.32762432 -0.2791845 -0.12693642 -0.3507696 -0.20378192 0.057378728 0.1402536
0.079237096 -0.063256904 -0.046241242 -0.117693074 -0.013457833 -0.25885493 -0.12894933 0.15762736
-0.28952783 0.24017994 -0.29373565 -0.024450883 0.1397539 -0.18231018 0.18387747 -0.23221663
0.083404705 0.19639741 0.38157532 0.30887195 0.21282916 0.10009616 0.30110782 0.23444667
0.08282839 -0.13788411 -0.006899287 -0.055288054 -0.22512765 0.25742945 0.26298806 -0.008843806
0.08736712 0.18957159 -0.111912295 0.1736171 0.17725864 0.07374026 0.3039302 0.32043794
-0.12531024 0.17170484 0.31675386 0.33762205 -0.2261429 0.1345568 0.15779991 0.2958646
0.22169515 -0.20300247 -0.088800795 -0.031431932 -0.35441694 0.019002113 -0.2970461 0.2385861
0.18779604 -0.03434843 -0.009097173 0.3905762 0.13494518 0.38168648 0.26288518 -0.26812822
-0.009249075 0.22992924 -0.27276197 -0.13367552 0.3099571 -0.3723015 -0.31291103 -0.31943667
-0.14397877 0.070847355 -0.2457517 -0.08669963 -0.050003145 0.22718509 0.07291123 -0.20782003
0.13393323 -0.10933465 0.24745345 -0.18933833 -0.03280378 0.20658316 0.22725613 0.3847194
0.08738894 0.25946888 -0.0007890478 -0.10201652 -0.104257554 -0.102077566 -0.09415122 0.2942479
0.30917436 0.14157338 -0.20697714 0.085737176 -0.22537638 -0.31338105 -0.17946018 0.13629703
-0.23808692 0.010725789 0.02321707 0.03299378 -0.16352229 -0.34539405 0.085426286 -0.17839828
-0.12583849 -0.021788856 0.23268794 -0.16847023 -0.34115642 0.09157298 -0.22226132 -0.24873868
0.077766016 0.36156946 0.26573187 -0.102188356 0.12761402 -0.035735212 0.059910152 0.37617832
-0.28694507 -0.108213216 0.21883832 -0.37639016 0.23828445 -0.30510843 0.1504706 0.088612214
-0.095683224 -0.17940614 -0.18025346 -0.22481173 -0.0026987458 -0.10181022 -0.3089208 -0.3502415
-0.17381924 -0.25705734 -0.24955982 0.10064812 -0.21893764 0.07245841 0.34628835 -0.16164163
-0.17955191 0.12520674 -0.1426239 0.025468815 0.020252343 0.13617651 -0.15077281 -0.00963167
-0.16081563 -0.08534242 0.27773312 -0.098042145 -0.13576296 -0.19844374 0.009137783 -0.32257223
-0.3384951 0.1970346 0.08917039 -0.09665146 0.31745967 -0.12345323 0.18657507 -0.30667126
0.21821038 -0.35165587 -0.046709955 -0.24378285 0.14959884 -0.21558368 0.0907708 -0.32544515
0.020006245 -0.020064102 -0.25753915 -0.16124837 -0.15761334 -0.049543217 0.00830722 0.26796016
0.25001773 0.10823346 0.3508373 -0.31319585 -0.12956846 0.2379606 0.011417604 -0.26485875
0.079761766 -0.25999153 0.20089775 -0.33922294 -0.22727782 -0.020534642 -0.12590548 -0.116279505
0.24674748 -0.10865993 0.27536923 0.24731019 0.044300493 0.17354807 -0.25077 0.16227779
-0.23938587 0.30262336 0.36642626 0.27275574 0.070892654 -0.005045989 0.12820874 0.28441328
-0.11130868 -0.0597358 0.3154089 -0.062712535 0.3093832 0.2815282 0.18763302 0.34454122
-0.2181969 -0.13506141 0.3063506 -0.2786107 0.028652746 -0.2598356 0.13882884 -0.08522999
-0.24055412 -0.21745394 -0.38223985 0.14146198 -0.1689797 0.05816547 -0.12992391 0.08651963
