model_normal_2.ckpt (torch, 118114 bytes, 11 tensors)

encoder.conv1.weight f4 [64, 1, 8]
00000000: db61 873e eb84 273d ed38 b3be 2f78 aabc
00000010: 653d 94be 7c4c da3c c07f 9bbe ad36 863d
00000020: 60e7 94be c1fe 523d 4c3a 20bd 44c0 7cbe
00000030: f0cc 7bbe df26 64bd d24a ccbd 4a24 933e
00000040: 85ab 6ebd d93a 5ebe 293b 3abc 5271 8e3e
00000050: b9bc b7bd e9e3 93be 49c5 8a3d e971 56bc
00000060: b563 183c dd4b 5fbe cb72 a0be 2296 0abe
00000070: 2c6f 9dbe 1ebc ed3d fd11 b4be 9283 aebe
00000080: 2298 9cbe 96e9 14be 530a c2be 4e48 a73d
00000090: 7353 5f3e e6b5 c5be 205e 0abe 5a30 103e
000000a0: 53c2 bdbe ead4 383c 447a 14bd 0481 8ebe
000000b0: 1cfa eb3c a852 b4be 7dcb 1dbe 1173 67be
000000c0: d756 753e 2da6 563d fad1 373e cd9c 863e
000000d0: e07b 7abd fbe5 273e c962 8a3d 2711 a33d
000000e0: 1e94 993e c382 2ebd daee 183e 3fe7 813e
000000f0: d923 b23e c982 aa3d 7aec debd 5fd9 7f3e
00000100: 3505 babe 019a f4bc d428 9abc 2bc3 843e
00000110: aae3 c03d 5ade c23e 9566 073e f8bc 9a3e
00000120: 013e 843d 9b38 b53e 6696 81be 20cb d8bd
00000130: 52c7 fd3d 4c48 923e 8c3e 5d3e b802 913d
00000140: a18a 94be d558 59bc e8cf 943e 6b61 8bbe
00000150: 98e5 1c3e 59f7 6b3e 9e34 87bd f40a 133d
00000160: d0de 5c3e 78ce abbe f277 4dbe 4381 b7bd
00000170: 1c3d b23e 4491 8e3e 211b 213e deaf ac3d
00000180: c5c1 21be f0e5 143e 4d00 bd3e ba30 a3bc
00000190: 3bd6 05be 9108 d73e 6751 dd3e c9c0 cebb
000001a0: db94 9cbe 9f81 773e addc abbe fbcd 34be
000001b0: c984 cb3d 3971 303d bf27 593e 17b6 00be
000001c0: 0e48 0ebe a82d 5dbe 0288 83bd c22d 323e
000001d0: 794c 8bbe 12b7 503e 7c2e 433c 0295 8ebe
000001e0: 96f5 613e b1a0 313e 0ff9 993e a6cd bf3e
000001f0: 64fb 3dbd ec5d 343e f9f9 5d3d 836f bdbe
00000200: 7dbc a7bd 0833 9f3c a4e3 ca3c e61d 5ebd
00000210: b04f 8a3e a6df 943e 6193 1c3d 9cda ec3d
00000220: 99e5 143e 0db3 433e 2868 aebd 9199 a63c
00000230: 6b63 91be 5b64 7bbe c18d 43be c191 a0be
00000240: 2e12 8e3e 92d2 0b3e 625c 0c3e c450 16be
00000250: 878a 783e 9e03 89be 01e3 3dbe ee40 3d3e
00000260: 0894 123d c7f5 b6be 404e 1fbe e6d4 e93c
00000270: a98e 80be ff4f 7abc 5032 d13d 0428 b4be
00000280: 8b29 433e a8b4 c53c 873d 953e b7cf 0f3e
00000290: 4fb8 9dbe 4cbd 823e a0de 86be c0f9 fd3c
000002a0: bf44 1a3e 7028 90bd 8233 133e d313 5a3e
000002b0: 01df 82be 94ee b1be 5290 35be 4aeb 38be
000002c0: 5470 283e 7362 82be 0c40 0f3e 6b4a 0c3e
000002d0: f144 b1be 6b24 ba3b 2acb d1bd 6d71 96be
000002e0: a502 9b3e 62d1 febd b63e 9abe ef2f 9fbe
000002f0: 82e5 3bbe 6e51 b4be e9f6 33be 6fe4 a73e
00000300: 7c8b f03d a6c7 a53e a4a7 763e 66be 29be
00000310: d0b1 893e ad1e 883e bd5e fe3d 639b 82bd
00000320: e256 333e 50fb a7bd 849c b9bc d7b0 80bd
00000330: 0b67 6a3d 55bc a3be df26 3abe c890 ec3d
00000340: cb93 d5be 2174 88be 39e5 6cbe 9167 ccbd
00000350: 19a7 49be 6f59 0ebe 3860 d6be 6dea d2bc
00000360: 42eb a5be 6120 2c3c 910d 083e d53d 983e
00000370: b5e1 48be 2d8a 96be ceed 05be 1935 b73d
00000380: e040 8cbe a133 ed3d fef3 4b3e 1218 2cbe
00000390: 1d5e 81be 680f a93e d65d 8b3e 4d0c 62be
000003a0: d7c1 01be e1c0 afbd 9fc9 85be b657 7b3e
000003b0: 8041 00be f211 36be f4b5 6dbd 43ab 9b3e
000003c0: 69d0 46be cb4e eebe 23d1 04bf 9aac c8be
000003d0: bd62 ee3d cfb1 e93b 5840 1f3f fb47 393f
000003e0: 4c78 29be 2af3 e33d 4b1c 903e 9adf 76bd
000003f0: 6582 293e 32a0 9fbd be35 2ebe be7d a7be
0.26441845 0.040898245 -0.35004368 -0.020809261 -0.2895309 0.026647799 -0.30370903 0.06553397
-0.29082775 0.051512484 -0.039118096 -0.24682719 -0.24589896 -0.055701133 -0.09975208 0.28738624
-0.058269043 -0.21702136 -0.011366644 0.27820832 -0.08971543 -0.2888482 0.067759104 -0.013088682
0.009301116 -0.21806283 -0.3133758 -0.13533834 -0.3074888 0.11608146 -0.35169974 -0.34084755
-0.30584818 -0.14542231 -0.37898502 0.08168088 0.21809177 -0.3861534 -0.13512468 0.14080945
-0.3706232 0.011281231 -0.036249414 -0.27832806 0.028805785 -0.35219312 -0.15409656 -0.22602488
0.23958908 0.05240457 0.17951193 0.26291505 -0.061153293 0.16396324 0.06757123 0.07962256
0.29995817 -0.042605173 0.14934865 0.2537174 0.34792975 0.083257265 -0.10884948 0.24985264
-0.36332098 -0.029858591 -0.018818296 0.2593015 0.094184235 0.38060266 0.13222726 0.30222297
0.06457139 0.3539475 -0.25310057 -0.10585618 0.12391533 0.28570783 0.21605891 0.07080597
-0.29012015 -0.013265808 0.2906487 -0.27222762 0.15321958 0.23043574 -0.06601833 0.035899118
0.21569371 -0.3355596 -0.20065287 -0.089602016 0.34812248 0.27845204 0.15733005 0.084319815
-0.15796573 0.14540839 0.36914292 -0.019920696 -0.13070004 0.41998723 0.43226168 -0.006309603
-0.30582318 0.2417054 -0.335668 -0.176567 0.09937436 0.043076728 0.21206568 -0.12569462
-0.13894674 -0.21599448 -0.06422426 0.17400268 -0.27206782 0.20382336 0.011912938 -0.2784806
0.2206634 0.17346455 0.3007283 0.37461585 -0.046382323 0.17613953 0.05419347 -0.3699914
-0.08190248 0.019433513 0.02476675 -0.054227732 0.27013922 0.2907688 0.03822649 0.11565134
0.1454071 0.19111271 -0.0851596 0.020336898 -0.28396162 -0.24550001 -0.19097044 -0.313612
0.27748245 0.13654545 0.13707116 -0.14679247 0.24271594 -0.26760572 -0.18543626 0.184818
0.035785705 -0.35734388 -0.15557194 0.0285439 -0.2510884 -0.015277862 0.102146745 -0.3518678
0.19058816 0.024133995 0.29148504 0.1404408 -0.3080468 0.25535047 -0.26341724 0.03100288
0.15065287 -0.07038963 0.14375117 0.21296625 -0.25560763 -0.34752333 -0.17730835 -0.18058506
0.164491 -0.25465736 0.13989276 0.13700263 -0.3462291 0.005680611 -0.102438286 -0.29383412
0.30275455 -0.1244228 -0.3012597 -0.31091258 -0.18349269 -0.35218376 -0.17574657 0.32791469
0.117453545 0.32378882 0.24087387 -0.16576537 0.26893473 0.26585904 0.12420414 -0.06377294
0.17513612 -0.08202231 -0.02265764 -0.062837295 0.057227176 -0.31979623 -0.1817889 0.11551052
-0.4171432 -0.266511 -0.23134317 -0.09980691 -0.19692649 -0.13901304 -0.41870284 -0.025746549
-0.3240605 0.010505767 0.13286425 0.29734674 -0.1961735 -0.29402295 -0.13078997 0.089456744
-0.27393246 0.11582113 0.19917294 -0.16806057 -0.25267115 0.33019567 0.2722003 -0.22075005
-0.126716 -0.085817106 -0.26130387 0.24545178 -0.12524986 -0.17780283 -0.058034852 0.304041
-0.1941544 -0.4654449 -0.5188162 -0.39194185 0.116399266 0.007131792 0.62207556 0.7237546
-0.16549796 0.11130364 0.28146586 -0.060271837 0.16553648 -0.07794227 -0.17012689 -0.3271312

encoder.conv1.bias f4 [64]
00000000: 8614 9d3d 23d7 163d 96d8 dfbd 061a 823e
00000010: 4aff ea3d 0d9b b2bd fdf2 273d f61d 9c3e
00000020: 3136 b1bd 13d4 6cbd 03de 7b3e c4fa 1dbe
00000030: 4391 a1be af51 2a3d 2989 553e 3d01 403e
00000040: abe7 ac3e e554 c83d 38b5 443e 3aff 86be
00000050: 2e05 a53e 3121 30be 2f3a 033e 62fd 8cbd
00000060: bce5 ce3b 85b0 9a3e d736 4bbb 2622 adbe
00000070: c1d4 b0be bd35 6d3d e85b 873d de69 953e
00000080: a6d1 7c3d 1ffb 95be 6959 693e 4695 073d
00000090: ca30 0a3d 3167 b63e 178d cb3d cd1f da3d
000000a0: bd4f b53e 9a1a 48be c6c7 9bbd 9e52 a73e
000000b0: 7a51 f73d a508 76be 1fbd 8e3d 6d1d 8b3e
000000c0: c08b 33be fe21 853d cd74 8c3e a016 e83d
000000d0: 7b4b b13d 963a 91bd 26aa ad3e 86c4 913c
000000e0: 3c91 30be fa36 8b3e 19d1 e53c d666 55bd
000000f0: 07a1 303e c179 943e 30fb b5bc d501 a13e
0.0766993 0.036826264 -0.10929982 0.2541048 0.11474474 -0.0872098 0.041003216 0.30491608
-0.08652914 -0.057819437 0.2459641 -0.1542769 -0.31556138 0.041581806 0.20853104 0.18750472
0.337705 0.09781817 0.19209754 -0.26366597 0.32230514 -0.17200162 0.12815164 -0.068842664
0.0063140076 0.302128 -0.003100803 -0.33815116 -0.34537318 0.057912577 0.066093266 0.29182333
0.061723374 -0.29293153 0.22788014 0.033101343 0.033737935 0.35625604 0.0993902 0.10650597
0.35412398 -0.19541398 -0.07606463 0.3268022 0.12076087 -0.24026735 0.06969666 0.27170888
-0.17533779 0.06500624 0.27432862 0.113324404 0.08656975 -0.070912525 0.33918875 0.017793905
-0.17242903 0.2719038 0.028053807 -0.052100025 0.17248927 0.2899914 -0.022214502 0.3144671

encoder.conv2.weight f4 [32, 64, 6]
00000000: 553c 97bc e05c a7bc c13e 153d 9611 a23d
00000010: 800f f33d 8826 d4bc 2693 8e3d 2f42 e33c
00000020: 7da4 84bc 28b4 dc3d 1dbf 8a3d 80a9 b93d
00000030: de91 93bd 0eae 94bd d43c d0bc 78f3 f0bc
00000040: 6dff 50bd cc19 cdbc a52e 283d e39f aa3b
00000050: 7b62 963d 280b c03c 3847 b63d 9fac a0bc
00000060: ee61 673b fa06 2b3d e23d b7bc ac76 483d
00000070: 5a1d 8d3d 98e1 5a3c 9020 013d d315 afbc
00000080: 4377 8abc c638 bd3d 4df1 083d ab6c 99bc
00000090: 232b 25bd 1da7 653c 5744 2fbd 0ee8 71bd
000000a0: bf42 bd39 71ce 91bc db78 1d3c 5d51 243d
000000b0: 92d3 6d3d 7214 6dbd 57a0 5bbc bf90 e63c
000000c0: beb3 d83c 5d0c 353d 5b51 65bb 0b24 ebbc
000000d0: 23b5 7abd 55b1 2e3d 2860 033c 25cb 1e3d
000000e0: 8026 b0bc 4bcb 1f3d 6fd9 fbba f31f 6e3d
000000f0: f4f9 c53c a973 193c 4bd0 393d 1901 00bc
00000100: e659 8c3c c928 743d 11de c1bc 08ad 3a3d
00000110: 50e0 65bd 9be2 7ebc 6bfd 81bd 19c3 b83d
00000120: 5b9a 91bd f7e1 333e e9ca 673d 5ad7 d03d
00000130: 1ff2 433c 2601 a93d f29e 163d 4501 803c
00000140: d447 93bd 69df 363d cf44 a73d 0402 343d
00000150: 012e 133d 76e0 16bd 2089 29bd 2fc1 683d
00000160: 1817 a03c a199 323d 6f84 2cbc 0597 543d
00000170: fb26 823d 4cc9 71bc ade9 883c 141f 0dbd
00000180: 4308 07bd f55f f63c c2c7 3fbd 6037 37bd
00000190: 2d17 183d c990 6a3c 755e 17bc 504a 2cbd
000001a0: f0fb f43d c1d9 b03d 07c4 8c3d a6a6 c33c
000001b0: 5049 023d cbbb 09bd 5de4 e23c c926 1bbd
000001c0: 33a8 96bc 7a79 99bc b0f4 80bb 4ee4 973b
000001d0: 3e7e 88bc 72d2 cd3c c5ae 3e3c 077b 6f3c
000001e0: 97ed 01bd d811 8c3c 0c03 f0bc 377b 27bb
000001f0: e038 223d a089 bcbb 7704 803d 1efb c6bc
00000200: 6b95 7e3d 457d 3a3d 4088 96bc 1b70 0dbb
00000210: 372c 963c 01e5 25bd aa7f 173d c8c2 6f3c
00000220: de5b bc3c 77ce 43bd c288 47bc 4b9a 8bbd
00000230: 84e6 8a3b a8bf 3e3d 4904 7f3d 71ab 85bc
00000240: 2db2 f9bc 31dd 053c 59dc f63c 0bfc c4bc
00000250: f095 eabc 2fe8 bfbc 25ba 8c3d e737 b03b
00000260: 4d7f df3c 31f5 4e3d 1d7c 9a3c 67ef e6bb
00000270: b733 d4bc 150a b5bd 2661 32bd 899d 9abd
00000280: c2f5 51bd 61bc 8fbd d7cc 14ba 0be4 8abc
00000290: f934 4bbd 6182 97bc 9ef6 153d 3004 2ebd
000002a0: dbe7 043d cba4 02bd 2b29 523c 9959 f2bc
000002b0: 65b2 b73c 2c28 74bc 9c34 3b3c 0ad7 7c3c
000002c0: a0aa a9bc 3849 9e3d 156f f53d 3770 7c3d
000002d0: 2f41 9c3c d69b 0a3e 90d2 39bd d473 673d
000002e0: b940 643d 0a3a 463d fad9 2c3d 3b4b 013c
000002f0: 5328 c73c 1c69 343c 293b 20bb 3bd5 093d
00000300: 4a03 8f3d a4d3 073c f786 a83c 6c5f 063d
00000310: 80e7 c23d c009 f23c 29f0 66bc 26f6 12bc
00000320: 3841 8cbc 26cb ccbc ad8a 5cbb 6994 c0bc
00000330: ef07 dc3c 8618 283d 666c 783d 3860 3f3a
00000340: efaf 87bb a1f0 663d 0bf4 0f3a f737 643d
00000350: 90dd 963c e22b 71bb d15f 99bc bb84 fd3c
00000360: d8c5 7d3d 15fe acbd 5a7a a43c d2d6 343d
00000370: ffd1 db3d 0b75 363c f834 383d 7332 4a3d
00000380: 834a abbc de2d 133d 565b 333c a397 cfbc
00000390: 0bff 34bd fefc c33c d53b c1bc eaba 803c
000003a0: a49e 5539 415a 323b cc8c 5f3c 02ff e33c
000003b0: 799e dabc 18f9 f8bb 1b15 9abd ae18 1d3a
000003c0: e22b 1a3d 8079 a4bc ddd7 933d 33e5 a03b
000003d0: 9ee8 b4bc ac41 383c e829 90bc 2667 f83c
000003e0: c329 033d dc5d 97bc ac40 62bd bc0c 043c
000003f0: 827a 5d3c 9929 fb3d eb4f ebbd e52f 5abc
-0.018461386 -0.020430028 0.0364368 0.079135105 0.11868191 -0.02589728 0.0696166 0.02774152
-0.016191715 0.107765496 0.06774733 0.09065533 -0.07205556 -0.07259761 -0.02541963 -0.02941297
-0.051024843 -0.025036715 0.04106011 0.0052070483 0.073430024 0.02344282 0.08900303 -0.019613562
0.0035306173 0.0417547 -0.022368375 0.0489413 0.06890364 0.01335945 0.031525195 -0.021372711
-0.016902572 0.09239344 0.033433247 -0.018728575 -0.04032434 0.014016894 -0.042789783 -0.059059195
0.0003609862 -0.017798634 0.009611334 0.040116657 0.058063097 -0.057880826 -0.013404927 0.028145192
0.026452895 0.044201244 -0.0034991119 -0.02870371 -0.0612079 0.042649586 0.008018531 0.038767952
-0.021502733 0.039012235 -0.001921458 0.058135938 0.024167039 0.009365954 0.04536466 -0.007812762
0.01713271 0.05960921 -0.02366546 0.04557517 -0.056122124 -0.015556957 -0.06347164 0.09021587
-0.07109519 0.17566667 0.056589995 0.10197325 0.011959582 0.08252172 0.036772676 0.015625605
-0.071914345 0.044646654 0.08167421 0.043947235 0.035932545 -0.036835156 -0.04139054 0.05682486
0.019542262 0.043603543 -0.0105296215 0.051901836 0.06355091 -0.014757466 0.016712988 -0.034453467
-0.032966863 0.030075053 -0.046821363 -0.044730544 0.037131477 0.014316746 -0.009238829 -0.042063057
0.11962116 0.08635283 0.06873327 0.023883175 0.031808197 -0.03362636 0.027696783 -0.037878785
-0.01839075 -0.018734682 -0.003935419 0.0046353703 -0.01666176 0.025124762 0.011638348 0.014616734
-0.031720724 0.017098352 -0.029298328 -0.002555562 0.03960502 -0.005753711 0.062508516 -0.024289664
0.062154215 0.045529623 -0.018375516 -0.0021581713 0.01833163 -0.0405016 0.036986984 0.014633842
0.022993024 -0.047804322 -0.012178602 -0.068165384 0.0042389054 0.046569496 0.062259946 -0.016317101
-0.030480469 0.008170412 0.030134367 -0.024045965 -0.028635949 -0.023426143 0.06871442 0.005377758
0.027282381 0.0505268 0.01885801 -0.007047582 -0.025903566 -0.088398136 -0.04354968 -0.07549579
-0.051259764 -0.07018352 -0.00056762755 -0.016954442 -0.049611066 -0.018494787 0.036612146 -0.042484462
0.032447677 -0.03189544 0.012827198 -0.02958374 0.022423932 -0.014902156 0.011426117 0.015432129
-0.020711243 0.07728809 0.11984078 0.061630454 0.01907405 0.13536009 -0.045366824 0.056506947
0.055725787 0.048395194 0.042200066 0.0078914715 0.02431122 0.011011388 -0.0024449325 0.033650618
0.06983049 0.008290205 0.020572169 0.032805845 0.09516811 0.029545665 -0.014095345 -0.008969819
-0.017120942 -0.024999212 -0.0033651993 -0.023508267 0.026859252 0.041039012 0.06065025 0.00073004095
-0.004140846 0.056381825 0.00054913823 0.055717435 0.018416196 -0.0036799838 -0.018722447 0.03094708
0.061956257 -0.084469 0.020077873 0.04415018 0.10733413 0.011136304 0.04497239 0.04936452
-0.020909553 0.035932414 0.010947069 -0.02534086 -0.04418854 0.023924347 -0.0235881 0.015714128
0.00020372361 0.002721444 0.013644408 0.027831558 -0.026686894 -0.0075980537 -0.07523557 0.0005992752
0.037639506 -0.020077467 0.07218907 0.004910135 -0.022083577 0.011246126 -0.017598107 0.030322623
0.03202225 -0.018477373 -0.055237457 0.008059677 0.013517978 0.122637935 -0.114898525 -0.013317083

encoder.conv2.bias f4 [32]
00000000: e333 533d b607 f5bc b663 85bc 0481 763c
00000010: e5b6 83bd 2cc9 ffbc 87d1 c5bb 6c91 0f3d
00000020: 259d 1d3d cf59 42bc cf18 c3bb ea3c a8bc
00000030: a300 1d3d c5d4 033d 3d56 2dbb 2d8d 653c
00000040: d68f 073d ead2 5b3c 662f 543d 9593 e9bc
00000050: 3a59 8a39 da7e f23c 3595 be3d 2936 11bc
00000060: 5dfa 363c d738 b03c 85aa e7bc 53b0 9b3a
00000070: abfa 08bb b136 d2bc 5581 1d3c 7392 1d3d
0.051563155 -0.029910903 -0.016282897 0.015045408 -0.06431369 -0.031223856 -0.0060369405 0.035050794
0.038479943 -0.011862232 -0.005953885 -0.020536859 0.038330685 0.032185335 -0.0026449107 0.01401071
0.033096157 0.013416985 0.051803015 -0.028512755 0.0002638789 0.029601503 0.09305803 -0.00886301
0.01116809 0.021511478 -0.028279552 0.001187811 -0.0020901363 -0.025660845 0.009613355 0.038469743

encoder.conv3.weight f4 [8, 32, 5]
00000000: 7b42 7bbd 7b90 893d 655f 753d 3daa 56bd
00000010: e96b 8139 d4ca 303d 8784 973d 0f7c dc3c
00000020: 8de3 2abc e9dc 953c 870c 2a3d 361a fabc
00000030: 7c78 983c e5eb ccbd 882d 103d bbab 313d
00000040: 4373 713b e5f8 7f3c 136e 0ebe d5c8 06bd
00000050: 51a8 973d 324c dcbc d5d2 1f3c 339d 43bc
00000060: e38c 68bb 1617 893d 533e 003d aa55 083d
00000070: 0d39 9f3c 1bfe 21bd d839 b03d fc62 053d
00000080: 7229 063d f8e9 a13d df83 063d fc08 63bc
00000090: a817 a2bd ea9b 0abc b87b 3bbd 6ed9 8dbd
000000a0: 64a1 953d 44c2 2c3d 4a10 f6bc 1cdd 87bd
000000b0: 33ed e4bc 8664 03bd 8a94 b3bd 4e47 aabc
000000c0: bb75 0abd 12fe 4fbc f72a 4d3d 5d0c 673d
000000d0: f00a 873d 0867 6e3d e6c0 95bc 8dcb 1abd
000000e0: d321 55bd 99a8 27bd 91c5 8d3c 24cc 533d
000000f0: ad74 cb3d 2bf1 aabc 9a9d de3b 594d 8ebd
00000100: 1d8c bf3b ef70 f2bc 8df5 a93d 5759 033e
00000110: 1d18 fabc d0e2 53bd 0fa8 34bd 54f1 5e3d
00000120: 534c 013d a37b f5bb 3cbe 143d 37c6 dd3b
00000130: 930a 14be 1101 10bd cb64 b93d 9251 8d3d
00000140: 1f95 0fbc 818a 92bd d52b 8ebb 9c2a 8ebd
00000150: 1411 3b3d 2bb5 73bc 2fdb 67bd b1bd 75bd
00000160: 2507 fd3c 3d10 52bd 133d 053c 7b95 043e
00000170: 2a51 ef3d f6a5 853d 38c6 59bd 5be5 48bc
00000180: 7b31 8e3b e485 cdbd ec10 c0bc 91f9 f83d
00000190: bfc2 3ebd c836 c0bd 334f 2b3b e5a1 623d
000001a0: 246a 00bd 5ac8 96bc d766 68bc a65a 993d
000001b0: 90e7 5dbd 3db9 923d a37d 35bd 6b01 9e3d
000001c0: e488 13bd fe62 ba3c 5f09 753d ecfe 173d
000001d0: ec2a 4abc 76b0 30bd 961b 2f3d 929c 303d
000001e0: cce9 403d 2146 f73b a2eb f33b f1dd f93d
000001f0: c305 643d bb06 973c 2996 85bc 402d 08bb
00000200: 13fb a1bc d2f9 81bc c9a8 7abd 173e 65bd
00000210: 981d d53d 06d0 033e d762 56bd 6bd1 573d
00000220: 38c6 163d df97 5c3c 3a2f ce3c f269 2f3c
00000230: f7bf 743b 8fc3 d03c e998 2f3d 1550 bc3c
00000240: 06db 5e3d 99af 553d 6ed4 a6bc 2bdf d2bc
00000250: 9356 c23d b6c7 123e ce38 fcb8 e9fb 7e3c
00000260: dbc0 40bc d07d c4bb 77a7 c43c c01c 43bd
00000270: 2d7e aabd 020b 563d 5749 c73a be3f b3bc
00000280: a7a5 b53c f4d4 723d cdfd cc3d 6144 56bd
00000290: a3e4 bd3d ac07 adbd a493 8bbd 8d0f a3b8
000002a0: 344f 033d 94f5 b1bc fddb 89bd d145 5f3a
000002b0: 37ad dd3c c3c0 b1bd 6ac8 b2bd e77b 543c
000002c0: f9ab 1ebd 2f3d dabc ec30 653d 8698 ccbd
000002d0: d7bf 22bd e2da 7e3c b065 6bbc fd9a 43bd
000002e0: f5dd 333d 0e32 93bc 99ce 3b3b 1236 8f3d
000002f0: 2cc5 50bd 8489 a23d de7d 303d 31e9 a6bc
00000300: b4f0 c9bd a738 843d 2cc2 a63c 7d83 79bd
00000310: 4428 29bd 3b49 66bd 1914 ab3d b129 4d3d
00000320: e1a0 433d 92d6 40bd 07da a43d 33ea 9b3d
00000330: aa6a 19bc cdc9 afbc f25c 7abb 5193 02bc
00000340: b0d6 9b3c bc70 2e3d 79c7 073d be0a e13c
00000350: 302e b1bb e9cb 51bd 265a bebd dbcc 613d
00000360: 48b7 a83d 1734 d5bb 8144 243d 50db 143d
00000370: e0a5 d53c 994a 6cbd 5f35 acbd a64b d63b
00000380: eb4a 063c bf6a 693d 9c2d 66bc b077 bfbc
00000390: d9ea 83bc bd78 03bd c806 c43b c4a7 5aba
000003a0: 573e c23a 872d b33d e442 d1bd a91c e63c
000003b0: 97f3 06bb f3e3 96bd dfe1 49bd 6f79 3d3d
000003c0: cc3f b4bc d07e 103d 2a4b 57bd 5d50 473d
000003d0: 2ec5 cf3b d648 833d d6ea d23b 08d7 8d3b
000003e0: 6784 a73d af27 1f3c df70 003d c0a4 733c
000003f0: e342 a8bb 1583 febc a039 8f3d a62c 593d
-0.061342698 0.067170106 0.05990543 -0.052408446 0.00024685197 0.043162182 0.073983245 0.026914624
-0.010430229 0.018293815 0.041515853 -0.030530076 0.018612139 -0.10005931 0.035199672 0.043376666
0.0036842383 0.015623306 -0.13909177 -0.032906372 0.07405151 -0.026891802 0.009754856 -0.011939335
-0.0035484366 0.066938564 0.031309437 0.03328482 0.019436384 -0.039548974 0.08604783 0.032565102
0.03275437 0.07905954 0.032840606 -0.0138571225 -0.07914668 -0.008460024 -0.045772284 -0.06926237
0.073061734 0.042177454 -0.030037064 -0.0663397 -0.027945137 -0.03207829 -0.08768566 -0.020785954
-0.033803683 -0.012694852 0.050089803 0.056408275 0.06593883 0.058203727 -0.018280458 -0.037791777
-0.05203421 -0.04093227 0.017306121 0.051708356 0.099343635 -0.020866951 0.00679369 -0.06948347
0.00584556 -0.029594867 0.08298788 0.12827049 -0.030529076 -0.051729977 -0.044105586 0.054429367
0.03156693 -0.0074915453 0.036314234 0.006768014 -0.14457159 -0.035157267 0.09052428 0.06900324
-0.008763581 -0.07155324 -0.0043387213 -0.06941721 0.045670584 -0.014874737 -0.056605514 -0.059995357
0.030887196 -0.051285017 0.008132237 0.12947647 0.11685403 0.06525795 -0.05316755 -0.012261714
0.0043393946 -0.10035303 -0.023445569 0.12156976 -0.046572443 -0.09385449 0.0026139736 0.055330176
-0.031351224 -0.018406082 -0.014184675 0.07487993 -0.054175913 0.07164238 -0.04430927 0.07715114
-0.03601922 0.022752281 0.05982339 0.037108347 -0.012339335 -0.043137036 0.042750917 0.043118067
0.047097966 0.007546202 0.007443861 0.12200535 0.055669557 0.018435827 -0.016306954 -0.0020778924
-0.019773042 -0.015866194 -0.061196122 -0.055967417 0.10406035 0.12872323 -0.052340355 0.05268995
0.03681013 0.013463943 0.025169004 0.010706412 0.0037345865 0.025483875 0.042870436 0.022987405
0.054408096 0.052169416 -0.020364966 -0.02574118 0.09489169 0.14333996 -0.00012026877 0.01556299
-0.01176473 -0.0059964433 0.024005635 -0.04763484 -0.08324847 0.05225659 0.0015204352 -0.02188098
0.022173716 0.05928512 0.10009346 -0.052311305 0.092721246 -0.08448729 -0.068152696 -7.775342e-05
0.032057956 -0.021723546 -0.067314126 0.00085171784 0.027060134 -0.086793445 -0.08729632 0.012968994
-0.038738225 -0.026640503 0.05595486 -0.09990029 -0.039733734 0.015555115 -0.014367506 -0.04775523
0.043912847 -0.017968204 0.0028657077 0.06992735 -0.050969288 0.07936385 0.043088786 -0.020374866
-0.098603636 0.06456118 0.02035626 -0.060916413 -0.041298166 -0.05622218 0.08353443 0.05008859
0.047760848 -0.04707963 0.08049398 0.07613029 -0.00936381 -0.02145853 -0.0038202372 -0.007969693
0.01902327 0.04258798 0.033149216 0.027470943 -0.0054071173 -0.051219855 -0.09294538 0.055127006
0.08238083 -0.0065064537 0.040104393 0.036341965 0.026080072 -0.05768833 -0.08408617 0.0065397797
0.008196573 0.056986567 -0.01404896 -0.023372501 -0.016103195 -0.032097567 0.0059822537 -0.0008341039
0.0014819604 0.08748918 -0.102178365 0.028089838 -0.0020591968 -0.073676966 -0.049287673 0.046258386
-0.022003077 0.035277188 -0.052561916 0.048660625 0.0063406443 0.06410377 0.006436686 0.0043286122
0.081795506 0.009714051 0.031357642 0.014870822 -0.0051349266 -0.031068364 0.06993413 0.053021096

encoder.conv3.bias f4 [8]
00000000: 160a 89bd 1e61 99bc 7077 e6bc ffa9 c33c
00000010: ff5c bbbd 0a2b 533d 21e2 803d 99ea 5f3d
-0.06691377 -0.018723067 -0.028133124 0.023884771 -0.09148597 0.051554717 0.06293131 0.05466709

decoder.deconv3.weight f4 [8, 32, 5]
00000000: 0b20 97bd 2de2 863d a2de 31bd 9c36 71bc
00000010: dfae 8dbd 49ee 14bb 8f2b 323c 2598 933c
00000020: 7371 f23c 7bc2 cb3c a82c 973d d6de 40bd
00000030: 8adf 1abd c042 843d fda4 0fbd 0bd3 3b3d
00000040: df19 73bd bccb 7d3d 8e13 3e3c aa78 4e3d
00000050: 33b5 acbd 762b b4bc 47a6 923c 7e74 b6bd
00000060: 25c5 a13c bec6 473c de9b c33d ba14 9fbd
00000070: 40fe d0bc 0820 233d b558 50bb 5c9a ca3d
00000080: b796 d33c 6b3f 61bc a4d4 003d cc86 353c
00000090: 61f8 b6bc f098 a73c 83ff 27bd eebf c1bd
000000a0: f74f 3b3c 59ea d9bb 741c 58bd 70ea 63bd
000000b0: b530 4a3d c479 3ebd b0f9 073d 9f03 9fbd
000000c0: f11f edbd 7993 6fbd 00b3 85bc b3e6 a93c
000000d0: a214 72bd 189a c13c c0f3 a6bc 297d 54bd
000000e0: 79f3 b4bb 20d5 6b3d 0f14 603d a26e a53d
000000f0: 25f0 76bd 2bc8 8d3c 7fec 56bd 2ace 8ebb
00000100: 1f4d 22bd d89b d2bb e4a0 62bd bced 143d
00000110: 7789 87bd f658 1cbc ad70 51bc d71c 1abc
00000120: 8962 723d 53cd 8b3c eba6 d5bc e25d 4c3d
00000130: f6df 373c 29bf 10bd d62f a53d 9a65 6a3d
00000140: a869 9c3c 8582 c6bc aa3e e9bd cd75 36bb
00000150: 7178 57bd b699 08bc 1cf3 613c 3a68 fb3c
00000160: f46c 21bd 2053 a7bc 465b 073d 6c42 d03d
00000170: 186b 433c 1113 8a3d 6edf 2cbd cc96 b1bc
00000180: 50ce b3bc 00a8 cf3d 3c61 f53c 4db8 993d
00000190: d8de 9bbd dc56 a8bd 3485 4fbd e6d5 823c
000001a0: 62bb a23d 151a 973d f369 3e3d e2dc c03d
000001b0: 5f25 323d a88f 8f3d e99a 2dbd df09 c03b
000001c0: 3277 a43d a430 58bd f69f bdbd 1f46 ecbc
000001d0: c55d 98bd 7264 2b3d fea3 9f3c 1f7a f73c
000001e0: fbb5 c43d 76ea e53d 6aae db3b e912 eb3c
000001f0: 2da8 82bd 2d74 9c3c f083 d33d 608b 783e
00000200: e612 75bc 63ef 39bd 93e5 26bc 0aed bfbd
00000210: 70fa bbbc 1271 b3bd 63c1 473d 91c3 febd
00000220: 61ef a73d b8b9 9abd 9efb 4bbd 3f94 7abd
00000230: d03e 573d 81b0 9dbc cc5b 783d 82f9 f33b
00000240: 73ef 0f3d 86a1 823c 50bb 7fbd c972 8dbd
00000250: d241 c7bd 6638 903d 8e7a 1dbd 8089 0b3c
00000260: cba8 0d3d ccff e23c 1080 a43d 1a51 04bc
00000270: d5ae 8dbd ea91 203c 6bd4 59bd 00a9 60bd
00000280: 69bd 0ebd 6ca9 4abd 8158 3fbd a58d db3d
00000290: 6827 bfbc 238e 7abc c079 0b3c 8042 b83d
000002a0: e964 c93d aa20 423c b978 6b3d f4fa 8e3d
000002b0: e80e 903d 9a28 bf3b 2652 123c eb1c 9bbc
000002c0: 06cc 993d 4400 9b3d f80d 9bbc b959 8e3d
000002d0: 5762 d93c 5551 133d f5c0 5abd e3b6 803d
000002e0: 250e 603d a7d7 803a 3fdf 233d 1598 5b3d
000002f0: 9673 b8bd a1aa 87bd 3393 20bd 18ce 72bd
00000300: 0bdd e9bc 4043 babc a58d 8f3d 7c34 e83b
00000310: e152 eabc 08b6 883d aa8b 983d ad72 8c3d
00000320: 1361 8fbb 2f42 35bd 10aa 5d3d a030 333d
00000330: 2e7b 5a3d 8acd 94bc c47f feba d539 7e3d
00000340: c12c 1bbd a3b9 2e3c b72c 93bd 5298 863d
00000350: e84f c33d a0e3 803d aef4 b33d ff73 063c
00000360: f39b e3b8 ea9f 62bc c254 d43c 86f7 b73d
00000370: 18b1 eabc de5a 0f3d 72fb 373d 02b6 39bd
00000380: cf6e 263d 82e3 3ebd bb00 acbc cc1c dfbd
00000390: c261 d5bc 9927 59bd 7e77 693c e4b2 18bd
000003a0: b71e 9f3d d721 9cbd 31f2 c23c d20c 9bbd
000003b0: 0e50 d33c b5dd a5bd 1eb6 44bc dc66 2fbd
000003c0: cb40 603d 8046 463d 0cf1 c8bc 8d74 e1bc
000003d0: 2131 9bbd 613d 00bc 7a79 ea3c b01f 8ebd
000003e0: fb3e 1cbd 5dc4 25bd e443 4cbd 0621 163c
000003f0: 708d 10be 590a c0bd 344a 6abc b09c 8139
-0.073791586 0.06586108 -0.04342521 -0.014722493 -0.0691812 -0.0022725037 0.010874643 0.018016884
0.029595112 0.024873009 0.073815644 -0.047087513 -0.03781084 0.06458044 -0.035069454 0.045855563
-0.059350844 0.061961874 0.011601342 0.050408043 -0.084329985 -0.02199338 0.017901553 -0.08908938
0.019747326 0.01219338 0.09551214 -0.07767625 -0.02551186 0.03982547 -0.0031791155 0.09892723
0.025828702 -0.01374803 0.03145279 0.011079501 -0.022335233 0.020458668 -0.04101516 -0.09460436
0.011432639 -0.006650251 -0.05276151 -0.0556435 0.049362857 -0.046502843 0.033197105 -0.077643625
-0.11578358 -0.05849025 -0.016320705 0.020739889 -0.05910171 0.023633048 -0.020379901 -0.051877175
-0.0055221883 0.0575763 0.05470663 0.08077742 -0.060287613 0.017307362 -0.052471634 -0.0043580728
-0.03962433 -0.0064272694 -0.05532922 0.036359534 -0.06618016 -0.009542694 -0.012783212 -0.00940629
0.059176 0.01706568 -0.02608057 0.04989422 0.01122283 -0.035338555 0.080657646 0.0572258
0.01909335 -0.024232158 -0.11388905 -0.002784121 -0.052605096 -0.008337429 0.013790872 0.030689348
-0.039410546 -0.02042538 0.03304603 0.10168919 0.011927389 0.06741918 -0.042205267 -0.02167835
-0.021948963 0.10139465 0.029953592 0.07505856 -0.076108634 -0.08219692 -0.05066414 0.015971135
0.07945897 0.07378022 0.04648776 0.0941713 0.04349267 0.07009822 -0.042384062 0.0058605517
0.08030547 -0.052780762 -0.09259026 -0.02884203 -0.0743976 0.04184384 0.019487377 0.030209599
0.096050225 0.112263605 0.0067041414 0.02869554 -0.06379733 0.019098366 0.103278995 0.24271917
-0.014958119 -0.045394313 -0.010186571 -0.093713835 -0.022946566 -0.08761801 0.048768412 -0.12439645
0.08199955 -0.07554954 -0.049800508 -0.061176535 0.052550137 -0.019249203 0.06063442 0.007445515
0.035140466 0.015946161 -0.062434494 -0.06906659 -0.09729351 0.07042007 -0.038446955 0.008516669
0.0345848 0.027709864 0.080322385 -0.008075977 -0.06918112 0.009800414 -0.053181093 -0.05484867
-0.034848604 -0.04947798 -0.046715263 0.10720376 -0.02333422 -0.015292677 0.008512914 0.08997059
0.098337 0.011848608 0.057488177 0.06981459 0.07034093 0.0058336975 0.0089307185 -0.018934688
0.075096175 0.0756841 -0.01892756 0.06950707 0.02653615 0.035966236 -0.053406674 0.06284883
0.05470099 0.0009829894 0.040007826 0.053611834 -0.09006421 -0.06624342 -0.03920288 -0.059278578
-0.028547784 -0.022737145 0.070094384 0.0070863348 -0.028603973 0.06675345 0.07448514 0.0685781
-0.004375586 -0.04425257 0.054117262 0.043747544 0.05334013 -0.018164415 -0.0019416739 0.06206687
-0.037884478 0.010664376 -0.07186263 0.065720215 0.09536725 0.06293416 0.08786903 0.008206367
-0.00010853251 -0.013832072 0.025919322 0.08982758 -0.028648898 0.034998767 0.04491753 -0.04533959
0.04063302 -0.046603687 -0.020996442 -0.108941644 -0.026047591 -0.05301628 0.014249681 -0.03727998
0.0776953 -0.07623642 0.023797126 -0.07570805 0.025795009 -0.08098928 -0.012006311 -0.042822704
0.05474929 0.048407078 -0.024529003 -0.027521396 -0.0757773 -0.007827134 0.028622378 -0.06939638
-0.038146 -0.04047047 -0.049869433 0.009163147 -0.14116454 -0.09376974 -0.014299918 0.0002472154

decoder.deconv3.bias f4 [32]
00000000: 11a6 033d 1dfd ce3c 9623 6bbd 9c0c 953d
00000010: 6388 063d 06f4 79bd 3fde 87bd 1d93 7d3d
00000020: 17ea 1c3d 3243 c03c b887 1f3d 5417 af3d
00000030: f5f2 a23c 0a0a 953c 1da6 773d 1fe5 a2bc
00000040: 31d0 863c 1661 5bbc fb09 1abd 9cc1 89bc
00000050: f6a6 813d 5e09 17ba 5dc6 a23c 3add 67bd
00000060: 6199 9dbd c949 adbd 36d1 363c 5072 893c
00000070: be8b fdbc be26 95bb 28d4 3cbc b3fd 9f3d
0.032140795 0.025267178 -0.057406984 0.07277796 0.032844912 -0.061023735 -0.06634187 0.061907876
0.038309183 0.023469541 0.03894779 0.08549371 0.019891242 0.018193264 0.060461152 -0.019884644
0.016456695 -0.013389846 -0.037607174 -0.016815953 0.063306734 -0.00057615887 0.019869978 -0.056607462
-0.0769527 -0.08461339 0.011158278 0.016778141 -0.030950423 -0.0045517376 -0.011525191 0.07812061

decoder.deconv2.weight f4 [32, 64, 6]
00000000: 7cc6 18bc dbe3 f03b d9d5 aabc 5254 153d
00000010: 6f77 7bbc 0d9e d93c ea2d f938 d3a4 40bd
00000020: a91c 333d 919f 363c 3685 d1bc 3b99 88bb
00000030: b246 f93c 2dc1 723c 5945 973d e0e3 3a3c
00000040: 6471 e9bc 0a5e 083d 82f3 fabc dfba 453d
00000050: a7e2 b53c 1f61 99bc be9f 093d f248 163d
00000060: 2765 da3b d605 893b 722b 5abd cce3 ef3c
00000070: 5c83 f0bb 537e b3bc 0a63 21bd 2346 913d
00000080: 4390 dfbd d11d 253e 66a4 0dbe fa71 263d
00000090: 1f3a c93c 7924 b23d f309 3f3c e282 413d
000000a0: 0a49 9d3a bb0a 8dbd dfc8 0cbd 69f8 f4bc
000000b0: a19b 153d 49e9 4abd d9bc afbb 4ad5 1fbd
000000c0: 7d98 2b3d c92a 2dbd f683 0abb e6a4 a23c
000000d0: 6409 8fbb 0e06 573c 1dea ae3c aeab 593d
000000e0: 645d a23d 0d21 b7bb 79e4 d33c 5f57 89bd
000000f0: be39 343c 7f4e a33c 728f b03b 672f d43b
00000100: 3720 2bbb 56fd 003d aee1 6abc c79c c1bc
00000110: 67f4 813d a6f6 7f3b b47b f23d b25e 68bc
00000120: d68b 633d 3b42 70bc 2b6b dabc e6df 813d
00000130: a439 b13c bbf9 1bbb d75e 953c d9c0 e53c
00000140: b992 bebb a3b1 c4bb 033c 7f3d aecf 0a3c
00000150: 64b4 9abc 5965 6b3d 7929 0e3d 562b 263c
00000160: e11a c2bc 4218 8a39 6298 183d 0297 403d
00000170: ee4f 5b3d c533 11bd d20c 603d f59e 29bb
00000180: e70a 963d 663a 983c cffa 1b3d 2099 b9bc
00000190: 10cd a2bd 8951 273d f947 303d c600 8dbc
000001a0: b252 2b3e 5b35 07be 51f3 223e a78f d3bd
000001b0: bafb fb3c dbd5 bfbc decc 053d 99d5 20bd
000001c0: 197d 27bc 3ae2 63bd c97a dc3c ea84 393d
000001d0: 18dc 57bd b11a 583c acf3 5abd 432f 56bc
000001e0: f022 2fbd f224 03bc c08a e73c f731 be3b
000001f0: 7369 283b cd18 54bc b7c6 063d f03b 6e3d
00000200: 6080 05be da78 b53d c84c 07be bbe4 673d
00000210: 56ff 533d b512 5fbd 9ea4 b13d c886 92bd
00000220: aaa6 553d 2fcd 903d 930c 823c 62f8 443d
00000230: e086 a0bc 737f 06bd 2868 643c 3929 f23c
00000240: 1d4e 123d 9ef8 61bd 66e8 1b3d 5c2f 3dbd
00000250: c0ea 1a3c 853d 0a3d 1fa8 fcbb 3483 a4bc
00000260: ba51 163d 6bf7 a73c 0616 2e3d 0c5f 6a3c
00000270: d9e7 713c 1972 eabc acf9 cdbc af7c aabb
00000280: 9467 8f3b 0f49 93bc db5d 0cbd 5ec6 cb3d
00000290: 3dbd 1f3d 8682 823d 9387 f83b 7120 333d
000002a0: 3914 403d b11c 12bc 0e96 9c3d 3bba 693c
000002b0: 49f3 a43c b65f 55bd bb43 273d 9165 e939
000002c0: 3ace 133d 5ce5 d5bc 32c2 713d 53c1 0b3b
000002d0: e410 a93c 3e76 1e3b 6dfa dd3c e693 063d
000002e0: 28fb 783b c476 823b f4bf fa3b 6c53 05bc
000002f0: 84cc 15bd 2aef fc3d fe46 4fbe 4048 ac3d
00000300: 6ae8 abbc a268 3d3d 9dd3 d43b ad90 76bb
00000310: 5b28 883d 3e0f a0bb eb6d 823c 5eda 04bd
00000320: 460a a6bc 0742 0f3d 5023 a7bd d08c 57bd
00000330: c49b b73c b92f 3f3d 06e2 80bd 85d7 f13d
00000340: c62f d1bd 4d44 b53d e0db 3e3d 0482 6fbd
00000350: efa0 7c3d 2388 c83b e2d9 acbc b023 02bc
00000360: dfec f53d 9904 8bbd d59a 03bd 7042 9437
00000370: 506a a0bd de28 dabd b28e 70bb 3d56 3bbd
00000380: 1588 61bd ddff 26bd 21cd 01bd 9ca1 9a3d
00000390: d4f4 7abb 53c8 c83d 0378 58bd ff60 303d
000003a0: 0bc2 e5bd f7ae 123d 5ce0 f6bc 6002 9a3c
000003b0: 0648 3a3d ed60 c1bb 376a 9d3c e97a 2b3d
000003c0: f921 a83c 447a 8b3d a716 923c c541 8c3d
000003d0: 329a 4d3d 384f 573c 828e 943c 22ae 063d
000003e0: 4582 1cbd 68a1 d43d 997e 90bd 42c8 22bd
000003f0: 657a 103d e0d5 a73c 4a0a b4bc fe41 ed3b
-0.009324666 0.0073513812 -0.020853924 0.036457367 -0.015348299 0.026564622 0.000118817974 -0.04703219
0.043728504 0.011146442 -0.025576215 -0.004168657 0.030429218 0.0148165645 0.07386274 0.011406869
-0.028496452 0.033292808 -0.030633692 0.048273917 0.022202803 -0.018723069 0.033599608 0.03669066
0.0066648903 0.004181604 -0.05326409 0.029283427 -0.007339878 -0.021910822 -0.03940109 0.07093456
-0.109161876 0.16124655 -0.13832244 0.04063604 0.024563847 0.08698363 0.011660087 0.04724396
0.0011999917 -0.06886812 -0.034371253 -0.029903607 0.036525372 -0.049538884 -0.0053630886 -0.039021768
0.04189347 -0.04227713 -0.0021135784 0.01985402 -0.004365133 0.013124002 0.021351868 0.053142242
0.07927969 -0.0055886568 0.02586578 -0.06706118 0.011000095 0.01993489 0.0053881938 0.0064753774
-0.002611173 0.0314916 -0.014336033 -0.023634328 0.06345444 0.0039056926 0.11840001 -0.014182733
0.05555328 -0.014664228 -0.02666243 0.06341533 0.02163393 -0.0023799974 0.0182337 0.028046058
-0.0058158305 -0.0060026213 0.06231309 0.008472366 -0.018884845 0.0574697 0.03470752 0.010142168
-0.023694457 0.00026339485 0.0372547 0.047019012 0.053543024 -0.035449762 0.054699726 -0.00258821
0.07326298 0.018582534 0.038080987 -0.022656024 -0.07949269 0.040849242 0.04303739 -0.017212283
0.16730765 -0.13203947 0.1591313 -0.10330134 0.030759681 -0.023417404 0.03266608 -0.039266203
-0.010222697 -0.05563567 0.026914017 0.045292772 -0.052700132 0.0131899575 -0.05345504 -0.0130727915
-0.04275793 -0.008004414 0.028264403 0.005804296 0.0025697618 -0.012945366 0.032904353 0.05816263
-0.13037252 0.08860941 -0.13212883 0.05661462 0.05175718 -0.0544612 0.08673976 -0.07154614
0.052160896 0.07070386 0.015875136 0.04808844 -0.019595563 -0.03283639 0.013940848 0.029560672
0.035719026 -0.05516874 0.03806343 -0.046187744 0.009455383 0.033750076 -0.0077104713 -0.020082094
0.036699034 0.02050372 0.042501472 0.0143048875 0.014764749 -0.02861886 -0.025143467 -0.0052028517
0.004376361 -0.017979173 -0.034269195 0.09949945 0.03899883 0.063725516 0.007584521 0.04373211
0.046894286 -0.008917973 0.07645808 0.014265592 0.020135539 -0.05209323 0.040836077 0.00044516896
0.036085345 -0.026110344 0.05902309 0.0021324947 0.020637937 0.0024179365 0.027096951 0.03285589
0.0037991498 0.003981443 0.007652277 -0.008137565 -0.036571994 0.123503044 -0.20241925 0.08412218
-0.020984847 0.046242364 0.006494953 -0.0037622855 0.06648322 -0.0048846295 0.015921554 -0.032434814
-0.02026857 0.034975078 -0.08161032 -0.052624524 0.022413142 0.04667637 -0.062931105 0.11808685
-0.1021419 0.08850918 0.046596408 -0.058473602 0.061676916 0.0061197444 -0.021099988 -0.007943079
0.1200807 -0.06787986 -0.03213008 1.7673912e-05 -0.078327775 -0.10652326 -0.0036706147 -0.04573654
-0.05506142 -0.040771354 -0.031689767 0.07550356 -0.0038292902 0.09803834 -0.052848827 0.043061253
-0.112186514 0.03581139 -0.03013628 0.01879996 0.045478843 -0.005901447 0.019215686 0.041865263
0.020524012 0.0681043 0.017833067 0.06848482 0.05019588 0.013141446 0.01813436 0.03288091
-0.038210172 0.10382348 -0.070553966 -0.039741762 0.035272975 0.020487726 -0.021977562 0.007240533

decoder.deconv2.bias f4 [64]
00000000: 04f7 1b3d 441b 9fbc 79fa 6dbc 37d5 873d
00000010: 310b 163d 982e cc3b 3968 adbc 9e2d e1bc
00000020: 2900 82bc b4e5 4f3d d203 ae3c 9af2 d6bc
00000030: c9f8 763d d8df b63c dc62 e43c 5d2e b1bb
00000040: 4472 73bc d309 08bd bab9 15bd f75f 60bc
00000050: 3851 013d 6b2e c9bb f634 02bd e2e2 c93c
00000060: 8a88 60bd c000 a0bc 8582 b6bc bf47 0d3d
00000070: 6e9c fe3c b25d 823d 8459 5f3d c987 1fbd
00000080: 07fa 99bb 7574 4cbd 6c15 babc 1ec7 803c
00000090: a1cd 76bd 3283 c53a d550 ddbb 454e 3dbb
000000a0: 3d93 213d de0f 9139 fcb7 1bbd fbf9 14bd
000000b0: c85c 0cbd d1fe 0b3d 5ead 99bb 5d17 8d3d
000000c0: cd16 023d 118a 143d 36ae 5a3c ce4a 49bc
000000d0: 0c8c 32bd e653 683d e257 0e3d 5ae5 033d
000000e0: bb5c 10bd 3f0b 8ebc 24d0 18bd 0787 f3bc
000000f0: 9176 8fbb cc0c c1bc 3d98 38bd a2f0 9dbc
0.03807737 -0.019422181 -0.014525049 0.066324644 0.036631767 0.0062311403 -0.021167861 -0.027487572
-0.015869217 0.05075617 0.021242056 -0.026238728 0.060295854 0.022323534 0.027879171 -0.0054071383
-0.014858786 -0.033212494 -0.036554076 -0.013694755 0.031571597 -0.0061395667 -0.03178879 0.024644319
-0.054817714 -0.019531608 -0.022279033 0.03449225 0.03108045 0.06365527 0.054528728 -0.038947854
-0.004698995 -0.04991575 -0.022715293 0.015719946 -0.060254697 0.0015069006 -0.0067540207 -0.0028885764
0.039447058 0.00027668377 -0.038017258 -0.036371212 -0.03426817 0.03417856 -0.0046898564 0.06889222
0.031760026 0.036264483 0.013347199 -0.012285901 -0.04359059 0.056720637 0.03475178 0.03220115
-0.035244685 -0.017339347 -0.037307873 -0.029727472 -0.004378148 -0.023565672 -0.04506706 -0.019279782

decoder.deconv1.weight f4 [64, 1, 8]
00000000: a62c 7dbe 733f 9a3c fcc7 8cbe 07af 6f3d
00000010: 0120 8dbe 1e5e bb3c 964e f5bd 3407 9abe
00000020: 64fb a63e 8038 90be 960a 35be cdec 7fbe
00000030: 2f23 1ebe 4917 953e e1bb 8d3e c4f3 0e3e
00000040: 6a27 863d 6d6e 7e3b 6c16 5a3e c267 883e
00000050: 5109 903e c769 f93d 5c26 053e 42ef 943e
00000060: 9e5c 813e 57f1 53bd fb2a 0dbe 8a66 00bd
00000070: cf40 343c 757a 223d 9ab9 bfbd 6083 10be
00000080: 5ef5 a63e ced5 8abd 1008 2abe f8e3 703e
00000090: fb7b 7dbd 2f54 1f3d e8a5 01bc 6032 ae3d
000000a0: 5220 a13e a305 dabd dc17 553e 808c 613e
000000b0: 2e65 febd 1dd5 45be 2e9b 76bb d53e 9fbe
000000c0: b8ae d43d 17e4 afbd fafd e03d 28f8 99be
000000d0: 9793 98be 5b10 6fbe ff21 78be b5c1 8dbd
000000e0: 50a0 d2bd 2900 6fbe 4050 8bbe 41a6 67bd
000000f0: 856a 38be 641d e2bd 4a52 11be 41fe 273e
00000100: 4019 3d3e 205a f43c ac1e 8f3e 0bf0 b83e
00000110: 7874 ce3e 3d78 bb3e d805 5b3e dd9e b03e
00000120: c472 d8bb fdee 6cbe 536b 783e ac03 bfbe
00000130: a0fb 68be c914 483e e359 763e a317 013b
00000140: b28e 94bd 3566 a4be b8c6 0e3e d1d0 b7bd
00000150: eff2 4dbc 3685 a7be d8e1 adbe e90f 80be
00000160: 17a0 34bd 4b15 e4bd 879b aebe 3cb6 70be
00000170: 50a5 0dbd 617c 123e 8aba 603e 292c 5cbe
00000180: 4339 f1bd 11d0 b5be 9b19 09be f49b 4dbe
00000190: 352a 1fbe ce14 2fbe 4196 7abe fa21 ecbd
000001a0: 8863 a0be 9449 1b3e 7b2a 2c3e e4d7 b6be
000001b0: 524f afbe ff16 653e 1a3e 03bd 9c9a aabe
000001c0: b320 9cbe e0ad 3c3d 960a b83d d60e c03c
000001d0: d3ad b7be 347a eebb 0107 a8be 59b6 8abe
000001e0: edad 623d 8877 a0be e003 0ebe 2a1f f93b
000001f0: 1f9e 65be d019 a7be 57e8 32be 2bb1 a33e
00000200: 81fe 3b3e 5d3a 9dbe 2075 1e3e c879 713e
00000210: 7185 bd3e 4220 263e e66f 7d3e 9388 92be
00000220: a103 50be d859 2b3e d59d 24be 266d 15be
00000230: 2849 01be fb5b fd3d 50c7 e73a 6570 4b3e
00000240: 5c58 b53e 8a37 35bd e527 6abe baa4 333e
00000250: 15bf b23e 1ced 553e f59f 11be a4b6 4d3e
00000260: ee27 153b 16b8 c73d 996a 0a3e c1e9 89be
00000270: ce77 16be 17ad d2bd 2f5f f5bd c9a9 adbe
00000280: 3f66 a9be 210c adbe f519 a73e 558b 7f3e
00000290: 381b f3bd bb97 d43d e803 9dbc 413f 9fbe
000002a0: 348c 623e ae16 943e e527 203e c641 6f3d
000002b0: 19c9 08bd 2383 2e3d a0a2 63be 4e49 19be
000002c0: 0888 f2bd 3684 52be cb8f 9f3e 3e70 03be
000002d0: 50f8 0f3d 35c4 363e 278b 833e a449 b53e
000002e0: 5299 8b3e 2523 783e b921 a2be 4642 8abd
000002f0: ecf3 0a3e 38bf 5fbe c4aa 2cbe eea5 423c
00000300: 46c5 343d e934 853e 2682 78be 3135 553e
00000310: 3f36 ac3e eed7 36be f51f 883e 63fd 903e
00000320: 9c8d 3dbe 1776 843e 59f2 893b 8636 35be
00000330: c17f 8f3e 7f77 acbe 26e0 aa3e 882a cbbd
00000340: 0b47 8abe 0a1a 1cbe f8d5 97be 1bb1 223e
00000350: b8ad ac3e 2cf1 99be 2e5b 173d 4737 1f3e
00000360: ee41 c33d 3f0e 743e fe8b f6bc db93 9bbe
00000370: 9749 d73d a3d9 1f3e 5de9 80be 7a9e a7be
00000380: 3d52 b3be 9e33 9abe edc2 9ebe 11a9 22be
00000390: b4f9 3d3e 4c08 5bbd 927d 41be 5ebf 83bd
000003a0: a03d b2be 0b32 95bc eb66 7fbc 0ab2 bcbd
000003b0: b668 8fbe 587c 243e e909 c43c c288 6a3c
000003c0: 9823 adbe 5c3b 433e aeb2 8ebe 0c20 47be
000003d0: b848 2a3e 85f6 91be 6ccc 8fbe 41a4 50bb
000003e0: c3cb 3a3e 72bb 5e3e a8ff cb3e c71a ab3e
000003f0: 6011 163e 09ce 97bd 5d91 35bd cc87 9f3d
-0.24724063 0.018829083 -0.27496326 0.05851653 -0.2756348 0.022872027 -0.1197788 -0.3008362
0.3261367 -0.28168106 -0.1767982 -0.24992676 -0.15443109 0.29119328 0.27682403 0.13960177
0.065504864 0.0038823143 0.21297616 0.2664166 0.28132108 0.121783786 0.13002914 0.2908879
0.25265974 -0.05174383 -0.13785927 -0.03134779 0.01100178 0.039667565 -0.093615726 -0.14112616
0.32609075 -0.06779061 -0.16604638 0.23524463 -0.061885815 0.038898643 -0.00791309 0.08505702
0.3146997 -0.10645606 0.20809883 0.22026253 -0.12421642 -0.19319578 -0.0037629115 -0.31102625
0.103848875 -0.085884266 0.10985942 -0.3007214 -0.29800102 -0.23346083 -0.24231718 -0.06921712
-0.102844834 -0.23339905 -0.27209663 -0.056555036 -0.18009384 -0.11040762 -0.14191547 0.16405584
0.18466663 0.029828131 0.27953088 0.36120638 0.40323234 0.36615172 0.21388948 0.34496203
-0.006605478 -0.23138042 0.24259691 -0.3730749 -0.22752237 0.19539179 0.24057727 0.0019697926
-0.072537795 -0.32109228 0.13942993 -0.089753754 -0.012570127 -0.3271882 -0.33961368 -0.25012138
-0.044097986 -0.11136874 -0.34103033 -0.23507017 -0.034581482 0.1430526 0.21946159 -0.21501221
-0.117785 -0.35510305 -0.13388674 -0.20079023 -0.15543444 -0.1709778 -0.2447138 -0.11529918
-0.31325936 0.15164787 0.1681308 -0.35711586 -0.34240204 0.22372054 -0.032041647 -0.33321083
-0.30493698 0.046064258 0.08986394 0.023444574 -0.35874805 -0.0072777513 -0.32817844 -0.27092245
0.05534165 -0.31341195 -0.13868666 0.007602592 -0.224236 -0.3263688 -0.17471443 0.31971106
0.18358804 -0.3070859 0.15474367 0.23581612 0.3701587 0.16223243 0.24749717 -0.28619823
-0.20313884 0.16733491 -0.16075833 -0.14592418 -0.12625563 0.123710595 0.0017683301 0.19867094
0.35418975 -0.04424242 -0.22866781 0.17543307 0.3491141 0.20891231 -0.14221175 0.20089203
0.0022759396 0.097519085 0.13517226 -0.26936153 -0.1469414 -0.102869205 -0.119810455 -0.33918598
-0.3308582 -0.33798316 0.3263699 0.24955495 -0.11870426 0.10380503 -0.019166902 -0.31102946
0.22123796 0.28923553 0.15640219 0.058412336 -0.033394907 0.04260553 -0.22230005 -0.1496937
-0.11842352 -0.20558247 0.31164393 -0.12835786 0.03514892 0.17848285 0.25692102 0.35407746
0.27265412 0.24232157 -0.31666353 -0.06750922 0.13569611 -0.21850288 -0.16862017 0.011880381
0.044133447 0.2601693 -0.24268398 0.20821072 0.33635136 -0.17855808 0.2658688 0.2831832
-0.18511051 0.25871345 0.0042097983 -0.1769658 0.28027156 -0.33684918 0.33374137 -0.099202216
-0.27007326 -0.15244308 -0.29655433 0.15887873 0.33726287 -0.30066812 0.03695219 0.1554843
0.095340595 0.2383356 -0.03009605 -0.30386242 0.10512083 0.15610366 -0.25178042 -0.32738096
-0.3502368 -0.30117506 -0.31008092 -0.15884806 0.18552285 -0.05347471 -0.18895558 -0.06432985
-0.3481264 -0.018212339 -0.015588502 -0.09213646 -0.28009576 0.16063058 0.023930507 0.014314832
-0.33816218 0.19065613 -0.27870697 -0.19445819 0.16629303 -0.28508392 -0.2808565 -0.0031836184
0.18241791 0.21751192 0.39843488 0.33418867 0.14655066 -0.07412345 -0.044328082 0.07789573
